dynamics/src/drl/outputs/RobotOptEnv/20220720-100059/models/dqn_checkpoint.pth (torch, 75015 bytes, 6 tensors)

fc1.weight f4 [128, 7]
0	0x3e31a602	0.17348483
1	0xbe17465f	-0.14772938
2	0x3e688860	0.22708273
3	0x3e5a38c4	0.21310717
4	0x3e236260	0.15955496
5	0x3eac26ab	0.3362325
6	0xbe8149b9	-0.25251558
7	0xbe83b2be	-0.25722307
8	0xbe2dd8ed	-0.16977282
9	0xbe186431	-0.1488197
10	0x3e8d8c3f	0.27646062
11	0x3e22c0db	0.15893881
12	0x3e87f897	0.26556846
13	0x3eb231e4	0.3480369
14	0xbe299c31	-0.16563489
15	0x3eb18281	0.3466988
16	0xbe4af923	-0.198216
17	0xbdaa482d	-0.08314548
18	0x3d27a28f	0.040926512
19	0x3e05273c	0.13003248
20	0xbde36dd6	-0.11104934
21	0x3d23d9fa	0.0400028
22	0xbe27dc6f	-0.16392682
23	0xbe3ea700	-0.18618393
24	0x3c1122da	0.008858407
25	0x3defce19	0.11709232
26	0xbeb1829c	-0.3466996
27	0x3e437069	0.1908585
28	0xbb94891d	-0.0045329467
29	0xbea6032a	-0.3242429
30	0x3e06c5fe	0.13161466
31	0xbe16cb3f	-0.1472597
32	0x3e8b4cab	0.2720693
33	0x3e576331	0.21033932
34	0x3dac7f1a	0.0842268
35	0xbe21a975	-0.15787299
36	0x3e73471e	0.23757598
37	0x3e9c0027	0.30468866
38	0x3e6164ca	0.22011104
39	0x3e8cf17c	0.27527988
40	0xbeace8dc	-0.33771408
41	0x3d1853ba	0.037189223
42	0x3e4b988e	0.19882414
43	0x3d7368c8	0.0594261
44	0x3dac8306	0.08423428
45	0x3dd521f5	0.104068674
46	0xbe60aa25	-0.21939905
47	0xbafcfffe	-0.0019302366
48	0xbe9368fa	-0.28791028
49	0xbdad4846	-0.08461051
50	0x3d7ff654	0.062490776
51	0x3db99077	0.090607576
52	0x3eaa2edc	0.33238876
53	0x3e077304	0.13227469
54	0xbeae911d	-0.34095088
55	0xbe2f0e84	-0.17095381
56	0x3eae30e9	0.3402169
57	0xbdd5956d	-0.10428891
58	0x3dd10884	0.10206702
59	0x3e478d9e	0.19487616
60	0xbd8b4a29	-0.06801254
61	0xbea23e79	-0.31688288
62	0xbe4e3cbc	-0.20140356
63	0x3eac55b8	0.33659148
64	0x3ea4fa91	0.32222417
65	0x3e0753ab	0.1321551
66	0xbd61482e	-0.055000477
67	0x3e9930ed	0.2992014
68	0x3e4dfe95	0.20116647
69	0xbc75cd9a	-0.0150026325
70	0x3e7959ce	0.24350664
71	0xbd9a2bce	-0.07527886
72	0x3d929e48	0.07159096
73	0xbd8f7f5c	-0.07006714
74	0x3e70b4ae	0.23506424
75	0xbe9682db	-0.2939671
76	0x3e99bccd	0.30026856
77	0xbe504797	-0.2033981
78	0x3e32fcdb	0.17479269
79	0xbe4ee2c1	-0.20203687
80	0x3e60fff1	0.21972634
81	0xbe324212	-0.17408016
82	0xbd2ddbf6	-0.0424461
83	0xbe6ad640	-0.22933292
84	0xbe9dcb73	-0.30819282
85	0xbd83d75a	-0.064375594
86	0x3e10f341	0.14155294
87	0x3eb11bfe	0.3459167
88	0xbeaa3901	-0.33246616
89	0xbe3be845	-0.18350323
90	0x3e2d54c8	0.16926873
91	0xbe96789d	-0.29388896
92	0xbe8a5e71	-0.27025178
93	0x3e8cb5e0	0.2748251
94	0xbea2b6f9	-0.31780222
95	0xbd6f277d	-0.05838727
96	0xbdb7f65f	-0.089825384
97	0x3e6b226f	0.22962354
98	0xbe0431b0	-0.1290958
99	0xbd90bcb5	-0.07067243
100	0x3d9de704	0.07710078
101	0x3d0d4c0d	0.034496356
102	0xbe5e3643	-0.21700387
103	0x3d30e3ec	0.043186113
104	0x3e848c7d	0.25888434
105	0xbdc15f6c	-0.094420284
106	0x3e1caf87	0.15301333
107	0x3e233a2b	0.15940158
108	0xbd0ba190	-0.034089625
109	0x3e41145d	0.18855424
110	0xbe343dff	-0.17601775
111	0x3d453340	0.04814458
112	0x3d67f244	0.056627527
113	0x3d4f2eff	0.05058193
114	0xbd948788	-0.07252413
115	0x3e58f65a	0.21187726
116	0x3e94a519	0.2903221
117	0x3e92cbc4	0.28671086
118	0x3eb41197	0.3516967
119	0x3e9cab2c	0.30599344
120	0xbcdeaeae	-0.027182903
121	0x3db49acf	0.0881859
122	0x3e8b5cb6	0.2721917
123	0xbd670297	-0.056398954
124	0xbe8e70a3	-0.2782031
125	0xbe9fa575	-0.3118092
126	0x3e979fca	0.29614097
127	0x3eaa0114	0.33203948
128	0x3daccadc	0.0843713
129	0x3c877062	0.01653308
130	0xbeb47267	-0.35243532
131	0xbe476744	-0.19472986
132	0x3da8cfe4	0.08242777
133	0xbde223fe	-0.11042021
134	0xbe47dc21	-0.19517566
135	0xbe481148	-0.19537842
136	0xbda1e15f	-0.07904314
137	0xbe98b4c7	-0.29825422
138	0xbe05b00e	-0.13055441
139	0xbe907adf	-0.28218743
140	0xbebf15e9	-0.37321404
141	0xbeaa8287	-0.3330271
142	0x3e4e4c90	0.20146394
143	0xbbe8cf54	-0.0071047936
144	0xbe615ac0	-0.22007275
145	0xbdb99d08	-0.090631545
146	0xbe9b9dc8	-0.30393815
147	0x3ea55e3f	0.32298467
148	0xbd68ce6e	-0.05683749
149	0xbda7f065	-0.082001485
150	0xbeaf24de	-0.34207815
151	0x3ea035d7	0.31291077
152	0x3e760dae	0.24028656
153	0xbe916d6b	-0.28403792
154	0x3cb38eb7	0.021918638
155	0xbe21887d	-0.15774722
156	0x3d82ff34	0.063963324
157	0xbe9fbcdb	-0.31198773
158	0x3e711c60	0.2354598
159	0x3d49bd04	0.049252525
160	0xbca4bcce	-0.02010956
161	0x3dfe93df	0.12430548
162	0xbd8df8ec	-0.06932244
163	0x3ea3f5f2	0.3202358
164	0xbd7f1406	-0.062274955
165	0xbd15f9ae	-0.036615066
166	0x3ea1ce58	0.3160274
167	0x3d97b324	0.07407215
168	0xbe9cc907	-0.30622122
169	0xbe87111f	-0.2638025
170	0x3d933c39	0.07189221
171	0xbde8c53d	-0.11365745
172	0xbe8db6dc	-0.27678573
173	0x3db7440b	0.08948525
174	0x3e6f7618	0.23384893
175	0x3e360bd5	0.17777951
176	0x3e9b149a	0.30289155
177	0xbe685652	-0.22689179
178	0x3e7c710d	0.246525
179	0xbc6e9ece	-0.014564229
180	0xbea8c25c	-0.32960784
181	0xbcca6756	-0.024707478
182	0x3e9affd9	0.3027332
183	0x3e568a29	0.20951141
184	0xbe2c4cd8	-0.16826189
185	0xbcf79ee1	-0.030227127
186	0xbc48bb7b	-0.01225173
187	0x3e7fff9d	0.24999852
188	0x3e5d29dc	0.21598
189	0xbd05229d	-0.032503713
190	0x3e84e7e5	0.2595817
191	0x3d4afdf5	0.0495586
192	0xbe56eaeb	-0.20988052
193	0x3dfffb7b	0.12499138
194	0x3e35fc56	0.1777204
195	0x3df18dea	0.11794646
196	0x3eb6de35	0.35716406
197	0xbeb5427e	-0.35402292
198	0x3dfd0ab7	0.12355559
199	0xbd342ad1	-0.043986145
200	0x3d93a044	0.072083026
201	0x3e68ff57	0.22753654
202	0x3ea3e151	0.3200784
203	0x3e51e1ae	0.20496246
204	0xbde2c6eb	-0.11073097
205	0xbe3c0b2c	-0.18363637
206	0x3e3e08ab	0.18557994
207	0xbe56b775	-0.20968421
208	0x3b32c573	0.0027278333
209	0xbdb01b21	-0.085989244
210	0x3ec0dd46	0.37668818
211	0x3e872bcc	0.26400602
212	0x3ebff01d	0.3748788
213	0xbe5ee543	-0.21767144
214	0x3e56db96	0.20982203
215	0xbe8f86e9	-0.28032616
216	0x3e082a2a	0.13297334
217	0x3cb083d3	0.021547234
218	0x3e4b660a	0.19863144
219	0x3e4edef4	0.20202237
220	0xbeaba77f	-0.33526227
221	0x3da159cd	0.07878456
222	0x3e3018f8	0.17197025
223	0x3db4ff53	0.08837762
224	0xbdfb7eeb	-0.12280067
225	0xbdaf5268	-0.085606396
226	0x3e6f8481	0.2339039
227	0x3e9ac2ae	0.30226654
228	0xbe2e334f	-0.1701176
229	0x3e8c4b33	0.27401122
230	0x3e509b55	0.20371754
231	0xbe02dbc2	-0.12779143
232	0xbeb2f3d5	-0.34951654
233	0x3eaa3096	0.33240193
234	0x3e30e51b	0.17274897
235	0x3eae9c9d	0.3410386
236	0xbe936e60	-0.28795147
237	0x3e2e279a	0.17007294
238	0x3e1fa302	0.15589526
239	0xbe50fdda	-0.20409337
240	0x3d7f8e70	0.0623917
241	0xbe626843	-0.22110085
242	0x3d8a030e	0.06738864
243	0x3db2b2e2	0.087255254
244	0xbe3d8b57	-0.18510185
245	0x3eb36d99	0.35044554
246	0xbe97c191	-0.29639867
247	0x3e63571f	0.22201203
248	0x3e797186	0.24359712
249	0xbe21fdb8	-0.15819442
250	0x3e485284	0.19562727
251	0xbc9bca87	-0.019017471
252	0x3eacda76	0.33760422
253	0xbea30319	-0.318383
254	0xbe96a021	-0.29419044
255	0xbe71f18c	-0.23627299

fc1.bias f4 [128]
0	0x3e7f9620	0.24959612
1	0xbe3e168c	-0.18563288
2	0xbe8071e8	-0.25086904
3	0xbea53bae	-0.32272094
4	0xbebcefbc	-0.36901653
5	0x3e5b9f32	0.21447447
6	0xbe47c497	-0.19508587
7	0x3dcf94ac	0.10135779
8	0xbe70cf05	-0.23516472
9	0x3e0c9890	0.13730073
10	0x3e2738f4	0.1633032
11	0xbdb3d50a	-0.08780868
12	0xbe2057ec	-0.1565854
13	0xbd81127b	-0.06302353
14	0x3e0f3e17	0.13988529
15	0x3e62256b	0.22084586
16	0xbe2b2a73	-0.16715412
17	0xbe2a053b	-0.16603558
18	0x3e1fa88c	0.1559164
19	0xbebdbd1c	-0.37058342
20	0xbe862b73	-0.26205024
21	0xbe3c5280	-0.18390846
22	0xbe10ea47	-0.1415187
23	0xbe48bdc0	-0.19603634
24	0x3e299d20	0.16563845
25	0xbe375f27	-0.17907391
26	0x3e3d9836	0.18515095
27	0xbe24ada0	-0.16081858
28	0xbd19b74c	-0.03752832
29	0xbdb767c3	-0.08955338
30	0x3e9cd57d	0.3063163
31	0xbda5e673	-0.08100595
32	0x3e9a00d9	0.30078772
33	0x3d016743	0.03159262
34	0x3ea437d3	0.3207384
35	0x3e2ca087	0.16858111
36	0xbc4ed8d2	-0.012624936
37	0x3e0d4bc7	0.13798438
38	0xbe721bb6	-0.23643383
39	0xbe41367f	-0.18868445
40	0x3d9c38b4	0.07628003
41	0xbe45e8ef	-0.19327138
42	0xbd0d1efa	-0.03445337
43	0x3dd0daa4	0.101979524
44	0xbd6a1a9d	-0.057154287
45	0x3d481f86	0.048858188
46	0xbea7a24e	-0.32741016
47	0x3e30f84f	0.17282222
48	0xbe10a745	-0.14126308
49	0xbe572d83	-0.21013455
50	0xbe9fbf58	-0.3120067
51	0x3d8fac80	0.07015324
52	0xbe23b6af	-0.15987657
53	0x3eb9ecca	0.36313468
54	0xbd473150	-0.048631012
55	0x3e8b5159	0.272105
56	0xbe9df0ab	-0.30847678
57	0x3e4e3551	0.20137526
58	0x3d785fc8	0.06063822
59	0xbe4828f9	-0.1954688
60	0xbe910a2c	-0.28328073
61	0x3daa28e1	0.08308578
62	0xbe54e597	-0.20790707
63	0x3e653a08	0.22385418
64	0x3d659da6	0.05605855
65	0x3e755866	0.23959503
66	0xbd9635b4	-0.07334462
67	0xbe21fee6	-0.15819892
68	0xbe4ef109	-0.20209135
69	0xbd4e974b	-0.050437253
70	0xbe2f336d	-0.17109461
71	0xbebe108b	-0.37121996
72	0x3e0f3a55	0.13987096
73	0x3e044fd1	0.12921073
74	0xbe16c30a	-0.14722839
75	0x3d553d5c	0.05206047
76	0x3e812373	0.25222358
77	0x3eb4c208	0.35304284
78	0x3e16e150	0.14734387
79	0x3d9736be	0.07383488
80	0xbe2c5fa9	-0.16833366
81	0x3e352e01	0.1769333
82	0xbe0abffa	-0.13549796
83	0xbe85116e	-0.2598986
84	0xbec126fd	-0.37725058
85	0x3debf8f3	0.11522093
86	0x3e27663a	0.1634759
87	0xbe07b416	-0.13252291
88	0xbdac7c26	-0.08422117
89	0xbe6d821e	-0.23194167
90	0xbdb0e1c6	-0.08636813
91	0x3bd78863	0.006577538
92	0x3eb36d2f	0.35044238
93	0x3e81ecb7	0.25375912
94	0x3ea0cd16	0.31406468
95	0x3e72222f	0.23645853
96	0x3da41894	0.080125004
97	0x3e7387ae	0.23782226
98	0x3ea40ef3	0.32042655
99	0xbe70b4f4	-0.23506528
100	0x3e0ebd67	0.13939439
101	0x3db04356	0.08606593
102	0xbdd58061	-0.10424877
103	0xbd57b43b	-0.052662116
104	0x3d2d61f9	0.042329762
105	0x3eacc307	0.33742544
106	0xbe1257fe	-0.14291379
107	0x3d15df08	0.036589652
108	0xbeb79fc7	-0.35864088
109	0x3e2a6b1b	0.1664242
110	0x3e2ce55d	0.1688437
111	0xbe08d0cc	-0.133609
112	0xbe495f88	-0.19665349
113	0x3ec0a2fe	0.37624353
114	0x3e14d9c0	0.1453619
115	0x3e4432d9	0.19160022
116	0x3dc9ef7a	0.0986013
117	0xbe45cf08	-0.19317257
118	0x3e325f90	0.17419267
119	0x3dbb94b7	0.091592245
120	0x3c74276b	0.014901976
121	0x3e29ff7d	0.16601367
122	0xbe8630d1	-0.2620912
123	0x3cb7e3c2	0.02244747
124	0xbe5d3efe	-0.21606061
125	0xbe06319b	-0.1310486
126	0x3d615483	0.055012237
127	0xbebc7090	-0.36804628

fc2.weight f4 [128, 128]
0	0xbce35c47	-0.027753962
1	0x3cef0cfa	0.029180992
2	0xbc9ca834	-0.019123174
3	0xbcb52405	-0.022111902
4	0xbc8d1337	-0.017221076
5	0x3d4f7675	0.05065008
6	0xba7eb744	-0.000971664
7	0xbabf0836	-0.0014574591
8	0x3baf1917	0.005343567
9	0x3c12aa22	0.008951696
10	0xbd6dcfac	-0.05805938
11	0x3db0a1df	0.086246245
12	0xbd5f3977	-0.054498162
13	0xbb12c2e1	-0.002239399
14	0x3d9d3104	0.076753646
15	0xbd4eedf7	-0.05051991
16	0xbce74bdc	-0.028234415
17	0xbd903885	-0.0704203
18	0x3a34a9bc	0.00068917475
19	0x3c9e1402	0.01929665
20	0xbd46e898	-0.048561662
21	0xbca2ae7d	-0.019858593
22	0x3d1941cf	0.037416276
23	0x3c4682b4	0.012116123
24	0x3bb592e7	0.0055411938
25	0xbdb27531	-0.08713759
26	0xbc65e8bd	-0.01403254
27	0xbb8b8013	-0.004257211
28	0x3d186f7a	0.037215687
29	0x3d892c22	0.06697871
30	0xbc50729c	-0.0127226375
31	0x3da6e15a	0.08148451
32	0x3ce188d6	0.027531069
33	0x3a1fe7d3	0.0006099913
34	0x3d9e749f	0.077370875
35	0x3bd44e9d	0.006479098
36	0x3bf2cf48	0.0074099638
37	0xbc7210ce	-0.014774514
38	0x3d872349	0.06598527
39	0x3d75ea7a	0.060038067
40	0xbcb33e5e	-0.021880325
41	0x3cb375c4	0.021906741
42	0xbc8bd9b3	-0.01707158
43	0xbd9e1594	-0.077189595
44	0x3d8d5abf	0.06902074
45	0xbcfdaa14	-0.030964889
46	0xbaec524a	-0.0018029895
47	0x3d87f5bb	0.06638666
48	0xbdacfa2b	-0.08446153
49	0xbcc1bb3b	-0.023648849
50	0x3d2a3c46	0.041561387
51	0xbcf9f798	-0.03051357
52	0xbb4ecf8f	-0.003155682
53	0x3ca0085a	0.019535232
54	0xbcb0f822	-0.021602694
55	0x3b9fb1d2	0.0048734928
56	0x3d220378	0.03955409
57	0x3d8baf39	0.068205304
58	0xbd85ce3e	-0.06533478
59	0x3caf1c78	0.02137588
60	0x3d95e02f	0.0731815
61	0xbccc8673	-0.024966454
62	0x3d8c081f	0.068374865
63	0xbcfa339c	-0.030542187
64	0xbd8ad261	-0.06778408
65	0xbda023cb	-0.07819327
66	0xbd25a134	-0.04043694
67	0xbce66acd	-0.028127098
68	0x3d156ae8	0.036478907
69	0xbd5e5174	-0.0542769
70	0xbd7d3502	-0.06181813
71	0x3da328fd	0.07966802
72	0xbd25726a	-0.040392317
73	0x3d831e50	0.06402266
74	0xbcfde1a1	-0.030991377
75	0x3d077f52	0.033080406
76	0xbd151531	-0.036397163
77	0x3cc34309	0.023835676
78	0x3d5b4910	0.053536475
79	0xbcf522aa	-0.029923756
80	0x39ef5837	0.00045651358
81	0x3d816e99	0.06319923
82	0x3ba6f12e	0.005094669
83	0xbd2819fa	-0.0410404
84	0xbd052297	-0.03250369
85	0xbd9433fc	-0.07236478
86	0x3d7766db	0.060400825
87	0xbd801ef7	-0.06255906
88	0x3cc8700b	0.024467489
89	0x3dafed6e	0.08590208
90	0x3d9c69df	0.07637381
91	0xbce849d3	-0.028355515
92	0xbcb0f34b	-0.021600386
93	0xbcce25ad	-0.02516445
94	0xbd56d7bd	-0.052451838
95	0x3cfca971	0.030842515
96	0x3d33dc68	0.043911368
97	0xbd2bd12e	-0.041947536
98	0x3d14ec09	0.036357913
99	0xbdaa43b2	-0.08313693
100	0xbcc377ea	-0.02386089
101	0x3d9321dc	0.071841925
102	0xbd90cb02	-0.07069971
103	0xbd560773	-0.052253198
104	0x3d8e52ad	0.06949363
105	0xbd4e2eb4	-0.05033751
106	0x3d1d89db	0.038461547
107	0xbc433b75	-0.011916031
108	0xbd352c70	-0.044231832
109	0x3d26e668	0.040747076
110	0xbcad4535	-0.021151165
111	0xb8f190bb	-0.00011518734
112	0x3d65cff8	0.056106538
113	0x3da7f27f	0.08200549
114	0x3ad747e7	0.0016424627
115	0xbc35d685	-0.011098509
116	0x3d9c31f4	0.07626715
117	0x3c1b0e1a	0.009463811
118	0xbd86fa8a	-0.06590755
119	0xbd8c2ae7	-0.068441205
120	0x3c7db017	0.015483878
121	0xbd5e1664	-0.054220572
122	0xbd040866	-0.032234572
123	0x3d669192	0.05629117
124	0x3ce44282	0.027863745
125	0x3da9ccd7	0.08291023
126	0x3d846495	0.06464497
127	0x3cfeaa62	0.031087104
128	0x3ba8ec9e	0.00515516
129	0x3d82c379	0.0638494
130	0xbca45436	-0.020059686
131	0xbd1c9ce6	-0.038235568
132	0xbb648b6e	-0.0034873146
133	0xbc1a21ed	-0.009407503
134	0x3d61ac9a	0.055096246
135	0x3bf7c78b	0.007561629
136	0xbd8ff34b	-0.07028826
137	0x3db36278	0.08759016
138	0xbd0cfddb	-0.034421783
139	0x3bf467a3	0.0074586435
140	0xbcf7110b	-0.030159494
141	0x3da4032c	0.080084175
142	0xbd25dcde	-0.04049384
143	0xbcc1252c	-0.023577295
144	0xbda85df1	-0.08221043
145	0xbdaa56df	-0.083173506
146	0x3d523454	0.051319435
147	0xbd86ba67	-0.06578522
148	0x3bf2db91	0.0074114283
149	0x3c8b8da4	0.017035313
150	0xbdb06ac3	-0.08614113
151	0xbd353204	-0.04423715
152	0xbd098a62	-0.033579238
153	0xbc936b76	-0.017995577
154	0x3ccac050	0.024749905
155	0xbd41a087	-0.04727223
156	0x3d22b206	0.039720558
157	0xbd22eb66	-0.039775275
158	0x3ca223e0	0.019792497
159	0x3d90fdf9	0.070796914
160	0x3d41f6f0	0.04735464
161	0xbd0784f8	-0.033085793
162	0xbc613473	-0.013745415
163	0xbb377fee	-0.0027999836
164	0xbdadd536	-0.084879324
165	0xbd548a8a	-0.051889934
166	0xbd3d1918	-0.04616651
167	0x3d988808	0.07447821
168	0x3d7462d4	0.059664562
169	0x3d79ca38	0.060983866
170	0x3d89fced	0.06737695
171	0x3da386f0	0.07984722
172	0x3d188837	0.03723928
173	0xbd985a75	-0.07439128
174	0xbc931b3a	-0.017957319
175	0x3d306b90	0.04307133
176	0xbcf5dd19	-0.030012654
177	0xbd86b7d7	-0.065780334
178	0xbbb4f2be	-0.005522101
179	0x3d9e778d	0.07737646
180	0x3d89c206	0.0672646
181	0x3c9c52cc	0.01908245
182	0x3d97afde	0.07406591
183	0x3d677e71	0.05651707
184	0xbdb1910d	-0.08670244
185	0x3b6b3eb1	0.0035895521
186	0xbd928905	-0.07155041
187	0x3da0a5b2	0.07844104
188	0xbd634297	-0.055483427
189	0xbcfcdce2	-0.030867044
190	0xbd104671	-0.03522343
191	0xbd79daa0	-0.060999513
192	0xbd81a187	-0.06329637
193	0xbd0f6c8b	-0.035015624
194	0x3cb0e75c	0.021594696
195	0x3ceb71b7	0.028740747
196	0xbd72bba0	-0.059260964
197	0x3b7d5c13	0.0038659617
198	0x3c473a27	0.012159861
199	0xbbf4e72e	-0.007473848
200	0xbd4021a4	-0.046907082
201	0x3c85529c	0.016274743
202	0x3b0a6f4f	0.0021123474
203	0xbc51519d	-0.012775806
204	0xbca05d18	-0.01957564
205	0x3cf6a79e	0.030109223
206	0xbd2f0123	-0.042725693
207	0xbd3bfd4d	-0.045895863
208	0x3d655ad8	0.05599484
209	0xbd80ddc0	-0.062922955
210	0xbcc7841d	-0.024354989
211	0xbda1398c	-0.07872304
212	0xbdb4e3d2	-0.08832516
213	0xbd483e09	-0.048887286
214	0x3d987740	0.0744462
215	0x3d9482f2	0.07251538
216	0xbd9001b9	-0.070315786
217	0x3d218ce8	0.03944102
218	0xbd33a138	-0.043854922
219	0x3cd94373	0.02652142
220	0xbd1dee2d	-0.03855722
221	0xbbc2d657	-0.0059459615
222	0x3cf571af	0.029961435
223	0xbd90258e	-0.07038413
224	0xbd0dd7cd	-0.03462963
225	0xbd9bba7c	-0.076039284
226	0xbdb0f831	-0.08641089
227	0xbd258fdf	-0.04042041
228	0x3d52e30a	0.051486053
229	0x3be82031	0.0070839156
230	0xbd37f6e4	-0.044913188
231	0xbdaa0528	-0.08301765
232	0xbd8908c4	-0.06691125
233	0xbd51f96b	-0.051263254
234	0x3c7a5324	0.015278611
235	0x3b2fb96d	0.0026813403
236	0x3c7b4f0c	0.01533867
237	0xbd7b28c1	-0.061318163
238	0xbda4f7ae	-0.08055054
239	0x3d2858c1	0.041100267
240	0xbd953ede	-0.072873816
241	0xbd61a15a	-0.055085517
242	0x3dac72f9	0.08420367
243	0xbcef5465	-0.029215047
244	0xbd99299a	-0.07478638
245	0xbd862f68	-0.06552011
246	0x3c1ae7eb	0.009454708
247	0x3d9066c6	0.070508525
248	0xbd80949b	-0.06278344
249	0xbbd6f8cb	-0.00656042
250	0xbdaf585c	-0.08561775
251	0x3d4f80e6	0.050660037
252	0x3d655089	0.055985007
253	0x3c3d53cb	0.011555622
254	0x3d918c5a	0.07106848
255	0x3d34e973	0.044167947

fc2.bias f4 [128]
0	0xbd667429	-0.056263123
1	0xbc98b789	-0.018642204
2	0x3d02558d	0.03181987
3	0xbca0b384	-0.01961685
4	0x3d724404	0.059146896
5	0x3cbec838	0.023288831
6	0xbca6acb9	-0.020346032
7	0x3d29ab04	0.04142286
8	0x3d6cb97b	0.057794075
9	0xbda88c0e	-0.08229838
10	0xbd775f80	-0.06039381
11	0xbcd1060a	-0.025515575
12	0xbda17ebe	-0.07885502
13	0x3d3f772c	0.04674451
14	0xbda7dbff	-0.08196258
15	0x3d941147	0.07229858
16	0xbd0b65ef	-0.03403276
17	0xbc66f1a4	-0.014095698
18	0x3d564eae	0.05232113
19	0xbd76cd5c	-0.06025444
20	0x3d5d7e19	0.054075334
21	0xbcd209f8	-0.02563952
22	0x3d82017a	0.06347938
23	0xbd911c7a	-0.070855096
24	0x3c166de0	0.00918147
25	0x3cb033c7	0.021509064
26	0xbcf030f2	-0.029320214
27	0xbd81cee0	-0.063382864
28	0xbbc89300	-0.0061210394
29	0xbd19feba	-0.03759644
30	0x3d5cebed	0.053935934
31	0xbd5b20e7	-0.053498175
32	0xbcd5919b	-0.026070407
33	0xbab09556	-0.001347224
34	0xbda88598	-0.08228606
35	0x3cf2cf59	0.029639887
36	0xbd83a9c2	-0.06428863
37	0x3d5f80d1	0.05456621
38	0xbc37a01b	-0.011207606
39	0x3dab4a4c	0.083637804
40	0x3d8dc71c	0.06922743
41	0x3ce53e2c	0.027983747
42	0x3a96b748	0.0011498714
43	0x3a8430b7	0.0010085319
44	0xbb9304ff	-0.0044866796
45	0x3da80632	0.08204307
46	0xbccd380b	-0.025051137
47	0xbd8d7daf	-0.06908738
48	0xbdb24791	-0.087050565
49	0x3d7b0f25	0.06129374
50	0xbcd721c3	-0.026261216
51	0x3ced052a	0.028933126
52	0x3dae49cd	0.0851017
53	0xbb7cfbe9	-0.0038602299
54	0x3d6e1777	0.058127847
55	0x3d98149a	0.074258044
56	0x3b40014a	0.0029297643
57	0x3d505a83	0.05086757
58	0x3bea430d	0.0071491064
59	0x3daea2a3	0.08527114
60	0xbac799a8	-0.0015228288
61	0xbcde9211	-0.02716926
62	0x3c84d321	0.016213955
63	0xbcb94fd6	-0.022621077
64	0xbcb80f57	-0.022468252
65	0xbd0be123	-0.034150254
66	0xbd59cde0	-0.053174853
67	0x3d17df6a	0.0370783
68	0x3d67b8c7	0.0565727
69	0x3d8fbc08	0.07018286
70	0x3d89cd1d	0.067285754
71	0x3d8d525a	0.06900473
72	0x3c895712	0.016765151
73	0x3d4bf017	0.049789514
74	0xbd1b362f	-0.03789347
75	0xbd58431d	-0.05279838
76	0x3ce92200	0.028458595
77	0x3d8c5ca8	0.0685361
78	0x3d9736a9	0.073834725
79	0x3d3d2cfb	0.046185475
80	0xbc60253a	-0.0136807505
81	0x3d5c310f	0.053757723
82	0x3c832ab0	0.016011566
83	0x3d1d5722	0.038413174
84	0xbd1e4746	-0.03864219
85	0xbca97829	-0.02068718
86	0x3d791a1d	0.06081592
87	0xbd70fb7a	-0.058833577
88	0xbdaf591b	-0.085619174
89	0xbcfaf3f7	-0.03063391
90	0x3da153a0	0.07877278
91	0x3d044e3a	0.032301165
92	0x3d1924e2	0.03738869
93	0xbd4ca4de	-0.049961917
94	0x3d079f54	0.03311093
95	0x3d1dec25	0.038555283
96	0xbba6ff52	-0.0050963545
97	0x3d22451f	0.0396167
98	0x3cfdbca4	0.03097374
99	0xbc84ad25	-0.016195843
100	0xbd449552	-0.047993965
101	0x3d44eb14	0.04807575
102	0x3cc7d272	0.02439234
103	0xbd33efa7	-0.043929722
104	0xbc10586d	-0.008810145
105	0xbd20fa0a	-0.039300956
106	0xbb33c666	-0.0027431487
107	0xbc600136	-0.013672164
108	0xbc3b4a15	-0.011431237
109	0xbc7e77fb	-0.015531535
110	0x3c3b89ad	0.011446399
111	0xbb98e640	-0.00466612
112	0xbcf07780	-0.029353857
113	0xbca7997e	-0.020458933
114	0x3d8cc6d1	0.06873859
115	0xbc8537b7	-0.016261918
116	0xbae1ff1f	-0.001724217
117	0x3caec57f	0.021334408
118	0x3d8c89ee	0.068622455
119	0xbd0b41f8	-0.03399846
120	0x3d728fa1	0.059219006
121	0xbd43f293	-0.04783876
122	0x3d1dc533	0.038518142
123	0xbd7cb371	-0.061694566
124	0xbcb1837a	-0.021669138
125	0x3d0e7f51	0.034789387
126	0xbd966ef8	-0.07345384
127	0xbda18905	-0.078874625

fc3.weight f4 [5, 128]
0	0x3da6e778	0.08149618
1	0x3d68e711	0.056860987
2	0xbcccd73d	-0.025004977
3	0xbda5aa7b	-0.08089157
4	0x3d9bab32	0.07601012
5	0xbc934f00	-0.017982006
6	0xbd34d864	-0.04415168
7	0x3d0284dc	0.031864986
8	0xbd190006	-0.037353538
9	0xbd1558ec	-0.036461756
10	0xbda4741c	-0.080299586
11	0xbb8f5a93	-0.004374811
12	0xbdad3c99	-0.08458824
13	0xbd40e5ff	-0.04709434
14	0xbdb1e7d9	-0.086867996
15	0xbb8fee8a	-0.0043924497
16	0x3d8f1594	0.069865376
17	0x3ca89bfc	0.020582192
18	0xbd208d77	-0.03919741
19	0xbd1474c5	-0.036244173
20	0xbcba8708	-0.022769466
21	0x3bc512be	0.006014197
22	0xbd848442	-0.06470539
23	0x3da3d364	0.07999304
24	0xbd5b6e79	-0.05357215
25	0x3d987ade	0.0744531
26	0x3cee4dcb	0.029089829
27	0x3c846045	0.016159186
28	0x3d33828f	0.043825682
29	0x3d65c620	0.05609715
30	0x3d8ccea1	0.06875349
31	0x3d2af367	0.041736033
32	0xbc25b86b	-0.010114769
33	0xbd409888	-0.047020465
34	0x3b81ca98	0.0039609186
35	0xbcc72aff	-0.024312494
36	0xbda5c633	-0.08094444
37	0xbcd2da30	-0.025738806
38	0xbb661af2	-0.0035111276
39	0xbd57858d	-0.0526176
40	0x3d219044	0.039444223
41	0x3d69f098	0.057114214
42	0x3d865f76	0.065611765
43	0xbdb0f077	-0.08639615
44	0xbce41d13	-0.027845895
45	0x3d82db84	0.063895255
46	0xbdaac756	-0.083388016
47	0x3ca2b01a	0.019859362
48	0xbc1669ad	-0.0091804685
49	0x3c4964d5	0.012292107
50	0x3d1b470e	0.03790956
51	0xbdade35f	-0.08490633
52	0xbd21f7ef	-0.03954309
53	0xbdac24cd	-0.08405457
54	0xbc6d6368	-0.014489032
55	0xbb5dbe00	-0.0033835173
56	0x3d786439	0.060642455
57	0xbd618b0f	-0.055064257
58	0x3d1730c0	0.036911726
59	0xbc866250	-0.0164043
60	0x3c105ddd	0.008811441
61	0x3db20e9f	0.08694195
62	0x3d0946dd	0.033514846
63	0xbc8ad659	-0.016947912
64	0x3c69d8a2	0.014272841
65	0xbd8cee0d	-0.06881342
66	0xbd2a5eb9	-0.04159424
67	0xbb869172	-0.004106694
68	0xbd15027d	-0.036379326
69	0x3d11cd1e	0.035596006
70	0xbb328860	-0.002724193
71	0xbd48a7f8	-0.048988312
72	0x3d705fc2	0.05868507
73	0xbd9cd74c	-0.07658252
74	0xbd350aa6	-0.04419961
75	0xbdabc305	-0.083868064
76	0x3d4b36ac	0.049612686
77	0xbd4dec28	-0.050274044
78	0x3d8769dc	0.06611988
79	0x3db1566a	0.0865906
80	0x3d55677a	0.052100636
81	0x3da04e05	0.07827381
82	0xbcdedf1f	-0.027206002
83	0xbdb2a319	-0.08722515
84	0xbdb1c351	-0.08679832
85	0x3b640a34	0.003479612
86	0x3d74f632	0.059805103
87	0x3c1383f7	0.009003631
88	0xbd93c7c4	-0.07215837
89	0x3b68f3f8	0.0035545807
90	0x3d7d4817	0.06183633
91	0x3a75c5a7	0.0009375461
92	0x3d8f7152	0.07004036
93	0xbcb4f97b	-0.022091618
94	0x3d52873c	0.0513985
95	0x3d979b97	0.07402723
96	0x3c3df79f	0.011594682
97	0x3db0456d	0.08606992
98	0x3cc00a8c	0.02344253
99	0xbd558f54	-0.05213864
100	0xbd480090	-0.04882866
101	0xbd6344a0	-0.055485368
102	0x3d66fdf8	0.056394547
103	0x3db2587a	0.08708282
104	0x3d0d1988	0.034448177
105	0x3cb5d142	0.022194508
106	0xbd549ee7	-0.051909354
107	0xbd59d9ad	-0.053186107
108	0xbd670891	-0.056404654
109	0x3c1aafbf	0.009441315
110	0x3db36755	0.087599434
111	0x3c75acdc	0.014994826
112	0x3d91b91d	0.07115386
113	0xbb7f8b66	-0.0038993
114	0x3d00b218	0.031419843
115	0x3c0b926a	0.008518795
116	0x3d8340c5	0.06408838
117	0xbd12bf69	-0.035827074
118	0xbc8836b5	-0.016627649
119	0xbd473d4d	-0.048642445
120	0x3da50931	0.08058394
121	0xbc33dbd5	-0.010977705
122	0x3d3ef01d	0.04661571
123	0xbd225c39	-0.03963873
124	0xbd3f6d07	-0.046734836
125	0x3bdd8777	0.0067605334
126	0x3d329c79	0.043606255
127	0xb96ef539	-0.00022788801
128	0x3d160ecd	0.03663521
129	0x3d8ead7d	0.06966684
130	0x3d990e27	0.074734025
131	0x3d1f6acd	0.038920213
132	0x3c3f82ac	0.011688869
133	0xbb934366	-0.0044941185
134	0xbd6a9867	-0.05727425
135	0x3d7bedf6	0.061506234
136	0x3d93df53	0.0722033
137	0x3b9a4f3a	0.0047091516
138	0x3dac08ad	0.08400092
139	0x3db14276	0.086552545
140	0xbc1f6075	-0.009727587
141	0xbcfe9ab2	-0.031079624
142	0xbc9138ab	-0.017727217
143	0x3d8f3bfd	0.06993864
144	0x3d905bd7	0.07048767
145	0xbd6dd7e7	-0.05806723
146	0xbd20e36c	-0.039279386
147	0x3d9211b8	0.07132286
148	0xbae132c5	-0.0017181268
149	0x3d96e67b	0.073681794
150	0xbca86244	-0.02055467
151	0x3da19e30	0.078915
152	0xbda5a1f3	-0.0808753
153	0x3cebbee1	0.028777542
154	0x3c85bed1	0.01632634
155	0x3d7347e3	0.05939473
156	0x3c3ec3b6	0.011643341
157	0xbc6988d1	-0.014253811
158	0x3ca2f703	0.019893175
159	0x3da1c35e	0.078985915
160	0x392888d4	0.00016072701
161	0x3cb24f9c	0.021766476
162	0x3d2983fb	0.041385632
163	0xbbb3f78b	-0.005492156
164	0xbcb1caf0	-0.021703213
165	0x3d9c55b9	0.07633538
166	0x3cfd63ad	0.030931318
167	0xbccebfa6	-0.02523787
168	0x3b8fda08	0.004390005
169	0xbd159824	-0.036522046
170	0xbdacccd1	-0.08437503
171	0xbd7c35cf	-0.061574753
172	0xbc534eaf	-0.012897178
173	0x3d3559b4	0.044275
174	0xbc3a5988	-0.011373885
175	0x3db4415e	0.0880153
176	0xbd15ab19	-0.036540125
177	0xbd97f8c1	-0.07420493
178	0xbd338f11	-0.04383761
179	0x3cdba33b	0.026811233
180	0xbc7bf7d4	-0.015378911
181	0x3d8db532	0.06919326
182	0x3da0dc1a	0.07854481
183	0xbd3662b9	-0.044527743
184	0xbd289fda	-0.04116807
185	0x3d4f2d9b	0.050580602
186	0xbd25a73f	-0.0404427
187	0x3d97d6ac	0.07413992
188	0x3cf61ff1	0.030044528
189	0x3db26179	0.08709998
190	0xbcc70c37	-0.024297817
191	0xbbeb5716	-0.0071820123
192	0xbd3c1bd7	-0.045924988
193	0x3d36a7fa	0.04459379
194	0x3d90051e	0.07032226
195	0xbd1d581e	-0.038414113
196	0x3d31ad43	0.043378126
197	0xbc16cf25	-0.009204661
198	0x3d5a228b	0.0532556
199	0xbbd8101a	-0.0065937163
200	0xbd83d413	-0.06436934
201	0x3ccbf639	0.024897682
202	0x3d72bcc9	0.05926207
203	0x3d516654	0.05112298
204	0x3d95c668	0.073132336
205	0x3a853d10	0.0010165293
206	0xbdb0413b	-0.08606192
207	0xbda2e0df	-0.07953047
208	0xbd551bcc	-0.052028462
209	0xbd318b69	-0.043345843
210	0x3d4b98b5	0.04970618
211	0xbd47fabb	-0.0488231
212	0x3c978194	0.018494405
213	0x3d193966	0.037408255
214	0x3da60d31	0.08107985
215	0x3c84766f	0.016169755
216	0x3c376d48	0.011195488
217	0x3d57bc55	0.05266984
218	0xbd9074cb	-0.070535265
219	0xbcdd0a65	-0.026982496
220	0xbcabcbd5	-0.020971218
221	0x3cada0ee	0.021194901
222	0xbd8380b6	-0.06421034
223	0x3d3f6384	0.046725765
224	0x3d006716	0.03134831
225	0x3d256c78	0.040386647
226	0x3d1bd0b9	0.03804085
227	0xbd8d34ce	-0.06894837
228	0x3d04b2bf	0.032397028
229	0x3d7465a3	0.05966724
230	0xbd7f3667	-0.06230774
231	0xbda6f167	-0.081515126
232	0xbd17b8fa	-0.03704164
233	0xbd040b7e	-0.032237522
234	0xbc8d83b0	-0.017274708
235	0xbd9ac92a	-0.075579
236	0xbd8d8a73	-0.06911173
237	0xbbec0454	-0.0072026644
238	0xbd6e596d	-0.05819075
239	0xbd2d2a91	-0.042276923
240	0x3c48a015	0.012245198
241	0xbdaecaef	-0.085348
242	0x3d86712a	0.06564553
243	0xbd59bcc0	-0.05315852
244	0x3cad5019	0.021156358
245	0xbad47159	-0.0016208097
246	0xbd418230	-0.047243297
247	0xbd27e00f	-0.040985163
248	0xbd82a3c8	-0.06378895
249	0xbd35ac86	-0.044353984
250	0x3abd4dea	0.0014442776
251	0xbd9acde6	-0.07558803
252	0x3d6ee3b0	0.05832261
253	0x3cd571c9	0.026055234
254	0xbb08e135	-0.0020886187
255	0x3c8f1b6c	0.01746913

fc3.bias f4 [5]
0	0x3d5965cf	0.053075608
1	0x3c416dc2	0.011805953
2	0xbc9194ed	-0.017771209
3	0x3ce9b870	0.02853033
4	0x3c3e2c91	0.011607305
