dynamics/src/dynamics/old/outputs/DDQN_RobotOptEnv/20230118-155523/models/model_max_eps.pkl (torch, 79767 bytes, 6 tensors)

nn.0.weight f4 [128, 10]
0	0x3e4d23f0	0.2003324
1	0xbcf2d12e	-0.02964076
2	0xbeb0a664	-0.34501946
3	0xbcf26c65	-0.029592702
4	0x3d254d5c	0.04035698
5	0x3e68a643	0.22719674
6	0x3e1d2e88	0.15349782
7	0xbcdcf720	-0.026973307
8	0xbec75643	-0.38933
9	0xbebc972a	-0.3683408
10	0xbdbb0ef2	-0.0913371
11	0xbe939660	-0.28825665
12	0xbd12e217	-0.035860147
13	0xbe1a9e47	-0.1509944
14	0xbe05123d	-0.12995239
15	0x3e6b4fca	0.22979656
16	0xbe8b5fac	-0.2722143
17	0xbccc5730	-0.024943918
18	0xbe773d97	-0.24144588
19	0x3e727761	0.23678352
20	0xbdbd8817	-0.09254473
21	0x3e99372c	0.29924905
22	0xbdfebfc5	-0.12438921
23	0xbe86777f	-0.26263043
24	0x3da40be6	0.08010082
25	0xbe255b1c	-0.16148037
26	0xbe1cc090	-0.15307832
27	0xbe97c7bc	-0.29644573
28	0xbe95da7b	-0.2926825
29	0x3d8ed663	0.06974485
30	0xbe4c9dc4	-0.19982058
31	0xbe610d61	-0.2197776
32	0xbc96617d	-0.018357033
33	0xbd8bdc42	-0.0682912
34	0x3e274d28	0.16338027
35	0x3e9843df	0.29739282
36	0x3e934c62	0.28769213
37	0xbe59b787	-0.21261416
38	0x3e405c64	0.18785244
39	0xbe8eb168	-0.27869725
40	0xbe9adcb9	-0.30246523
41	0xbddaa8e8	-0.106767476
42	0x3bdae387	0.0066799554
43	0xbef8f96e	-0.486278
44	0xbdd56dcf	-0.10421335
45	0xbefb1f0c	-0.49047124
46	0xbf1c0ff3	-0.60961837
47	0xbd5646b8	-0.052313536
48	0xbeade72d	-0.33965436
49	0xbf1952f3	-0.59892195
50	0x3e6ad9e8	0.22934687
51	0x3e6eb625	0.2331167
52	0xbe238212	-0.15967587
53	0x3b991f98	0.0046729557
54	0x3e47d64f	0.19515346
55	0x3dbb43c1	0.091437824
56	0x3e3788c6	0.17923269
57	0xbde30146	-0.11084227
58	0xbe5416f1	-0.20711876
59	0x3e59b912	0.21262005
60	0xbe45ee5b	-0.19329207
61	0xbe6fbd22	-0.23411992
62	0xbe0640ac	-0.13110608
63	0x3e3404d1	0.17579962
64	0x3e39a8e5	0.18130834
65	0xbec27da9	-0.37986496
66	0x3e27b14b	0.16376226
67	0xbd03d5c6	-0.032186292
68	0xbc26f1aa	-0.010189453
69	0xbea256fe	-0.31706995
70	0xbdcd3ac8	-0.10020977
71	0xbeb68454	-0.35647833
72	0x3d5f2e7c	0.05448769
73	0xbd7df47a	-0.06200073
74	0x3d75a6eb	0.05997364
75	0x3e1e5d2c	0.1546523
76	0xbd795f9d	-0.0608822
77	0xbd28f318	-0.041247457
78	0xbe632348	-0.22181427
79	0x3e005aa5	0.12534578
80	0xbd3d2aa4	-0.046183243
81	0xbee52735	-0.44756475
82	0xbdec44d8	-0.115365684
83	0xbeee611a	-0.46558458
84	0x3c783473	0.015149224
85	0x3cdf6a27	0.027272297
86	0xbec9df7d	-0.3942832
87	0xbc731361	-0.014836163
88	0xbf02f557	-0.5115561
89	0xbe305e1f	-0.17223404
90	0xbddb93c7	-0.10721546
91	0x3e8d6916	0.27619237
92	0x3e543d62	0.2072654
93	0x3db3f623	0.08787181
94	0x3e30d1b6	0.17267498
95	0x3dbabd5b	0.09118148
96	0xbe90a8b4	-0.2825371
97	0xbe65fda3	-0.22460036
98	0xbd1337e8	-0.03594199
99	0x3dcdd98a	0.10051258
100	0xbe82f9d3	-0.25581226
101	0xbe017de0	-0.12645674
102	0xbe48486c	-0.19558877
103	0xbef72378	-0.48269248
104	0xbea2c8d3	-0.31793842
105	0xbe09610b	-0.13415925
106	0xbe1e8630	-0.15480876
107	0xbdcfd759	-0.10148496
108	0xbe702e49	-0.23455156
109	0xbecbddc3	-0.39817628
110	0xbc2a92c0	-0.0104109645
111	0xbea05c64	-0.31320488
112	0xbea2c2f3	-0.3178936
113	0xbda18389	-0.078864165
114	0xbd96797e	-0.073473915
115	0xbf0772eb	-0.52909726
116	0xbf10b120	-0.5652027
117	0xbbcf0697	-0.0063179242
118	0xbe9a3e7c	-0.30125797
119	0xbe7d579c	-0.24740452
120	0x3dedf655	0.1161925
121	0xbe9f930f	-0.31166884
122	0x38e76651	0.00011033996
123	0x3e1674e3	0.14693026
124	0x3e9d5eea	0.30736476
125	0xbe969c77	-0.29416248
126	0xbe055fb2	-0.13024786
127	0xbe9b6f60	-0.3035841
128	0xbdef62e3	-0.11688783
129	0xbe8a944e	-0.27066272
130	0x3df1c56c	0.11805233
131	0xbe12e8e6	-0.14346656
132	0xbe97d3f8	-0.29653907
133	0xbd9e535e	-0.07730745
134	0xbda3444c	-0.07972011
135	0xbd3a0edc	-0.045424327
136	0xbe98fb99	-0.29879454
137	0xbe58b584	-0.21162993
138	0x3d4c289f	0.049843427
139	0x3db0ebdc	0.086387366
140	0x3e855398	0.2604034
141	0x3e2fb06a	0.1715714
142	0xbe8a0685	-0.269581
143	0xbd9f036d	-0.07764325
144	0xbe8f7922	-0.28022105
145	0x3e8f30cc	0.27966917
146	0x3e03db4a	0.12876621
147	0xbe8395a2	-0.25700098
148	0x3e4291c9	0.19000925
149	0x3dd17006	0.10226445
150	0xbdb09da7	-0.0862382
151	0xbc9ea9e0	-0.019368112
152	0xbe1adc68	-0.15123141
153	0xbcc0d4bc	-0.02353894
154	0xbe194523	-0.1496778
155	0x3e85df60	0.26146984
156	0xbe918a49	-0.28425816
157	0xbcc6deee	-0.024276223
158	0xbdc4cb92	-0.096091405
159	0x3e215d29	0.15758194
160	0xbdcf3dc0	-0.101192
161	0xbe901e17	-0.28147957
162	0x3e8ac6c4	0.2710477
163	0xbe894857	-0.26813003
164	0x3b614d6a	0.0034378418
165	0xbe850992	-0.25983864
166	0x3e712d17	0.23552357
167	0xbe00b08a	-0.12567344
168	0xbe17ddaf	-0.1483066
169	0xbe9fcb35	-0.31209722
170	0xbda5f480	-0.08103275
171	0x3e036f46	0.12835416
172	0xbdd3afb0	-0.10336244
173	0x3cc24ff5	0.023719767
174	0x3e4161bd	0.1888494
175	0xbeb76208	-0.3581698
176	0xbeab6487	-0.33475134
177	0xbd9dc156	-0.077028915
178	0xbec6c6df	-0.38823602
179	0xbe4ea31c	-0.20179409
180	0xbe732e12	-0.23748043
181	0xbe9f8cd9	-0.31162146
182	0xbe153b7c	-0.14573473
183	0xbd9def99	-0.07711715
184	0xbde653ac	-0.11246428
185	0xbe9d4354	-0.3071543
186	0xbc1b566f	-0.009481057
187	0xbe73acca	-0.23796383
188	0xbe4547ff	-0.19265746
189	0xbdbbd5b6	-0.091716215
190	0x3e5eead1	0.21769263
191	0xbe56a51c	-0.20961422
192	0xbe0f7c60	-0.14012289
193	0xbe986826	-0.2976696
194	0xbd022c98	-0.03178081
195	0xbd3158fa	-0.043297745
196	0x3e94f02a	0.2908948
197	0xbe799fe4	-0.243774
198	0xbdbabbd1	-0.091178544
199	0x3bbf6d80	0.005841911
200	0xbd815938	-0.06315845
201	0x3a25e92f	0.00063289976
202	0x3d0e8bc6	0.034801267
203	0x3c4c8325	0.012482439
204	0x3e0c9966	0.13730392
205	0xbe8e796e	-0.27827018
206	0x3d2a1ed9	0.041533325
207	0xbd0cefa7	-0.034408238
208	0xbdc20997	-0.09474485
209	0xbdbf85ee	-0.09351717
210	0xbd56c11b	-0.052430253
211	0xbe3a1c0a	-0.18174759
212	0x3d72c30e	0.05926805
213	0xbe945556	-0.28971356
214	0x3e52afa6	0.20574817
215	0x3d7848f3	0.060616445
216	0xbc8b26be	-0.016986247
217	0xbd79945b	-0.0609325
218	0x3e58603e	0.21130463
219	0xbea01641	-0.31266978
220	0xbec16a2c	-0.37776315
221	0xbebfb1ce	-0.37440342
222	0x3d19ba04	0.037530914
223	0xbe870066	-0.2636749
224	0xbbd1ce1b	-0.0064027435
225	0xbeb25692	-0.34831673
226	0xbe88b682	-0.26701742
227	0xbce0a259	-0.027421163
228	0xbe4ca196	-0.19983515
229	0xbe14d3f6	-0.14533982
230	0x3aad7b22	0.0013235549
231	0xbdbb8c57	-0.09157627
232	0x3c6e4fd2	0.014545398
233	0xbd0eaa9a	-0.034830667
234	0xbefd1ef8	-0.4943769
235	0xbd99611c	-0.07489225
236	0x3d314514	0.04327877
237	0xbd7013cb	-0.058612626
238	0xbdaf2795	-0.085524715
239	0x3cdbb846	0.026821267
240	0x3dfebedb	0.124387465
241	0xbeacc3d2	-0.3374315
242	0xbe4ea519	-0.20180167
243	0xbd5f64ed	-0.05453961
244	0xbe7894e8	-0.24275553
245	0xbeb5ef59	-0.3553417
246	0xbe895688	-0.2682383
247	0xbc459f75	-0.012061943
248	0xbe18973a	-0.14901438
249	0x3cdae67e	0.026721235
250	0xbe1c2b4d	-0.15250893
251	0x3e94938d	0.29018822
252	0x3c546fe7	0.012966133
253	0x3dd79abb	0.10527559
254	0x3d9f7af6	0.07787125
255	0x3e2bc547	0.16774474

nn.0.bias f4 [128]
0	0xbd6cbe1d	-0.057798494
1	0x3e71249a	0.23549119
2	0x3e5d016d	0.21582575
3	0xbe231f7d	-0.1592998
4	0xbf132d51	-0.5749102
5	0x3e82a420	0.25515842
6	0x3e182413	0.14857511
7	0xbe9ac6f9	-0.3022993
8	0xbea231f0	-0.31678724
9	0xbe809fca	-0.2512191
10	0xbe787824	-0.2426458
11	0xbe346ba1	-0.17619182
12	0xbb6a6bcf	-0.0035769825
13	0xbd8639e7	-0.06554013
14	0x3be333c6	0.006933662
15	0xbe5372fb	-0.2064933
16	0x3e85be73	0.26121864
17	0x3c98b113	0.018639123
18	0x3e80e9af	0.25178286
19	0x3e6b74d6	0.22993788
20	0x3d45e54f	0.04831439
21	0x3e825675	0.25456586
22	0xbd6d46f8	-0.05792901
23	0xbeea88ec	-0.45807588
24	0x3e296c2d	0.16545172
25	0xbe31a707	-0.17348872
26	0x3d989bbc	0.07451579
27	0x3e1a8e7a	0.15093413
28	0xbe8b50c1	-0.27210048
29	0xbec37870	-0.38177824
30	0xbd134128	-0.03595081
31	0xbf212a7f	-0.6295547
32	0x3e604808	0.21902478
33	0xbe2d0f78	-0.16900432
34	0xbf16be07	-0.5888371
35	0xbef7affd	-0.48376456
36	0xbe57ea8f	-0.21085571
37	0xbeb9dfeb	-0.36303648
38	0xbd2f9e67	-0.042875674
39	0x3d0fa158	0.03506598
40	0xbdee604f	-0.11639463
41	0x3dc4ade8	0.096034825
42	0xbdbab226	-0.0911601
43	0x3e110371	0.14161469
44	0xbe819e66	-0.2531616
45	0x3e580e8a	0.21099296
46	0xbe3fd55e	-0.18733737
47	0xbe59e035	-0.21276934
48	0xbde16e99	-0.11007423
49	0x3e1f5d07	0.15562831
50	0xbe849096	-0.2589156
51	0xbe843b34	-0.25826418
52	0xbe97c145	-0.2963964
53	0xbf197dce	-0.5995759
54	0x3e24b1ed	0.16083498
55	0x3e234b6a	0.15946737
56	0xbe098f47	-0.13433562
57	0x3ca5ae25	0.02022464
58	0xbdc22fcc	-0.09481773
59	0xbeaa137f	-0.33218
60	0xbd49b9d0	-0.04924947
61	0xbe48d855	-0.19613774
62	0x3e936951	0.28791288
63	0xbd3649f8	-0.044504136
64	0xbdc59f62	-0.096495405
65	0xbb71b120	-0.0036879256
66	0xbe5a3654	-0.21309787
67	0x3e8e1022	0.27746683
68	0x3d1e60d7	0.038666572
69	0xbe432ac5	-0.19059284
70	0xbf016d54	-0.50557446
71	0xbefe987d	-0.49725714
72	0xbf02b8f7	-0.51063484
73	0xbe8f0f4a	-0.27941352
74	0xbd2868a3	-0.041115414
75	0xbe2e1e08	-0.17003644
76	0xbe719694	-0.23592597
77	0xbe8b3012	-0.27185112
78	0x3e74ad29	0.2389418
79	0xbef3cfea	-0.47619563
80	0xbdf772ba	-0.12082429
81	0x3e7dd38a	0.24787727
82	0x3e3fdc6b	0.18736427
83	0xbea33e05	-0.31883255
84	0xbdcb4972	-0.09926118
85	0xbf202048	-0.6254926
86	0xbed8e995	-0.4236571
87	0xbdd4e6b3	-0.10395565
88	0xbe9c6d2c	-0.30552042
89	0x3e0f055d	0.1396689
90	0xbed6506d	-0.41858235
91	0xbce8eb32	-0.028432462
92	0x3e9e375e	0.30901617
93	0x3e5f966e	0.21834728
94	0xbce637ae	-0.028102722
95	0x3e6187a9	0.22024406
96	0x3e749c8f	0.23887847
97	0x3e3219e8	0.17392695
98	0x3dd39319	0.10330791
99	0xbe22c7ee	-0.1589658
100	0x3df8cb88	0.121481955
101	0xbde1a788	-0.11018282
102	0xbe479a27	-0.19492398
103	0xbdff8ea5	-0.12478379
104	0xbd6adf5a	-0.05734191
105	0xbd46263c	-0.048376307
106	0xbea9e501	-0.3318253
107	0xbeecd969	-0.4625962
108	0x3e3fe9e8	0.18741572
109	0x3df6b429	0.120460816
110	0xbd8f717a	-0.07004066
111	0xbe8589bf	-0.26081654
112	0x3e479cf4	0.19493467
113	0xbe7a3385	-0.24433716
114	0x3e6103da	0.21974126
115	0xbd8c82d8	-0.06860894
116	0xbe00da92	-0.12583378
117	0x3daf8550	0.08570349
118	0x3e92d8be	0.28680986
119	0x3e8e08dd	0.27741137
120	0xbe9f7724	-0.31145585
121	0xbf2d747c	-0.67755866
122	0xbee67b55	-0.4501597
123	0xbe680c6b	-0.22660987
124	0x3d19ed61	0.037579898
125	0xbedb6c28	-0.42855954
126	0xbdbc79cd	-0.09202919
127	0xbd9edb2b	-0.07756647

nn.2.weight f4 [128, 128]
0	0x3d1b4989	0.037911925
1	0xbcd276f9	-0.025691496
2	0x3cf87507	0.03032924
3	0x3d7e721d	0.062120546
4	0xbddc0a14	-0.1074411
5	0x3d261183	0.040544044
6	0xbd967f18	-0.0734846
7	0x3c8ca3cd	0.01716795
8	0x3ddd6ec9	0.10812146
9	0xbcf18850	-0.029483944
10	0xbdcc54fd	-0.09977148
11	0x3df6d965	0.120531835
12	0xbd940936	-0.07228319
13	0xbcb9280a	-0.0226021
14	0x3c2294bf	0.009923159
15	0xbd32551c	-0.043538198
16	0xbd2fb315	-0.042895395
17	0x3d575fad	0.052581478
18	0xbbecf06a	-0.007230808
19	0xbd67cfed	-0.056594778
20	0xbd847eec	-0.06469521
21	0x3d93dc2c	0.07219729
22	0xbd24d33c	-0.04024051
23	0xbd564b95	-0.052318174
24	0x3d3633ee	0.044483118
25	0xbd882218	-0.06647128
26	0xbd06f9d8	-0.032953113
27	0x3d9d6d24	0.076868325
28	0x3d7c11d6	0.061540447
29	0xbd0ae8aa	-0.033913292
30	0x3d85a85e	0.06526254
31	0x3e0d3648	0.13790238
32	0x3d9a0354	0.07520166
33	0xbd1f9244	-0.03895785
34	0x3d31b3e0	0.043384433
35	0x3e586873	0.21133594
36	0xbd022b15	-0.031779367
37	0xba930879	-0.0011217735
38	0x3dac2aca	0.08406599
39	0x3c9004ca	0.017580409
40	0xbd489f57	-0.048980083
41	0x3cb3f82f	0.02196893
42	0xbd19468c	-0.037420794
43	0xbcc2d58b	-0.023783466
44	0x3e574b6f	0.2102487
45	0xbd075ff4	-0.033050492
46	0xbdd18bc6	-0.10231738
47	0x3d508cb0	0.05091542
48	0x3d94186b	0.0723122
49	0xbc7b20a5	-0.015327607
50	0x3d2b002f	0.041748222
51	0x3ce50c41	0.027959945
52	0xba9b76cc	-0.0011860966
53	0x3e0933fa	0.13398734
54	0xbc3973b9	-0.011319094
55	0x3dab2fac	0.08358702
56	0x3d892caf	0.06697976
57	0xbd9564ad	-0.07294593
58	0xbca06063	-0.01957721
59	0x3d5bb191	0.053636137
60	0x3c3c5d0f	0.011496796
61	0xbd78a237	-0.060701575
62	0x3c3fb6f4	0.011701334
63	0x3cc4fd4f	0.024046568
64	0x3d333fc5	0.043761987
65	0x3d43891e	0.047738187
66	0x3d8c4627	0.06849318
67	0xbd40e519	-0.047093485
68	0xbd9b9fa1	-0.07598806
69	0xbd8112c0	-0.063024044
70	0x3ba2684a	0.00495628
71	0x3c689b2c	0.014197152
72	0xbdc2646c	-0.0949181
73	0x3d0c9e19	0.03433046
74	0x3d25d8ec	0.040490076
75	0x3d67ff39	0.056639884
76	0x3d0eb37d	0.034839142
77	0x3db156d1	0.08659137
78	0xbd7c1d1d	-0.061551202
79	0xbd7e83f2	-0.06213755
80	0x3d6cde0a	0.05782894
81	0xbd34e1b4	-0.04416056
82	0x3d90dd9e	0.0707352
83	0xbb9b18a0	-0.00473316
84	0x3d7c1d8c	0.061551616
85	0xbc8c7015	-0.017143289
86	0x3dcc760d	0.09983454
87	0x3e5bd8cf	0.21469425
88	0x3ad20482	0.0016023072
89	0x3c15f7ca	0.009153316
90	0xbb3dcccb	-0.0028961177
91	0xbb971444	-0.00461057
92	0x3d29d54d	0.041463185
93	0x3d56024a	0.052248277
94	0xba9463fa	-0.0011321299
95	0xbda8a14f	-0.08233892
96	0x3c4d97f2	0.012548434
97	0x3cdb1657	0.02674405
98	0xbcaa6954	-0.020802177
99	0x3cbf9d95	0.02339057
100	0x3c245551	0.010030107
101	0x3d24f8f8	0.040276498
102	0xbd0d0c0e	-0.034435324
103	0xbdb3c1eb	-0.08777221
104	0x3bf4c899	0.007470202
105	0x3d219064	0.039444342
106	0xbe1f3c34	-0.1555031
107	0x3dee71f8	0.116428316
108	0x3cdf8e0a	0.02728941
109	0xbc119980	-0.008886695
110	0xbcc1e0a3	-0.023666685
111	0x3d88041f	0.06641411
112	0x3d75fafc	0.06005381
113	0xbb20d7b6	-0.0024542636
114	0xbd9b9d13	-0.07598319
115	0x3c67eb25	0.014155184
116	0x3c12d2f3	0.008961427
117	0xbbc738df	-0.0060797776
118	0xbd8ad01d	-0.06777976
119	0x3d917cb3	0.071038626
120	0x3d03d80a	0.032188453
121	0x3d16d19c	0.036820993
122	0x3de4fe51	0.111813195
123	0x3d7bf9fb	0.061517697
124	0xbda27c79	-0.079338975
125	0x3cc080bd	0.023498887
126	0xbdaba0e8	-0.083803
127	0x3a772cdd	0.00094289874
128	0xbd172ec7	-0.036909845
129	0x3d5b7fc1	0.053588632
130	0xbd802acb	-0.06258162
131	0x3d3293a8	0.043597847
132	0x3caca8b7	0.021076543
133	0x3d81e74c	0.063429445
134	0xbc34f1b4	-0.011043955
135	0xbda719c5	-0.08159212
136	0xb9cc4a19	-0.0003896512
137	0x3db3d908	0.0878163
138	0xbd21e07c	-0.039520726
139	0x3cdb79a3	0.0267914
140	0x3da4e757	0.08051937
141	0x3d7df1c0	0.06199813
142	0xbd64ea9a	-0.055887796
143	0xbd2c5d60	-0.042081237
144	0xbc905304	-0.01761771
145	0xbd8e5cb1	-0.06951273
146	0x3bd799d6	0.006579618
147	0x3d0ec00d	0.034851123
148	0xbcba61a4	-0.022751637
149	0xbd72d98c	-0.0592895
150	0xbc5f54fe	-0.013631104
151	0xbe09ad74	-0.13445073
152	0xbd96350b	-0.07334336
153	0xbd0dd20b	-0.03462414
154	0xbe0d8abb	-0.13822453
155	0xbdbb2720	-0.09138322
156	0x3d7a7929	0.061150704
157	0xbd9b12df	-0.07571959
158	0x3ce4be46	0.02792276
159	0xbd6bdea2	-0.057585366
160	0xbda4d83a	-0.080490544
161	0xbba5dae3	-0.0050614937
162	0xbd3c67fe	-0.045997612
163	0xbdf17eba	-0.11791749
164	0x3d86c5ef	0.065807216
165	0xbe0b44b8	-0.13600433
166	0xbdc1f33d	-0.09470222
167	0x3a7e5d76	0.0009703258
168	0x3d271248	0.04078892
169	0xbcd5dc5d	-0.026106054
170	0xbd8e666a	-0.06953128
171	0x3d78a6bc	0.060705885
172	0x3cd50a58	0.026005909
173	0x385b55ef	5.22937e-05
174	0xbca8fa15	-0.02062706
175	0x3cb6e475	0.022325734
176	0xbe0456c3	-0.12923722
177	0x3d054bd3	0.032543015
178	0xbddb32a8	-0.10703021
179	0xbab0659b	-0.0013458015
180	0xbd9931d9	-0.07480211
181	0xbdbdb268	-0.09262544
182	0xbc6b9fd5	-0.014381369
183	0x3d78c086	0.06073048
184	0xbd90c7cc	-0.07069358
185	0xbdbc1175	-0.09183017
186	0x3c945265	0.018105695
187	0xbdff7ca0	-0.12474942
188	0xbca16ef7	-0.019706232
189	0xbd8139f9	-0.063098855
190	0xbd119edb	-0.035551887
191	0x3c9ea781	0.019366981
192	0xbd9c417a	-0.07629676
193	0x3c93319c	0.017967992
194	0x3cab2fc8	0.020896807
195	0xbd3499fd	-0.044092167
196	0xbd2e3ea9	-0.042540226
197	0xbd3562d1	-0.04428369
198	0xbbe3b06f	-0.0069485228
199	0xbc6bf5ac	-0.014401834
200	0xbdd3ade7	-0.103359036
201	0x3db4b865	0.08824233
202	0xbdca2947	-0.09871154
203	0xbdab517f	-0.083651535
204	0xbdaf00e1	-0.085450895
205	0xbd7ddf1a	-0.061980344
206	0xbd2375f0	-0.039907396
207	0xbdcef40d	-0.10105143
208	0xbbf13c3b	-0.0073619164
209	0x3d926670	0.07148445
210	0x3d9c776c	0.076399654
211	0xbdfe7748	-0.12425095
212	0x3d5ab4d9	0.053395126
213	0xbdffc3b9	-0.12488503
214	0x3c8c73b0	0.017145008
215	0xbdd6fa3a	-0.10496946
216	0x3d6bac0a	0.057537116
217	0x3d366a0f	0.04453474
218	0xbcaa02fc	-0.020753376
219	0xbb4deeb3	-0.0031422793
220	0xbcfce3cd	-0.030870343
221	0x3d17cf05	0.037062664
222	0xbd26a4c2	-0.04068447
223	0xbd81715c	-0.0632045
224	0x3b0924e9	0.0020926541
225	0xbb4552ef	-0.0030109247
226	0x3c21f62d	0.009885353
227	0x3c5a9ebf	0.013343512
228	0x3da14ebe	0.07876347
229	0xbd1db244	-0.038500085
230	0xbd86ced2	-0.065824166
231	0xbdac056c	-0.08399472
232	0xbda6711c	-0.08127043
233	0xbd8b89a7	-0.068133645
234	0x3c12b119	0.008953356
235	0xbcf50ca7	-0.02991326
236	0xbcf17023	-0.029472416
237	0x3d8ebc0a	0.06969459
238	0xbdb8b0f8	-0.09018129
239	0xbc18f282	-0.009335162
240	0x3c0c1053	0.008548814
241	0x3c9281d4	0.017884172
242	0x3d323397	0.04350623
243	0xbd53264c	-0.051550195
244	0xbdac6ba3	-0.084189676
245	0x3c1007a6	0.008790886
246	0x3d14858a	0.036260165
247	0x3d5e3cea	0.05425731
248	0x3d500e9c	0.050795183
249	0xbd950c3e	-0.07277726
250	0x3cc32d2f	0.023825256
251	0xbdd3e93a	-0.10347219
252	0xbd62351b	-0.055226427
253	0xbdfcd948	-0.123461306
254	0xbdd49e3f	-0.103817455
255	0xbcfc741a	-0.03081708

nn.2.bias f4 [128]
0	0xbd82bee0	-0.06384063
1	0xbe2684ce	-0.16261598
2	0xbdef740c	-0.11692056
3	0xbd336741	-0.043799642
4	0xbe42562e	-0.18978187
5	0xbd971578	-0.07377142
6	0xbd59f128	-0.0532085
7	0xbe0fc6a7	-0.14040624
8	0xbd28e191	-0.041230742
9	0xbe5c3296	-0.21503672
10	0xbd399ffe	-0.045318596
11	0xbe330275	-0.17481406
12	0xbda3d80d	-0.08000193
13	0xbe047b51	-0.12937666
14	0xbdd05f0b	-0.10174378
15	0xbda1b527	-0.0789588
16	0xbd344654	-0.044012383
17	0xbda58151	-0.08081306
18	0xbd9879f8	-0.07445139
19	0x3fec4ceb	1.8460974
20	0xbd54d45e	-0.05196034
21	0xbde00036	-0.1093754
22	0x3f89ef44	1.0776143
23	0xbdb814b9	-0.089883275
24	0xbcd3c933	-0.025852775
25	0xbcd9b760	-0.026576698
26	0x40244367	2.566614
27	0xbd4bf54a	-0.049794473
28	0xbdc15a89	-0.09441096
29	0xbdfd01e0	-0.12353873
30	0xbdbe32b7	-0.09287017
31	0xbd80818f	-0.06274711
32	0xbd5d92fe	-0.05409526
33	0xbd231d7d	-0.039823044
34	0xbdb5e45c	-0.08881447
35	0xbd06e544	-0.03293349
36	0xbd6af0a2	-0.05735839
37	0xbdd21250	-0.10257399
38	0x3e7cd0af	0.24688981
39	0x401cc36e	2.449428
40	0x4017099d	2.3599617
41	0x3f7a1b08	0.97697496
42	0x3f4dea37	0.8043551
43	0xbe59c72c	-0.21267384
44	0x3f2dba9b	0.6786286
45	0xbe13f7a7	-0.1444994
46	0x3f6fbf54	0.9365132
47	0xbcc44751	-0.023959788
48	0xbe05fa94	-0.13083869
49	0x3f3f1083	0.7463457
50	0xbe0db5ca	-0.13838878
51	0xbd958243	-0.07300236
52	0xbdf59c5e	-0.11992715
53	0xbda6a613	-0.08137145
54	0xbdaa0b18	-0.08302897
55	0x4011c7fc	2.277831
56	0x3f1db703	0.6160738
57	0xbe0b844b	-0.13624685
58	0xbd4d1b51	-0.05007488
59	0xbd3fca75	-0.046823937
60	0xbdb13d82	-0.0865431
61	0xbe11ba37	-0.14231192
62	0xbcea6d8b	-0.028616687
63	0xbcdf4062	-0.02725238
64	0xbc3c8dc3	-0.011508408
65	0xbd5bbc85	-0.053646583
66	0xbdaad1f8	-0.083408296
67	0xbe91b482	-0.2845803
68	0xbe2e9843	-0.1705027
69	0xbdb69ef2	-0.08917035
70	0xbdebb12d	-0.11508403
71	0xbd6a5a31	-0.05721492
72	0xbcecb74e	-0.028896
73	0x40130d42	2.2976842
74	0xbd4ed872	-0.050499387
75	0xbd47c038	-0.0487673
76	0x401d53b3	2.4582336
77	0xbe104933	-0.14090423
78	0x3e89c578	0.2690847
79	0xbc9451aa	-0.018105347
80	0xbd83651e	-0.06415771
81	0x401f93df	2.4934003
82	0xbe09cb62	-0.1345649
83	0xbc69c219	-0.014267468
84	0xbcb965e7	-0.022631599
85	0xbd9fc28b	-0.07800778
86	0x40197c60	2.3982162
87	0xbc5e86c3	-0.013581934
88	0x3f391c2a	0.723086
89	0x401fca4f	2.496723
90	0xbe0d61f6	-0.138069
91	0xbd4a2089	-0.049347434
92	0x3f7a387a	0.97742426
93	0x3ead0afd	0.33797446
94	0xbe1dc7c5	-0.15408237
95	0xbdc4c0a5	-0.096070565
96	0xbcf57367	-0.029962255
97	0xbd88b6a3	-0.0667546
98	0xbdf2040c	-0.11817178
99	0xbda50989	-0.08058459
100	0xbdd8ff78	-0.10595602
101	0xbe9973d8	-0.29971194
102	0xbdf63501	-0.120218284
103	0xbdd5583b	-0.10417219
104	0xbe3dab8d	-0.18522473
105	0xbc879a4c	-0.016553067
106	0xbd69ee16	-0.057111822
107	0xbd943040	-0.072357655
108	0xbdd10cc4	-0.10207513
109	0xbe6fd374	-0.23420507
110	0xbd5e5cca	-0.05428771
111	0xbd068f9a	-0.032851793
112	0xbd374cb2	-0.044750877
113	0xbe6810c4	-0.22662646
114	0xbda36494	-0.07978168
115	0xbca42757	-0.02003829
116	0xbe08c104	-0.1335488
117	0xbc7973b4	-0.01522534
118	0xbda9b6ff	-0.08286857
119	0xbc7753ee	-0.015095694
120	0xbd6bc5a0	-0.057561517
121	0xbdc1e614	-0.09467712
122	0xbd20aa86	-0.039225124
123	0xbdb92579	-0.090403505
124	0xbdc43a0c	-0.09581384
125	0xbd8f0cbf	-0.06984853
126	0xbce704c9	-0.028200524
127	0xbde82878	-0.11335844

nn.4.weight f4 [12, 128]
0	0xbd167dde	-0.03674113
1	0xbba51d51	-0.005038895
2	0x3e2d4509	0.16920866
3	0x3e79c6b7	0.2439221
4	0x3e142f60	0.14471197
5	0xbc3188b1	-0.010835812
6	0x3e0a04dc	0.13478416
7	0x3e9940b9	0.29932192
8	0x3d21ab1d	0.039469827
9	0x3e4fffcd	0.20312424
10	0x3e0073de	0.125442
11	0xbdbc96d5	-0.092084564
12	0xbcf483a8	-0.029847935
13	0x3d2274e2	0.03966225
14	0x3cc674fe	0.024225708
15	0x3cf3112f	0.02967128
16	0x3d39f432	0.0453989
17	0xbdbf205f	-0.09332346
18	0x3d424705	0.04743101
19	0xbf684653	-0.90732306
20	0xbd9131e1	-0.07089592
21	0x3daf532d	0.085607864
22	0xbf653428	-0.8953271
23	0x3d39f946	0.04540374
24	0x3be5ac70	0.0070090815
25	0xbd13ba6d	-0.03606646
26	0xbfb977c1	-1.4489671
27	0x3ac80108	0.0015259096
28	0x3d66fa1d	0.05639087
29	0x3da29c6d	0.07939992
30	0xbd1faf9c	-0.038985834
31	0xbd66dd36	-0.056363307
32	0xbd2bbfdf	-0.04193103
33	0x3eaf0719	0.34185103
34	0x3d31c664	0.04340209
35	0x3c88eb8a	0.016713876
36	0x3d1f41b4	0.03888102
37	0x3e48c785	0.1960736
38	0x3cce6cf1	0.025198432
39	0xbfb16f46	-1.3862083
40	0xbfba2528	-1.4542589
41	0xbf0b148a	-0.54328215
42	0xbc7620db	-0.015022482
43	0xbcdb95c3	-0.02680481
44	0xbde487e5	-0.11158732
45	0xbcbdb05c	-0.023155384
46	0xbcaed771	-0.021342965
47	0x3e1fb40f	0.1559603
48	0x3d9466db	0.072461806
49	0xbcb305c1	-0.02185333
50	0x3dc1ac6a	0.094567135
51	0x3d711d9f	0.05886614
52	0x3c98068f	0.018557815
53	0x3dc149ad	0.09437881
54	0x3d906187	0.07049852
55	0xbfae3ae7	-1.3611726
56	0xbd4cd70c	-0.050009772
57	0x3bb0557b	0.005381284
58	0xba1acbe7	-0.00059050176
59	0xbdd0a257	-0.10187214
60	0x3dec40f8	0.11535829
61	0x3d34ebde	0.044170253
62	0x3cde3e5d	0.027129347
63	0xbe00f581	-0.12593652
64	0xbd33a046	-0.04385402
65	0xbd97e40a	-0.07416542
66	0xbc5a47b4	-0.013322759
67	0xbc3dc7fd	-0.011583325
68	0x3da4c2f7	0.08044999
69	0xba836c53	-0.001002679
70	0xbdc20282	-0.094731346
71	0x3d8d7e2e	0.069088325
72	0x3d620df5	0.05518909
73	0xbfb4e409	-1.4132091
74	0x3d76a0d5	0.060211975
75	0xbcc62abd	-0.024190301
76	0xbfbc5f2b	-1.4716543
77	0x3d94fccf	0.07274782
78	0x3d11135b	0.03541885
79	0xbdb89a47	-0.09013801
80	0x3bcf89f8	0.006333586
81	0xbfc34359	-1.5254928
82	0x3df11315	0.11771218
83	0x3da1443e	0.07874344
84	0xbccfecf8	-0.02538155
85	0xbce7cf94	-0.028297223
86	0xbfb88848	-1.441659
87	0x3dbd30d1	0.092378266
88	0x3c0c5574	0.0085652955
89	0xbfc0ecc6	-1.5072258
90	0xbc5b989c	-0.013403084
91	0x3c24d608	0.010060795
92	0xbf0ddc2e	-0.5541409
93	0xbb0b7278	-0.0021277945
94	0xbc0c93ba	-0.008580143
95	0x3cd09b65	0.025464723
96	0x3ce23fb4	0.027618267
97	0xbcabbb9c	-0.020963483
98	0xbd4552f1	-0.048174802
99	0x3dc81a0a	0.097705916
100	0x3e6c7fd2	0.23095635
101	0x3cc52509	0.024065511
102	0xbacc5fec	-0.0015592552
103	0xbd2007a2	-0.03906978
104	0x3d2197d5	0.03945144
105	0xbdaea954	-0.085283905
106	0xbd67b7cb	-0.056571763
107	0x3dfe9970	0.1243161
108	0xbe0d936d	-0.1382577
109	0xbd93a930	-0.07210004
110	0xbc2f23c8	-0.010689683
111	0x3e0fd944	0.14047724
112	0x3da74eb6	0.0816931
113	0xbd1b4171	-0.037904207
114	0x3d8a25c2	0.06745483
115	0xbd7f2870	-0.062294424
116	0xbe0b801b	-0.13623087
117	0xbdb8996b	-0.09013637
118	0xbce2d0ab	-0.027687391
119	0xbd447728	-0.0479652
120	0x3dca51c7	0.09878879
121	0x3d372a65	0.044718165
122	0xbd196df0	-0.03745836
123	0xbccf595a	-0.02531116
124	0xbd133b15	-0.035945017
125	0x3d978ba3	0.073996805
126	0x39dc4367	0.0004201189
127	0x3dd59b22	0.1042998
128	0x3aba1535	0.0014196994
129	0xbc8221d4	-0.015885271
130	0x3e3e63f4	0.18592817
131	0x3e395255	0.18097813
132	0x3e1f66ef	0.1556661
133	0x3dc8d547	0.098063044
134	0x3cb82303	0.022477632
135	0x3ded771a	0.115949824
136	0x3c98a977	0.018635495
137	0x3e08fc60	0.13377523
138	0x3e7bca17	0.2458881
139	0xbdd03334	-0.10166016
140	0xbb6733d7	-0.0035278702
141	0xbcd20447	-0.025636805
142	0x3db892d1	0.09012378
143	0x3cb90b1a	0.022588301
144	0x3d95f9f3	0.07323065
145	0xbb9e0df3	-0.00482344
146	0x3d1937f9	0.037406895
147	0xbefc8fd0	-0.4932847
148	0xbd105b35	-0.03524323
149	0xbc3cb063	-0.011516663
150	0xbeae942d	-0.34097424
151	0x3d71ffaa	0.05908171
152	0x3bfa882f	0.007645629
153	0x3bb3691a	0.0054751756
154	0xbf9098d6	-1.1296642
155	0x3d9d9846	0.076950595
156	0x3e14218b	0.1446592
157	0xbd020832	-0.031746097
158	0xbcd6aae9	-0.026204543
159	0xbd2cfb95	-0.042232115
160	0xbbad2f57	-0.0052851844
161	0x3e55bc04	0.20872504
162	0x3d22262d	0.03958719
163	0x3d0365da	0.032079555
164	0x3dc576b3	0.09641781
165	0x3da6bd96	0.081416294
166	0x3d488937	0.048958983
167	0xbf8a6ab6	-1.0813816
168	0xbf8871be	-1.0659711
169	0xbdfe8bfd	-0.124290444
170	0xbbaf9f20	-0.0053595454
171	0x3d1c61e1	0.038179282
172	0x3cf5b9f7	0.029995902
173	0xbbd40a55	-0.0064709582
174	0xbd70f3e2	-0.058826335
175	0x3dbf0dd9	0.09328813
176	0x3e488ee8	0.19585764
177	0xbce41af2	-0.02784488
178	0x3e227977	0.15866648
179	0x3d3cba61	0.046076182
180	0x3dbeda07	0.09318929
181	0x3dc02634	0.09382287
182	0x3e02ace2	0.12761262
183	0xbf914b18	-1.1351042
184	0x3d114d10	0.035473883
185	0x3d8fdae7	0.07024174
186	0x3d3c998b	0.046044867
187	0x3c27708c	0.010219704
188	0x3e2618ab	0.16220348
189	0xbc489590	-0.01224269
190	0x3ce7a0de	0.02827495
191	0x3d33c140	0.04388547
192	0xbb46c165	-0.0030327674
193	0x3c4f9d71	0.012671814
194	0x3bc9d85d	0.0061598257
195	0x3caef9cf	0.021359352
196	0x3dd1e380	0.1024847
197	0x3daa5d42	0.08318569
198	0xbccd41a0	-0.025055707
199	0x3d95b399	0.07309646
200	0x3ca42277	0.020035965
201	0xbf8e646f	-1.11244
202	0x3d340f67	0.04396
203	0x39b93477	0.0003532504
204	0xbf8cb312	-1.0992148
205	0x3dd80a82	0.10548879
206	0xbd6b2cf5	-0.05741592
207	0xbd6b510d	-0.057450343
208	0xbd1cdbfc	-0.03829573
209	0xbf985fa4	-1.1904187
210	0x3d85c467	0.065316014
211	0x3e02a5a2	0.12758496
212	0x3ba080fc	0.0048981886
213	0xbd57cabe	-0.052683584
214	0xbf7b1620	-0.98080635
215	0xbc38fcd9	-0.011290752
216	0x3d3a0851	0.045418087
217	0xbf9a2603	-1.204285
218	0x3c8acfc2	0.01694477
219	0xbc25f775	-0.010129799
220	0x3e788ae1	0.24271728
221	0xbd301604	-0.042989746
222	0xbd5fc56d	-0.05463164
223	0x3d86e122	0.065859094
224	0x3debac4f	0.11507475
225	0x3c6fb7db	0.014631237
226	0xbb0388ad	-0.0020070479
227	0x3d3d8790	0.04627186
228	0x3e3876aa	0.18014017
229	0x3cd9dbc4	0.02659405
230	0x3dcad345	0.09903578
231	0xbd6f8777	-0.0584788
232	0x3d29455b	0.04132591
233	0xbd01912b	-0.031632584
234	0x3d8d83e1	0.069099195
235	0x3c3675cf	0.011136486
236	0xbe17055d	-0.1474814
237	0xbe133fd6	-0.1437982
238	0x3dbb5d19	0.09148616
239	0x3d57b960	0.05266702
240	0x3db5222d	0.08844409
241	0x3e2f8830	0.17141795
242	0x3c8ee4ee	0.017443147
243	0xbe228f6e	-0.15875027
244	0xbbc1c83d	-0.005913763
245	0x3b0dcee7	0.0021638216
246	0x3d50344c	0.050831124
247	0xbd788fb3	-0.060683917
248	0x3d94acf5	0.072595514
249	0x3ca7d66a	0.020487983
250	0x3d8fad9d	0.07015536
251	0xbd27257a	-0.040807225
252	0x3e6e8023	0.23291068
253	0x3d766f4c	0.060164735
254	0x3d0bea6f	0.03415912
255	0xbc4740f1	-0.012161479

nn.4.bias f4 [12]
0	0xbe95198b	-0.2912105
1	0xbddf9887	-0.10917764
2	0xbe90b249	-0.2826102
3	0xbefd029a	-0.49416047
4	0xbefc50aa	-0.49280292
5	0xbf0dac59	-0.55341107
6	0xbe4fcd7f	-0.20293234
7	0xbdc0bbda	-0.0941083
8	0xbf46e1f5	-0.77688533
9	0xbefbaaaf	-0.4915366
10	0xbfc4fec2	-1.5390246
11	0xbc453b3a	-0.0120380465
