dynamics/src/drl/outputs/RobotOptEnv/20220721-132007/models/dqn_checkpoint.pth (torch, 80711 bytes, 6 tensors)

fc1.weight f4 [128, 7]
00000000: 845c 8fbe 4823 603e 06b5 733e e056 58be
00000010: 196e 73be f13b 233c 144c 5c3d 631e 1bbe
00000020: 5d15 00be 5915 7e3e f2d0 96be a38a 0b3e
00000030: e737 42bc 34d9 70be 3dc5 62be f245 b5be
00000040: bf78 463e 67aa c7bb ee2e ffbd 19cf 063e
00000050: da25 12be d7ca a0be 2e51 87be a3f9 a4be
00000060: 06f4 303e fcf2 853e 1fa7 513e 7129 933d
00000070: be97 63be 796d b93e 82e1 a93e 46e6 47be
00000080: be38 333e 5274 a23e 1f8f 7ebe f997 9fbc
00000090: d5aa 76be b8d6 d3bd d71e 4b3c f171 81bc
000000a0: dc52 72be 1096 2c3e 0cb1 b23e 7d24 f4bd
000000b0: 4025 a7be 06b7 bbbe bb53 b4be 6c48 013e
000000c0: 5fdb 983d 9531 a43e 4f62 dbbc 7280 af3e
000000d0: d3cf 813e b21b acbd 943c 38bd 0fe8 38be
000000e0: ea6f 873e 920a dd3b 3385 df3d 6e4f 8e3d
000000f0: c970 1a3d 6201 c8bd 583f b43e 37fd 8c3e
00000100: 6377 33be c7b0 8c3e afbc 19bb 8899 01be
00000110: 866d 983d 2150 37be a081 94be 5ab6 9d3c
00000120: d1de 083d 190f 9abe 47c3 3cbe 8245 253e
00000130: 52c6 823e 56bd acbe 265b d23d f9fa a2be
00000140: 2f25 923e fb0d 05be a7dd 523e fc4e 633e
00000150: 6828 d03d 08d2 79be 3bdb a8be 338e 793c
00000160: 9877 9c3e acac 7e3e c2cb 453e e0b6 d73b
00000170: b437 853e 16a5 243c 8285 7bbe 04c5 923e
00000180: 2f7e 823e 209d 0d3e b79a 33bd 8fc0 343e
00000190: 012e a53e 9c74 963e 5e24 db3d 79dd 0dbc
000001a0: b8fb 813e 45ea 57be 0fe9 103e 5ef5 15be
000001b0: 6023 673e 8844 8c3e 4d46 58be 7a6a a33d
000001c0: dab0 293e b8b6 1ebe 303e e9bd e64d 653e
000001d0: a6d6 303e ca49 8cbe cbeb 6d3e f41c 723e
000001e0: 5b7b a33e e119 b43e 55f5 1abe c758 8e3e
000001f0: ecac 7d3e 5e1e 3f3c 5f48 9a3e 21a3 cb3d
00000200: d0fa ae3e 049c dabd 56a0 a73d 6fa0 d53b
00000210: 1d1a 96be ec62 86be ceb9 533d 5c70 363d
00000220: 2498 cabd f04f 88be 2ca3 983d 5fbc 85be
00000230: 08f5 74be 3da4 78ba a820 0e3e d4c5 a4bd
00000240: b58b 64be 6cfc 6cbe 4699 003e f269 9bbe
00000250: aa61 033e bda5 84be 3a81 96bd de08 1fbd
00000260: a0c9 bf3e 0c19 86be 6071 94bd 2653 04be
00000270: 87e6 a9be 17ae f9bd 26af 84be cdec b0be
00000280: 01b1 b3be 365e b83e 48c8 913e 3a63 40bc
00000290: 53bc 77be 7eca 33be ad9f 1dbc bee2 a7be
000002a0: fb10 11be 8f99 b7bd 1370 a43d 79c5 a5bb
000002b0: 973e 51bd 219b 92be 5382 09be 542f 59bb
000002c0: 5fcf b5bd 4c2e a33e f0a0 8abe 0882 cabd
000002d0: a35c 4d3e 5e3e 8f3e 2ab3 973e 5ebd 0fbe
000002e0: ebd3 bf3e 6261 203e e904 06be fe21 a73e
000002f0: a477 973e 75d5 5dbe fee6 823e 5baa b93c
00000300: d0fd 083c 04c8 81be d374 c0bd af0c b23e
00000310: 66a1 8e3e ec9b 383c 6b0b 2dbd 4929 bebe
00000320: 48f3 663d 4222 b63e 0149 2cbe d8a8 c93c
00000330: 5b52 0c3d c138 4abe 0ccb b3bd b457 8a3e
00000340: 72db dbbb 7416 67be 2076 b83e 1e2c 823e
00000350: 3b54 f13d 3776 0abd ece1 ad3e dd72 b2be
00000360: 1a87 afbe b028 353e 7874 013e 3cd3 31be
00000370: 0267 db3d 1030 6c3e 0ad8 18be c0b6 babe
00000380: 67b9 aa3e bd4e 6dbe 5afe b3be e4f6 93bd
00000390: 5536 4cbe 9333 bb3e 2a72 9a3e edbc 8e3e
000003a0: fb8b 95be 84ba 983e eff1 89be ab0a 563e
000003b0: d9f9 653e 7425 56be d4da 9d3b f4b5 1a3e
000003c0: 3ae3 24be c596 28be 450d a53e 10f6 90bc
000003d0: 338e fd3c 5697 8dbe e873 8b3e 6e1d 94be
000003e0: f097 1fbe 2ce5 05bd f443 a03e 9bec 4d3e
000003f0: db8e b03e fee3 893b c721 0e3e 023b bbbe
-0.2800027 0.21888459 0.23799524 -0.2112689 -0.23772468 0.009963022 0.05378349 -0.1514831
-0.1250815 0.24812831 -0.29456288 0.13627104 -0.0118541485 -0.23520356 -0.22145553 -0.35404927
0.19381998 -0.0060933116 -0.12460123 0.13164939 -0.14272252 -0.31404755 -0.26429123 -0.32221708
0.17280588 0.26161945 0.20473908 0.07185639 -0.22225854 0.36216334 0.3317986 -0.19521436
0.17502114 0.3172937 -0.24859284 -0.019481646 -0.24088605 -0.10343689 0.0123974895 -0.015801402
-0.23664421 0.1685412 0.349007 -0.11921022 -0.32645607 -0.36663073 -0.3522013 0.12625283
0.07463717 0.32069078 -0.026780276 0.34277683 0.2535387 -0.0840372 -0.044979647 -0.18057273
0.2645257 0.006745645 0.109140776 0.06948744 0.037705217 -0.09765889 0.35204577 0.27536938
-0.17526011 0.2747862 -0.0023458411 -0.12656224 0.07442765 -0.1790166 -0.29005146 0.019251991
0.03341562 -0.30089644 -0.18433867 0.16139796 0.2554193 -0.33738202 0.102712914 -0.31832102
0.28543994 -0.12993614 0.20592366 0.22198099 0.10163957 -0.24396527 -0.3297976 0.015231657
0.30559993 0.24870557 0.19316009 0.0065830797 0.2601906 0.010049125 -0.24562648 0.28665936
0.25486895 0.1382947 -0.04384872 0.1765158 0.3226166 0.2938584 0.10700296 -0.00865876
0.2538736 -0.2108546 0.14151405 -0.14644381 0.22572088 0.27396035 -0.21120568 0.07979293
0.1657137 -0.15499389 -0.113888144 0.22392997 0.17269382 -0.27400047 0.23234479 0.23643857
0.3193005 0.35175994 -0.15132649 0.27802107 0.24772996 0.011664955 0.3013334 0.09943224
0.3417573 -0.10674289 0.081848785 0.0065193693 -0.29316798 -0.26247346 0.05169087 0.044540748
-0.098923 -0.26623487 0.074529976 -0.26120278 -0.23921597 -0.00094849226 0.13879645 -0.08045545
-0.22318919 -0.23143166 0.12558469 -0.30354267 0.12830225 -0.25907698 -0.07348867 -0.038826816
0.37458515 -0.26190984 -0.07248187 -0.12922344 -0.3318369 -0.12191408 -0.25914878 -0.34555665
-0.3509598 0.36009377 0.28473115 -0.011742407 -0.24192934 -0.17557713 -0.009620589 -0.32790178
-0.14166634 -0.08964836 0.08029189 -0.005058941 -0.05108508 -0.2863398 -0.13428621 -0.0033139782
-0.088774435 0.3187126 -0.2707591 -0.09888083 0.2005487 0.2797727 0.2962888 -0.14037082
0.37466368 0.15662149 -0.1308781 0.3264312 0.29583466 -0.21663459 0.25566858 0.02266424
0.008361295 -0.25347912 -0.093972825 0.34775302 0.27857512 0.011267643 -0.042247217 -0.37140873
0.056384355 0.35573012 -0.16824724 0.024616644 0.034258228 -0.19748212 -0.087789625 0.27020037
-0.0067095095 -0.22567159 0.36027622 0.25424284 0.11783644 -0.033804145 0.33961427 -0.3485326
-0.34282762 0.17691302 0.12642086 -0.17365736 0.107130066 0.2306521 -0.14926162 -0.36467552
0.33344576 -0.23174568 -0.35154992 -0.07224825 -0.19942601 0.36562786 0.30165225 0.27878514
-0.2920836 0.298298 -0.26942393 0.20902507 0.2245859 -0.20912725 0.004817346 0.15108472
-0.16102305 -0.16463764 0.32236686 -0.017695457 0.030951595 -0.27654523 0.27236867 -0.28928703
-0.15585303 -0.03268926 0.31301844 0.20109789 0.3448399 0.004208087 0.13880073 -0.36568457

fc1.bias f4 [128]
00000000: fdca 053e 4b40 a53e e769 74be f39f 35be
00000010: 432e b1bd d31a dd3b cdea 613e fcd5 1a3e
00000020: 74b6 8b3e 9014 b33e 9337 f03b cd2f 413d
00000030: 2849 11be 6c0e bb3e bcfb 98bc cfd7 f3bd
00000040: 1a97 933e 2e72 a33a 734a 7dbc 4e11 57be
00000050: 753a f33d 6243 b2be f0f6 b2bd 1e46 a3be
00000060: 92cb 5cbe 649b 683e 6d1d 733d 8f71 b23e
00000070: ab57 a4be 922b 343d 71e4 2ebe 6959 923e
00000080: f0a9 9b3e e67c abbe fa77 97be 65ab 55bd
00000090: 8550 5a3e 053a 8bbe 21a0 fe3d 4d60 6cbc
000000a0: 1aab 89be 2b52 a4be e2d2 76be 0b1a 34bd
000000b0: 7aef b7bd 7c66 223d 8b8e bb3e 05f0 c03e
000000c0: e155 193a 0e2d 09be 6ac0 873e 659a 89be
000000d0: 9760 85be d757 52bc 955a de3d 8520 fbbd
000000e0: f21b 3b3e f19f b03e e9cb b5be bc8d 8f3e
000000f0: b4ff 223d 8c40 b73d 1b3b 853e a555 c8bd
00000100: 31e9 d13d 65ba ba3d 2b52 a43d d0a7 1d3e
00000110: 1334 303e 4ec3 bebe a5cf 313e d70d 9cbe
00000120: c61c 74be 87ef babe e6e0 a9be d652 7c3d
00000130: feb6 b8be 0dab bc3e 351a 9cbd eb62 3d3d
00000140: 0242 b1be 9a2d 183d b48a 8b3e fcff 113e
00000150: 676b f03d 71e3 903e 91d4 8cbe f6a8 483d
00000160: 065f e73d 6211 063e 2b41 fabc ae63 813e
00000170: 5745 163e c0a1 9cbe df2c 41be 1346 3e3e
00000180: 8047 80be ce13 143e 6793 28be 6d43 85bd
00000190: 4e1a dd3d 47ac a63e e582 bbbe 70e5 7abe
000001a0: bfa8 0d3c 4618 5abe b533 b2be 3c33 b2be
000001b0: 2b8a 4b3e af38 ed3c 973b 553e ed91 9f3c
000001c0: f54b b9bd 6ef5 e83d 4c60 2a3e 3f8f 423e
000001d0: e950 92be 6656 cbbc 4e74 bd3e 2e22 8d3e
000001e0: c0ac 01be b3f1 f5bb fe3c 8ebe 94fc 7e3e
000001f0: e4a4 9f3e a54f 333d aac3 adbe e1fe d73c
0.13065715 0.32275614 -0.23868524 -0.17736797 -0.08651402 0.0067475825 0.22062226 0.15120691
0.27287638 0.34976625 0.0073308437 0.047164727 -0.14188063 0.3653444 -0.018674724 -0.119063966
0.2882622 0.0012469941 -0.015459645 -0.21002695 0.11876384 -0.34817034 -0.08738506 -0.31889433
-0.21562031 0.22715527 0.059354234 0.34852263 -0.32098135 0.043986864 -0.17079331 0.2858384
0.3040309 -0.33493727 -0.29583722 -0.052165408 0.21319778 -0.27192703 0.12432886 -0.014427257
-0.26888353 -0.3209394 -0.24103883 -0.04397015 -0.089812234 0.039648518 0.3663219 0.3768312
0.0005849284 -0.13396093 0.26513988 -0.26875606 -0.26050255 -0.012838325 0.10857121 -0.12262062
0.18272379 0.34497026 -0.35507134 0.28037822 0.03979464 0.08947858 0.26021656 -0.097819604
0.10249556 0.09117583 0.08023485 0.15396047 0.17207365 -0.3725838 0.17364366 -0.3047931
-0.23839101 -0.3651087 -0.33179396 0.061602436 -0.36077112 0.3684925 -0.07622186 0.046236914
-0.34620672 0.037152864 0.2725426 0.14257807 0.11739235 0.28298524 -0.27505925 0.04898926
0.11297421 0.13092569 -0.030548653 0.25271362 0.14674889 -0.30592155 -0.18864773 0.18581419
-0.2505455 0.1446068 -0.1646248 -0.06507001 0.10796033 0.32553312 -0.36623302 -0.24501586
0.008646189 -0.21298322 -0.34805074 -0.34804714 0.19876926 0.028957693 0.20823513 0.019478763
-0.09047691 0.11374937 0.16638297 0.18999957 -0.28577355 -0.024821471 0.37002796 0.2756514
-0.12663555 -0.0075056194 -0.27780908 0.24901038 0.3118049 0.043777127 -0.33938342 0.026366653

fc2.weight f4 [128, 128]
00000000: 4d9e 2dbc 775c a53d be88 6f3c b02a 73bd
00000010: 9189 503d 9cde 9f3c fe52 29bd ace0 8dbd
00000020: 25a5 80bb 1b63 8f3c 2e5c 87bd 5167 7e3d
00000030: 57ab a03c 4d95 15bd c8de 833d c44a 393d
00000040: 92a3 813d 2c1d 233c d7a1 8f3c 266d 6ebd
00000050: 00d9 3c3d 5a99 5dbd aa27 9d3d 3425 633d
00000060: ea21 323d a782 843c 62e2 99bd 10ba 343d
00000070: f7a2 403d 912e a63d 2e58 72bc df67 aebc
00000080: 7ede 143c 2d95 aa3d 940e 10bd f569 763d
00000090: 18ab 36ba 7d7e 303c ee1b 90bd 4362 833d
000000a0: 7cda 31bd 2010 8a3d 3422 01bd b9fa 4a3d
000000b0: 227f 943d c718 a7bc 6d8f 8cbd eee5 843d
000000c0: 1db8 b4bd cb28 863d 5966 38bd eb35 563d
000000d0: 7753 6f3d c46f f4bb aa50 6a3c ce06 763d
000000e0: 7d8c 513d 909c 5ebb f604 763d b5ed 183d
000000f0: 553d 2a3c c049 543b fff0 92bd 5a34 b4bb
00000100: 0b5b 8abc cc55 733d 5485 71bc 4f2e 1d3d
00000110: aac1 9bbb 4eaf b33d f9dd 18bd 9b08 dd3c
00000120: 7d57 a03d c9f3 55bd 43ce 01bc 75ef 983d
00000130: b6f2 c2bc 3eea 3b3b 38cd 1f3d f95c 61bc
00000140: 8af0 7a3d 384b 153d 5127 75bd 65bc 643c
00000150: e392 68bd 2720 743d a9db 8d3d abfc 9b3d
00000160: 8b2c 773d d977 9fbd 8df6 83bd 14e0 883c
00000170: 3e9d 6cbc 6761 9bbd a81f 43bc b4dc acbd
00000180: 508e 8e3c 3d36 95bc 6d9d acbd b4d0 3cbd
00000190: a92b a4bd e757 bdbb 2209 80bd a230 dbbc
000001a0: ccb3 193c 9b33 853b 8478 31bd e199 a2bd
000001b0: 458b 9fbd 495c 1abd f905 9f3c 9bae 90bd
000001c0: 9c4c 46bd ea1a b5bc 0e55 e7bc 8ae3 343d
000001d0: 7e7e 31bd 1fb9 993c 53d0 cbbc 08f8 fe3c
000001e0: e95e d6bb 4179 ab3c 185e 45bc 77d3 42bd
000001f0: 480c 833c 2dfb 1abd fe2f 46bd 2d67 713d
00000200: f195 2ebd 9b0a c63c e838 f3bb 70fc b53b
00000210: a062 debc 6edd e43c 0be3 753d 08a6 6b3d
00000220: b485 603d d9eb 343b 55dd 773c 64b6 fc3c
00000230: ed38 9b3b f66e fa3c 2133 983c 51ba cfbb
00000240: 41e9 643c 1bc4 23bd aef8 f43c e6a6 1a3d
00000250: d15a a03c b29f a43c dbb8 1dbb ca89 aebc
00000260: fb5e ae3d 0c18 4d3c 21ce e2bc 2842 423c
00000270: 3bf4 6bbd 5b13 6cbc e72f 0e3d 3ea5 15bd
00000280: d23c 81bc dc4f 703d 1ac2 b5bb 96ba 4a3c
00000290: d787 6cbd 7cc3 c33c 0eb2 533d 494b 96bd
000002a0: fa6f eebc a498 323d 9de0 c23c 72eb 41bd
000002b0: f9af 813d 6b5e dbbb 7e98 483d 3b1b 8e3c
000002c0: 536b 993d 4d29 43bd a012 2dbd 3d10 873d
000002d0: 5944 a4ba 360d 103c b0d9 053c c5fe 223d
000002e0: 3677 3e3d 9757 babc 2ca9 6ebd 6f3c 0d3d
000002f0: 6bed 38bc aa0e 9dbc 46da 9f3d 06ae 7fbd
00000300: b3d9 fd3c 78a7 293c 78c2 433d 3023 9f3d
00000310: 67c9 97bd cf4b 36bc 4557 96bc 7f1a d6bc
00000320: 7cfb dbbc e846 07bb 7223 63bd 3722 9e3a
00000330: 93f7 8bbc cd29 fe3c 955b 483b fa00 8f3d
00000340: 3e94 aabd f6c1 543c 5428 913d e58f 183c
00000350: e08a e83c 508d 693d 25d9 27bd 9377 663c
00000360: a86c 27bc 0054 5b3d 9f67 103d e9d9 ddbc
00000370: a2d2 b4bc b826 91bd 51a4 2c3d 56e8 2b3c
00000380: a38e a4bc 7724 a23d 587c 003d 5f1b 96bd
00000390: 1337 ea3c 1398 873d 193b afbd e477 13bd
000003a0: 29cf 4e3d 780d 973d 284f cdbc 9e4b 8fbc
000003b0: 403a 82bc 076c 813d b481 83bd e39e 83bd
000003c0: af53 b03c c1b3 34bd b5d2 f63c 78a0 b3bd
000003d0: 56f6 8cbd 3a3d 363d 3934 7b3c 51a3 6a3d
000003e0: e7ac 213d 24c5 02bd 5714 b13d dd15 353d
000003f0: 9ed6 bbbc a848 743d 1ed3 523c 7cc0 66bd
-0.010596824 0.08074277 0.014620004 -0.05936688 0.050912444 0.019515328 -0.041338913 -0.069276184
-0.0039259368 0.017503312 -0.06609379 0.06211025 0.019612951 -0.036519337 0.064389765 0.045237318
0.06330027 0.009955686 0.017533226 -0.05820956 0.046105385 -0.054101326 0.07673581 0.0554554
0.043489374 0.016175581 -0.07513882 0.044122756 0.047030415 0.081143506 -0.0147915315 -0.021289764
0.009086249 0.08329234 -0.035170153 0.060159642 -0.0006968244 0.010772345 -0.07036577 0.06415226
-0.043421254 0.06741357 -0.03152676 0.049555514 0.07250811 -0.020397557 -0.06863294 0.06489168
-0.08824179 0.065507494 -0.04501948 0.052297514 0.058429208 -0.0074596126 0.014301458 0.060065083
0.05115937 -0.003396783 0.060063325 0.03733607 0.010390599 0.0032392591 -0.071748726 -0.005499405
-0.016889116 0.059407994 -0.014741261 0.03837424 -0.004753311 0.08773671 -0.037321065 0.026981642
0.07829187 -0.052234445 -0.007922712 0.07467548 -0.023797374 0.0028673555 0.03901407 -0.013755077
0.061264552 0.036448687 -0.05985195 0.013960932 -0.056780707 0.059600975 0.069266625 0.07616552
0.060345214 -0.07786531 -0.0644351 0.016708411 -0.014441786 -0.075869374 -0.011909403 -0.08440533
0.017401844 -0.01821434 -0.08428464 -0.046097472 -0.0801614 -0.005778301 -0.06251742 -0.026756588
0.009381246 0.0040649897 -0.043327823 -0.07939506 -0.077902354 -0.037685666 0.019412028 -0.07064553
-0.048412904 -0.02210756 -0.0282388 0.04416231 -0.043333523 0.01876503 -0.02487961 0.03112413
-0.006542076 0.020931842 -0.0120463595 -0.04756495 0.015997067 -0.037837196 -0.048385613 0.058936287
-0.042623464 0.024174979 -0.0074225552 0.0055537745 -0.027146637 0.027937617 0.06003098 0.057531387
0.05481501 0.0027606396 0.015128453 0.03084869 0.0047370107 0.030570488 0.018579068 -0.0063393493
0.013971628 -0.039981943 0.029903736 0.037756823 0.019574555 0.02009568 -0.0024066481 -0.021305937
0.0851421 0.01251794 -0.02768618 0.011856593 -0.057605963 -0.014408912 0.034713652 -0.03653454
-0.015776072 0.05866991 -0.0055468203 0.012373587 -0.057746734 0.023896925 0.051683478 -0.07338578
-0.029106129 0.0436026 0.023788745 -0.04734368 0.06332392 -0.006694605 0.048973553 0.017346969
0.074911736 -0.04764681 -0.04225409 0.06594894 -0.0012532576 0.008792212 0.0081695765 0.03979375
0.046500407 -0.022746844 -0.058266804 0.034481462 -0.011287074 -0.019172031 0.07805304 -0.06242182
0.030987596 0.010354869 0.04779288 0.07770383 -0.07411461 -0.011126473 -0.01835216 -0.026135681
-0.026853316 -0.0020641629 -0.055453725 0.001206464 -0.017085826 0.031025792 0.0030572165 0.06982608
-0.08329056 0.012985697 0.0708777 0.009311651 0.028386533 0.05701953 -0.04097857 0.014066595
-0.010218777 0.053546906 0.03525507 -0.027081447 -0.022073094 -0.07087463 0.04214889 0.010492405
-0.020087546 0.07917111 0.031368583 -0.07329439 0.028590715 0.06620803 -0.08556194 -0.03600301
0.050490532 0.07375616 -0.025062159 -0.017492112 -0.015896916 0.06319433 -0.06421223 -0.064267896
0.021524278 -0.04411674 0.03012977 -0.08770841 -0.06882922 0.044491984 0.015332275 0.057284657
0.039471533 -0.03192629 0.08646458 0.044210304 -0.022929486 0.059639603 0.012867717 -0.05633591

fc2.bias f4 [128]
00000000: 770e 9d3c c950 ecbc 09c3 12bd fe44 89bd
00000010: 6f19 593d cfe4 c3bc 289b 98bd 932e 08bc
00000020: 8e1b 9b3d 88a5 653d c553 613d 986a 593d
00000030: fd29 713d 95e3 6fbd bd77 f5bc 378f 67bd
00000040: 5765 c53c 9ca6 1c3d e5ea 7cbc efcc 06bd
00000050: 7faf 953d a09e 543d 4cc0 9ebc 9455 443d
00000060: b500 f8bc 92c7 97bd 63e7 fbbc fcec d8ba
00000070: b72e 5fbd fa22 a9ba 4812 053b 7e55 a4bc
00000080: 2263 af3d 93db 75ba 7850 15bc b4d9 5c3d
00000090: 7e8f af3d 0b6e 3b3d 6cad 0a3d 3b19 7f3d
000000a0: 6c4f 3c3d 6a3f a53d 2574 a8bd ba61 2ebd
000000b0: 292a 9cbd 23a4 dfbb 93d6 3fbd 9cf8 d33b
000000c0: c274 9cbd 7d1e 27bd 0288 8f3c b789 8ebb
000000d0: f7a8 a6bd 0150 953c 3718 97bd 78ae f23c
000000e0: b3ce 93ba a5fa 99bd 04b4 263b 67c6 43bd
000000f0: 0658 4a3d 2b3f b6bc 14fc 88bd 9d86 b23d
00000100: de9f 1dbd af52 903d f6a3 28bd 9acc 123c
00000110: 27c7 90bd f2e6 143d ef9f 9f3d 40a6 2a3d
00000120: 5567 a6bd c9fb d03b b6ba adbd 4fe7 10bc
00000130: 1109 16bc 2f64 babc 6d19 d039 a9a9 03ba
00000140: cc01 f7bc 5c2d 5abd f6a8 53bd 58f2 49bd
00000150: e0d4 9f3d ca35 12bd a387 27bd d8e5 e9bc
00000160: 4037 d5bb 4827 6fbd abde 993d bfdc 64bd
00000170: 6884 09bd feff 6cbd 0b28 043d e5ca 84bd
00000180: ca28 42bc 71c9 a3bc 2719 1fbd d705 b33d
00000190: 937c 24bd ad99 8fbd 3970 88bd 2790 ac3d
000001a0: b70e 553d 988a 4a3c 7168 d9bc d1aa 6f3d
000001b0: 8d0a 223c 3e23 a93c e180 40bd d90e 833d
000001c0: e79b a3bc 648b b0bc 8d76 f83b 12f8 9d3d
000001d0: 6914 5cbd 35ee 7a3d 9e23 6cbb a519 7ebd
000001e0: 5bc3 aa3d fbc7 943d a69d e63c f8c4 e43c
000001f0: 9a91 9b3d f850 8f3d 04f4 33bd 4542 483d
0.019171936 -0.028847115 -0.03583053 -0.06702612 0.05300277 -0.023912815 -0.07451469 -0.008311885
0.07573615 0.056066066 0.05501153 0.05308017 0.058877934 -0.05856665 -0.029964322 -0.056533065
0.024096174 0.03824483 -0.015436863 -0.032910284 0.07308864 0.05190909 -0.019378804 0.047933176
-0.030273775 -0.07411112 -0.030749982 -0.0016550119 -0.05448791 -0.0012904101 0.0020305086 -0.020060297
0.0856383 -0.00093787274 -0.0091134235 0.053918555 0.08572291 0.045759242 0.033856794 0.06227992
0.04597418 0.08068736 -0.08225278 -0.042573668 -0.07625229 -0.0068249865 -0.046835493 0.0064688455
-0.07639457 -0.04080056 0.017520908 -0.004349913 -0.08137696 0.018226625 -0.073776655 0.029624209
-0.0011276811 -0.0751851 0.0025436888 -0.047796633 0.049400352 -0.022246918 -0.06688705 0.08717082
-0.03848254 0.07047021 -0.04117199 0.008959914 -0.07069235 0.03635306 0.07794177 0.041662455
-0.08125178 0.0063776714 -0.08482878 -0.008844211 -0.009157435 -0.02275285 0.00039691795 -0.0005022535
-0.030152224 -0.053265914 -0.051674806 -0.049303383 0.078042746 -0.03569583 -0.040900838 -0.02855198
-0.0065068305 -0.05838707 0.07513174 -0.055874582 -0.033573538 -0.05786132 0.03226475 -0.064840116
-0.011850545 -0.019993516 -0.038842347 0.08741348 -0.040157866 -0.07011733 -0.0666203 0.084259324
0.052015986 0.012362145 -0.02653906 0.058512513 0.009890211 0.020646688 -0.04699791 0.06399316
-0.019971801 -0.021550842 0.0075824917 0.07713331 -0.053730402 0.06126233 -0.0036031972 -0.062036175
0.08338042 0.07264706 0.028151345 0.027925953 0.07596131 0.069978654 -0.043933883 0.048891325

fc3.weight f4 [16, 128]
00000000: 7cc9 d23c df1f 4dba 0462 1d3c 64b6 a9bd
00000010: cb46 21bd ece4 03bc 8bb6 1a3d 5e1f 723d
00000020: 6fd4 5cbd b4b8 0e3d 3938 12bd 64f8 e4bc
00000030: ee31 06bd 2be5 a43c fade 8cbd 3fc0 af3d
00000040: a31b 84bc f097 a1bd 8b28 943d 43aa 6dbd
00000050: abb8 2c3c afe6 0f3d fe59 263d b9f7 193b
00000060: b5ce 1ebc e8d7 aabd a52c 14bd 736f 86bd
00000070: 3ca5 1d3c 0d7c a03b 6ed3 30bc 0c83 91bc
00000080: 425b 573d b800 3d3d 4c41 8dbd 0eb0 913d
00000090: 7302 9b3d 6ef8 7abc af5c c8bc f4b9 5c3d
000000a0: 60db dc3b bd20 e5bc aa70 aabd 5842 09bc
000000b0: 543c b3bd d7ab 993d 1159 1bbd e334 ab3d
000000c0: 6143 5c3d e4a3 94bc 4d45 88bd 14f9 8fbd
000000d0: cf66 953c 452e b0bd 2322 9cbd 56d0 8d3d
000000e0: 3994 dc3b 98cf 7c3d cb0b 58bd f0cb c13b
000000f0: e9bc 3bbd 6af0 093d f854 c5bc ed54 60bd
00000100: 5a62 f03c 1a8e 553d f0d4 f2ba 8e01 463d
00000110: d7f7 8f3c 5622 a9bd 02fa f43c fb42 dabc
00000120: ee6f c4bc 38d6 9a3c 6a7d a3bd 70d4 183c
00000130: bdcc 663c 0c1e 903d c570 ad3d 3316 783d
00000140: 74ee 1dbd cdc8 b2bd 62b2 9fbd 9096 c73c
00000150: 05be 0cbd 4ee1 82bd 303d e7bc b03d b0bd
00000160: dde2 1bbd a6ba 5e3d 3a4a 943d 57ba a5bd
00000170: 2f61 b53c 59b2 b03d a264 85bd bf21 41bc
00000180: 990f 5b3d f05d d23c d4d2 bd3c 7f4d 563c
00000190: b8c9 0c3d 5842 ffbc 1797 82bd 9902 3d3d
000001a0: eb9d 8fbd a65e 8c3d 2f10 3cbd fc77 0b3d
000001b0: 1cf9 1abb e662 953b b0d6 b23a 60d8 923d
000001c0: ef7b 433c 067e 9dbd 8632 ac3d adb6 1a3d
000001d0: 7f6f 71ba dd2b b2bd cb33 a03c 5245 94bd
000001e0: 1bc1 c63c d0bb 8a3d 186c 12bd 7492 23bd
000001f0: e95b 8a3d 67dd b3bd e5e6 56bd 9db9 ad3d
00000200: 8525 0b3d 0552 23bd 28e3 9f3d e5f6 b4bd
00000210: fc71 14bd 0371 403d 04a3 1dbd af33 613d
00000220: 3c28 733d 1117 c23b 8ba0 10bd d96a 123c
00000230: 0e79 64bd ba1c a53d 5c28 873d b66d 9f3d
00000240: 4d06 69bd ed10 8b3d 3efc b1bd 5a23 2d3c
00000250: fec3 30bd aa13 95bd 5fb2 debc c671 83bc
00000260: 6b50 ad3d 6304 35bd 892c d93c a2dc f53a
00000270: 534b 91bd 5253 d8bc 4da7 5e3d 882a 293c
00000280: e587 ad3d 96d6 973c 2783 25bd b545 96bd
00000290: 2e4a 72bd 7f20 bbbc 8b7b 87bc 0605 4fbd
000002a0: ead7 04bd 0de6 ad3d 1511 3b3d 5d58 bebc
000002b0: 9a10 debc f1d5 0bbc ed82 263d 90e2 c13c
000002c0: 8acb 973c 47d1 953d 5ee8 a63d d072 2dbd
000002d0: c6b9 a1bd bda0 49bd 07f3 6d3d 47ea a33b
000002e0: 4226 aa3d e7c8 98b9 13d5 343d 203a 39bd
000002f0: ac80 df3c 7d3d af3d 8de6 95bd 59ed 8a3a
00000300: 542f 62bd 39d7 f9ba 247b 043d b959 013c
00000310: c26e ffbb 8352 693d d357 70bd d5fb 963d
00000320: 2d2e 0e3d 09b2 2dbd 8b74 3d3d 01ec bc3c
00000330: b33d da3c 09d4 503d bfc3 6cbd a9d7 e9bb
00000340: 71b1 863b b516 6b3d 01e9 8cbd e1c4 5e3d
00000350: 579c 783d 302c 873d b7b8 27bc ae56 063d
00000360: 5aaa 4d3d 7604 33bd c27a 7b3d d485 933d
00000370: ae3c 7e3d ffd2 b0bd 3be5 03bd 9486 f3bc
00000380: 41b8 d9bc 1cf9 d1bb dd8e d13b 27b7 8ebd
00000390: 59dc 4d3d 3274 b1bd 995e 243d 9110 ae3c
000003a0: afbe af3d c8bd 22bd 1422 b0bc 3970 9f3d
000003b0: d80e 4f3c 902f b4bd e828 9bbd 10ee a63d
000003c0: cf33 cc3c ed80 9fbd 8853 0e3c d042 93bd
000003d0: 41e7 88bd 0515 9fbc 5f23 a1bc 75ff b23d
000003e0: be27 a7bd 1298 89bd a714 86bd 02ef cd3c
000003f0: 1b64 0a3d bea2 313d 0688 3a3d 3c72 9dbb
0.02573084 -0.00078248786 0.009605888 -0.082867414 -0.039374154 -0.008050185 0.037771743 0.059111945
-0.05391353 0.034844115 -0.03569815 -0.027950473 -0.03276246 0.020128807 -0.06878467 0.0858159
-0.01612646 -0.07890308 0.072342955 -0.058023702 0.010542075 0.035132106 0.040613167 0.0023493601
-0.0096928375 -0.08341962 -0.03617539 -0.06564226 0.0096219145 0.0048976005 -0.010792596 -0.017762683
0.052577265 0.046143264 -0.0689722 0.07113658 0.075688265 -0.015318019 -0.024458257 0.053888276
0.0067400187 -0.027969712 -0.0832227 -0.008377634 -0.08751741 0.07503479 -0.037926737 0.08359697
0.053775195 -0.018144555 -0.06653843 -0.0702993 0.0182375 -0.08602575 -0.076236986 0.069245026
0.0067315367 0.061721414 -0.05274562 0.005914204 -0.045834456 0.033676542 -0.024088368 -0.05476849
0.029343773 0.05213747 -0.0018526595 0.048341326 0.017574234 -0.08258502 0.02990437 -0.026643267
-0.023979153 0.018900976 -0.07982905 0.009327993 0.014086899 0.07036981 0.08468775 0.060568046
-0.038557485 -0.08729706 -0.07797696 0.024363786 -0.034360904 -0.0639063 -0.028227419 -0.08605516
-0.03805815 0.05437722 0.0724072 -0.08092182 0.022141067 0.08627767 -0.06513335 -0.011787831
0.053481672 0.025679559 0.02317182 0.01308 0.03437206 -0.031159565 -0.06376474 0.046145055
-0.07012542 0.0685399 -0.04591387 0.034049973 -0.0023647016 0.0045589088 0.0013644304 0.071701765
0.011931404 -0.07690053 0.08408074 0.03777187 -0.00092100346 -0.086997725 0.019555947 -0.07239784
0.024262002 0.06774104 -0.035747617 -0.03993459 0.06755812 -0.087824635 -0.052466292 0.084826685
0.03397133 -0.03987314 0.078069985 -0.08836154 -0.036241516 0.046982776 -0.038485542 0.05498093
0.059364542 0.00592316 -0.035309356 0.008936607 -0.05577951 0.0806212 0.06599495 0.077845976
-0.056890775 0.06790338 -0.086906895 0.0105675105 -0.043155663 -0.07279141 -0.027184663 -0.016045462
0.08462604 -0.044193637 0.026510494 0.001875777 -0.07094445 -0.026406918 0.05435877 0.010325082
0.084731854 0.01853494 -0.04040828 -0.07337514 -0.059152775 -0.022842644 -0.016538402 -0.0505419
-0.032432474 0.08491144 0.045670588 -0.023235494 -0.027107526 -0.008534894 0.040652204 0.023667604
0.018529672 0.07315307 0.08149789 -0.04234582 -0.078967616 -0.049225558 0.058093097 0.0050022933
0.08308078 -0.00029141383 0.044148516 -0.045221448 0.027283035 0.0855665 -0.07319365 0.00105993
-0.055220917 -0.0019061334 0.032344 0.007894927 -0.007795186 0.056963455 -0.058677506 0.07372252
0.034712005 -0.042406116 0.046253722 0.023061754 0.026640749 0.050983462 -0.057803866 -0.0071363044
0.004110508 0.057394702 -0.068803795 0.054386977 0.060695972 0.06600225 -0.010236911 0.032797508
0.050211288 -0.043705426 0.061396368 0.0720326 0.062069587 -0.08633994 -0.032201033 -0.029727258
-0.026577117 -0.00640787 0.0063952045 -0.06968527 0.050258968 -0.086647406 0.040129278 0.021248134
0.08581292 -0.03973177 -0.021500625 0.07785077 0.012637816 -0.08798134 -0.075761616 0.081508756
0.024927048 -0.077882625 0.008686908 -0.07190478 -0.06684733 -0.019419203 -0.019670187 0.08740131
-0.08161877 -0.06718458 -0.06546908 0.025138382 0.033786874 0.043368094 0.04553988 -0.0048048776

fc3.bias f4 [16]
00000000: d404 c4bc d135 843d 8ec5 75bd 3ace 943b
00000010: 835f 9a3d 4a85 91bd cba4 8dbd ccd4 a33d
00000020: 9d5e fe3b f35d a2bd d6c0 e03b 3dba 8fbd
00000030: 977c ab3c debb 2d3d a6d8 c83b f985 9f3d
-0.023928083 0.06455577 -0.060002856 0.0045411857 0.07537749 -0.07105501 -0.069161974 0.07999572
0.0077627436 -0.07928076 0.0068589253 -0.07017944 0.020933433 0.042415492 0.006129342 0.07789225
