dynamics/src/drl/outputs/RobotOptEnv/20220718-164100/models/dqn_checkpoint.pth (torch, 74071 bytes, 6 tensors)

fc1.weight f4 [128, 6]
000000 06 2f 1f 3e 82 43 9c 3e 51 79 0b 3e a9 f8 cc bd
       0.15545282 0.30520254 0.13620497 -0.10008366
000010 ab 5f 45 3e 18 99 67 3d e1 bf 2b 3e d5 27 a9 be
       0.19274776 0.056542486 0.16772415 -0.33038202
000020 e3 11 0f be 4f d9 a5 3e 94 41 33 be 95 e3 6d 3e
       -0.13971667 0.32392356 -0.17505485 0.23231347
000030 84 fd cf 3e e2 0c 3e bb fa 00 1a 3e 00 06 48 be
       0.40623105 -0.0028999378 0.15039435 -0.19533539
000040 41 00 a1 3e 5d 0f 37 be 59 cb cb 3e 68 5f c9 3e
       0.31445506 -0.17876954 0.3980358 0.39330602
000050 c5 c9 ce 3e 98 cf 29 3e ec ad ce be a3 96 e0 bd
       0.40388313 0.16583097 -0.40367067 -0.10966232
000060 2d 17 cb 3d fb b9 c8 bb 56 40 b6 be 26 c5 c0 3d
       0.0991653 -0.006125686 -0.3559596 0.09412603
000070 02 75 b3 3d a4 a3 8e be e9 09 8a be 79 94 8e be
       0.08762552 -0.27859223 -0.26960686 -0.2784765
000080 58 5b b9 be d9 7a 11 3e cf a5 b3 3e 3d 82 92 be
       -0.36202502 0.14207019 0.3508744 -0.2861499
000090 7c 9e b6 3e ea b6 99 be 6d 6d c5 3e ff cc 98 be
       0.3566779 -0.30022365 0.38560048 -0.298439
0000a0 48 66 20 be 38 3b cb 3e e3 c3 d3 3e 99 42 81 be
       -0.15664017 0.39693618 0.41360387 -0.25246122
0000b0 59 55 8e 3d ba b4 74 3b f5 f0 c2 bd d7 f3 16 be
       0.069498725 0.0037339167 -0.09518615 -0.14741455
0000c0 76 bc 48 be a7 60 cb be 98 3e 6b 3e bd 01 a5 be
       -0.19603142 -0.39722177 0.22973096 -0.3222789
0000d0 09 14 50 3d 47 1a 9d 3d c4 9b b9 bd 07 77 de 3d
       0.050800357 0.07671028 -0.09062913 0.108625464
0000e0 7c 57 f8 3d 04 a6 84 be 76 16 cd 3e 59 b4 af 3e
       0.12126061 -0.2590791 0.400562 0.34317282
0000f0 21 41 4a 3e 3a a5 b5 be 32 34 8a 3e 12 37 6e 3e
       0.19751407 -0.3547762 0.26992947 0.23263195
000100 78 b7 cc 3d 2d 86 92 3d 99 da c7 3d 1e ee 11 be
       0.099959314 0.07154498 0.09758491 -0.14250991
000110 4d 7f 69 be 77 36 65 be ca c6 15 3e f4 68 fa 3d
       -0.22802468 -0.22384058 0.14626613 0.122270495
000120 d6 9d c9 3e 06 37 88 3e ea 37 95 bd f6 7b fc bd
       0.39378232 0.2660448 -0.072860554 -0.12328331
000130 d5 0e 90 3d 3f c9 57 be 1c 38 f5 3c bb 7b bb 3e
       0.07034079 -0.21072863 0.029933982 0.36617836
000140 44 93 1e be d7 b1 63 bd 10 da 9a 3e 1a 3a b9 be
       -0.15485865 -0.055589523 0.30244493 -0.3617714
000150 58 04 4f bd ec d9 66 bd 19 ff 0b 3d ae 1b 93 bb
       -0.050541252 -0.05636017 0.034178827 -0.0044893837
000160 1c 8c 30 3e 79 35 f9 bd b1 87 72 3e c6 63 7a 3e
       0.17240947 -0.12168402 0.23684575 0.24452123
000170 e7 0f 0b 3d a0 c9 85 be af 3a 30 be 2f 39 17 3e
       0.033950713 -0.2613039 -0.17209886 0.14767908
000180 2e 0e c0 3e 6f 79 80 be 7b 1b 1e 3e f0 98 7f 3e
       0.37510818 -0.25092646 0.1544017 0.24960685
000190 ac 29 86 3e 1b 1e 3f be ef 73 50 be 88 e8 35 3e
       0.26203668 -0.18663828 -0.20356725 0.17764485
0001a0 31 fb 0f bd a6 7c e7 bd b0 bc 0f 3e 47 a1 02 3d
       -0.035151664 -0.11303072 0.14036822 0.031892087
0001b0 ba a3 7b be fa 48 94 3e 06 27 45 3e b7 d4 65 be
       -0.24574175 0.28961927 0.19253168 -0.22444426
0001c0 1f 82 ad 3e 33 8e 09 3e 5a f2 a3 be 70 70 a5 be
       0.33888337 0.13433151 -0.32020837 -0.32312346
0001d0 5f 5e 8d be cd 79 df 3d 07 ca 41 3e 48 c6 16 3e
       -0.27611062 0.109119035 0.18924724 0.14724076
0001e0 e4 8b 83 be 5e ad e9 3d 71 6b 4c 3e b9 55 a7 be
       -0.25692666 0.1141002 0.1996286 -0.3268259
0001f0 24 0a 42 be 08 f2 c9 3b e6 49 84 3e bb f7 2c 3e
       -0.18949181 0.0061628856 0.2583763 0.16891377
000200 6f 4a 23 be 34 b8 c3 3e df 9a 3b 3e 9e 84 e5 3d
       -0.15946363 0.38226473 0.18320797 0.11206935
000210 9c 6c d5 3d 1b f0 86 3c 2f ac be 3c 8b 45 8a 3d
       0.10421106 0.016471913 0.023275463 0.067515455
000220 81 78 98 3e 75 f3 b9 3e e7 83 55 3d de 11 ac 3e
       0.29779437 0.36318555 0.052127745 0.33607382
000230 23 89 c9 be 83 9c b5 be a3 31 39 be 77 6b c6 3e
       -0.3936244 -0.3547097 -0.18085341 0.38753864
000240 ee b2 c8 be 20 dd bf be 8f 09 27 bd 87 4a 5c 3e
       -0.39199013 -0.37473392 -0.0407806 0.21512805
000250 d0 7d dc 3d e5 25 47 be df f3 91 be 31 2b bf 3e
       0.10766184 -0.1944805 -0.2850637 0.3733764
000260 b2 a1 ac be ff 3f b9 3e 19 0e ef 3e d1 18 80 3e
       -0.33717114 0.36181638 0.46690443 0.25018933
000270 1c 6e 95 3e bd 46 ca be a9 a5 02 3d 93 59 ad be
       0.2918557 -0.39507094 0.031896267 -0.33857402
000280 96 22 c8 3e d5 79 13 bd 37 5e 71 3e d9 06 99 be
       0.39088887 -0.03600486 0.23571096 -0.29888037
000290 08 ab 47 3b 6f 7c 0a 3e 8f 51 57 3e 03 65 56 be
       0.0030466933 0.1352403 0.21027206 -0.2093697
0002a0 0b 3f bb be 72 df 38 3e e8 20 dc 3d aa b3 cc 3d
       -0.36571535 0.18053988 0.10748464 0.09995206
0002b0 02 12 56 3e 85 2d ae be 0a 11 9d 3e 2d 28 cc be
       0.20905307 -0.34019104 0.30677062 -0.39874402
0002c0 ea f0 9f be 3d 85 46 3e 4f fe 97 3e 62 73 55 be
       -0.3123849 0.19386764 0.2968621 -0.20844796
0002d0 78 a2 36 3d 6f b7 52 be 47 99 c4 be 8e 0a cd be
       0.044588536 -0.20577787 -0.3839819 -0.40047115
0002e0 54 9f 74 3e ba 02 e0 3d 26 77 92 3e f9 93 c2 be
       0.23888904 0.1093802 0.28606528 -0.3800352
0002f0 2a 15 af 3e 8c ad 6e be da d1 06 3e 56 ac 90 3e
       0.34195834 -0.2330839 0.1316599 0.28256482
000300 84 55 46 3e 25 ee db 3d 71 1f f2 bc bf 5b 8d 3e
       0.19368559 0.10738782 -0.029556008 0.2760906
000310 37 05 9f 3e 97 fa a4 bd 48 f6 bb bd 9a a2 88 3e
       0.31058666 -0.08055609 -0.09177834 0.26686555
000320 0a d5 5f be 3a 71 96 be 3d 57 c6 be f5 20 5e 3e
       -0.21858612 -0.2938326 -0.38738433 0.2169226
000330 52 6a c2 3d c9 df 46 be fc 3a 68 bd cb 6b b1 3e
       0.09492935 -0.19421305 -0.056696877 0.34652552
000340 2d 50 b8 bd 0a d7 06 3e e0 96 2f be 97 3e 2f bd
       -0.08999667 0.13167968 -0.17147398 -0.0427843
000350 0d 1e 20 3e c1 af d2 3e 30 cb 51 3e bc ee 33 3e
       0.15636463 0.41149715 0.20487666 0.17571539
000360 76 e5 4c 3e 9a 7a ea 3d 41 2a a1 3e b6 8e 1d 3e
       0.20009407 0.11449166 0.3147755 0.15386471
000370 b6 7a c6 bc 95 e4 6d be ac 32 5c bd cb db f6 bd
       -0.024228435 -0.23231728 -0.053759262 -0.12053641
000380 bc cf e9 3d f0 0d 99 bd b2 53 a3 3e f6 47 af 3e
       0.11416575 -0.074733615 0.31899792 0.3423459
000390 c1 2b 81 be 2a 85 93 be 45 12 04 be e6 3a 45 be
       -0.25228694 -0.28812534 -0.12897594 -0.19260749
0003a0 01 ab 90 3e f2 c8 69 3d 20 4d 68 3e db 87 6b 3e
       0.28255466 0.057076402 0.22685671 0.23001043
0003b0 33 9d b3 3e dc 71 8a 3e d3 6f 9e 3e 8e e6 cc be
       0.3508087 0.27039993 0.3094469 -0.4001965
0003c0 3d 54 57 bd 7f fb a6 be e7 1a 41 3e b1 c9 d0 be
       -0.05257057 -0.3261375 0.18857919 -0.40778878
0003d0 bc 60 b0 be b6 a8 6d 3e 93 66 9b be 01 25 68 3e
       -0.34448802 0.2320889 -0.30351695 0.22670366
0003e0 6a d2 a5 be f5 4b 64 be a6 1a cb 3e 1e a2 09 be
       -0.32387096 -0.222946 0.3966877 -0.13440749
0003f0 e4 56 30 3e 70 cf eb bd 99 d5 ba 3e e5 57 cd 3e
       0.17220646 -0.11514175 0.36491087 0.4010612

fc1.bias f4 [128]
000000 8a f5 20 be f1 3f cf 3c 14 53 ed bd a2 38 c6 bd
       -0.15718666 0.025299044 -0.115881115 -0.096787706
000010 11 9e cf be 0a 58 ea bd 8d 49 6b be 53 b1 49 be
       -0.40550283 -0.11442573 -0.22977276 -0.1969655
000020 98 35 97 be 24 ca 07 be e0 8f 76 be 89 c0 9a 3e
       -0.29533076 -0.13260704 -0.24078321 0.30225018
000030 79 d1 8c be d0 8c 80 3e 56 f8 f8 bc 34 41 c3 3e
       -0.27503565 0.2510743 -0.030391853 0.38135684
000040 af ea 85 3e 40 c6 5a be 21 59 fa bd 70 a4 aa be
       0.26155612 -0.21364689 -0.12224031 -0.3332858
000050 14 01 a7 bd a2 b9 4e 3e a7 6f 0a 3d 92 99 ee bd
       -0.081545025 0.20188001 0.033797886 -0.11650385
000060 8e 12 85 3e 02 5b a3 bd b8 5b 91 be b8 ff cc 3e
       0.2599072 -0.07976343 -0.28390288 0.40038848
000070 9e 4e 00 be 5b fd 9b be 48 e2 84 be 1a 9a a0 3d
       -0.1252999 -0.30466732 -0.2595389 0.078418925
000080 bf 2b a4 3e a8 2b 9a be d8 89 1d 3e e2 07 8b 3e
       0.32064626 -0.30111432 0.15384614 0.27154452
000090 7a ba 02 3d 60 2e 9b be 4d 51 5d be 2d a7 6b 3d
       0.03191612 -0.3030882 -0.21613045 0.057532478
0000a0 70 39 cd 3e d4 89 a1 3e ae c8 82 be 88 44 04 bd
       0.40082884 0.31550467 -0.2554373 -0.03229192
0000b0 10 55 6b be 43 cb a7 be eb d4 af bd d7 ab 4e 3e
       -0.22981668 -0.32772264 -0.08585533 0.20182739
0000c0 86 42 1c 3e f0 14 c1 be 5c e4 20 be 9e 1c 56 be
       0.15259752 -0.37711287 -0.15712112 -0.20909354
0000d0 59 c0 00 be 56 bb 71 3d b7 4f 5e be be c8 cc be
       -0.12573375 0.059016548 -0.21710096 -0.39996904
0000e0 c0 68 78 3d 77 60 35 be 5a 4c ba be 3e 3e 9f 3e
       0.060646772 -0.1771258 -0.36386377 0.31102175
0000f0 22 f1 8c 3e 3f b6 9b 3c 46 61 34 3d 09 56 88 3e
       0.2752772 0.0190078 0.04403808 0.2662814
000100 f9 cf 51 bd 4d 8b c5 3e 8b df 34 be 9c e1 e3 3d
       -0.05122373 0.3858284 -0.176634 0.11127016
000110 19 d3 f7 bc d0 b4 a7 be 9c 7a a1 be f7 b0 1e 3e
       -0.030252026 -0.32755136 -0.31538856 0.15497194
000120 95 01 16 3d 98 2f 04 be e8 8b 67 be 5c 78 4d 3e
       0.036622602 -0.1290878 -0.22611964 0.20065445
000130 49 92 02 3e ed 73 39 be e5 e2 05 3b 74 96 eb 3d
       0.12751116 -0.18110628 0.002042943 0.11503306
000140 a6 98 98 be 45 fa a9 be 37 9b 4d 3e bc 18 2b 3d
       -0.29803962 -0.33198753 0.20078741 0.041771635
000150 f1 cd d0 bd 47 ae 2a 3e 0c ef 86 3e ae 4d 4a be
       -0.1019553 0.16668044 0.26354253 -0.19756195
000160 a3 f1 10 3d e0 a1 38 be b3 7c a0 be c3 c0 84 be
       0.035386693 -0.180305 -0.31345138 -0.25928316
000170 63 76 c2 3e 5a 4c aa be dd e8 c5 3d d7 b5 40 3e
       0.37980947 -0.33261377 0.09663556 0.18819366
000180 ed e8 29 bd 86 4e c3 be ac ba 71 3d f3 d6 24 3e
       -0.0414819 -0.38145846 0.059015915 0.16097622
000190 56 3c f9 3d c8 53 1f 3d c3 5a b5 3d f9 61 a5 3c
       0.12169711 0.03889826 0.08855202 0.020188319
0001a0 41 fd 51 3e f5 82 bb 3e 16 c3 d1 3e ec c0 8c 3e
       0.20506765 0.3662335 0.4096915 0.27490938
0001b0 ef 0d bc 3c 52 f7 27 be b3 80 1f 3e 0f 59 01 be
       0.022955863 -0.16402939 0.15576439 -0.1263163
0001c0 74 53 88 3c 00 8f 66 3e 05 42 2c 3e 58 07 6e 3e
       0.016641356 0.22515488 0.1682206 0.23244989
0001d0 07 14 9e 3e 91 1c b4 3e f3 de bd bd bc 83 9e 3e
       0.30874655 0.35178044 -0.0927104 0.3095988
0001e0 fe 0f db 3d 2a 1c 07 3e 0b 69 95 3e cd 11 86 be
       0.1069641 0.13194337 0.29181704 -0.26185456
0001f0 66 a4 a7 3e 52 9e 78 3e e4 78 06 3e 12 e8 be bd
       0.32742614 0.24279144 0.13132054 -0.09321608

fc2.weight f4 [128, 128]
000000 ae f9 8c bd d9 b2 49 3b b4 98 c1 bc 4e 65 d1 3c
       -0.0688356 0.0030776768 -0.023632385 0.025561001
000010 c8 7c 91 3d 90 9a b6 3c 3a 17 43 bc 5c 40 7f 3d
       0.07103878 0.022290498 -0.011907393 0.062317237
000020 7f a0 06 3d 98 c7 cc bc 5a 56 a0 3d 86 ad f3 bc
       0.032867905 -0.024997517 0.0782897 -0.029745828
000030 4d 11 48 bc 74 a8 83 bd 12 cb a0 bc 89 a6 97 3d
       -0.012211156 -0.06428614 -0.019628081 0.07404811
000040 4f 0a 25 3d 47 37 62 3d 7f 0b 15 bd 9d a4 90 3d
       0.040293034 0.055228498 -0.036387917 0.070626475
000050 b7 b9 6a 3d 01 06 a5 bd c7 7d 19 bd ba f4 dc bb
       0.057306018 -0.08057786 -0.037473466 -0.006743041
000060 2f e1 69 3d f2 29 bb bd 82 42 5c bd c9 c4 b1 bd
       0.057099517 -0.0913886 -0.053774364 -0.08680112
000070 6d 8a b3 bc 0b 72 5b bc 41 02 76 bc 92 e5 83 bd
       -0.021916592 -0.013393889 -0.015015186 -0.064402714
000080 fa a9 92 3a 29 2e 32 3d 7b 6e a7 3d 75 8f 7a 3d
       0.0011189573 0.043501053 0.08175369 0.061171968
000090 3d 21 86 3d 86 9b ef 3c 0e 05 75 3d 5a 2e f7 3c
       0.065493084 0.029248964 0.059819274 0.03017347
0000a0 03 8a f1 bc f5 5f 53 bd e7 e7 bb 3d ba 30 bc 3c
       -0.029484754 -0.051605184 0.09175091 0.022972453
0000b0 46 6e 29 bd 49 d6 22 3c e8 14 d5 3c d1 d1 a2 ba
       -0.04136493 0.009938785 0.026010945 -0.0012422149
0000c0 e6 b1 47 bd a3 66 f5 3b 3b b4 a9 bd 4a eb 9e 3d
       -0.04875364 0.007489042 -0.08286329 0.077597216
0000d0 7e 0e 25 bc 0a b6 55 3d fa 1f 4d 3d 69 0b e5 bc
       -0.010074256 0.05217556 0.050079323 -0.027959542
0000e0 ea 9c a8 bd a5 96 66 bc fe 78 4b 3c 23 66 eb 3c
       -0.08233054 -0.014074002 0.0124189835 0.028735226
0000f0 ed cc 07 3d bc ba a4 bd f2 18 40 3d 2e 6a e2 bc
       0.033154417 -0.08043429 0.04689879 -0.027638521
000100 f3 0d 84 bc ae 2d 05 bd af cc 6f 3d 93 0d a0 bd
       -0.016119933 -0.032514267 0.05854481 -0.07815089
000110 44 41 a1 3d 4d bf 8e bd 2a e6 2a 3c 46 33 23 3d
       0.078737766 -0.069700815 0.010430852 0.03984382
000120 66 0d a2 bd 7c 27 8e 3d e0 88 88 bd 3b f0 a0 3d
       -0.07912712 0.06941125 -0.06666732 0.0785832
000130 9e a3 72 3d f6 0a 9e 3d 59 51 9a bd d6 70 22 3d
       0.05923807 0.077169344 -0.07535047 0.03965839
000140 b1 b8 85 3d 18 50 04 bc 6e 6c 9e bc d0 02 97 bd
       0.06529368 -0.008075736 -0.019338813 -0.07373583
000150 81 08 aa bd ca c4 d1 bd 61 cb c4 3b af 03 8d 3d
       -0.08302403 -0.10242613 0.00600569 0.06885468
000160 dc 1f 62 3d cc 98 09 3d d2 ca 9e bc 47 6d 8f 3d
       0.055206165 0.033592984 -0.019383822 0.07003265
000170 01 35 bd 3d bd 70 54 bb 5b 38 9e 3d e5 2e 51 3d
       0.09238625 -0.003241583 0.07725593 0.051070113
000180 1a f6 90 3c 35 d7 2e bd 4a 09 c2 bc a6 c6 08 3d
       0.017695475 -0.042685706 -0.02368607 0.03339257
000190 08 ba 85 bd 24 5b a0 bd 72 eb d5 bd 1f cc 7e 3d
       -0.06529623 -0.07829884 -0.10445298 0.062206384
0001a0 e4 b1 1e 3d 0b ef 03 3c b1 b9 82 b9 cd 56 17 3d
       0.03874387 0.008052598 -0.00024933883 0.036948014
0001b0 40 18 8f bc e1 a2 d8 3c 03 35 6f bd 06 94 a9 3d
       -0.017467618 0.026444854 -0.058400165 0.08280186
0001c0 c4 12 91 bd c0 93 4f 3d 09 4d 78 bd d8 6b 98 bd
       -0.070836574 0.050678015 -0.06062034 -0.074424446
0001d0 fa 53 91 3d 21 d1 c1 3c 53 74 b9 3d 17 5e 94 bd
       0.070960954 0.02365929 0.0905539 -0.07244509
0001e0 b1 db 84 3d 3a 60 55 3c 39 fc 6b bd 73 aa ae bc
       0.06487215 0.0130234305 -0.057613585 -0.02132151
0001f0 5b 22 b9 3d bf f7 0e bd 9f 93 be 3d 4a 59 5f 3c
       0.09039756 -0.034904238 0.093055 0.013632128
000200 b6 f4 50 bd f7 b1 6e ba 31 c1 5f bd 06 44 87 3d
       -0.051014625 -0.00091054983 -0.0546276 0.06604771
000210 ea 31 5c 3d dd 67 8e 3d 5f 2d 01 3b f6 b8 4a 3d
       0.05375854 0.06953404 0.0019710881 0.0494928
000220 d4 22 9c 3d 1c 56 59 3c 85 dc 9a bd a2 64 85 3d
       0.076238304 0.013265159 -0.07561592 0.06513335
000230 44 7c 19 bd 13 59 83 3d 02 f5 18 3c 3f 99 5d 3d
       -0.037472025 0.06413474 0.009335758 0.054101225
000240 12 5b b7 3b 20 b8 49 3d c7 c5 b4 bd 43 5a 49 bd
       0.005595573 0.04924786 -0.088267855 -0.049158346
000250 29 8a 23 bd 27 a2 a2 3d 5d 4e 21 bd d8 2c 63 3c
       -0.03992668 0.07941084 -0.039381374 0.013865672
000260 85 78 a5 bd fe d3 cb 3d 3e 01 ce bc 92 a6 ac 3d
       -0.08079628 0.09952544 -0.025147077 0.08430208
000270 a9 bc b8 3d 88 51 1d 3c 0e 43 be bc 61 77 b8 bd
       0.09020359 0.009601958 -0.023225334 -0.09007145
000280 c3 02 89 3d f9 0c 4f 3c c6 c0 c2 bb 56 9a 3f b9
       0.0668998 0.01263737 -0.0059433905 -0.00018272674
000290 f5 b1 44 3d 55 a5 df 3c 55 6e c1 ba 3b d5 dd bc
       0.048021276 0.027300516 -0.0014757613 -0.027079215
0002a0 43 16 35 3d f1 f7 70 3d 4a 09 86 bd 81 9e 82 3d
       0.044210684 0.058830205 -0.065447405 0.063778885
0002b0 7e 4b 1e 3d e8 29 4c 3d 2d 96 a6 bd dd bf 12 bd
       0.038646214 0.049844652 -0.081341125 -0.035827506
0002c0 ee e8 3e 3c bb fe 25 3d 8d 54 69 3d 47 6f 8f bd
       0.011652214 0.040526133 0.0569654 -0.07003646
0002d0 e2 d8 df bc 37 f3 65 bd 04 51 cd bc dd 1e 68 3d
       -0.027325097 -0.05614015 -0.025063045 0.05667006
0002e0 b6 a5 6d 3d 80 fe 31 bd 78 24 d8 3c 58 73 e4 bc
       0.058019362 -0.0434556 0.026384577 -0.027887031
0002f0 9f 3e 57 3d fa a0 63 bd d5 c3 7f 3d a6 e4 64 3d
       0.052549955 -0.05557344 0.06244262 0.05588212
000300 90 1c 65 3c 44 3d 06 bc 3a bc b3 3d f2 4a 1d 3d
       0.013983861 -0.008193318 0.08776136 0.03840155
000310 9e 3b 4d bd 2f bf 99 bd 00 56 7b 3c af 5e 6b 3d
       -0.050105684 -0.075071685 0.015340328 0.057463344
000320 86 e9 f3 3c be 2d 83 3d b1 43 9e bc 52 73 bd bc
       0.029774439 0.06405209 -0.019319387 -0.023126278
000330 60 f3 79 3d 0e d0 88 bd 88 74 a7 3d f7 6b 60 3d
       0.061023116 -0.06680308 0.081765234 0.054790463
000340 f1 c9 2b 3c 64 7c 68 3d 8b f4 02 bd ae 88 49 bd
       0.010485158 0.056759253 -0.031971496 -0.049202614
000350 31 bd 25 3d e9 98 f7 ba 16 b7 3f bd fa 40 9d 3d
       0.04046363 -0.0018890175 -0.046805464 0.07678409
000360 c3 87 1a 3d 01 9f 99 3d 5f 19 aa bd e4 5a 93 3b
       0.03772713 0.07501031 -0.083056204 0.004496919
000370 fe bb 15 bc 6c 7d 7b bd b2 39 a2 bd 15 9e 20 3d
       -0.009139059 -0.06139891 -0.07921161 0.03921326
000380 8f c7 d2 3b 4f ee b9 bd 6e 2e 92 bd 86 1e 37 3d
       0.0064324806 -0.09078657 -0.07137762 0.044706844
000390 74 42 81 3c 42 a5 ed 3c b9 5c d0 3d 04 e5 02 bd
       0.015778758 0.029009465 0.101739354 -0.031956688
0003a0 6f 19 9a bd ec 26 3b 3c ea 0a 90 3d 3a e8 d1 3c
       -0.07524382 0.011422854 0.07033332 0.02562343
0003b0 11 83 d0 bc f6 8a 6a bd cb 6a 04 3e 43 4d 90 bc
       -0.025453122 -0.05726143 0.12931363 -0.017614966
0003c0 26 06 44 3c 78 f0 22 bd ff 2c aa 3c 62 a7 36 3d
       0.0119643565 -0.03978011 0.020773409 0.044593222
0003d0 4f 9d 1c bd 85 de 2b bd fb 80 c2 bc a0 e8 39 3d
       -0.03823596 -0.041960258 -0.023743143 0.045387864
0003e0 89 1f 9a bd bc 2f 24 bc 9d 0e a5 3d 72 cf d3 3d
       -0.07525546 -0.010021146 0.08059428 0.103423014
0003f0 1d e3 d2 bc b9 08 8f bd 50 e9 83 bd 7f 2e 37 bd
       -0.025743062 -0.069840856 -0.06440985 -0.044722077

fc2.bias f4 [128]
000000 8e fc 7a bd 49 ac c7 bc b0 de 0a bd 39 5d 8e 3d
       -0.06127601 -0.024374144 -0.033903778 0.069513746
000010 6c 91 91 bd 25 1b 1e 3d c6 57 f9 3c bc 70 77 3d
       -0.07107815 0.038600106 0.030437361 0.060410246
000020 29 50 18 bd fe fa 58 3d 16 4d 23 bd 2f 1f 2e bc
       -0.03718582 0.05297374 -0.039868437 -0.010627552
000030 b1 9c 98 3d ea c3 58 bd 41 41 81 bc 20 06 45 bd
       0.074517615 -0.052921213 -0.015778186 -0.048101544
000040 20 df 9d bd 33 2c f7 3c ee 64 ba bc e5 bf 99 3d
       -0.07708573 0.030172443 -0.022753205 0.07507304
000050 9f bb 1c bd df 92 98 3d ec 6a 82 bd 3a dc 82 bc
       -0.038264867 0.074498884 -0.0636805 -0.015974153
000060 17 40 39 3c ef 02 1d 3d 87 9b 9a 3d cb 9a b9 3c
       0.011306784 0.038332876 0.07549196 0.022656819
000070 8c e0 ed 3c 79 17 45 3d c8 f6 60 bd c5 3b 45 bc
       0.029037736 0.04811809 -0.05492285 -0.012038176
000080 2e a2 0f 3c 60 9a dc bc 8e e5 c8 3c d5 29 4f 3d
       0.008766694 -0.02692908 0.024523523 0.050577004
000090 fa ca 88 bc 49 43 46 bd 83 42 47 bd 43 36 74 3d
       -0.01669835 -0.048404012 -0.048647415 0.05962206
0000a0 ff 4d b6 bc dd ae a5 bd fe 8e 49 bd f5 76 98 3b
       -0.022253988 -0.08089993 -0.049208634 0.0046528527
0000b0 6e 53 0d bd 97 26 a5 3d ba 2d 10 bd 8b cb 60 bd
       -0.034503393 0.08064001 -0.03519986 -0.054881614
0000c0 13 f9 aa 3d 39 cf 5a 3d 60 49 e3 bc e4 8b 55 bd
       0.083482884 0.05342028 -0.027744949 -0.052135363
0000d0 38 f4 2e bd 8b 0a af bd 1a de 3e 3d 3d d1 19 3d
       -0.042713374 -0.08546933 0.04659853 0.03755306
0000e0 02 bf b9 3c 64 8f 72 bd b6 5c 14 3d e7 c6 cb bc
       0.022674087 -0.05921878 0.03622123 -0.024875117
0000f0 0d 06 9a 3d b6 e2 21 3d 30 45 39 3c f4 e4 d1 3c
       0.07520685 0.03952285 0.0113079995 0.025621869
000100 48 9b 08 3d 6a 82 2d bd ea 0f 5d 3d bb c8 8d 3d
       0.033351213 -0.0423607 0.053970255 0.06923052
000110 f4 41 8a 3b ed 19 a1 bd 8b fc 87 bd 36 80 49 3d
       0.004219288 -0.07866273 -0.066399656 0.049194537
000120 a6 22 ac 3d ba 37 8e bc 1a 9b b9 bb 83 97 61 3d
       0.08405046 -0.017360557 -0.0056642415 0.055076133
000130 2e a2 73 bd 59 17 d9 bc 4d a6 20 3d 13 f2 a9 3d
       -0.05948084 -0.02650039 0.039221097 0.08298125
000140 da 21 1d 3d 9a 51 86 3c 75 ed 26 bd a8 b6 9b bc
       0.03836236 0.016396333 -0.0407538 -0.019007996
000150 57 4b f9 3c 19 82 7e bd c1 03 76 3d 3d 64 92 bd
       0.030431433 -0.06213579 0.060062174 -0.07148025
000160 64 74 0a bc 3c 9b 19 3c 8f 0d 08 bc d1 a7 2d 3c
       -0.008450601 0.00937539 -0.008304014 0.010599093
000170 ae 52 76 3c 37 88 8e bc 3f d5 a8 3d 0b e2 b3 bd
       0.015034361 -0.017398937 0.082437985 -0.08783349
000180 8f 60 14 bd 55 2b 78 3c 64 8d 69 3d 3b 1c b9 bc
       -0.036224898 0.01514705 0.057019606 -0.02259647
000190 4d 3b 97 3d 31 56 30 bd 4d 36 61 bd 7b a8 99 3d
       0.073843576 -0.04305095 -0.054983426 0.07502838
0001a0 f1 7c 5f 3d ee 0a 8a 3d 67 75 ab 3c 17 ec 86 bc
       0.054562513 0.06740366 0.020930005 -0.016469998
0001b0 73 26 38 3d e6 23 57 bd 77 a5 a5 3d 2e bb c2 bc
       0.044958543 -0.05252447 0.080882005 -0.023770895
0001c0 7e ed aa bd e9 3f 81 bd 0c 5c 69 3d fb ae b0 3c
       -0.08346079 -0.06311018 0.05697255 0.021567812
0001d0 bf 3d 82 3d 79 b5 da bc 7e 07 20 bd 14 57 62 3d
       0.063594334 -0.026697861 -0.039069645 0.055258825
0001e0 43 11 79 bd 36 d5 da 3b 44 29 79 3d 81 43 46 bd
       -0.060807478 0.0066782488 0.06083037 -0.04840422
0001f0 41 97 e8 bc c8 c0 86 3d 52 ed 5d bd 85 41 2b 3d
       -0.028392436 0.06579739 -0.054181404 0.04181053

fc3.weight f4 [5, 128]
000000 8f 0d 48 bd bf b6 f6 3c 46 61 7a bd dd 97 3b 3c
       -0.048841055 0.030116437 -0.061127923 0.011449781
000010 97 7a a8 bd d2 b8 30 bd 46 8b 83 3c 35 6f 7a bd
       -0.08226507 -0.04314501 0.016057622 -0.06114121
000020 9b 79 3e bd d5 cb b0 3d 85 06 00 3d 58 12 56 3d
       -0.04650269 0.08632628 0.031256218 0.052263588
000030 81 26 a3 3c d0 8f 21 bd 2b db 8f bd ec 01 0b 3d
       0.019915821 -0.03944379 -0.07024225 0.03393738
000040 cb 9a b0 bc 71 ab 19 3d 1d e4 a6 3c 80 56 2e bd
       -0.021558186 0.037517015 0.020372445 -0.04256296
000050 a4 e5 88 bd 04 a9 b6 b9 0b 38 0c bd dd 74 8d bb
       -0.066844255 -0.00034839672 -0.034233134 -0.0043169097
000060 dd fd 25 bd b3 92 46 bd e5 6f da 3c de e9 dc 3b
       -0.040525306 -0.048479747 0.026664684 0.0067417463
000070 13 2f 7f bc 67 4f 9f bb 25 c3 bf ba 3a af 0f bb
       -0.015575188 -0.0048617604 -0.0014630301 -0.0021924512
000080 14 0a 8a 3c fc 21 ae bd 8f 1a 4f bc 9f 95 89 3c
       0.016850509 -0.08502576 -0.012640609 0.016794978
000090 b5 f2 72 3c a2 52 11 bd c0 dd 97 bd cb 2d 8f bd
       0.014828374 -0.035479195 -0.07415342 -0.06991156
0000a0 d1 dd da bb d0 b3 3f bd 37 fc b9 3d 9c ef 42 3d
       -0.0066792746 -0.046802342 0.09081309 0.04759179
0000b0 85 c2 89 3d 09 f6 13 3d 22 28 ef 39 6e bc 98 3d
       0.06726555 0.03612331 0.00045615534 0.07457815
0000c0 9b 06 b8 bc ec c3 ce bc 2d da 81 3d 7c fc 89 bd
       -0.022464087 -0.025239907 0.06340442 -0.06737611
0000d0 65 06 9a 3d e6 5b a9 bd 2b 12 6a bd dc 61 61 3b
       0.07520751 -0.08269481 -0.057146233 0.0034390604
0000e0 4b b5 aa 3d f1 69 7a bd 58 b4 c2 3c 43 98 a7 3d
       0.0833536 -0.06113619 0.023767635 0.081833385
0000f0 8e 4a 74 3d 12 6d b9 bc 32 51 86 bd 29 ff 75 bd
       0.059641413 -0.022635017 -0.065584555 -0.060057793
000100 a8 fa 9e 3d eb a5 13 bd ce 58 64 3d 7e 42 fc 3c
       0.07762653 -0.036046904 0.055748753 0.030793425
000110 a8 40 a5 3d c9 9f 55 bd ea 6a 25 3d 33 be 5f 3d
       0.08068973 -0.052154336 0.040385164 0.054624747
000120 be e6 b9 bc 95 26 26 bd 7e 1a a1 bd b6 3c cc bc
       -0.022693034 -0.04056414 -0.07866381 -0.024931293
000130 44 c4 a8 bd 8e dc ad bd 39 54 6e bd 40 93 fa 3b
       -0.0824056 -0.08489333 -0.05818579 0.007646948
000140 90 1a ec 3c 77 af f6 3c c3 e7 2b 3c a3 d1 8f bc
       0.02882126 0.030112965 0.010492268 -0.017556017
000150 c5 db 49 bd 01 78 aa 3d e7 fb 98 bd ef 51 b6 bd
       -0.049281854 0.0832367 -0.074699216 -0.08902346
000160 51 c5 68 b9 56 eb 50 bd 9a 26 a0 bd 57 98 13 bd
       -0.0002219875 -0.051005684 -0.07819863 -0.036033954
000170 ef 8d b9 bd 76 7a 87 3c 81 3e 99 bc 7a 65 78 bd
       -0.09060275 0.016537886 -0.018706562 -0.06064365
000180 ca 57 1c bc b1 02 71 bc f5 7f d2 3c 70 f7 8a 3d
       -0.009542415 -0.014710114 0.02569578 0.06785476
000190 26 6e 94 bb 1c cf 5a 3d 00 66 e4 3c dd 77 51 3d
       -0.0045297323 0.05342017 0.027880669 0.0511397
0001a0 9e f2 99 3c 46 39 a9 bd 8e 8b fa bc b5 de 5c bd
       0.018792447 -0.08262877 -0.030584123 -0.053923327
0001b0 48 bc 63 3d 94 9b ba 3c 06 a8 85 bc 7f ee 1c bd
       0.05559948 0.022779264 -0.016315471 -0.038313385
0001c0 a1 4c 5e bd e2 c6 86 bd 46 0c 8f bc 95 55 ee 3d
       -0.054272298 -0.06580903 -0.017461907 0.11637417
0001d0 6b 65 83 3d dd 73 d5 3c 24 90 ae 3c 28 41 54 bd
       0.06415828 0.026056224 0.021308966 -0.05181995
0001e0 d8 c8 45 3c d4 e9 87 3d d1 a8 44 bd ad b0 a2 bd
       0.012071811 0.06636396 -0.04801256 -0.079438545
0001f0 a9 d1 58 3d 20 d3 bb bc 00 18 28 bc e6 7b 5c bd
       0.052934323 -0.02292782 -0.010259628 -0.053829096
000200 c2 f6 b5 3d e5 d5 93 3d 7a d1 63 bd 6e 39 13 bd
       0.08884956 0.072185315 -0.055619694 -0.03594344
000210 a3 c7 a6 bc b7 06 d1 3b e0 52 8d 3d fb 5d 83 bd
       -0.020358866 0.0063789743 0.06900573 -0.0641441
000220 64 32 a1 bd da 83 9c 3c c1 ba 64 bb 3f ae 90 3d
       -0.078709394 0.01910584 -0.0034901353 0.07064485
000230 0a 11 db bc 2b 55 a7 3c 60 54 a1 3d eb 2a 9f bd
       -0.026741523 0.020426353 0.078774214 -0.07771858
000240 d5 7c 89 bd 0c d7 5f bc 70 38 42 3d ba 64 65 3c
       -0.06713263 -0.013662111 0.047417104 0.014001066
000250 85 ec 74 bd 61 a5 cd 3c 54 14 6c 3d 26 f5 87 3c
       -0.059795875 0.025103273 0.057636574 0.016596388
000260 b8 38 a1 3d 9e df 49 bd 14 ab 9a bd 66 82 9f bd
       0.07872146 -0.049285524 -0.07552162 -0.077885434
000270 3b 65 ef bc 26 fb 0a 3c 99 5f a8 3d be 83 8d bc
       -0.029223075 0.00848273 0.08221359 -0.017274734
000280 38 cd 3b 3d 54 b0 90 bd 8d 1d b7 3d 0f 82 62 3d
       0.04585001 -0.07064882 0.08941183 0.055299815
000290 f6 a3 8e 3d 91 f1 0b bb 98 e5 d8 3c 6e fb 48 3d
       0.06964867 -0.0021353702 0.026476666 0.049067907
0002a0 e7 b6 49 3d 89 7f 4b bb 85 74 84 3d a0 9b a9 bd
       0.049246695 -0.0031051359 0.06467537 -0.08281636
0002b0 7b f9 cd bc a7 a8 95 bb e6 4f 79 3d f0 03 86 bc
       -0.025143376 -0.004567224 0.060867213 -0.0163593
0002c0 16 3d 95 3d 02 4e 3f 3d 2e 93 9c bd 51 75 5d bd
       0.07287042 0.046705253 -0.0764526 -0.05406696
0002d0 d6 9a 39 bd 79 df 92 3c ea 10 af bd 90 4c 53 bd
       -0.04531368 0.017928826 -0.08548148 -0.051586688
0002e0 f8 73 ad bd 2f 70 56 3d d0 8f 25 3d 86 3e f1 bc
       -0.08469385 0.05235308 0.040420353 -0.029448759
0002f0 b9 57 1c 3d 3f 47 93 bd f4 0b af bd bf af 12 bd
       0.038169596 -0.071913235 -0.08547202 -0.035812136
000300 3d 3a f6 3b bc 33 c9 bc 16 bf e9 bc 8c 0b 84 3d
       0.0075142668 -0.024560802 -0.0285335 0.06447515
000310 0a a3 84 3d 92 7b 8c 3d b9 6f 56 3d 0c 93 a6 3b
       0.0647641 0.06859507 0.05235264 0.0050834473
000320 43 7c 8f 3d f6 5f 9d 3d 23 a3 0e 3d a5 8e 89 3d
       0.07006123 0.07684319 0.034823548 0.067166604
000330 e0 1c c9 3c 28 d0 65 3c 45 d3 87 bd 91 3d 09 3c
       0.024549901 0.014026679 -0.06632093 0.008376495
000340 f6 a3 9d bd 1c e3 85 3d 7e 03 98 3d 67 b2 0e bd
       -0.07697289 0.06537458 0.07422541 -0.034838106
000350 41 0d 05 bd 17 8f d8 bc bb da 7c 3b d6 ab 53 bd
       -0.032483343 -0.026435418 0.0038582522 -0.051677547
000360 36 27 a2 3d 9a ad 0d bd b5 a8 6a bd f5 93 25 bd
       0.07917635 -0.034589387 -0.057289798 -0.040424306
000370 07 0c 6f bd 85 15 41 3d f6 ae 6b 3d a6 2f 32 bd
       -0.05836108 0.047139663 0.057539903 -0.043502472
000380 23 e7 ab 3d 1b 3d 98 3d d1 7e 4f bd 18 5a e7 3b
       0.08393695 0.0743353 -0.05065805 0.0070603006
000390 7c a6 75 3d 03 ad 81 3d 52 75 b6 3d 22 d9 38 3d
       0.059973225 0.063318275 0.08909096 0.04512895
0003a0 53 64 86 3c 05 2e d3 3d 01 ce 75 3d 29 90 c7 3d
       0.01640526 0.10311512 0.060010914 0.09744293
0003b0 80 a6 40 bd 92 04 28 3c f5 51 71 3d af 2a 29 bd
       -0.047033787 0.010254996 0.05891605 -0.041300472
0003c0 f0 86 5a 3c 6c 46 6b bd 8d f3 ab bd 12 ce d1 3d
       0.013337836 -0.057440206 -0.08396063 0.10244383
0003d0 58 9e b9 3d 20 3d 66 bd ca 76 a3 3d f6 e7 16 3d
       0.09063405 -0.056210637 0.079816416 0.03684231
0003e0 3f ff 5a bd af f2 97 bd 21 c7 6f 3d a6 69 3f 3d
       -0.053466078 -0.07419335 0.058539513 0.046731614
0003f0 4e 80 68 bd ee 35 99 3d 18 c0 52 3d 72 fd a2 3d
       -0.056762986 0.074809894 0.051452726 0.07958497

fc3.bias f4 [5]
000000 ca 8e 20 3d ae cd 53 bd 43 1b 30 3c a0 89 05 bc
       0.039198674 -0.051709823 0.010748687 -0.008150488
000010 92 e7 a8 bc
       -0.020618234
