dynamics/src/drl/outputs/RobotOptEnv/20220721-144530/models/dqn_checkpoint.pth (torch, 81735 bytes, 6 tensors)

fc1.weight f4 [128, 9]
000000 28 51 57 be 18 3b 0c be 43 28 40 3e f6 4d 2a be
       -0.21027052 -0.13694417 0.18765359 -0.16631302
000010 9c 92 90 3e ab be cd 3c e0 24 38 bd ab 4c b6 bd
       0.28236854 0.025115332 -0.04495704 -0.08901342
000020 8b 61 49 3d ee f6 97 3e 36 6c 18 be 56 9d b5 bb
       0.04916529 0.2968058 -0.14885029 -0.0055424375
000030 30 e2 c9 3d 6b a0 fa bc bc 2e 9c be b6 ee b5 bd
       0.09857595 -0.030594071 -0.30504405 -0.08883421
000040 d6 48 89 be 7b 27 2f be 88 1d 33 3e 2e e6 75 be
       -0.26813382 -0.17104904 0.17491734 -0.24013588
000050 80 b0 2e 3c 36 5b 69 3e b8 df 9b be d0 89 a5 3e
       0.010662198 0.227887 -0.3044412 0.32331705
000060 5b c5 7c be a3 39 06 3e 96 bc f2 bc 00 ad 7b bd
       -0.2468466 0.13107924 -0.02963094 -0.061444283
000070 13 34 44 be 8b c6 64 be dc da 8e 3e 56 04 b5 bd
       -0.1916049 -0.22341363 0.2790135 -0.08838718
000080 28 f9 1e be 07 bc a3 be 56 26 1d 3c b6 2e 03 3e
       -0.15524733 -0.3197939 0.0095916595 0.12810788
000090 d6 47 8b 3d 56 d8 e0 3b 0f 5f a3 3e a7 63 91 3e
       0.06800811 0.0068617268 0.3190846 0.2839634
0000a0 b3 7a 7f 3e 2b 91 a4 bc 2c 5c a8 3e c0 d9 bb bc
       0.2494915 -0.020088753 0.32882822 -0.02293098
0000b0 12 1d 98 3e 00 ff 38 bd eb 34 19 3e d0 c3 98 3e
       0.2970968 -0.045165062 0.14961593 0.29836893
0000c0 f0 47 4a be 10 f8 41 3e 36 0f 32 3d 30 81 dc 3d
       -0.19754004 0.18942285 0.043471538 0.10766828
0000d0 6e ec 64 3e 76 1d 91 bd 96 38 e2 bc 2b f6 dc bc
       0.22355816 -0.07085697 -0.027614873 -0.02697285
0000e0 36 18 13 bd ec 20 81 3e 70 18 47 3e 8e 98 5b 3e
       -0.03591176 0.2522043 0.19442916 0.21444914
0000f0 b0 4b 88 be cf 32 96 3e 2b c0 a4 3c 26 56 f7 3d
       -0.26620245 0.2933564 0.020111164 0.120769784
000100 a0 a0 81 bd 3e 94 07 be 7e 20 31 3e a2 f3 8e be
       -0.06329465 -0.13240144 0.17297551 -0.27920252
000110 06 71 67 3e 00 ad 07 3e 16 6b 69 3d 96 99 a5 3d
       0.22601709 0.13249588 0.05698689 0.08085935
000120 56 2f 1b bd 16 fd ca 3d e0 34 ba bd 03 50 7b 3e
       -0.03788694 0.099115536 -0.09092116 0.24542241
000130 30 1b db 3d 46 96 34 be e0 e9 fd 3d 80 4f 57 3e
       0.10698545 -0.1763545 0.12398124 0.2102642
000140 70 40 76 be ff 08 a6 be 60 cb a6 be f3 b2 69 be
       -0.24048018 -0.32428738 -0.32577038 -0.2282217
000150 6b d4 dd 3d d0 ea 27 be 06 c6 e9 3d 00 8c f7 3b
       0.10831531 -0.16398168 0.11414723 0.007554531
000160 bb f7 c0 bd 57 41 83 be 00 5b 44 be 63 7d 5b 3e
       -0.09422251 -0.25635788 -0.19175339 0.2143455
000170 5e 63 a2 3e 56 2d 6e bc 00 2c e5 bc f6 6f 28 3d
       0.31716436 -0.014537176 -0.027975082 0.0411224
000180 76 0f 22 3e e6 7e 0b 3e 78 05 4e 3e d6 00 e8 bd
       0.1582621 0.13622627 0.20119274 -0.113282844
000190 e0 fa 0c bd eb 99 0d 3e 28 df 77 3e 66 44 34 be
       -0.03441894 0.13828246 0.24206221 -0.17604217
0001a0 9b 91 9f be 56 dc e0 3b 83 a3 4d be c3 32 28 be
       -0.31165776 0.0068622036 -0.20081906 -0.16425614
0001b0 7e d5 05 be f0 d2 a0 bd c2 74 9f 3e e0 89 a8 3e
       -0.13069722 -0.07852733 0.31143767 0.3291769
0001c0 58 b3 18 be 9a 0d a4 3e 1b 15 2c 3e 06 6a 2e be
       -0.14912164 0.32041627 0.16804926 -0.17032632
0001d0 00 c7 a0 3c 86 5f 0f 3e 20 df a6 bd 93 3b 77 be
       0.01962614 0.14001283 -0.081480265 -0.2414382
0001e0 16 a2 1b 3d db 43 61 3e 46 0b 99 3d 5b 43 0d be
       0.037996374 0.21998541 0.07472853 -0.13795225
0001f0 6e dd 7d be 62 d0 9b be c0 5f 3e bd 50 17 7c 3e
       -0.247915 -0.3043242 -0.046478033 0.24618268
000200 40 d7 87 bd 1e ef 16 be eb ae 26 3e 28 df 95 be
       -0.066328526 -0.14739653 0.16277663 -0.29271817
000210 e6 81 19 be 06 db 96 3e 50 96 f9 bd 08 37 1f be
       -0.14990959 0.29463977 -0.12186873 -0.15548337
000220 53 f5 40 be 8f 68 98 be b3 01 2e be 4b 4d 5c 3e
       -0.18843584 -0.29767272 -0.16992836 0.2151386
000230 2b 65 88 3e 70 49 46 be 6b 48 b9 bc 9c 2a 8e be
       0.26639685 -0.19363952 -0.02261754 -0.27766883
000240 3e ee 95 be 0e 96 9f 3e 70 79 42 3e 23 71 42 be
       -0.29283327 0.3116917 0.18991637 -0.1898847
000250 a0 97 08 be 16 f6 5b 3d f3 a3 97 be 1b fe 72 be
       -0.1333909 0.053701483 -0.2961727 -0.23729746
000260 a0 a0 49 be 53 72 82 3e 48 e1 8a 3e 30 fa 69 3e
       -0.1969018 0.25477847 0.27125 0.22849345
000270 e0 4d 55 be 73 66 53 be bc f8 99 be 98 32 47 be
       -0.20830488 -0.2064455 -0.30072582 -0.19452894
000280 00 17 62 3c 00 1c c1 bb 08 aa 4f be 86 c7 de 3d
       0.013799429 -0.0058932304 -0.20279706 0.108779
000290 b7 f7 8f 3e 3b f6 3b be 66 73 47 3e 60 c9 b7 bd
       0.2811868 -0.18355648 0.19477615 -0.08973956
0002a0 63 e0 3b be 83 28 54 3e e3 55 9c 3e 58 97 8c 3e
       -0.18347315 0.20718579 0.30534276 0.27459216
0002b0 00 6f 01 3c 2b 3f 3c bd 56 18 aa bc c0 fb 87 bd
       0.0079 -0.04595868 -0.020763557 -0.066398144
0002c0 be ca 9b be 73 42 2d 3e df 2e 94 be fe 54 16 be
       -0.30428118 0.1691988 -0.2894201 -0.1468086
0002d0 80 0f 46 3c 90 74 8b 3d d6 6c 86 3d 4b 4e 4f be
       0.012088656 0.06809342 0.065637276 -0.2024471
0002e0 40 10 d8 3d 0f 0f 8f 3e d6 f7 4d be fc 6d aa be
       0.105499744 0.27941176 -0.20114073 -0.33287036
0002f0 04 ed a8 be c3 78 3a be 60 62 85 be 6f 43 8a be
       -0.3299333 -0.1821013 -0.26051617 -0.27004573
000300 00 b8 ee bc 2e 0c 1d 3e c0 fa 3c 3d 3b 99 97 3e
       -0.029140472 0.15336677 0.04613757 0.29609093
000310 b3 13 07 3e e8 4a 7f be 77 93 9b 3e e8 dc 1a 3e
       0.13191108 -0.24930918 0.30385944 0.15123332
000320 4b a1 c7 3d 9e 2e 7a be 6b 42 e1 bc 9e cc 8a be
       0.09747561 -0.24431846 -0.02749749 -0.27109236
000330 48 d0 10 be 2b 76 92 3e 48 d9 5a 3e 44 a4 9b be
       -0.14141953 0.2860578 0.21371949 -0.30398762
000340 5c 5d a8 be 00 fb a2 3d c3 54 3b 3e dc 66 9e be
       -0.32883728 0.07958031 0.18294053 -0.3093785
000350 66 7c e8 bd 70 d4 2e be 0b 5f 44 bd ab ca e4 39
       -0.11351852 -0.17073226 -0.047942203 0.00043638548
000360 10 62 2f be f2 1c 8a be 17 8d 9b 3e 40 18 6a be
       -0.17127252 -0.2697521 0.3038108 -0.22860813
000370 66 cb 8d 3d ab b2 52 3d 4b d1 60 3d cb b8 a3 3e
       0.06923561 0.051439922 0.054887097 0.31976923
000380 4f 80 a1 be 26 bd 8f bd 0e a6 33 3e 28 a0 24 3e
       -0.31543204 -0.07018499 0.17543814 0.1607672
000390 d6 37 a0 3e 38 1c 9f be f7 14 94 3e 6b 54 21 3d
       0.312926 -0.31076217 0.28922245 0.039387148
0003a0 80 9a 99 3d 48 bf 6d be 3b 2a 27 3e eb a7 49 3e
       0.07500172 -0.232175 0.16324703 0.19692962
0003b0 73 fa 82 be a8 da 2e be 2e 7e 74 3e eb d3 60 3d
       -0.25581703 -0.17075598 0.23876259 0.0548896
0003c0 50 ae 64 3e a0 b3 98 bd eb fd 99 3e 73 da 8f be
       0.2233212 -0.07456136 0.30076537 -0.2809635
0003d0 63 7e 4e 3e b6 ab c4 bd fb a6 a9 be ab 84 c2 bc
       0.201654 -0.09603064 -0.33135208 -0.023744902
0003e0 eb 7d 8a 3d e3 e5 0d 3e 76 46 41 3d 23 fb 28 3e
       0.06762298 0.13857226 0.047186337 0.16502051
0003f0 fe eb 01 be 96 21 0b bd 74 c9 9e be 08 8f 6b be
       -0.1268768 -0.033967577 -0.31013072 -0.23003781

fc1.bias f4 [128]
000000 e8 64 5c 3e 9b 14 21 be d6 09 29 3c c0 1a b3 bd
       0.21522868 -0.15730517 0.0103172865 -0.087453365
000010 e0 2b 4e bd 16 fb d3 3c 6e 72 20 be 66 b0 ee 3d
       -0.05033481 0.025876563 -0.15668651 0.11654739
000020 70 47 47 be d6 6b 10 3c db c8 64 be 40 56 6e 3e
       -0.19460845 0.008814773 -0.22342245 0.2327509
000030 fe 9c 54 3e 50 cf 69 be 4e 90 5c 3e 0b 7d 3b be
       0.20763013 -0.2283299 0.21539423 -0.18309419
000040 10 56 07 3e 86 c6 13 be b8 a3 14 be e0 2c 83 3d
       0.13216424 -0.144312 -0.14515579 0.064050436
000050 b6 c3 22 bd 13 ef 7b 3e 40 b3 fc 3c b6 4d 58 3e
       -0.039737426 0.24602918 0.030847192 0.21123394
000060 7c 4b a0 3e 73 e4 a0 3e 0b ba 4f 3e ae 9e 90 be
       0.3130759 0.31424293 0.20285814 -0.28246063
000070 b6 c2 36 be 10 76 44 3e b0 1f 50 3e 4b 10 42 3e
       -0.17847714 0.19185662 0.20324588 0.18951528
000080 2b f4 75 be 56 66 21 bd 80 e8 d6 bc 07 60 94 3e
       -0.24018924 -0.039404236 -0.026233912 0.28979513
000090 db 57 90 be 0f 40 a0 3e 68 b7 35 be db 0c e7 3d
       -0.28192028 0.31298873 -0.17745745 0.11281749
0000a0 0b 87 52 be 56 0d 52 ba d0 6c ae bd 10 26 37 be
       -0.20559327 -0.00080128515 -0.08516848 -0.17885613
0000b0 56 51 d6 3a 6b ab 5e be d0 0d 23 be 6e 90 64 3e
       0.0016351144 -0.21745078 -0.15923238 0.2232072
0000c0 7b 92 ed 3d ce dc 6f 3e fa 53 a0 be f4 91 92 3e
       0.116002046 0.23424074 -0.3131407 0.28626978
0000d0 6b 01 94 3e 3b f2 d7 bd 33 b6 16 be ab 14 7d bd
       0.28907332 -0.10544249 -0.14717941 -0.06178729
0000e0 96 95 3a bd b6 5b 31 3d b6 9e 35 bd f0 bb a3 bd
       -0.045552813 0.043300353 -0.04434081 -0.079948306
0000f0 c6 3a 8f bd 80 75 9c bd 2b 57 7e 3c bb c6 32 3e
       -0.06993632 -0.07639599 0.015523712 0.17458622
000100 cb bf 75 be b2 bb 93 be 56 c7 fb bd 16 e7 27 3d
       -0.23998944 -0.28854138 -0.1229388 0.040991865
000110 c3 e2 87 3e 76 4d 71 3d c0 a7 a2 3e fb 73 88 3e
       0.26540193 0.058911763 0.31768608 0.26650986
000120 0b 77 76 3d 96 16 bd 3c 56 a1 3c be 26 fc 5b be
       0.060172122 0.023082059 -0.1842092 -0.21482906
000130 76 66 62 3e 16 40 28 bd 13 45 1e be ab 4b 51 be
       0.22109398 -0.041076742 -0.15456037 -0.20439021
000140 56 d7 c0 bc 60 a9 18 bd ea 3d 84 3e 6e 61 7f 3e
       -0.02354018 -0.037270904 0.25828487 0.2493951
000150 70 56 89 3e 50 6c 75 3e 46 5f 17 be db fc cf 3d
       0.2682376 0.23967099 -0.14782438 0.1015565
000160 43 af 87 be 80 06 4c 3e 2f c3 a9 be 87 14 87 be
       -0.26500902 0.19924355 -0.33156726 -0.2638285
000170 3b 78 50 3e 72 f0 a1 3e 76 4a 86 be 90 b8 e1 bd
       0.20358364 0.31628758 -0.26228684 -0.11021531
000180 2b 49 2f 3d 6e 47 03 be 53 03 31 be 56 7e 09 bc
       0.042794388 -0.12820217 -0.17286424 -0.008391937
000190 9e aa a4 be 76 e6 89 be 2c 32 8a be 90 1e da bd
       -0.3216142 -0.2693364 -0.26991403 -0.106503606
0001a0 a0 d1 4e 3d 16 65 c5 3c a6 75 fa 3d 64 eb a8 be
       0.050492883 0.024096053 0.12229471 -0.3299209
0001b0 68 06 07 be 16 a3 ed 3d 62 33 83 3e bc 17 92 be
       -0.13186038 0.11603372 0.2562514 -0.28533733
0001c0 18 49 6c 3e 6b d2 e3 bc 4e 55 9b 3e e6 ec 55 3e
       0.23074758 -0.027810296 0.3033852 0.20891151
0001d0 ab c5 c5 3c be fd 72 be 4b af 62 3e 10 4a 0c 3e
       0.024142107 -0.23729607 0.22137181 0.13700128
0001e0 8a 74 a5 be 6b 2e 44 3d 68 c3 1b 3e 80 7e 4a 3c
       -0.32315475 0.04789583 0.1521126 0.0123592615
0001f0 18 b0 82 3e b0 66 7c 3e da f8 8c be 36 4a ed bd
       0.25524974 0.24648547 -0.2753361 -0.1158642

fc2.weight f4 [128, 128]
000000 90 ab 74 3d 96 ac 95 3d c7 2e 85 3d fb 39 db bc
       0.059733927 0.07308309 0.06503063 -0.026761046
000010 d6 d2 94 bd 1a 9b 95 bd ae ec 83 bd b5 76 a8 bc
       -0.07266776 -0.07304974 -0.064416274 -0.020564416
000020 f0 43 91 3c 49 43 ec bc 11 1c 04 bd 9b c1 9b bd
       0.01773259 -0.028840678 -0.03225333 -0.07605287
000030 37 ad 97 bd 9e 5a fd 3c f9 da fe 3a fd 35 12 3a
       -0.07406085 0.030926999 0.0019443921 0.0005577503
000040 fc 56 59 3d 31 78 b0 bc 45 56 32 bd 3c 6c 13 bc
       0.05306147 -0.021541687 -0.043539304 -0.008997973
000050 f0 5b 13 3d e7 e1 de bc e4 f1 58 3d 37 ea 2b 3d
       0.03597635 -0.027207328 0.05296506 0.04197141
000060 cc 8f 9f bd a7 8a 34 3d be 7a 83 bd 6e 91 44 bb
       -0.07791099 0.04407754 -0.064198956 -0.002999391
000070 98 cb 2a 3c 28 0b 0b 3d 8a 78 af bd bb 1e 38 3d
       0.010424517 0.033946186 -0.08567913 0.04495118
000080 ca 93 8a bd b0 c9 16 bd 4a a1 58 bd 94 d7 76 bd
       -0.0676647 -0.036813438 -0.052888192 -0.060264185
000090 a7 bc e1 3c bf 4e 45 3d d3 4e 9a 3d 95 81 38 3d
       0.027555777 0.0481708 0.07534566 0.045045454
0000a0 64 bc 56 3d 7a 7c 87 bd a2 e8 49 bd 6d 9d aa 3d
       0.052425757 -0.06615539 -0.04929412 0.08330808
0000b0 0f 09 ac bd 92 8e 39 bd 6f 28 a9 bc b4 fb 81 bd
       -0.08400165 -0.04530198 -0.020649163 -0.06346837
0000c0 28 47 b0 bc 42 25 50 3d 29 78 2d 3c c9 c3 1b bc
       -0.021518305 0.05081678 0.01058773 -0.009507128
0000d0 57 ad 8d 3c 3e b5 97 3d cc 2c 12 3d 57 ce ae bd
       0.017294569 0.07407616 0.035687253 -0.0853545
0000e0 10 10 70 ba 0c 2a 3c bd c2 96 09 bd 14 16 86 bd
       -0.0009157667 -0.045938537 -0.03359104 -0.0654718
0000f0 fa 51 4f bd 9d eb 85 bd b1 9a e5 bc 20 64 8a bd
       -0.05061529 -0.0653908 -0.028027864 -0.067573786
000100 0e 31 99 3d 5c 70 3a 3d 8e 7d 22 bd 38 f4 87 3d
       0.074800596 0.04551731 -0.03967052 0.06638378
000110 af 67 a3 3d 8d 13 92 bd fa 99 86 3c 34 bf 82 3d
       0.079787605 -0.07132635 0.016430844 0.06384125
000120 db c9 6c bd f8 0a f2 bc 56 7e 7f 3d 92 46 21 3d
       -0.057809692 -0.029546246 0.062376343 0.03937394
000130 56 7b 8c 3d 6d 29 64 3d f6 99 78 bd 50 7b dd bc
       0.06859462 0.05570357 -0.060693704 -0.027036339
000140 66 c8 22 3d a3 f6 72 bd 3e df 66 bd 0a c2 19 3d
       0.039741896 -0.059317242 -0.056365244 0.037538566
000150 2b f5 0f 3d da 48 09 3d 57 62 03 3d e9 4c 6b 3d
       0.03514592 0.033516742 0.032076206 0.057446394
000160 e5 f0 80 3c ef 8d 1b 3d cb 66 e4 bc 0f ff 06 bd
       0.015739867 0.037977155 -0.027881047 -0.032958087
000170 7a 65 0e bb 1f cc 9b 3d 52 78 9b bd fc 19 6c bd
       -0.0021727965 0.076072924 -0.07591309 -0.057641968
000180 84 bc b3 bd 2b 84 92 bc be 57 9e bd 11 bc 7d 3b
       -0.08776191 -0.017885288 -0.07731579 0.0038716833
000190 32 79 71 3d 22 55 9d 3c f7 26 44 bd 9e 33 ca 3c
       0.05895347 0.019205634 -0.047888722 0.024682816
0001a0 8c 55 22 3d ed 4f b4 bd a2 2f 6d 3d a5 97 6b bd
       0.039632365 -0.08804307 0.057906754 -0.057517666
0001b0 1c ec a5 3d 67 65 89 bd a3 3a b0 3d 2b 4f 8c bd
       0.08101675 -0.06708794 0.08604934 -0.068510376
0001c0 82 e1 57 3d 06 bc 4c 3d 1e 0e c6 bb 42 3d 73 3d
       0.052705295 0.049984 -0.0060441634 0.059384592
0001d0 7f 65 b3 bd 80 be ca 3c fa 7b 37 bd ca a8 1e 3c
       -0.08759593 0.02474904 -0.044795968 0.009683797
0001e0 de 4b 89 bd 33 69 6f 3d 61 c9 7d bd 19 a9 a0 3d
       -0.06703924 0.058449935 -0.061959628 0.07844753
0001f0 0e 65 75 bd 5e a9 04 3d 74 35 e3 3c cd 27 82 3c
       -0.059910826 0.032388084 0.02773545 0.01588812
000200 52 03 92 bd 04 d9 24 3b fa e8 53 bd 2e 82 c9 3b
       -0.071295395 0.0025153765 -0.051735856 0.006149552
000210 a4 8d 86 bd 45 0b 9c 3c e0 65 92 3c 90 68 57 3c
       -0.065699846 0.019048342 0.017870843 0.013147488
000220 21 8b a1 bd 22 52 94 3b b0 45 a2 bd c8 4e 8a 3c
       -0.07887865 0.0045263926 -0.07923448 0.016883269
000230 24 b7 4a bc 2e d8 b4 3c 61 cf 8c bd 9c 57 a6 bd
       -0.012372766 0.022075739 -0.06875492 -0.08122179
000240 5e 08 fa 3c c5 bc cf bc 63 9e a9 bd 2d 18 78 3d
       0.030521568 -0.025358567 -0.08282163 0.06056993
000250 f8 b3 a2 3c 75 4d 51 3d 5f 84 70 bd c2 af 84 bd
       0.019861206 0.05109926 -0.05871999 -0.06478836
000260 e6 bc 6b bd 7a 11 18 3d bf 8b 89 bd d6 4a 19 3b
       -0.057553194 0.037126042 -0.067161076 0.0023390553
000270 c7 2b 8a 3d b2 ea 3d bd 66 0e 67 3d 2f 5e bc 3c
       0.06746631 -0.0463664 0.056410216 0.022994129
000280 b9 93 8a bb 42 a8 cc bc b3 31 34 3d 48 90 c8 bc
       -0.0042290357 -0.024982575 0.04399271 -0.024482861
000290 52 aa 2b 3d a1 c3 73 3d 19 1f a3 bd 23 0b 90 bd
       0.041910477 0.05951274 -0.07964916 -0.07033374
0002a0 9d 7d d8 bb ae 47 7b bd 28 cc 7c 3d c0 de 52 3d
       -0.006606771 -0.061347656 0.061718136 0.051481962
0002b0 d4 bd 6f 3d 85 9e 40 3d 00 ab a2 bc ad 2a 3a bd
       0.058530644 0.047026176 -0.01985693 -0.045450855
0002c0 4b a4 80 3d 4d 51 9c 3d 56 23 ae 3d bf 7c 14 3d
       0.062813364 0.076326944 0.085028335 0.03625178
0002d0 08 64 1c bb b8 54 1e 3d 90 4d a5 bd 5d 07 8a 3d
       -0.0023863334 0.038655013 -0.080714345 0.06739686
0002e0 59 aa 98 3d fd b3 25 bd dc a3 72 3d e6 5b 3e 3d
       0.07454366 -0.040454853 0.0592383 0.04647436
0002f0 f8 af 05 38 7d 8b 52 3d 03 ed 86 3d 8c 93 3a bd
       3.1873555e-05 0.051402558 0.06588175 -0.045550868
000300 9e 1a 4c bd 4c eb 1a bd e5 83 03 bd c6 b7 13 bd
       -0.04983007 -0.037822053 -0.032108206 -0.036063932
000310 2a 2e c9 3c b1 39 77 bd 03 5a 61 ba 66 75 05 bd
       0.024558146 -0.060357753 -0.00085964816 -0.032582663
000320 a3 64 7f 3c 00 41 a9 bd 80 0f 89 3c dc a8 8e bd
       0.0155879585 -0.08264351 0.016731024 -0.06965801
000330 87 1b 5a bd d8 2c c8 3c 28 e7 c6 bc b8 95 80 3d
       -0.05324891 0.024435446 -0.024280146 0.062785566
000340 7a d6 95 3d 27 70 59 3d 29 aa 3b bc ab 23 fc 3c
       0.07316299 0.053085472 -0.011454144 0.030778727
000350 73 ef a1 3d 56 26 8c 3d ff b8 d7 bc 99 01 03 3d
       0.079069994 0.068432495 -0.02633333 0.031983946
000360 ca f8 87 bd 1d 2f bd 3c 47 d8 88 3b c8 ff 38 bd
       -0.066392496 0.023093754 0.004176173 -0.045165807
000370 8a 51 80 3d 78 70 94 3d 3d c9 4a 3d a9 a8 4b 3c
       0.06265552 0.07248014 0.049508322 0.012430348
000380 fa ad 4d 3d 25 65 c9 bc a1 c0 55 bd 64 25 c5 3a
       0.050214745 -0.024584362 -0.05218566 0.001504105
000390 e7 d5 50 3d 45 7c 92 bd 0b df f5 3c 66 22 84 3c
       0.050985243 -0.07152609 0.030013582 0.016129684
0003a0 4f c4 0b ba 25 d4 e5 3c 48 1e c4 3c 8f bd b1 3d
       -0.00053316815 0.02805526 0.02394022 0.086787336
0003b0 aa 31 a5 bd 58 7f 95 bd 67 79 8b bd 46 80 a8 3c
       -0.08066113 -0.072996795 -0.06810265 0.020568978
0003c0 56 10 a8 3d bb 6f fb bc e9 eb 85 3d 5f 43 85 bd
       0.08206241 -0.030692926 0.06539137 -0.06506991
0003d0 54 16 8a 3d e6 f3 74 3d 81 5d 89 3c 70 52 0c 3d
       0.0674254 0.059802912 0.016768219 0.034258306
0003e0 ce 43 a3 bd d9 46 0e 3d 8b e1 8b 3c a1 14 f2 3c
       -0.07971917 0.034735534 0.01707532 0.029550852
0003f0 f6 89 ab bd 3f dc 0a 3c 0c 2d 50 bc 70 fb 1f 3d
       -0.08375923 0.008475362 -0.0127060525 0.03905815

fc2.bias f4 [128]
000000 41 f2 a2 3d 7b 95 5a bd 46 9e bf 3c e7 76 9c 3c
       0.079563625 -0.053365212 0.0233909 0.019099666
000010 a2 74 2e bd 62 83 32 bc 6b 01 58 bd 66 aa ab 3d
       -0.0425917 -0.010895582 -0.052735727 0.0838211
000020 0d e2 03 bc 7f 37 9a 3c 09 80 0a bd 24 d1 9b bd
       -0.0080495 0.01882529 -0.03381351 -0.0760825
000030 09 42 ab 3a c1 33 28 3d 83 f0 92 3c 4f 73 5e bd
       0.0013065945 0.04106498 0.01793695 -0.054309186
000040 83 1e 49 3d a2 8f a3 bd d1 41 2a 3d af 35 d5 bc
       0.049101364 -0.0798638 0.041566674 -0.026026575
000050 f1 a4 3e 3d 8e 65 79 bc 34 30 a2 3d 0b 7f 82 3d
       0.04654402 -0.015221966 0.0791935 0.06371888
000060 7b bc 02 3d ae 13 90 3d 0b 30 fc bc 9b b1 95 3d
       0.03191803 0.070350036 -0.030784627 0.07309266
000070 c5 7f c9 3c be 6e bf 3a 84 b7 70 3d 1b 5c e2 3b
       0.024597058 0.0014605147 0.058768764 0.0069079525
000080 0b 34 43 bd 09 db 35 bd 3d 45 94 bd 33 8c a1 ba
       -0.047657054 -0.04439834 -0.07239769 -0.0012325108
000090 e6 50 a9 3d ee 95 92 bd 7d 04 04 3d 83 0e 0e bd
       0.08267383 -0.07157503 0.032230843 -0.03468181
0000a0 e0 83 a3 bd 3a fb 1f bd 46 07 d6 3c aa a5 41 3d
       -0.079841375 -0.039057948 0.026126515 0.04727713
0000b0 0a 98 92 3d 92 bb 0b 3d f0 64 83 3c f5 ce 83 3c
       0.071579054 0.034114428 0.016039342 0.016089896
0000c0 e8 9b 8d bd 8c 18 a9 3b 4f 9b dd bc d8 b6 04 3d
       -0.069145024 0.005160397 -0.027051596 0.032400936
0000d0 e7 4c 6f 3c 1d 19 4c 3d ca 97 d6 3c 18 51 85 3d
       0.014605737 0.049828637 0.026195426 0.06509608
0000e0 1d 5e 74 3d 26 17 76 bc b2 27 7f 3a 7d 11 85 bd
       0.059660066 -0.015020167 0.0009733393 -0.06497476
0000f0 38 d3 69 3d b7 a6 43 bc c9 83 a0 3d c2 a2 0f 3d
       0.0570862 -0.011941603 0.07837636 0.035067327
000100 83 64 ad 3d 94 13 8e 3d 7a ce 7c 3c 6c 68 d8 3c
       0.08466437 0.06937328 0.015430087 0.02641698
000110 8c 9a 26 3d e7 ed 47 3d 67 be 3b 3b e1 5d a3 3d
       0.04067473 0.048810866 0.0028647424 0.0797689
000120 5f 32 61 3d 41 7d 91 3d 30 99 26 bd 4f 01 a2 bd
       0.05497968 0.071039684 -0.040673435 -0.07910406
000130 83 d4 89 3d d0 c0 a2 3d ec 1b a7 3d f7 51 77 bd
       0.067299865 0.07946932 0.081596226 -0.060380902
000140 e8 da cc 3c 08 8d 6c 3d 4a 4c b7 bc e4 50 4b 3b
       0.025006726 0.057751685 -0.022375245 0.0031023556
000150 94 d1 c8 bc 60 98 84 3d 50 dc 71 3d 63 d4 39 bd
       -0.024513997 0.06474376 0.059047997 -0.045368563
000160 90 5d 8c bd ca ad 2b 3d 19 55 39 bd 2a 1f a3 3d
       -0.06853783 0.041913785 -0.04524717 0.079649284
000170 4a 35 61 3c e7 b6 0a bc 6c 3d a9 3d eb ed b0 3d
       0.013745615 -0.008466459 0.082636684 0.08639129
000180 f9 94 77 3d 2a ae b2 3d f9 1e 73 3d 16 2c 52 bd
       0.060444806 0.087246254 0.05935571 -0.051311575
000190 59 ed ad 3d 7f 1e 99 3d df 4e 92 3d 0b a8 be 3b
       0.08492536 0.0747652 0.0714395 0.005818372
0001a0 8d 1e 3b 3d f3 81 ba 3c 03 58 63 bc 90 a2 60 3d
       0.045683432 0.022767043 -0.013875964 0.05484253
0001b0 7d 7b 8d bc a0 96 37 bd 05 8f 03 3d 0c 44 b3 3c
       -0.017270798 -0.04482138 0.032118816 0.021883033
0001c0 1a b3 73 bd 73 a2 f6 bc 97 9f 85 3d 16 17 79 3d
       -0.059496976 -0.030106759 0.0652458 0.060813032
0001d0 44 f4 3a 3d 99 b9 5e 3d e1 42 6d bb 71 2e 8f bd
       0.045643106 0.05437622 -0.0036203193 -0.0699128
0001e0 4b 2e 63 3c f1 42 84 bd 63 8f b1 bc 0f cc 45 3d
       0.013866018 -0.064580806 -0.021674817 0.04829031
0001f0 08 16 9f bd 45 09 92 3d 73 7f 04 3d 0e 61 e2 3c
       -0.07767874 0.07130674 0.032348108 0.02763417

fc3.weight f4 [16, 128]
000000 cd 3c e1 3c a7 60 48 bd 6c c6 61 3d 02 c6 ba 3c
       0.027494812 -0.0489203 0.05512087 0.022799496
000010 e0 6e 47 3d af 41 c8 3b 6f c6 19 bd b3 d1 a0 3d
       0.048689723 0.0061113457 -0.037542757 0.07852497
000020 9e 86 0f 3d 29 b6 7c bd 05 da b4 3d 65 b2 92 3c
       0.03504049 -0.06169716 0.088306464 0.01790733
000030 3e c3 dc 3c 50 59 7d 3d cb 03 9e 3d 7a 69 01 3d
       0.026948567 0.061852753 0.07715567 0.03159473
000040 8f f6 87 3d 94 e7 b5 ba 7f 2d 0b 3d 7e 8e af bd
       0.06638824 -0.001387822 0.033978935 -0.085721
000050 56 dc 6f bd b9 54 a7 3d 64 8d ac bd ec 15 15 3d
       -0.058559738 0.081704564 -0.084254056 0.03639786
000060 44 dd 16 3d 07 5f 1c 3d 1f 52 ac bd 83 1d 35 bd
       0.03683211 0.038176563 -0.08414101 -0.044217598
000070 d2 49 2e 3d 47 c3 b4 bc a1 d8 4c 3b cd 92 8b bd
       0.04255087 -0.022065772 0.003125705 -0.068151094
000080 f7 9d 2e bc 8a 94 da ba 42 02 30 3c 5c 3f d5 3c
       -0.010657779 -0.0016676348 0.010742726 0.026031189
000090 cc 7a b4 3c 29 16 29 bd ad 10 b6 3b 37 ef 1b 3d
       0.02203121 -0.0412809 0.005556187 0.03806993
0000a0 49 81 82 3d 09 50 20 3d 6e 8a 81 3d c7 37 83 3d
       0.063723154 0.039138827 0.063252315 0.06407123
0000b0 30 3d 70 3d 3e c7 cb 3c 89 b4 2c bd 53 8f ad bd
       0.058652103 0.02487528 -0.04216436 -0.084746026
0000c0 e5 f6 b4 3d a9 80 8d 3c 2b 0f b4 3d c0 6e 4a bc
       0.08836154 0.017273264 0.087919556 -0.012355506
0000d0 22 50 8c 3d 43 40 00 bd aa b8 37 3d 0a 95 9e bd
       0.068512216 -0.031311285 0.044853844 -0.07743271
0000e0 b5 d4 61 3d 43 1f 5a bd 74 ed 42 3c d9 1d ba bc
       0.055134494 -0.05325247 0.011897434 -0.02271931
0000f0 6b 61 85 bd 99 0f b1 bc 96 22 56 bd 50 ff 9a 3d
       -0.06512722 -0.021613883 -0.052279077 0.07568228
000100 9d f4 0b 3c bb 06 7c bd 94 08 a4 bd 62 9b 14 3d
       0.008542207 -0.061529856 -0.08009449 0.036280997
000110 da b8 05 bc 26 e3 24 3d 1b 6f 04 bd 02 9c 13 3d
       -0.008161748 0.040255688 -0.03233252 0.036037453
000120 58 8f 4e bc 52 25 97 3d 4e 91 a2 bd f7 bd 3e b9
       -0.012607418 0.07380165 -0.07937871 -0.0001819058
000130 f1 d9 9c bc 1c 25 8a 3d 54 dd 9f bd 43 a3 2b 3b
       -0.019146891 0.06745359 -0.07805887 0.002618984
000140 54 59 3b bc 8a 9c 89 bd 56 e5 a5 3d 1f cb cd 3c
       -0.011434872 -0.067193106 0.08100383 0.02512127
000150 0a ba ac 3d c9 cf c9 bc 3b 81 ab bb d7 37 5d bd
       0.08433922 -0.024635212 -0.0052339113 -0.05400833
000160 e1 51 7f bd 85 88 67 3a ee 99 99 3d c4 de 86 bd
       -0.062333945 0.00088322937 0.07500063 -0.06585458
000170 2d eb ad 3c 39 0a fa bc 19 28 93 3d 16 6e 44 bd
       0.021230305 -0.030522453 0.071853824 -0.04795655
000180 9d 03 e1 bc 56 b3 38 bd 18 49 95 bd 29 a8 4a bc
       -0.027467543 -0.045092903 -0.07289332 -0.012369194
000190 88 8d 31 bc 61 88 73 bd 96 62 a3 bd c1 42 89 bd
       -0.010836966 -0.059456233 -0.07977788 -0.067021854
0001a0 72 e0 51 3b de 08 e6 3c 38 5f 6b 3d 08 94 17 bd
       0.003202465 0.0280804 0.057463855 -0.037006408
0001b0 89 a3 64 3d 44 a0 14 3d c1 42 b1 bb 06 de 49 3d
       0.05582002 0.036285654 -0.005409569 0.049284004
0001c0 9d 20 ad bc b0 d4 95 3d 3c 76 23 bd fb 10 8e bd
       -0.021133715 0.073159575 -0.03990768 -0.069368325
0001d0 0b 08 ec 3a 83 e7 a3 3d 25 4e 1a 3d cf 30 2f bd
       0.0018007768 0.08003142 0.03767218 -0.042771157
0001e0 4a 92 a6 bd da 8c 0c 3d 52 16 85 bd 38 15 49 3d
       -0.08133371 0.034314014 -0.06498398 0.0490925
0001f0 3b d0 6c bd 0e 23 79 bd db fd b1 bd ff 29 c8 bb
       -0.05781577 -0.060824446 -0.08690997 -0.006108522
000200 c8 b9 35 3d 04 93 5a 3d 41 ec 3f 3d 4e 9b 79 bd
       0.044366628 0.05336286 0.04685617 -0.060939126
000210 84 80 ac bd 91 46 9b 3d 59 6b db 3c 5b 98 4f 3d
       -0.0842295 0.07581819 0.026784586 0.050682407
000220 a1 30 f5 3b 42 e9 67 3c d8 ab cb 3b b6 1a 23 bd
       0.0074826037 0.014154734 0.0062155537 -0.039820395
000230 4a b8 24 bd ce 13 4b bd 9a 0c b4 bc db 4d 92 bc
       -0.040214814 -0.049579434 -0.021978665 -0.01785939
000240 ba 71 60 bc f4 a6 af bc 04 61 b2 bd 93 31 b2 3d
       -0.0136989895 -0.021441914 -0.087099105 0.08700862
000250 31 47 90 bc e1 b3 c4 bc ae 30 91 3d 59 f6 6c 3d
       -0.017612072 -0.024011554 0.07089363 0.057852123
000260 69 79 03 3d 66 94 a0 bd 19 78 52 bd d0 ec 8c bd
       0.032098208 -0.07840805 -0.051384065 -0.06881106
000270 09 8b 91 3d 80 4c d2 3c cd 9a 8a 3d ee 83 9e 3c
       0.07106597 0.025671244 0.06767807 0.019350018
000280 49 80 02 3d 0b c1 3f bd 52 a1 33 3d 58 4f a3 bd
       0.031860624 -0.04681496 0.04385502 -0.07974118
000290 81 e1 34 bc 18 84 9d 3d 33 51 52 bd 1f f2 87 bd
       -0.011040092 0.076912105 -0.05134697 -0.06637978
0002a0 d1 7a 82 3d f5 b0 06 bd 03 13 7f 3d 30 0a a1 bd
       0.063710816 -0.032883603 0.06227399 -0.07863271
0002b0 a5 a4 b9 3a df 08 22 3c 67 44 48 3d ed 8f 66 bc
       0.0014163448 0.00988981 0.04889336 -0.0140724005
0002c0 52 78 81 bd 99 75 fd 3c 27 d7 e9 bc db ab 0e bd
       -0.063217774 0.030939864 -0.028544975 -0.034831863
0002d0 6c 91 2c bd f5 44 a8 bd 5f 65 8e 3d a3 4a ad bd
       -0.042130873 -0.082162775 0.06952929 -0.084615014
0002e0 a6 8d 96 bd ad 75 b4 3d 56 57 aa bd be 66 a6 bc
       -0.07351236 0.088115074 -0.08317439 -0.020312663
0002f0 65 3a 88 3c 22 9c a1 3d b0 87 f6 3c 83 7a c9 3c
       0.016629407 0.07891108 0.030093998 0.024594551
000300 17 19 b4 3d 28 f7 5f 3d 40 60 cf 3b 0f 35 fc bc
       0.08793848 0.054679066 0.0063286126 -0.030787019
000310 44 1a b3 3d ab ed 9e bd 34 4b 96 bc 14 67 b3 3d
       0.08745244 -0.07760175 -0.018346407 0.08759895
000320 65 0e 37 bc f7 65 89 3a 10 02 18 bd c7 65 59 bd
       -0.0111728655 0.0010482658 -0.037111342 -0.053075578
000330 56 cb 99 bd 75 c2 98 3d 50 38 b7 bc ec 8a 05 bd
       -0.075094864 0.07458965 -0.02236572 -0.03260319
000340 8a e7 62 3d ca 4d 95 3d 4e 0c 92 bd 14 65 0e bc
       0.055396594 0.07290228 -0.07131253 -0.008691091
000350 5a db a4 bd 3a 53 f2 bc 79 c0 96 bb c4 79 9e bd
       -0.080496505 -0.029580701 -0.0046005812 -0.07738069
000360 9a da 60 3c b0 ef 39 3d 5c b1 7b 3d 58 d7 81 3c
       0.013723994 0.0453946 0.06144844 0.015849754
000370 35 c4 10 3d 4b 19 2c bd f7 c1 6e 3d 41 cb 92 bd
       0.035343368 -0.04201631 0.058290448 -0.07167674
000380 56 ab 3a 3d 70 04 99 3d 70 7b 5a bc ee 65 3e 3b
       0.045573555 0.074715495 -0.013335094 0.0029052454
000390 7c a7 11 bd a3 15 9b 3c 76 e2 6a 3d b1 24 9b bd
       -0.035560116 0.018931216 0.057344876 -0.07575358
0003a0 72 9f 89 bd 5e 31 63 bd d6 96 67 bd 78 78 18 3b
       -0.06719865 -0.055467002 -0.056540333 0.0023265164
0003b0 3e d7 8e bd 91 43 b3 bd 01 88 ec 3c 72 4b 3c 3d
       -0.06974648 -0.08753122 0.028873445 0.045970388
0003c0 cb e6 cc 3c 29 8a 9e 3c 6e dc 9e bc 0d 88 a4 3c
       0.025012394 0.01935299 -0.019392218 0.020084405
0003d0 6c 37 45 3c 54 26 a5 3d 6a 47 cf 3a 5b 8e 2b bc
       0.012037139 0.08063951 0.001581413 -0.010470952
0003e0 18 dc 8f bd 46 ea 3d bd e4 dd 6d 3d b3 f1 3b bd
       -0.070244014 -0.046366 0.05807294 -0.0458848
0003f0 f4 9f 9e bd 6c 8e 9f 3d ca 77 a5 3d 4e e6 95 bd
       -0.077453524 0.07790837 0.080794886 -0.07319318

fc3.bias f4 [16]
000000 e9 93 2c 3d f9 5a 8b bc 51 66 7b 3d 11 b6 0b 3d
       0.042133246 -0.017011153 0.061376873 0.03410918
000010 a1 8e 1f bd e0 2b aa 3d 57 a7 8c bd e5 b7 6b 3d
       -0.03895438 0.0830915 -0.06867855 0.057548422
000020 f9 37 15 bd f8 20 0d bd 24 50 77 3d 66 0e a6 3c
       -0.036430333 -0.03445527 0.060379162 0.020270538
000030 3b 7e 4e 3d 7b 89 7e bc cf 09 18 bc f9 0e d0 bc
       0.05041335 -0.015535708 -0.009279682 -0.025397765
