dynamics/src/drl/outputs/RobotOptEnv/20220720-085454/models/dqn_checkpoint.pth (torch, 75015 bytes, 6 tensors)

fc1.weight f4 [128, 7]
0.11278678 -0.065996066 -0.08369026 -0.35768068 -0.22573346 0.19154988 -0.1613675 -0.27376324
0.26602054 0.26936775 -0.10465987 0.18569952 -0.17780988 -0.3217333 0.2580903 0.32413083
-0.03708681 -0.32887986 0.09830811 -0.16080624 -0.21671267 -0.23603134 0.22925073 -0.022247689
-0.10311306 -0.37156296 -0.12141688 -0.07675651 0.25774682 -0.24999434 0.22703831 0.23928905
-0.31040314 0.1654265 0.06742428 -0.3490595 0.20084995 -0.32232842 0.23550256 -0.21878749
0.08011162 -0.16663033 0.27307782 0.03974922 -0.18373734 0.10840585 0.29087186 0.09974101
0.28734514 0.2711425 0.13304205 0.058059074 0.32501134 -0.37371907 -0.134082 0.21635014
0.15573314 -0.28837848 -0.30261973 0.04870058 0.31498572 0.30007267 0.004295272 0.01708336
0.07000834 -0.028173119 -0.05374434 -0.28136563 0.30934578 -0.21102297 -0.091732554 0.04934354
0.36408272 -0.31320143 -0.065033965 0.19910291 -0.088380545 -0.24501929 0.03734165 -0.016536415
-0.17040682 0.21843547 0.28305098 0.07371039 -0.082335494 -0.1794067 0.36323678 -0.06032895
-0.15508883 0.17462716 -0.2595515 -0.3763713 -0.16042347 0.013809707 -0.19073306 -0.069200784
-0.23092951 -0.013970335 -0.13208328 0.3381211 0.31636727 0.11951868 -0.31101066 0.0033956212
0.24276432 -0.0985899 -0.1070459 -0.0029499638 -0.3599508 0.06527358 -0.12474933 -0.34020528
0.09088008 -0.3670287 -0.18118095 0.1956547 -0.14504565 -0.25758016 -0.14460783 -0.08102334
-0.23943643 0.17715777 -0.3129312 -0.29231465 0.16617976 -0.06340611 0.02291899 0.103762425
-0.13814573 -0.3439959 -0.1915913 0.26183304 0.04914011 -0.23798168 -0.25305367 -0.12443664
0.31472772 0.14746012 -0.10309112 0.058688156 0.11092742 -0.3475144 -0.359239 -0.25272816
-0.08417544 -0.14220193 0.13594079 0.06380103 -0.18000054 0.22719145 -0.33041897 -0.18914795
-0.17259045 0.16727987 -0.18630874 -0.08187217 0.2347611 -0.18093927 -0.30038014 -0.049888056
0.20818584 0.17147322 -0.29986513 0.18252459 -0.1338757 -0.116741195 0.24889341 -0.03581053
-0.25605524 0.010682174 -0.2924161 -0.25197667 -0.31443742 0.17034729 -0.009757742 0.16647154
-0.15777594 0.24916159 -0.07075101 0.053647466 -0.0699235 0.13192064 -0.09306723 0.1906642
-0.17020802 0.14921485 0.14278902 0.155122 0.14637686 -0.34292275 -0.26950973 -0.040515367
0.06035846 0.08192074 0.2657489 -0.17118067 -0.07925667 -0.2673657 0.092808194 0.34232152
0.08774624 -0.34279847 -0.2548616 0.030499179 -0.026724495 -0.16919272 -0.26985824 -0.26392213
0.14146246 -0.27757424 -0.068281084 0.1491457 -0.10119035 -0.35384881 0.09924777 -0.12357443
0.18229021 0.29659784 0.35175934 0.16184317 0.032946803 -0.17245263 0.005851852 -0.18585956
0.06439295 -0.26740485 0.08103835 -0.3480669 0.07529662 -0.018344771 0.17466193 -0.018070014
0.29781243 -0.05245436 -0.17100292 -0.17197777 0.2272545 -0.3487235 -0.037399594 -0.11138452
-0.35431322 -0.12856695 0.096397385 -0.16158688 -0.028395068 -0.15304635 -0.29629686 -0.110779315
0.07218472 -0.24062373 -0.05294647 -0.17804089 0.2904337 -0.031273976 -0.028478468 -0.29708594
00000000: c1fc e63d f228 87bd cd65 abbd ec21 b7be
00000010: ac26 67be a725 443e 863d 25be b22a 8cbe
00000020: d833 883e 92ea 893e ea57 d6bd 0428 3e3e
00000030: cb13 36be 3aba a4be 6924 843e 7af4 a53e
00000040: 57e8 17bd f162 a8be c355 c93d 64aa 24be
00000050: ede9 5dbe 33b2 71be b4c0 6a3e c940 b6bc
00000060: f12c d3bd 803d bebe 6aa9 f8bd 8432 9dbd
00000070: 64f7 833e 84fe 7fbe bb7c 683e 3008 753e
00000080: 29ed 9ebe 9065 293e be15 8a3d edb7 b2be
00000090: 9cab 4d3e 3b08 a5be 9527 713e d409 60be
000000a0: 9011 a43d 24a1 2abe dbd0 8b3e 14d0 223d
000000b0: a425 3cbe e303 de3d 28ed 943e 0445 cc3d
000000c0: e71e 933e 31d3 8a3e 2d3c 083e 5acf 6d3d
000000d0: e367 a63e 1b58 bfbe cb4c 09be e48a 5d3e
000000e0: 8278 1f3e 58a6 93be f9f0 9abe 427a 473d
000000f0: cf45 a13e 20a3 993e 5abf 8c3b 67f2 8b3c
00000100: 8860 8f3d 50cb e6bc 0623 5cbd 280f 90be
00000110: 9262 9e3e 6816 58be 47de bbbd 741c 4a3d
00000120: 0d69 ba3e f05b a0be 8730 85bd a2e1 4b3e
00000130: dc00 b5bd 56e6 7abe 8ff3 183d 6077 87bc
00000140: 207f 2ebe 8cad 5f3e 0fec 903e 79f5 963d
00000150: 839f a8bd 64b6 37be 2cfa b93e 7d1b 77bd
00000160: 9bcf 1ebe 76d1 323e efe3 84be bdb3 c0be
00000170: 0d46 24be 1c42 623c 874f 43be 24b9 8dbd
00000180: c978 6cbe d5e3 64bc d740 07be 351e ad3e
00000190: e4fa a13e 36c6 f43d ca3c 9fbe 1289 5e3b
000001a0: 3697 783e 80e9 c9bd e13a dbbd 2e54 41bb
000001b0: 794b b8be 28ae 853d 947c ffbd 632f aebe
000001c0: 561f ba3d 30eb bbbe 8087 39be b559 483e
000001d0: d986 14be 8ce1 83be 1314 14be 91ef a5bd
000001e0: d32e 75be d968 353e 8538 a0be 44aa 95be
000001f0: 072b 2a3e 10db 81bd 9bc0 bb3c 6581 d43d
00000200: 1376 0dbe 3b20 b0be 8230 44be fb0e 863e
00000210: 2447 493d 78b1 73be 4090 81be a3d8 febd
00000220: fe23 a13e c9ff 163e 7021 d3bd fe62 703d
00000230: ea2d e33d 68ed b1be 2dee b7be 9665 81be
00000240: 2c64 acbd 629d 11be 1034 0b3e 1daa 823d
00000250: 1052 38be e0a4 683e ad2c a9be 00b0 41be
00000260: 8dbb 30be 6a4b 2b3e b8c7 3ebe 99ac a7bd
00000270: 3765 703e 2548 39be 6dcb 99be 6b57 4cbd
00000280: ab2e 553e ad96 2f3e ec87 99be bae7 3a3e
00000290: b616 09be 0216 efbd eadd 7e3e 10ae 12bd
000002a0: ac19 83be 4904 2f3c 90b7 95be 1603 81be
000002b0: f1fd a0be 856f 2e3e f0de 1fbc 8477 2a3e
000002c0: 0490 21be 3724 7f3e e8e5 90bd 72bd 5b3d
000002d0: 0d34 8fbd 3416 073e 089a bebd 7a3d 433e
000002e0: 034b 2ebe c7cb 183e 4937 123e 4dd8 1e3e
000002f0: d1e3 153e 9293 afbe 2efd 89be 71f3 25bd
00000300: 6f3a 773d 10c6 a73d 3d10 883e fc49 2fbe
00000310: 5251 a2bd 28e4 88be 3912 be3d c444 af3e
00000320: 4db4 b33d 4883 afbe 387d 82be 6ad9 f93c
00000330: 54ed dabc db40 2dbe dc2a 8abe cd20 87be
00000340: 89db 103e 361e 8ebe f4d6 8bbd a6b9 183e
00000350: e33c cfbd ac2b b5be 6a42 cb3d 9714 fdbd
00000360: 49aa 3a3e acdb 973e cd19 b43e 37ba 253e
00000370: 3af3 063d 6c97 30be e4c0 bf3b f851 3ebe
00000380: 73e0 833d 4ae9 88be 6ff7 a53d d335 b2be
00000390: 1d35 9a3d c647 96bc 94da 323e 9107 94bc
000003a0: df7a 983e 62da 56bd 641b 2fbe f11a 30be
000003b0: 67b5 683e e38b b2be 5130 19bd 911d e4bd
000003c0: 8b68 b5be 0ea7 03be fe6b c53d 0877 25be
000003d0: c69c e8bc 2fb8 1cbe 39b4 97be 44e0 e2bd
000003e0: 95d5 933d 1166 76be 66de 58bd 5a50 36be
000003f0: bab3 943e 2419 00bd ad4b e9bc a61b 98be

fc1.bias f4 [128]
-0.22819807 -0.02384117 0.06034715 -0.3585321 -0.1751084 0.22200626 -0.28583065 -0.18834819
-0.19831036 -0.37649187 -0.09683061 -0.10431167 0.17601351 -0.22433507 -0.18309104 -0.009623518
0.07374531 0.13503414 -0.070263356 -0.30317453 0.37356457 0.10688271 0.374779 -0.1695306
0.28162143 0.24474142 0.15203784 0.3292919 0.22503057 -0.011750698 0.21305057 -0.3269712
-0.2023252 -0.15973842 -0.053189598 0.17896451 0.37126702 0.15294209 -0.2702527 0.0061011063
-0.20728555 0.2975055 -0.35676414 -0.011412952 0.09342264 -0.21170974 -0.07837991 -0.0097723855
0.2425181 0.15669668 0.12285541 -0.26061365 -0.06795798 0.16878301 -0.06330288 -0.018788943
0.120321505 -0.22642873 -0.36154294 0.0016895877 0.13422331 -0.17850967 0.22234564 -0.010208086
-0.093908355 -0.15979452 0.09099966 -0.1665864 -0.17075786 0.24275266 0.16757539 0.08981363
0.11153595 0.09861851 -0.22327515 0.02112424 0.06202169 0.21523201 0.3179843 -0.067561254
0.24399096 -0.37237862 -0.24996582 0.12339213 -0.22714028 0.1716693 0.1608155 0.3101928
0.0024704684 -0.29929903 -0.22656575 -0.07434164 0.08018533 -0.017414302 -0.037884 0.31603184
-0.1444381 -0.3207657 -0.12693621 0.041728884 -0.21439147 0.18035528 0.2500423 0.25530502
0.16701183 -0.11284161 0.13875644 0.056374125 -0.3087651 -0.09323538 0.19029443 -0.12638012
-0.044448968 0.114193365 0.36240098 -0.18098383 -0.1825204 0.2340051 0.15294051 0.32075498
-0.3115189 0.057660814 0.18244791 0.0076361042 0.2910033 0.18032983 0.3065817 0.35254806
00000000: c1ac 69be 8f4e c3bc 932e 773d 8591 b7be
00000010: 9e4f 33be 9c55 633e 6558 92be 59de 40be
00000020: df11 4bbe 8bc3 c0be 204f c6bd 5ba1 d5bd
00000030: e33c 343e 18b8 65be 387c 3bbe f6ab 1dbc
00000040: c807 973d 6446 0a3e 3ce6 8fbd b139 9bbe
00000050: db43 bf3e 52e5 da3d 08e3 bf3e 6e99 2dbe
00000060: af30 903e 7f9d 7a3e cfaf 1b3e f398 a83e
00000070: 6a6e 663e 0086 40bc ee29 5a3e c568 a7be
00000080: 562e 4fbe 7892 23be 56dd 59bd 7942 373e
00000090: b616 be3e da9c 1c3e 905e 8abe caeb c73b
000000a0: aa42 54be a452 983e caa9 b6be 64fd 3abc
000000b0: 5e54 bf3d 70ca 58be a585 a0bd 5b1c 20bc
000000c0: aa56 783e 1875 203e 9e9b fb3d 276f 85be
000000d0: 8e2d 8bbd 74d5 2c3e f1a4 81bd 45eb 99bc
000000e0: 1f6b f63d efdc 67be 281c b9be 2875 dd3a
000000f0: d671 093e 3dcb 36be 93ae 633e d13f 27bc
00000100: 0653 c0bd 2da1 23be 085e ba3d a095 2abe
00000110: 26db 2ebe 2794 783e e298 2b3e 35f0 b73d
00000120: f66c e43d 80f8 c93d 3ea2 64be be0c ad3c
00000130: 750a 7e3d c865 5c3e d7ce a23e 8e5d 8abd
00000140: c4d8 793e 69a8 bebe 0af7 7fbe 03b5 fc3d
00000150: 7697 68be 14ca 2f3e d2ac 243e 97d1 9e3e
00000160: 95e7 213b b93d 99be da00 68be 6e40 98bd
00000170: 3538 a43d 70a8 8ebc 412c 1bbd edce a13e
00000180: 95e7 13be 673b a4be 91fb 01be e8eb 2a3d
00000190: 7089 5bbe 0eaf 383e 8b05 803e 57b7 823e
000001a0: 2605 2b3e 8119 e7bd 2b16 0e3e 8ee8 663d
000001b0: 7616 9ebe 31f2 bebd 8bdc 423e ca69 01be
000001c0: 1f10 36bd 36de e93d 9f8c b93e d353 39be
000001d0: a1e6 3abe 089f 6f3e 709c 1c3e ff39 a43e
000001e0: 687f 9fbe bf2d 6c3d a0d3 3a3e 4938 fa3b
000001f0: 62fe 943e 62a8 383e 47f8 9c3e 2e81 b43e

fc2.weight f4 [128, 128]
-0.032504197 -0.063856386 0.021379968 0.021738807 -0.04975942 0.049389403 0.042366937 0.0682112
0.015680976 0.011868868 0.00075212104 -0.08363142 0.0318906 0.027621549 -0.041053202 0.041395865
0.023710437 -0.018092241 -0.06768423 0.011667049 0.06678241 -0.009096586 0.03849534 0.067927845
-0.087865375 -0.038602117 0.023879193 -0.080892384 0.06290092 -0.045827594 -0.026568055 0.018958505
-0.037395086 0.05109617 -0.019417768 -0.018731682 0.011109804 0.058412064 0.060956668 0.017613737
0.06838403 -0.032811668 0.00428311 -0.018057037 -0.03072344 0.016468491 -0.048581135 0.07285713
-0.07982361 0.04682562 -0.068814464 0.011962751 0.04336486 -0.086637296 0.013013113 0.061799366
-0.027691016 0.010999716 0.041638147 0.016054956 0.048323322 -0.007151351 0.014513182 0.036947403
0.06424117 -0.08146385 0.0027547707 -0.011834593 -0.07325648 0.05630979 -0.055442683 -0.02137879
-0.025672067 0.08572625 0.084404476 -0.025211602 -0.040865753 -0.047998697 0.06880335 0.010468371
0.028378632 0.01885807 0.011807861 0.056240775 0.034897663 -0.02564582 0.042477775 -0.01628767
-0.020529898 -0.043451745 -0.053045444 -0.012597187 0.075532325 -0.08406173 0.042716946 0.06975121
-0.08142875 0.000503992 0.061414365 -0.08600172 0.042015456 0.08507176 -0.0139972 0.06446583
0.072204 0.004957681 -0.014856342 -0.082483865 -0.028096175 -0.02837664 -0.06482001 0.0057768156
-0.040443093 -0.017234636 0.0137570575 0.024529709 -0.031984486 0.050547957 0.028531224 0.031060625
0.07134143 -0.0038280084 0.058293495 0.08233621 0.026005354 0.054906216 -0.0372652 0.04810439
0.002152819 -0.04437611 0.07044861 -0.07243919 0.05397593 -0.021407321 -0.07318593 -0.066997156
0.069622904 -0.017461322 0.045230184 0.020720402 -0.0784546 -0.010552738 0.08633197 -0.06306795
-0.035386756 -0.08060277 0.053086106 -0.05209128 0.0037311655 -0.058244754 -0.045538582 0.05985278
-0.005981586 -0.03585798 -0.0047429325 0.009480396 0.082142435 0.021514818 0.076809816 -0.03440896
-0.041790012 0.06274186 0.024480997 -0.077305034 0.06779102 -0.08427491 0.08229631 0.05117326
0.05712176 0.036046304 -0.024090748 0.006123157 -0.061961945 0.020637542 0.02776689 0.027049404
-0.041399743 0.003292986 -0.0057198433 0.05830323 0.017432917 0.08340544 0.079979174 -0.066282354
-0.08232072 -0.043242253 -0.05407805 -0.085580565 -0.064051606 0.022618633 -0.05169297 -0.07867644
0.033785008 0.076945454 0.06467159 -0.07972649 0.030358806 0.025749637 0.08556525 -0.023229446
0.027663095 -0.073253706 -0.036547575 -0.040414043 0.07670401 0.04823201 -0.011350789 -0.016004276
0.035740864 -0.06929127 0.03547678 0.021188127 0.05787137 0.006685723 -0.021645451 0.03375325
-0.002327602 -0.041988038 0.06898927 -0.056109678 -0.07860641 -0.059131626 -0.02333081 -0.05577071
0.06387956 0.08719326 0.016077526 -0.06268571 0.02278271 0.033735707 0.067850694 -0.056116715
0.048531443 -0.06258677 -0.0133834155 -0.0384508 -0.056656025 -0.059505016 0.025755728 -0.00921446
0.053050175 -0.08235535 0.030430457 -0.012229203 -0.049780104 0.015284143 -0.0592406 0.047880515
0.06164397 -0.05167503 -0.061258093 0.07309734 -0.05048775 -0.025938803 0.07501672 -0.043954812
00000000: 1f23 05bd 23c7 82bd 0b25 af3c 9515 b23c
00000010: 89d0 4bbd 8b4c 4a3d f488 2d3d 50b2 8b3d
00000020: 6475 803c a475 423c fd29 453a f346 abbd
00000030: b89f 023d 9646 e23c 6727 28bd b68e 293d
00000040: 643c c23c 2e36 94bc 089e 8abd 2627 3f3c
00000050: 37c5 883d d909 15bc 4aad 1d3d c11d 8b3d
00000060: c3f2 b3bd 411d 1ebd 4c9e c33c e8aa a5bd
00000070: 33d2 803d b7b5 3bbd 40a5 d9bc de4e 9b3c
00000080: 972b 19bd 384a 513d 0312 9fbc 2f73 99bc
00000090: e505 363c 7d41 6f3d b3ad 793d af4a 903c
000000a0: ed0c 8c3d 8765 06bd 5559 8c3b 5aec 93bc
000000b0: b9af fbbc eee8 863c 03fd 46bd 1e36 953d
000000c0: 907a a3bd 39cc 3f3d 99ee 8cbd 6aff 433c
000000d0: 5a9f 313d e56e b1bd f434 553c 5521 7d3d
000000e0: 45d8 e2bc 2738 343c c38c 2a3d af85 833c
000000f0: adee 453d e155 eabb b3c8 6d3c 2956 173d
00000100: e090 833d 85d6 a6bd 6289 343b e1e5 41bc
00000110: 7e07 96bd 18a5 663d de17 63bd 9222 afbc
00000120: 3a4e d2bc 3f91 af3d 41dc ac3d 9088 cebc
00000130: d962 27bd 489a 44bd c5e8 8c3d 8883 2b3c
00000140: 4e7a e83c 3d7c 9a3c c275 413c ba5c 663d
00000150: daf0 0e3d 2f17 d2bc 2dfd 2d3d b86d 85bc
00000160: 512e a8bc 75fa 31bd 2e46 59bd 6f64 4ebc
00000170: b1b0 9a3d 8e28 acbd f7f7 2e3d b9d9 8e3d
00000180: 1ec4 a6bd 551e 043a a18d 7b3d ab21 b0bd
00000190: 6618 2c3d 1a3a ae3d 8354 65bc a906 843d
000001a0: b1df 933d 0b74 a23b 0468 73bc 4ded a8bd
000001b0: f329 e6bc 2176 e8bc 5ac0 84bd 714b bd3b
000001c0: a8a7 25bd a72f 8dbc 4865 613c 87f2 c83c
000001d0: 2a02 03bd 600b 4f3d 50ba e93c da72 fe3c
000001e0: 751b 923d 53df 7abb 29c5 6e3d e39f a83d
000001f0: 2e09 d53c 57e5 603d 65a3 18bd 1c09 453d
00000200: 4f16 0d3b b9c3 35bd 5c47 903d ff5a 94bd
00000210: dd15 5d3d 685e afbc 81e2 95bd ce35 89bd
00000220: 7496 8e3d 0c0b 8fbc 4943 393d d5bd a93c
00000230: ceac a0bd 64e5 2cbc d1ce b03d c529 81bd
00000240: b4f1 10bd 1113 a5bd d170 593d ab5d 55bd
00000250: 9286 743b 0d92 6ebd aa86 3abd 3028 753d
00000260: 2e01 c4bb d1df 12bd 9a6a 9bbb aa53 1b3c
00000270: 4b3a a83d d83f b03c 774e 9d3d 69f0 0cbd
00000280: 012c 2bbd ce7e 803d 5f8c c83c 1a52 9ebd
00000290: 05d6 8a3d 5398 acbd f88a a83d 0d9b 513d
000002a0: 82f8 693d 4aa5 133d f659 c5bc c4a4 c83b
000002b0: cfcb 7dbd 1010 a93c 6477 e33c b696 dd3c
000002c0: c792 29bd 23cf 573b 866d bbbb 5ecf 6e3d
000002d0: 7acf 8e3c 79d0 aa3d 1fcc a33d 0bbf 87bd
000002e0: c497 a8bd ca1e 31bd f280 5dbd dd44 afbd
000002f0: 7d2d 83bd b64a b93c 02bc 53bd 1d21 a1bd
00000300: 2662 0a3d 9495 9d3d 8a72 843d a447 a3bd
00000310: 08b3 f83c e7f0 d23c d53c af3d ae4b bebc
00000320: b79d e23c 0a06 96bd e9b2 15bd 3289 25bd
00000330: fe16 9d3d ee8e 453d a9f8 39bc 661b 83bc
00000340: 0365 123d 95e8 8dbd 1a50 113d b992 ad3c
00000350: 880a 6d3d e913 db3b cd51 b1bc d940 0a3d
00000360: ae8a 18bb a6fb 2bbd 3f4a 8d3d 43d3 65bd
00000370: 66fc a0bd 0134 72bd 4120 bfbc d46f 64bd
00000380: 49d3 823d 6192 b23d 04b5 833c 5e61 80bd
00000390: cea2 ba3c 742e 0a3d 4ef5 8a3d a4da 65bd
000003a0: e8c8 463d 7e2d 80bd 1d46 5bbc 967e 1dbd
000003b0: 2610 68bd 88bb 73bd adfd d23c 3ff8 16bc
000003c0: 244b 593d eca9 a8bd 4b49 f93c ff5c 48bc
000003d0: 39e6 4bbd 586a 7a3c 45a6 72bd 5c1e 443d
000003e0: 637e 7c3d 32a9 53bd c4e9 7abd 0fb4 953d
000003f0: 3ecc 4ebd 9d7d d4bc 5ea2 993d f609 34bd

fc2.bias f4 [128]
-0.005896502 -0.008243028 -0.024509234 -0.07906702 -0.04872068 -0.00998599 0.052220754 0.013058737
-0.03652563 0.045982484 0.03652449 0.056683905 -0.06543969 0.042200636 -0.03417881 -0.08386575
-0.015014889 0.027791578 0.06752193 -0.019433627 -0.043859623 -0.0049441624 -0.04199043 -0.06936917
0.033392 -0.06038504 -0.035229705 -0.08544697 0.0015440814 0.005913951 -0.07450535 0.0095425
0.064979374 -0.00789126 0.084783435 0.081724964 -0.05942146 0.03917542 -0.05035993 -0.007803299
0.032102864 0.033777926 0.070534766 -0.040687915 -0.040035207 -0.030492876 -0.0527032 0.05717675
0.06191551 0.059890702 0.018127654 -0.061333705 -0.04745481 -0.0023482328 0.038052198 -0.06591643
-0.00044821066 0.047776654 0.079170495 0.08533278 0.015444945 -0.077826336 0.0036805577 -0.040569797
0.038608305 -0.08123765 0.06379208 -0.058579788 -0.037981052 -0.006402422 -0.07957092 -0.011016448
-0.077171385 -0.060792096 0.022767495 -0.043240715 0.0034809397 0.050877884 -0.040362835 0.0650976
-0.03935169 -0.04543235 -0.061825115 -0.047749184 -0.0328117 0.008931349 0.011502128 0.033219248
0.005287006 0.013523627 0.07278832 0.06944367 0.041131742 -0.033626482 0.020394448 -0.069728844
-0.05341603 0.079959676 0.051590588 0.04341081 0.015683126 -0.000732017 0.08574597 0.001603108
-0.044679314 -0.006200202 0.0465702 0.060137272 0.04136261 0.07191483 0.06059912 -0.039664768
-0.05132404 0.039080296 0.070351385 -0.009250253 0.05783949 -0.08764538 0.044332784 0.03218779
0.0036055574 -0.030300139 0.08539995 0.054005444 0.05260803 -0.015976531 -0.010110354 0.016518783
00000000: 7237 c1bb c40d 07bc 97c7 c8bc e4ed a1bd
00000010: 568f 47bd 479c 23bc 6ee5 553d 50f4 553c
00000020: e69b 15bd 2158 3c3d b49a 153d 622d 683d
00000030: 3f05 86bd 93da 2c3d 14ff 0bbd cec1 abbd
00000040: 0201 76bc 2aab e33c f048 8a3d 4533 9fbc
00000050: 26a6 33bd a402 a2bb 28fe 2bbd 6c11 8ebd
00000060: 0dc6 083d 4e56 77bd 064d 10bd d2fe aebd
00000070: c662 ca3a d1c9 c13b 4396 98bd 2558 1c3c
00000080: e813 853d 584a 01bc f0a2 ad3d 6b5f a73d
00000090: eb63 73bd 6876 203d 3746 4ebd d1b2 ffbb
000000a0: 4b7e 033d b95a 0a3d 8874 903d 5fa8 26bd
000000b0: f5fb 23bd 32cc f9bc 50df 57bd 2b32 6a3d
000000c0: 1e9b 7d3d f44f 753d 7280 943c 0d39 7bbd
000000d0: fa5f 42bd cfe4 19bb 9fdc 1b3d 31ff 86bd
000000e0: d1fd eab9 74b1 433d 2424 a23d f4c2 ae3d
000000f0: cb0c 7d3c 6a63 9fbd 8335 713b 842c 26bd
00000100: be23 1e3d ed5f a6bd 6ca5 823d 5cf1 6fbd
00000110: 0592 1bbd 69cb d1bb 14f6 a2bd 557e 34bc
00000120: 080c 9ebd 2201 79bd e682 ba3c 2d1d 31bd
00000130: 7a20 643b 5465 503d 8053 25bd e451 853d
00000140: 3d2f 21bd 4617 3abd 553c 7dbd a694 43bd
00000150: 9065 06bd cb54 123c 6c73 3c3c e810 083d
00000160: 9f3e ad3b 3492 5d3c 0b12 953d 7c38 8e3d
00000170: c279 283d ecbb 09bd 4212 a73c ffcd 8ebd
00000180: c4ca 5abd e6c1 a33d a750 533d 89cf 313d
00000190: e679 803c d4e4 3fba 959b af3d 611f d23a
000001a0: a801 37bd 102b cbbb 65c0 3e3d 8052 763d
000001b0: d76b 293d 1548 933d c836 783d 8677 22bd
000001c0: 2839 52bd a912 203d 6314 903d 608e 17bc
000001d0: 1ae9 6c3d 6c7f b3bd 4b96 353d 58d7 033d
000001e0: 374b 6c3b ff37 f8bc 2be6 ae3d d034 5d3d
000001f0: 857b 573d 37e1 82bc e6a5 25bc 6652 873c

fc3.weight f4 [5, 128]
-0.0831662 -0.0044643204 0.067202955 -0.07684925 0.010227638 -0.017238209 -0.02884762 0.08579014
0.033220608 0.060879406 -0.024802692 0.06558149 -0.074581794 -0.028010985 -0.07731829 -0.05531467
0.08571974 -0.024480544 0.04555071 -0.041094966 -0.0842418 -0.017989023 0.086554624 0.073945746
-0.05409173 -0.0071196984 -0.02343899 -0.04619397 0.07586261 0.007149412 -0.028505187 0.023900328
0.04096742 -0.027933277 -0.0846735 -0.050903436 0.042583417 -0.053913016 -0.0014186945 0.00030904176
0.061728336 -0.011574536 -0.006948224 0.032569524 0.02582801 0.058370255 -0.08657701 0.07105714
0.020130483 0.078726254 0.034373272 0.080132455 0.04525956 0.0832607 0.0019300306 0.07350479
-0.04233692 0.0059502497 0.024519466 0.06718918 -0.04141777 -0.0012791569 0.08741125 0.063032664
-0.013549284 0.054078188 -0.083386876 0.049255442 0.078825556 -0.039921746 0.07371515 0.005332103
0.057819292 0.011740468 0.022700513 0.036359884 0.042969417 0.025212793 -0.08485596 0.0018087319
0.083635606 -0.051840622 -0.0137539385 -0.066534355 0.021363141 0.07780546 -0.0805095 -0.024812154
0.045259044 0.042598218 0.083502196 0.053499155 0.05233939 -0.036166348 0.039336402 0.021079851
-0.08511306 -0.056078814 -0.06348074 -0.052347038 -0.004629768 -0.047899775 -0.0067984867 -0.046835527
-0.059988864 -0.07723043 -0.04009064 -0.059866153 0.075228706 -0.0022199377 -0.07794991 0.043799035
-0.022625925 -0.024349224 -0.07369594 -0.07010881 0.06782295 0.060548667 0.007972634 0.07683922
0.038377233 0.057239864 -0.04368016 0.06491133 0.05772033 -0.07954841 -0.011691409 0.026315091
-0.043938626 0.0133426385 0.08227426 0.025812542 0.07289467 -0.08679629 0.0018172245 -0.075564176
-0.027678015 -0.07918081 -0.023575967 0.0831946 0.0033343951 -0.021290185 -0.07655879 -0.019236695
0.06255705 0.051122136 -0.08154706 0.08419937 0.014670749 0.043833364 0.015062777 -0.044512983
-0.020172682 0.032013662 -0.050900128 0.073457204 0.07757483 -0.060026743 0.0215294 0.0215286
0.022372821 -0.0021120838 0.081167825 -0.08833742 -0.00973629 0.07508935 -0.08189607 0.006723655
-0.0035551288 0.006490393 -0.018398311 0.056253504 0.037675817 0.037888005 -0.02952964 -0.018632974
0.084823005 -0.021008803 0.07839772 0.041116294 0.056930393 0.014904537 -0.07015897 -0.026680114
0.032235343 -0.02197956 0.022571333 -0.057404377 0.0038715252 -0.038033694 -0.02323112 -0.03348942
-0.02510731 0.066585496 0.041430257 0.08793009 -0.07099456 0.08064089 -0.05861928 0.03758653
0.07362957 -0.04254814 -0.021785283 0.005780135 0.05301144 -0.08802678 -0.043430757 0.025846165
-0.044515826 -0.05371921 0.074235626 -0.075529985 0.06822372 -0.06798508 0.047594696 0.019789325
0.06617085 -0.009372374 0.048209704 -0.082360744 -0.047378473 -0.02339662 -0.027693672 0.012282772
0.04734485 -0.022585737 0.042844314 0.0161673 0.045007788 -0.075841166 0.065031044 0.085139416
0.037596337 -0.006525491 -0.018578183 0.0859604 -0.07329883 -0.045436304 0.06842455 -0.03568091
-0.07850998 -0.027379183 -0.08740581 0.041706182 -0.00060476514 -0.08633556 0.064088814 0.07778733
-0.07535966 0.07821042 0.024120083 -0.012940853 -0.027833262 0.03161784 -0.08098211 0.07808038
00000000: 0a53 aabd 6f49 92bb b4a1 893d 2463 9dbd
00000010: d391 273c 2537 8dbc d851 ecbc beb2 af3d
00000020: 5512 083d af5c 793d 042f cbbc 974f 863d
00000030: 57be 98bd 4b77 e5bc 0d59 9ebd a391 62bd
00000040: d58d af3d 6c8b c8bc 6293 3a3d 3253 28bd
00000050: f786 acbd b75d 93bc 8d43 b13d de70 973d
00000060: 4a8f 5dbd 5c4c e9bb 2003 c0bc e335 3dbd
00000070: db5d 9b3d 9d45 ea3b b683 e9bc 9fca c33c
00000080: 74cd 273d 54d4 e4bc 4d69 adbd 1f80 50bd
00000090: f36b 2e3d e5d3 5cbd 7df3 b9ba e206 a239
000000a0: dad6 7c3d 1fa3 3dbc edad e3bb 9f67 053d
000000b0: 4395 d33c a615 6f3d 4a4f b1bd 6886 913d
000000c0: afe8 a43c 3b3b a13d fdca 0c3d 7c1c a43d
000000d0: 1762 393d 9684 aa3d 15f9 fc3a ae89 963d
000000e0: 7a69 2dbd 50fa c23b 0cdd c83c 7b9a 893d
000000f0: aea5 29bd 62a9 a7ba ab04 b33d 4517 813d
00000100: d1fd 5dbc 1781 5d3d bdc6 aabd 13c0 493d
00000110: 4b6f a13d fc84 23bd f8f7 963d ecb8 ae3b
00000120: ecd3 6c3d 185b 403c 6df6 b93c 1aee 143d
00000130: b300 303d 0f8b ce3c f6c8 adbd f912 ed3a
00000140: 2549 ab3d d556 54bd 3358 61bc 2a43 88bd
00000150: c101 af3c 7858 9f3d 2ae2 a4bd dc42 cbbc
00000160: 8c61 393d 787b 2e3d 3303 ab3d ee21 5b3d
00000170: d461 563d 2a23 14bd 351f 213d a7af ac3c
00000180: c24f aebd e6b2 65bd 3102 82bd d969 56bd
00000190: 4fb5 97bb 8e32 44bd d7c5 debb 9cd6 3fbd
000001a0: e2b6 75bd fd2a 9ebd 1536 24bd 3636 75bd
000001b0: 8211 9a3d 607c 11bb 34a4 9fbd 9e66 333d
000001c0: 015a b9bc 0678 c7bc e6ed 96bd 3595 8fbd
000001d0: c2e6 8a3d e101 783d a79f 023c e25d 9d3d
000001e0: 7231 1d3d 5974 6a3d f8e9 32bd 3bf0 843d
000001f0: 276c 6c3d 47ea a2bd 538d 3fbc bf92 d73c
00000200: fdf8 33bd 159b 5a3c 687f a83d d374 d33c
00000210: cd49 953d 41c2 b1bd f02f ee3a 64c1 9abd
00000220: 01bd e2bc 8c29 a2bd 6322 c1bc ee61 aa3d
00000230: de85 5a3b c168 aebc dbca 9cbd 4696 9dbc
00000240: e91d 803d 7265 513d 2502 a7bd b870 ac3d
00000250: 955d 703c 9d8a 333d dec9 763c 3f53 36bd
00000260: 2e41 a5bc c220 033d a77c 50bd bb70 963d
00000270: 8ddf 9e3d 9ade 75bd 6d5e b03c bf5c b03c
00000280: 3547 b73c e36a 0abb 513b a63d 40ea b4bd
00000290: f684 1fbc 72c8 993d 20b9 a7bd 1b52 dc3b
000002a0: 2afd 68bb 5dad d43b 0eb8 96bc 136a 663d
000002b0: f551 1a3d 7430 1b3d 25e8 f1bc 2ea4 98bc
000002c0: afb7 ad3d a71a acbc fc8e a03d 8f69 283d
000002d0: d82f 693d 2932 743c 82af 8fbd 4190 dabc
000002e0: 3509 043d 7a0e b4bc 84e7 b83c da20 6bbd
000002f0: 6ab9 7d3b 38c9 1bbd 314f bebc 342c 09bd
00000300: d8ad cdbc fa5d 883d c6b2 293d b114 b43d
00000310: 9965 91bd 0d27 a53d c51a 70bd 55f4 193d
00000320: 1acb 963d f546 2ebd 0d77 b2bc 4967 bd3b
00000330: 8622 593d 6247 b4bd 73e4 31bd 56bb d33c
00000340: 3a56 36bd ad08 5cbd d908 983d 77af 9abd
00000350: e1b8 8b3d c33b 8bbd a8f2 423d 391d a23c
00000360: 9584 873d 968e 19bc 8a77 453d c0ac a8bd
00000370: ee0f 42bd 45aa bfbc d7dd e2bc ae3d 493c
00000380: acec 413d b905 b9bc 857d 2f3d 4971 843c
00000390: 165a 383d 9d52 9bbd ff2e 853d 935d ae3d
000003a0: 9efe 193d c9d3 d5bb 4631 98bc 020c b03d
000003b0: b21d 96bd 6b1b 3abd 2c22 8c3d 2526 12bd
000003c0: d7c9 a0bd 4f4a e0bc d101 b3bd 1ad4 2a3d
000003d0: 1a89 1eba b3d0 b0bd ff40 833d f74e 9f3d
000003e0: 2a56 9abd c92c a03d 7b97 c53c df05 54bc
000003f0: 9502 e4bc b581 013d f3d9 a5bd 9be8 9f3d

fc3.bias f4 [5]
0.015475912 0.0566212 -0.012752961 -0.042566407 0.05629231
00000000: ae8e 7d3c a2eb 673d ccf1 50bc 1d5a 2ebd
00000010: c492 663d
