dynamics/src/drl/outputs/RobotOptEnv/20220719-132928/models/dqn_checkpoint.pth (torch, 74071 bytes, 6 tensors)

fc1.weight f4 [128, 6]
00000000: 9972 013e 0d9d 5a3e 6426 843d 063c 29be
00000010: e69a 62be 8e64 f7bd f041 fdbd 4cc4 623d
00000020: d1b2 103e 8794 ecbd 3af0 8a3a f5ea 0ebe
00000030: 0ba0 57be b279 4e3d 90da 13be 03ab af3e
00000040: 0877 7fbe 7e3c 543d 3533 83be 1a64 03be
00000050: e6a6 563e 92f0 21be 0f57 603e e0b3 ba3e
00000060: dc8e 4e3e 4f36 573e 7b00 9cbb 3b05 3b3e
00000070: 3fa3 53bd 34c4 dfbd db42 b93e 9d07 b83e
00000080: 95a5 69bd 9ec9 a63e b8b4 223e 131e 953e
00000090: 91c1 14be f9c2 613e 2e7a 90be c7bc 443b
000000a0: 3655 2d3e 2b5c 6b3e 3627 8bbd 9697 8abd
000000b0: 06be 8ebd f7a2 90be 0735 66be f135 113e
000000c0: a298 6ebd a0f6 8b3e 660b 82be 862b b23e
000000d0: ec32 b2be 68e7 393e 26fb be3e 668f c63e
000000e0: 0b1c 0d3e a06f c63e 2562 9b3e 9e29 c43e
000000f0: 16cc 403e 5d72 9d3e 1fc7 aabe 9bd0 8ebe
00000100: 4205 6d3e ed94 ce3e b503 6abe e9a9 ad3e
00000110: f045 a0be 2049 a73e d530 4abd e115 093e
00000120: 0eec 97bd 6f7f ac3e 6522 1bbb d3bf dbbd
00000130: 5526 223d f18a 853d c55c a6bc 362e c6be
00000140: 7d37 153d 70a1 11bc c1f1 78bd b562 f13d
00000150: 8904 f83d 7583 94be 7f5b 373e 60d8 0cbe
00000160: 8874 8f3e 686b b3bc bfcc 783e a6cc 083e
00000170: f3c8 16bd 21d5 c9bd 8995 ad3e cc71 81be
00000180: 0cfc 9a3d 950e 683e 5181 c7be dade 933d
00000190: 6f90 8dbd e932 6b3c 9929 19bc 3714 d03d
000001a0: 57a9 c2bd 89e0 903e f0de 9fbe 3aed 21be
000001b0: f8e6 a8be e74b 663e 88cf bbbd bde8 05be
000001c0: 3949 873e bcee 853e 1185 8abe b977 75bd
000001d0: 3d3f 603e d691 31bc f979 c43e eb75 893e
000001e0: 2a38 813e f6fd 8abe 4d06 9ebe 26df 9f3e
000001f0: 0839 97be 03c0 ad3e ee11 833c 51c1 c53d
00000200: 9280 babe c2c6 b33e bb48 4e3e dac2 933e
00000210: e58c b1be 56a1 64be 245e fbbc 152f 87be
00000220: 6a69 9cbe 4225 f53c 93f9 b03e 2c1c bf3e
00000230: bf2f a93e 4021 acbd 3423 ba3e 7b7d 92be
00000240: c3e6 4e3e 2d76 31be 49cd bb3d fdb5 c9be
00000250: 5c2c b23e 84d2 5b3e 2086 433e 2a85 2e3e
00000260: e0c0 713e b4ab 463e 566c 583e f91b c6bc
00000270: e8ef 573e 205c a8bd 00ba babd 5fe5 6d3e
00000280: fe7a afbe 1131 40bc d877 9f3e 167f a9be
00000290: 28db 6cbe ef74 8abb 9235 b9be 1917 303e
000002a0: 2f4e 033e c1fe ab3e 2c95 ea3d 2926 cd3d
000002b0: 22f3 93bc 7a90 183e de2d 8f3e ade1 f03d
000002c0: 1e1d acbe d9ab b1be c2c7 13bc 2bf3 b5be
000002d0: a568 95be 1fc0 a1be 19b3 8cbe d505 a13e
000002e0: 3e50 cabd d266 873e 3ae7 753d 4ef4 783e
000002f0: 7fa1 613e f770 543e ebdc 9e3e b307 8d3e
00000300: 2657 a83e 740e 5bbe 5ae5 9c3e b448 0abe
00000310: 402f a1be a572 b53e dfa8 41be 83d2 83be
00000320: fbf0 90be 5073 2bbe e4dd b1be a797 c13e
00000330: 05f6 00be 6041 1ebe d66d 9cbe 4502 6d3d
00000340: 9530 883d efc4 19bd 74d0 2c3e d55b 11bc
00000350: 6afe 4ebe 1323 ba3d ec93 4a3e 4fe8 033e
00000360: bff9 adbc bc9e 0d3e 4a4c c03d 3b1b 3ebe
00000370: 0d63 f7bc 2e93 b03e c679 1bbe cf42 afbe
00000380: 4548 c3be 4d15 bbbe 5677 5b3c c0cd c0be
00000390: 6d1d b4bd 2547 a2bd d1cc ca3e 15af a93e
000003a0: 9c65 abbe 3dff c9be fe4e 78be f505 1b3e
000003b0: c96f a3bd d7dc 933e 4dbb 5a3e 66db 3abe
000003c0: 419e d0be 4b0d d0be 8bbf a5bd 27be eab8
000003d0: d850 7cbc 6b23 35be cfe8 073e c9b8 bc3e
000003e0: 017e 5cbe 5d1f 3abe 4941 cc3d aa74 a43e
000003f0: a27e 29be d37c 24be 90c4 b5be 9625 a33d
0.12641372 0.21348973 0.06452635 -0.16526803 -0.22129402 -0.12079726 -0.12366092 0.055362985
0.14130713 -0.11551767 0.0010600158 -0.13956816 -0.21057145 0.050409026 -0.14438844 0.3431016
-0.2494775 0.051815502 -0.25625005 -0.12831154 0.20962104 -0.15814427 0.2190821 0.3646536
0.20171684 0.21016811 -0.0047607995 0.18263714 -0.051669355 -0.10926095 0.3618382 0.35943308
-0.057042677 0.32575697 0.15889251 0.29124507 -0.14526965 0.22047032 -0.28218216 0.0030019747
0.16927037 0.22984378 -0.06794588 -0.06767194 -0.06969838 -0.28249332 -0.22481166 0.14180733
-0.05825103 0.27336597 -0.2539932 0.3479883 -0.34804475 0.1815468 0.37300986 0.3878128
0.13780229 0.38757038 0.30348316 0.38313 0.18827853 0.30751315 -0.33355042 -0.27893528
0.23146537 0.40347996 -0.22852977 0.33918694 -0.31303358 0.32672977 -0.049362976 0.13387252
-0.07418071 0.33690974 -0.0023671624 -0.10729947 0.039587338 0.065206416 -0.020307908 -0.3870713
0.03642987 -0.008888587 -0.06077743 0.11786405 0.1211024 -0.29006544 0.17905997 -0.13754416
0.28018594 -0.021901801 0.24296854 0.13359317 -0.036812734 -0.09855104 0.3390315 -0.25282133
0.075676054 0.22661813 -0.38965848 0.0722024 -0.06912314 0.0143554 -0.009348297 0.10160106
-0.09504955 0.28296307 -0.31224775 -0.15813151 -0.32988715 0.22489892 -0.09170443 -0.13077064
0.26423052 0.26158702 -0.27054647 -0.05992863 0.21899123 -0.010837993 0.38374308 0.26847777
0.25238162 -0.27146882 -0.30864182 0.31224936 -0.295357 0.33935556 0.01599976 0.09656013
-0.36426216 0.35112578 0.20144932 0.28859597 -0.34677806 -0.2232717 -0.030684538 -0.26403108
-0.30549175 0.029924992 0.3456541 0.3732618 0.3304424 -0.084047794 0.36354983 -0.2861136
0.20205216 -0.17330237 0.091700144 -0.3939666 0.3479947 0.21467024 0.19094133 0.17042986
0.23608732 0.19401437 0.21135077 -0.02418326 0.2108761 -0.082206964 -0.09117508 0.2323203
-0.34273523 -0.011730448 0.3114612 -0.3310477 -0.23130476 -0.0042253654 -0.36173683 0.17196311
0.12822793 0.335928 0.114542335 0.10017044 -0.01806027 0.14898863 0.2796468 0.11761794
-0.33615965 -0.34701422 -0.009019794 -0.35537085 -0.291814 -0.3159189 -0.2748039 0.31449762
-0.09878586 0.26445633 0.060034968 0.24311945 0.22034262 0.20746218 0.31027922 0.27544937
0.3287899 -0.21392232 0.3064373 -0.13504297 -0.3148136 0.3543903 -0.18912075 -0.25746545
-0.28308854 -0.16743207 -0.34739602 0.37811014 -0.12593849 -0.15454626 -0.30552548 0.057863493
0.06649891 -0.037541326 0.16876394 -0.008871992 -0.20214239 0.09088721 0.1978299 0.12881587
-0.021237252 0.13830084 0.09389551 -0.18565075 -0.030198598 0.3448729 -0.15183172 -0.34230658
-0.38141075 -0.3653969 0.013395151 -0.37656975 -0.08794675 -0.07923726 0.39609388 0.3314139
-0.3347596 -0.39452544 -0.24248883 0.15138991 -0.07980306 0.28879425 0.21360512 -0.18247756
-0.40745738 -0.40635142 -0.080931745 -0.00011193408 -0.015400134 -0.17689292 0.13272403 0.3685973
-0.21532442 -0.18176027 0.0997339 0.32120258 -0.16552213 -0.16063242 -0.35501528 0.07966153

fc1.bias f4 [128]
00000000: ad27 1cbc f9f6 94be 83ba f93d 2999 3ebe
00000010: dc58 7fbe 9c1e 683e ec91 cbbe d7c7 8dbe
00000020: 3488 babe 478e 88bd d0e7 553e a4e5 513d
00000030: 0108 ab3e 6cc0 4ebd 4a25 99be 01d7 f33c
00000040: f12b 1e3e a3cd f43d fce7 903e 1d5f 9e3d
00000050: 8973 ff3d e1ea bdbd b54c bbbe 2cb8 003c
00000060: 4962 4dbe 4714 423e 5c2b 9b3e 7af6 c13d
00000070: 6149 cf3e 6f78 7fbe 21fd 833e 06cc aa3e
00000080: fbb1 61be d7ca e73d 8c1f 0e3e 854a 9b3e
00000090: 0908 41be eace 9a3e b437 563e 09ba c13e
000000a0: 896c a9be 5f5f 413b d063 883e 0580 f43d
000000b0: f502 a53d 1cc1 adbe f628 a8be 006b 9f3e
000000c0: 77f5 cebe 9f85 4f3e a746 b63e a581 64bd
000000d0: 601e 853e 5836 53bd 6325 023e 4be4 59be
000000e0: ec68 c63e a7b3 b73c fa52 b2be 334b cbbe
000000f0: 78bc 123e ee3a 283c 5340 adbd d86a 57bd
00000100: 9c37 7bbd 6b87 6bbc 6d55 403e 4149 dcbd
00000110: 50ab 5a3d ab87 7fbc 0152 0abe 165f 5f3e
00000120: 1408 8f3e 53a2 af3d b996 c83e 4c69 4b3c
00000130: 02e4 cabe fa7d 54be 0699 d0bc c4ad 873a
00000140: ed9e d6bd a28e 9b3d 3a95 cc3e 187d 9c3e
00000150: 4454 203d eade 2e3e d339 22be 78db 2abe
00000160: 87fb aabe 86a9 013e 6b10 1cbe 9c3f a43d
00000170: 53ab e8bd ce36 53bd f97c b13e 0919 99bd
00000180: 3f5a a8be 385f b8bd ae6a 123e 09bd 793e
00000190: d110 88be e16c c73c 91c9 a6bd da95 37be
000001a0: 7061 cb3c 0af6 debd 9d41 1fbd 501c 163e
000001b0: 1c4c 9e3e 3d67 babe aaa7 5bbd 07a0 8b3e
000001c0: 6f98 073e d533 c53d 4851 a33e c205 983e
000001d0: 49fb 5cbe 4261 35be d34d c8bc 1890 183e
000001e0: 7954 a7bd 82da c2bd 17a0 b53e 7d5a 333e
000001f0: e4ff 41be 7e28 25bd 6942 a7bd 0383 ad3e
-0.009530944 -0.29094675 0.121937774 -0.18613113 -0.24936241 0.22667927 -0.39759767 -0.27691528
-0.3643204 -0.06667762 0.2088921 0.051244393 0.33404544 -0.050476477 -0.29911262 0.029765608
0.1544645 0.119532846 0.2830199 0.07732985 0.124732085 -0.09273315 -0.3658196 0.00785641
-0.20057024 0.18953048 0.30306518 0.0947084 0.4048567 -0.24948286 0.2577906 0.33358783
-0.2204055 0.113179855 0.13879222 0.3033029 -0.18850721 0.30235988 0.20919687 0.37837246
-0.33090618 0.0029506308 0.2663865 0.1193848 0.08057205 -0.33936393 -0.3284375 0.31136322
-0.4042165 0.20265816 0.35600778 -0.0557877 0.25999737 -0.051565498 0.12709574 -0.21278493
0.38751924 0.022424532 -0.3482893 -0.3970581 0.14329708 0.010267956 -0.084595345 -0.05259213
-0.06133233 -0.014375548 0.18782587 -0.107561596 0.053386033 -0.015596311 -0.13507845 0.21813616
0.2793585 0.08575883 0.39177492 0.012415241 -0.3962708 -0.20751181 -0.025463592 0.0010351469
-0.104795314 0.075955644 0.399576 0.3056419 0.039142862 0.17077222 -0.1584237 -0.16685283
-0.33395025 0.12662324 -0.15240638 0.08019945 -0.113608025 -0.051565938 0.3466566 -0.07475478
-0.32881352 -0.090025365 0.14298508 0.24388517 -0.2657533 0.02434391 -0.081439145 -0.17928258
0.024826735 -0.10886772 -0.038880933 0.14659238 0.30917442 -0.3640689 -0.053626694 0.2727053
0.13241743 0.09629027 0.3189795 0.29691893 -0.21580233 -0.17712882 -0.024451172 0.14898717
-0.08170409 -0.09514333 0.354737 0.17514987 -0.18945271 -0.04032182 -0.081669636 0.33889017

fc2.weight f4 [128, 128]
00000000: dba7 2bbc a074 ad3c c2aa 88bb 96d9 8f3d
00000010: d70e 2a3c 642c 683b f10c 843d daa7 85bd
00000020: 3392 9f3c 83ad 34bd b6d6 ad3d ee15 2b3d
00000030: ff37 063c e448 883c 2e9b 83bd ae1d c13c
00000040: 8416 743d 1b64 d1bc 0914 0cbb df7b 1dbb
00000050: ddf1 a4bd c8b5 0dbd 46c1 a23d 1180 b2b8
00000060: 4155 523d 514b 1cbd 7884 53bc f0f9 9c3d
00000070: 1f21 663d 35e8 91bc d051 963d f91d b33d
00000080: 7483 96bd be91 913c e26b a63d 159b 23bd
00000090: bd55 a8bd 1fcd edbb 8c2a 373d 4a3a 7d3d
000000a0: fe24 653d 9491 c5bc fbbe 66bd 4cc6 953d
000000b0: f359 c3bb 9b5a 62bd 60f2 023d 2726 65bc
000000c0: 9a4d c23b 94a9 a73d ae55 89bc ef38 7abc
000000d0: 3834 9ebd ab95 9bbd ab3e a1bd ed7a f0bc
000000e0: 5647 793d d507 b3bb 9545 aabd acce 94b9
000000f0: 9bee f8bc 3623 8a3d e2ae f33c 6a42 2e3d
00000100: d1dd c9bc e565 3abd 6d54 4b3b c6f8 85bd
00000110: 18fe 883d 83fd aebb d94b 90bd a19e 383d
00000120: 05f9 273c 0870 57bc 5e6a 323d b28a 653b
00000130: 7822 3cbd cb59 aebd 6114 3c3d a753 17bd
00000140: 3d60 de3c 8844 7b3c 204d 143d 36a3 8639
00000150: 64f2 d53c eb3c 813d 940d c83c 34e1 953c
00000160: cf75 ac3d a233 d83b 4100 eebc 8776 9cbd
00000170: 4ca8 62bb f5a0 833d ec2e d5bc 0d37 12bd
00000180: 7a7a 8c3d 8e14 8f3d 2208 a3bd 37c4 e9bb
00000190: d863 8cbd 6d48 ab3d 915a 06bd 748c a4bd
000001a0: e245 613d f12e 68bd ae11 173d 6402 9fbc
000001b0: 0097 bbbc f3a9 94bd 3d01 4c3d a145 e7bc
000001c0: 0bbb 13bd 32dc 6cbd fe9c 30bd 232f 95bd
000001d0: 62e3 fc3c bd0e 893d 82ab 69bc 48b8 abbd
000001e0: ae16 93bd b428 fc3c 01fe 72bd 8bd4 bb3c
000001f0: 2b22 77bd 5223 b3bc 2b85 943d c973 2b3d
00000200: ed6c 973d d236 db3b 2641 5ebd f770 7e3d
00000210: 3b9b a0bd 2c5b 8b3c 4bf5 193c cfe5 d7bc
00000220: 2bc7 a73d 4a25 263d 06bf 87bd 80f0 903c
00000230: f4ed 8bbd 022b 9abc f58b 103d e5ff 9ebb
00000240: 187c 9bbd f43c aa3d 65a7 42bd 6cdd a0bd
00000250: e71f 87bd 0c61 3abc cd92 373c 429c 723d
00000260: 6fd5 68bc 0178 1f3d 38c7 e53c d9ff cd3b
00000270: 95ca 2fbd 0f4d 27bc 0579 3abd c36f 0a3d
00000280: 910e 56bc 0995 2ebd 1295 1fbd ec56 47bc
00000290: 6d19 abbd f53e a9bd c26d 39bd 7276 a33c
000002a0: 3611 843d d7e6 c7bc 79af 93bd 6e97 f03c
000002b0: 0a44 6b3d b3e4 73bd d9a8 413b b07e 36bd
000002c0: bf19 86bc 5e96 ec3c 5323 9cbd 5bd7 9bbd
000002d0: 3ee7 14bc 43a4 bb3c 198c 113d bf2d 9e3d
000002e0: 034d 0abb 6186 683d 3363 32bd 9201 393d
000002f0: 53b1 bebb 4861 393d 81ea 46bd e93a 5bbd
00000300: 2d27 6ebd c20c afbc ecef bf3c f7e0 f1bc
00000310: 9f71 013d a6b3 203b 5241 a83d c2ec 90bd
00000320: e834 803d 7875 5bbd 0c37 c93b ee7f 8dbb
00000330: a77c e3bc 416b 6f3d ead6 35bc b1f4 1e3d
00000340: 4d65 07bd a8ce 473d fb23 3ebd 28af 693d
00000350: ebaf 2cbd da23 843d 8a42 a4bd 6c4f 2ebd
00000360: 143a 96bc 8d9d a43c c020 52bc c41b 48ba
00000370: cc2b b23d 322d 403d c0e7 8ebd b1e2 aebd
00000380: e67b e3bb dc59 1b3d 4e3d afbc b77b acbd
00000390: 0835 9f3d f107 0bbd 559d 22bd f8d2 123b
000003a0: a3ea 8fbd 4a13 223d 04ef d8bb 7c77 95bd
000003b0: 7b12 a23d f6f3 983d 30d4 503c 8433 943d
000003c0: e287 7b3c 4bce b1bd 7abc 2f3c 8313 393b
000003d0: 44e9 9eb9 5f37 12bd 2489 4d3d a9c2 7bbc
000003e0: ae6a 91bd c7cc 73bd 5a33 42bd 8491 aa3d
000003f0: 6387 553d b64c 41bd 96cb de3c 4f4c 4b3d
-0.010477032 0.021173775 -0.0041707465 0.07023923 0.010379515 0.003542685 0.06447781 -0.06526156
0.019478893 -0.044110786 0.084882185 0.04176896 0.008192061 0.01663632 -0.064260826 0.023573723
0.059591785 -0.02556043 -0.0021374247 -0.0024030132 -0.08053944 -0.03459719 0.0794702 -8.511556e-05
0.051350836 -0.038157765 -0.012910001 0.07664859 0.05618393 -0.01781092 0.07339823 0.08745951
-0.073492914 0.01776969 0.08126046 -0.03994282 -0.08219478 -0.0072571184 0.04471831 0.061823167
0.05594348 -0.024117269 -0.056334477 0.07313213 -0.0059616505 -0.05526219 0.031969428 -0.013986147
0.005929661 0.08186641 -0.016764488 -0.015272363 -0.07724804 -0.07596906 -0.07873281 -0.02935549
0.060859047 -0.00546358 -0.08314053 -0.00028382742 -0.030387213 0.06744997 0.029746477 0.042543806
-0.024641903 -0.04550733 0.0031025663 -0.065415904 0.066890895 -0.0053402795 -0.07045717 0.045073155
0.010252242 -0.013149269 0.04355847 0.0035025296 -0.04593131 -0.085132204 0.045917872 -0.03694501
0.0271455 0.015336163 0.036206365 0.00025680073 0.026116557 0.06310447 0.024420537 0.018295862
0.08420908 0.006597952 -0.029052855 -0.07639795 -0.0034585176 0.064271845 -0.02602335 -0.03569703
0.06859298 0.06986342 -0.079605356 -0.0071339863 -0.06854981 0.083634235 -0.032801215 -0.08034602
0.054998286 -0.05668539 0.036882095 -0.01941032 -0.02289915 -0.07258978 0.04980587 -0.028231444
-0.03606705 -0.057827182 -0.04311847 -0.07284381 0.030870143 0.06692264 -0.014262082 -0.08384758
-0.0718206 0.030781128 -0.05932427 0.022928497 -0.06033532 -0.021867428 0.07251962 0.04185847
0.07393823 0.0066898847 -0.05426135 0.06211945 -0.07842108 0.017011248 0.009396861 -0.026354698
0.08192285 0.040562905 -0.06628232 0.017692804 -0.06832495 -0.018819336 0.035289723 -0.0048522823
-0.075920284 0.08312407 -0.04752292 -0.07854733 -0.06597882 -0.011375677 0.011204434 0.05923105
-0.014211043 0.038932804 0.028049096 0.006286603 -0.042917807 -0.010211243 -0.04552557 0.03379799
-0.013064996 -0.0426226 -0.038960524 -0.01216672 -0.08354459 -0.08263961 -0.04527069 0.01995394
0.06448595 -0.024402065 -0.07211203 0.029369082 0.057437934 -0.059544276 0.0029550104 -0.044554412
-0.016369699 0.028880294 -0.07623925 -0.07609435 -0.009088336 0.022905475 0.035534 0.07723569
-0.0021103031 0.05676878 -0.043551635 0.045167513 -0.0058194785 0.04525879 -0.048563484 -0.053522978
-0.05814283 -0.021368388 0.023429833 -0.029526217 0.0316025 0.0024521141 0.08215584 -0.07076408
0.06260091 -0.053578824 0.0061405953 -0.004318229 -0.0277694 0.058451895 -0.011098603 0.038807575
-0.033055592 0.048781067 -0.046421032 0.057051808 -0.042159956 0.06452151 -0.08020504 -0.04255621
-0.01833824 0.020094657 -0.012825191 -0.0007633532 0.0869976 0.0469181 -0.069777966 -0.08539332
-0.00694226 0.037927493 -0.021391537 -0.08422034 0.07773787 -0.03394312 -0.039700825 0.002240358
-0.07027175 0.039569177 -0.0066202898 -0.072981805 0.07913681 0.07468407 0.012745902 0.07236388
0.015352221 -0.086819254 0.010726089 0.002824039 -0.00030309905 -0.035697337 0.050179616 -0.015366235
-0.07100426 -0.059521463 -0.047412254 0.08328536 0.052131068 -0.047192298 0.027196687 0.04963332

fc2.bias f4 [128]
00000000: 6eee 4cbd 9d3e aa3c 7fe2 8f3d bf0a 79bd
00000010: 1277 903d 81ad 9fbd eaca 513d 4858 3fbd
00000020: 25f9 0f3d d07d b03d 76ab c4bc 09cf 59bc
00000030: 9b10 76bd 5c48 d43c d7ef afbd a039 acbd
00000040: 76aa 04bd 1598 ccbc 8ae4 703d 76bc 893d
00000050: bd09 99bd 5b5a a3bd 4a74 43bc 42a5 a13d
00000060: 086f c73c a8d3 b43d 0df9 5a3d 6a47 3c3d
00000070: d15d fe3a 7a74 f83c abf5 3fbc baff 66bd
00000080: aed7 a2bc cf62 ab3d 1b87 08bd 1f9a 9dbc
00000090: b1d6 ad3d a30c 94bc 8be9 033d e1f5 923c
000000a0: 83d4 7cbd 73b1 85bd cf5c 8fbc 67de 7d3d
000000b0: 199d c4bc faf9 99bd 0470 8b3d 5355 9a3d
000000c0: 116c 723c 4661 2ebd 267e 683d 2722 39bd
000000d0: 0ca6 aebd 1034 943d 2e7f 923d b92c 533d
000000e0: 901c 65bc 2b85 913c ef64 123d bbf2 a03d
000000f0: 01be 9d3d b071 7d3d 41c5 86bd ac77 a1bd
00000100: 26ac 13bd e7d7 19bd 53c2 b0bb bf2c b1bb
00000110: 16f4 67bd 7723 2dbd a322 0dbc fc25 f03a
00000120: 8ac1 6d3c b0cc 673d ea92 d8bc f31b 9abd
00000130: 265b 073c 54d2 d9bc 42d6 9dbd 08f8 2ebc
00000140: 2dbd 3bbd d647 683d 3c2d 6b3d 2b68 da3c
00000150: 7c4a e039 dfef 79bd 5cee 1cbc 822a d83c
00000160: 9c94 a7bb a2d0 953d d10c 8c3d c457 383d
00000170: 6076 203d 383a ed3a 3727 aa3c ac3c b23d
00000180: 3a0e 943d a452 7f3d 8e66 13bd 0dc7 e7bc
00000190: 2aa6 5e3d a09d c03c 9683 ae3d 2437 d5bc
000001a0: 360c 933d bbba a0bd e1a5 a5bc 1462 5f3d
000001b0: 0a71 4c3c e654 673d c3ef fb3c 0e5c 42bd
000001c0: 5fbd a3bd 59dc 793c ab81 50bd ea46 a4bd
000001d0: 85d3 253d 98e9 8cbd 977f 15bd 9f10 303c
000001e0: 4bf6 9dbd 6a8a 183d 8e0e 0cbc 1b5d 44bc
000001f0: 1d5a 3d3c bc14 923d 6f06 28bd 820e 7a3d
-0.05003207 0.02078181 0.070256226 -0.060801264 0.07053961 -0.07796765 0.051218905 -0.04671505
0.035149712 0.08617747 -0.02400754 -0.01329399 -0.06007443 0.02591341 -0.08590668 -0.084094286
-0.032389127 -0.024974862 0.0588117 0.06725399 -0.074725606 -0.07976218 -0.011929581 0.078928486
0.024344936 0.08829433 0.05346017 0.045966543 0.0019406622 0.030328978 -0.011716287 -0.056396224
-0.019878235 0.083684556 -0.03333197 -0.01923853 0.08488215 -0.018072432 0.032205146 0.01793951
-0.061726104 -0.065279864 -0.01750031 0.061979678 -0.024000691 -0.07518382 0.06808475 0.075358056
0.014796273 -0.042573236 0.05676093 -0.045198586 -0.08527765 0.07236493 0.07153164 0.051556323
-0.013983861 0.017763695 0.03574079 0.07858797 0.07702256 0.061876 -0.06580592 -0.07884154
-0.036052845 -0.037559416 -0.005394259 -0.0054069455 -0.056629263 -0.04227015 -0.008614215 0.0018321867
0.014511475 0.05659169 -0.026437242 -0.07524862 0.008261478 -0.02658955 -0.07706882 -0.010679252
-0.04583471 0.056709133 0.057416186 0.026661 0.00042780105 -0.061019775 -0.009578314 0.026387457
-0.005114151 0.07315184 0.06838382 0.045005575 0.03917539 0.0018099016 0.020770652 0.087029785
0.07229276 0.06233467 -0.035986476 -0.028293157 0.054357685 0.023512661 0.08521192 -0.02602727
0.071800634 -0.07848116 -0.020220699 0.054536894 0.0124781225 0.05647745 0.030753976 -0.04745107
-0.07995104 0.015250289 -0.05090491 -0.08021338 0.040484924 -0.06880492 -0.036498632 0.01074615
-0.07712992 0.037241377 -0.008548392 -0.011985089 0.011557129 0.07132861 -0.04102176 0.061048992

fc3.weight f4 [5, 128]
00000000: f792 07bd e4c1 8abd 3ba3 26bd 193a b4bb
00000010: 8941 c73c e594 b03d a9a0 b3bd d46a 33ba
00000020: 5670 323d 9f15 923d ec14 e03b 046c 5cbd
00000030: 1a7a 8bbd 4f96 973d 60ee 843d 6607 a6bd
00000040: e3ea 603d d223 93bd 7cf1 443d dd81 8d3d
00000050: f16f 95bd a4ca 26ba b923 453d 03a8 073d
00000060: 3212 8bbd 6e0b a7bc 9059 b1bd f180 73bb
00000070: 2735 dd3c a7ae 2fbd f5fe a63d 4148 23bd
00000080: 488c c4bc c741 943c f10e 9abd 2ca0 bfbc
00000090: 3133 b2bc 0961 733c 4099 a73c 3c41 413d
000000a0: 77ff 5f3d 11c5 b83c dfe8 a4bd 3bb0 1fbc
000000b0: adcb 823d 0a83 973d 6688 0abd 81dc 863d
000000c0: 5650 cc3b 35cb 81bd 52b8 983d 908d 8a3d
000000d0: ca98 393d af2d 803d c57e 183d 8808 96bd
000000e0: d46b 79bd a014 513b 96e2 1bbd 29f5 04bd
000000f0: c418 493d e0e2 a03d 4304 9cbd 541b 9f3d
00000100: d845 cb3c 5660 e93c f38d 553d 78c6 e03c
00000110: 70e1 bd3b 542c ab3d 036d 513b 36fd df3c
00000120: aa7b b2bd 2382 8dbd 12f3 ab3d c8cd e53c
00000130: 7941 86bd e3e1 9abc 3b18 26bd 8396 7dbd
00000140: 55f8 6f3c 21e8 9a3d ac8d 033d c728 a73d
00000150: 3f1b 823c 761f 1dbc 707f 97bc ae39 a93d
00000160: 0a34 b43d 7af7 a83d 52ba 483d 2baa e8bb
00000170: be77 183d ba88 7ebd aa62 91bd 6d32 3bbd
00000180: 651a e5bc 906b cf3c 9387 313d b4bc ed3c
00000190: fa33 8c3d f341 65bc c388 80bd 0bfb b43d
000001a0: 6e2b 053c 1bb7 85bc 5cf2 24bd 7484 1b3d
000001b0: 150a a73c 8e51 8cbd 363e 6ebc 285a 92bd
000001c0: 2af0 783d 3785 c7bc b42b 4f3d 4eb2 c93c
000001d0: a873 903d ffb6 f2bc c489 aa3c 457c a3bd
000001e0: ce09 45bd e4ee 8ebd c342 d1bb a367 133b
000001f0: b523 2d3c e577 77bd 169d 053d ff22 663d
00000200: a327 29bd 3f88 2d3c a6c4 40bd fdfb 47bc
00000210: fabc 82bc 03aa 973d e20d a9bd 0555 98bd
00000220: d5b3 a93d 820f e0bc 1fc5 af3d 2eda afbd
00000230: 94f3 503d 5482 b1bc 526c 8b3c 0cd6 493d
00000240: 36df 05bd 5a03 5c3c 3120 833c bb46 6abd
00000250: 4384 5fbd 0402 6b3d 81f2 4ebd 27e7 a5bd
00000260: dc0f b63c 80fa 01bd 1c44 66bd ce7e 7cbd
00000270: 7c97 aa3d 1a28 6a3d 4ba8 133c c291 b83c
00000280: f023 c4bc f4f5 7a3c 06c5 6f3c 1292 093c
00000290: 9be0 c8bb c557 0d3d 14c2 5fbd 0e41 113d
000002a0: 0e9d 893d 30a6 033d 8201 a23d c037 613d
000002b0: 93de 56bd 19e7 163c 91ec ba3c b6cd fbbc
000002c0: 7c1d a1bd b980 363d e90d 6ebd d8c1 2bbb
000002d0: c6d1 51bb c2a9 623c 4ba5 75bd 7766 693d
000002e0: c120 2b3d 5df5 a73d d508 473c 4df9 86bc
000002f0: 1d52 5fbd 069d 2e3d e6a3 ebbb 8154 b13d
00000300: dd4f 5a3c 845c 033d a50b a23d ae20 3e3c
00000310: a1fb c43c 828d ad3d 571d 71bc 1ce3 033c
00000320: 58c5 733d a652 5a3d 9011 84bd 8cd7 fa3b
00000330: 6e13 7d3d 9431 543c d917 86bd 208b 7abd
00000340: 14cc 8f3d 2407 7a3d 23e1 613d a6c7 94bd
00000350: 041a 4fbd 5b78 5cbd cbfd c43a 584a 333d
00000360: 0aa8 d83b 94a7 cf3c a674 ae3d 83d1 eebc
00000370: eae1 343d 1fdd 55bd 4584 873c aed4 1f3d
00000380: 628d 5e3d 6646 6c3d 05fa 81bd 4b12 9dbd
00000390: 4cf1 103c a1c6 9d3d 2191 a83d 65ef 663d
000003a0: 19e4 5bbd 1fde 56bd 53a5 73bd 0217 c53c
000003b0: b85e dd3b db41 e23c b927 aabc 1172 a1bd
000003c0: 19a9 5dbc e4f4 b33b 5fc2 9cbd b7d5 87bd
000003d0: 8aca 83ba 5fc6 343c 7a86 8cbd 8f9f 8cbc
000003e0: 05ab 6abd 0779 f4bc 2cfe 7a3d 51df 673d
000003f0: b7bf b2bd 4721 9d3d 964e 18bd c447 b1bd
-0.03309914 -0.06775263 -0.040683012 -0.00550009 0.024323242 0.086221494 -0.08770878 -0.0006844227
0.043564163 0.0713303 0.0068384316 -0.05381395 -0.068103984 0.07401716 0.06490779 -0.0810688
0.054911505 -0.071845666 0.04808186 0.06909535 -0.07296742 -0.0006362593 0.04812977 0.033119213
-0.0679058 -0.020391192 -0.08659661 -0.0037155712 0.027002884 -0.04289117 0.08154098 -0.03986383
-0.023992673 0.018097771 -0.07522381 -0.023391806 -0.021752926 0.014854678 0.020458817 0.047181353
0.05468699 0.022554906 -0.08052229 -0.009746606 0.06386504 0.073980406 -0.033821486 0.065850265
0.0062351627 -0.06337587 0.07457031 0.06765282 0.045311727 0.062587135 0.03723027 -0.07325846
-0.06089385 0.0031903163 -0.038057886 -0.032460365 0.049095884 0.07855773 -0.07618 0.07768884
0.024813578 0.02848832 0.052137326 0.027438387 0.0057946965 0.08358064 0.0031955845 0.02734242
-0.08714993 -0.06909587 0.08395971 0.028052226 -0.06555457 -0.01890654 -0.04055045 -0.061911117
0.014646609 0.07563806 0.03211753 0.081620745 0.015882133 -0.00959002 -0.018493384 0.08262955
0.08798988 0.082503274 0.049005814 -0.0071003637 0.03722357 -0.06214211 -0.07098897 -0.045702387
-0.027966687 0.025319844 0.043342184 0.029020645 0.06845851 -0.013992774 -0.06276085 0.08836945
0.00812803 -0.016322663 -0.040270194 0.037968114 0.02039055 -0.06851493 -0.014541199 -0.07146102
0.060775913 -0.024355514 0.050578788 0.024621155 0.0705331 -0.029628275 0.020817645 -0.07982687
-0.048105054 -0.069791585 -0.0063861324 0.0022492192 0.010567595 -0.060417075 0.032620512 0.05618572
-0.041297566 0.010591566 -0.04706254 -0.012206075 -0.015959252 0.07405474 -0.08254601 -0.07438091
0.08286253 -0.027351145 0.0858252 -0.08586536 0.051013544 -0.02166859 0.017019425 0.049276397
-0.032683574 0.013428533 0.016006561 -0.05719636 -0.054569494 0.05737497 -0.05052424 -0.081007294
0.02222436 -0.031733036 -0.056217298 -0.061644368 0.083296746 0.05716715 0.009012292 0.02253044
-0.023942918 0.015317429 0.014634376 0.008396642 -0.0061302907 0.03450753 -0.054628447 0.03546243
0.06719409 0.03214091 0.07910444 0.054984808 -0.052458357 0.009210371 0.022817882 -0.030737739
-0.07866952 0.044556353 -0.058118735 -0.002620807 -0.0032015904 0.013834419 -0.05997209 0.056982484
0.041779283 0.08201096 0.012148102 -0.016476298 -0.05452167 0.042630218 -0.007191169 0.08658696
0.013324705 0.03207065 0.07912377 0.011604471 0.024045767 0.08474256 -0.014716468 0.008049753
0.059514374 0.053301476 -0.06448662 0.0076550897 0.061786108 0.0129512735 -0.06547517 -0.061167836
0.07021347 0.061041966 0.055146348 -0.072646424 -0.05056192 -0.053825717 0.001502925 0.04377207
0.0066118287 0.025348462 0.08518343 -0.029152637 0.04416076 -0.05221283 0.016542563 0.039021187
0.054334052 0.057684325 -0.063465156 -0.07669505 0.008846592 0.07703901 0.08230806 0.05638065
-0.053684328 -0.052457925 -0.059483837 0.024058823 0.006755676 0.027619293 -0.020770894 -0.078830846
-0.013529086 0.0054918397 -0.07654261 -0.0663256 -0.0010054868 0.0110336235 -0.06861587 -0.017165927
-0.057292003 -0.029842867 0.061277553 0.056609455 -0.08727973 0.07672363 -0.03718432 -0.08656266

fc3.bias f4 [5]
00000000: 8150 2cbc 452a d7bc 666a acbd c206 7bbd
00000010: db7b a33d
-0.0105172405 -0.026265273 -0.084187314 -0.06128574 0.07982608
