dynamics/src/drl/outputs/RobotOptEnv/20220718-130158/models/dqn_checkpoint.pth (torch, 74071 bytes, 6 tensors)

fc1.weight f4 [128, 6]
000000 2a ed b0 3e 9e 79 81 3e c8 75 5f 3e f9 e7 86 bd
       0.34555942 0.252881 0.21822274 -0.06587214
000010 14 e0 12 be 41 90 51 be c8 3c ce be df 3e 35 3e
       -0.14343292 -0.20465185 -0.40280747 0.17699765
000020 27 3e c8 3b 34 28 20 be 2d 4d 32 3e c5 b5 21 be
       0.0061109248 -0.15640336 0.17412253 -0.15791996
000030 89 3b c8 3d 1e 2d 05 be f4 fd 28 be bf 6c 7a 3e
       0.097769804 -0.13005492 -0.16503125 0.24455546
000040 80 31 b2 3e 26 26 7e be 82 31 19 bd b6 57 5b 3e
       0.3480339 -0.2481924 -0.03740073 0.21420178
000050 6a 42 0c 3e bd d7 f5 bd 1a 48 03 3d de b0 1e bd
       0.1369721 -0.120040394 0.032051183 -0.038742892
000060 b6 c0 6a be 92 49 89 3e 21 c2 df bd 77 e4 a0 be
       -0.22925076 0.26813942 -0.10925699 -0.31424305
000070 26 ad 3f be b4 6f 53 bd 43 a0 2a bd c5 70 c8 3e
       -0.18718395 -0.0516202 -0.041656744 0.39148536
000080 a0 1d 07 3e 70 ad 8a 3d 6d e4 83 be 47 72 0b 3d
       0.13194895 0.06771362 -0.25760213 0.03404453
000090 52 e4 a0 3e 7c 5e 1c be e6 0e 0f be 61 70 44 bd
       0.31424195 -0.15270418 -0.13970527 -0.047958735
0000a0 c7 4e 55 3e 91 e7 68 be 0e 56 9e bd 83 db a4 3d
       0.20830832 -0.22744586 -0.077312574 0.08049681
0000b0 a0 a7 85 bd 0f cf 9c 3c f4 42 5b bd df d5 a3 3e
       -0.065261126 0.019141702 -0.05353065 0.31999108
0000c0 37 78 61 3e 6c 0f 1f 3e 72 25 c2 be b6 f0 88 be
       0.22018515 0.15533227 -0.37919194 -0.26746148
0000d0 fa e1 43 3e e9 28 a3 3e c6 59 b5 be 4a 24 c6 3e
       0.19129172 0.3186715 -0.35420054 0.3869956
0000e0 b7 5e fb 3d f7 11 34 3d c4 e2 9e be 53 65 8c be
       0.12273925 0.043962445 -0.31032383 -0.27421054
0000f0 24 ae 3a 3d 83 e2 86 3e ac 76 82 be e0 79 cc bd
       0.04557623 0.2634469 -0.25481164 -0.09984183
000100 3e a3 98 3e 7b 38 c4 bd 33 16 39 be 1e c9 b1 3e
       0.29812044 -0.09581085 -0.18074875 0.34723753
000110 e2 d1 e3 bd 3f 3d 8d bd 97 25 64 be fc 9f 4d bd
       -0.11124016 -0.068964474 -0.22279964 -0.0502014
000120 9e 2c 46 be e2 72 8a bd 91 47 78 3e 10 9f c1 3e
       -0.19352958 -0.067601934 0.2424605 0.37816668
000130 d4 47 88 be 6c d9 c4 3e 96 88 63 3e c9 35 b3 be
       -0.266173 0.3844713 0.22220072 -0.35001972
000140 36 18 a7 be 43 2d 10 be e8 68 b2 be 66 c5 c4 be
       -0.3263566 -0.14079766 -0.34845662 -0.38431853
000150 ae d4 82 3e 9a dc 92 bd a6 fd 82 3e 53 63 67 be
       0.25552887 -0.07170983 0.25584143 -0.22596483
000160 d8 dc 90 bd 5d 9d 4b 3e 49 ea cb bd 43 bd 8c 3e
       -0.070733726 0.19884248 -0.09956796 0.27488145
000170 80 55 a3 be 13 4c ee b9 68 ba 0b be 57 8f 73 bc
       -0.3190117 -0.00045451577 -0.13645327 -0.014865718
000180 50 e7 e9 3d 1d 3a 54 bd 66 19 d0 3c bd ce 2e 3e
       0.114210725 -0.051813234 0.025402736 0.17071052
000190 6a 6d e1 bd 4f 4e 92 3d 9a 58 9c be a8 75 8e be
       -0.11007197 0.071438424 -0.30536348 -0.2782414
0001a0 ad ee c0 be 2f c1 42 3e 32 dd e3 3d d9 4e ac be
       -0.37682095 0.19019006 0.11126174 -0.33653906
0001b0 4e 60 3d ba 04 ad ab be be 74 aa 3c 2b 42 06 bd
       -0.00072241283 -0.33530438 0.02080762 -0.032777946
0001c0 b0 8b 15 bc ed 9a 5d 3e 5a b1 42 bd bd 11 39 be
       -0.009127542 0.21641131 -0.047532417 -0.18073173
0001d0 dd 3a 64 bd 98 a7 86 3e 7c 01 cb be 75 85 0a be
       -0.0557202 0.2629974 -0.3964957 -0.13527472
0001e0 54 11 81 be 0d d8 a1 be 7d 55 c4 3e 9d 3d f8 bd
       -0.25208533 -0.31610146 0.38346472 -0.12121127
0001f0 a0 59 03 be c6 cc b2 3d d6 3a 8e 3d 4f 1b cd be
       -0.12827158 0.08730464 0.06944816 -0.40059897
000200 d1 79 43 be 3a 0b c4 3e c7 08 87 be 15 eb ab 3e
       -0.19089438 0.38289815 -0.26373884 0.3357779
000210 14 a9 a5 3e 46 26 12 3c 4d 40 58 3e 48 60 22 be
       0.3235556 0.008920258 0.21118279 -0.15857041
000220 c5 20 b0 be 3b 97 ba 3e 59 a3 f7 bc 2e bf c0 be
       -0.344 0.36443505 -0.030229257 -0.3764586
000230 65 4b 94 bd 57 a6 99 be ea 87 0b 3e 92 a2 91 be
       -0.07240943 -0.3000972 0.13626066 -0.28444344
000240 9d c2 fd bc 7e 10 a1 be de 9b 85 be ca 7e 9a bc
       -0.030976588 -0.31457895 -0.2609548 -0.018859286
000250 09 84 cb 3e 84 54 fc bd 12 18 a8 be bd ce 44 bc
       0.39749172 -0.123208076 -0.32830864 -0.012012181
000260 0c 24 1e be bf 96 69 be 08 67 12 bd 07 ac ff bd
       -0.15443438 -0.22811411 -0.03574279 -0.124839835
000270 fd 8c b6 3e d6 63 a8 be fe 96 06 3e 86 39 a3 be
       0.3565444 -0.3288867 0.13143536 -0.31879824
000280 31 90 27 be b3 83 9e 3e 5c ba 3a 3c 8a aa df bd
       -0.16363598 0.30959854 0.011396971 -0.109211996
000290 9f 84 d1 be 17 c1 c3 3e 5c df 18 bd 7e 90 b9 bd
       -0.40921494 0.38233253 -0.037322387 -0.09060763
0002a0 e1 92 95 3d 46 3b 2a 3e 4a 74 4b 3e 30 ba 07 3c
       0.073034056 0.16624174 0.1986858 0.008284137
0002b0 99 1b 86 3d 09 dc 84 3e 11 28 a6 3e 0c f8 1f 3e
       0.065482326 0.25949124 0.32452443 0.15621966
0002c0 d3 f9 a8 3e 4f e0 8c 3e 44 c8 89 3e f0 ae 5b 3e
       0.330031 0.27514884 0.26910603 0.21453452
0002d0 52 53 c0 be d8 75 24 be 50 38 bb be 40 36 10 3d
       -0.37563568 -0.16060579 -0.365664 0.035207987
0002e0 6d 7b 42 3e 31 2e 13 3e eb 6e 22 bd 72 da 49 3d
       0.18992396 0.1437309 -0.03965656 0.04928059
0002f0 88 4e 75 3e dc 53 5b 3c 37 f4 ba 3e a8 fa 84 be
       0.23955739 0.013386693 0.36514446 -0.25972486
000300 57 c9 92 3d 60 cc 98 3c 92 44 85 bd 10 f6 c4 bd
       0.07167309 0.018652141 -0.065072194 -0.09617245
000310 4b 76 52 3d e3 60 12 bd d9 8a 8d 3c c6 0f 09 3c
       0.051382344 -0.03573693 0.017278122 0.008365577
000320 26 c2 30 be 0e 78 82 be ed a9 68 bd 15 e7 23 be
       -0.17261562 -0.2548222 -0.05680268 -0.1600612
000330 09 8c b2 be 80 8b b6 be ab 57 8a 3d bb 35 a1 be
       -0.34872463 -0.35653305 0.067550026 -0.31486306
000340 98 f2 cb 3d 6d cb 55 3e 13 24 2c 3c 86 d0 a3 3d
       0.099583805 0.20878382 0.010506648 0.07998757
000350 55 f6 b3 be da fe 7c be af a6 e5 bd 49 ec 4e be
       -0.35148874 -0.24706593 -0.11213433 -0.20207323
000360 88 f4 83 be 46 c8 98 3e c1 39 1a 3e 11 7e 26 3e
       -0.257725 0.29840297 0.15061094 0.16259028
000370 4b 60 11 be 4e 4a 0b 3e 65 27 52 be cf f1 13 be
       -0.14196889 0.13602564 -0.2052284 -0.14447711
000380 7f ad 43 3d c9 17 59 be b5 b1 c3 be 1e 49 1a 3e
       0.04777288 -0.2120048 -0.38221517 0.15066954
000390 95 06 99 be a3 31 b6 be a7 83 43 3e 3b e8 84 3b
       -0.29887834 -0.35584745 0.1909319 0.0040560043
0003a0 e2 df 2f be 06 2d cd bc 19 30 cd be 3c d6 8e be
       -0.17175248 -0.025045883 -0.40075758 -0.27897823
0003b0 80 df 18 be 66 7b bc be 7e 1f 85 3e aa b3 0a 3e
       -0.14929008 -0.36812896 0.2600059 0.13545099
0003c0 64 26 a8 be fd c2 9b bd 38 26 81 bd f4 41 8d 3e
       -0.3284179 -0.076055504 -0.06306118 0.2758938
0003d0 7a 89 5c be 3a b9 0f bd 44 fb be 3e c2 6f 93 3e
       -0.21536818 -0.035088755 0.37301075 0.28796202
0003e0 98 a1 a7 3e 9e 61 c0 3e 25 95 bc 3e be fa c5 be
       0.32740474 0.37574476 0.36832538 -0.38667864
0003f0 4a b7 74 be cd cd e5 3d c0 3b 8d 3e 77 d1 90 3d
       -0.23898044 0.11220894 0.27584648 0.07071202

fc1.bias f4 [128]
000000 bd 4f 1a 3e 9d 2c 84 3a 3b e7 b3 3d 86 7b 6b 3e
       0.1506948 0.0010084097 0.08784338 0.22996339
000010 fe 3d 27 be aa 43 2e 3e dc e5 0e 3e 3e b4 72 bb
       -0.16332242 0.17018 0.13954872 -0.0037033702
000020 c5 09 81 be 0b b0 1f be 0c fd 4a 3e 15 e1 13 3e
       -0.25202766 -0.15594499 0.19823092 0.1444133
000030 3a 0f a8 3e 54 ec 48 be 0c 09 80 3e bf 75 b6 3e
       0.32824117 -0.19621402 0.25006902 0.35636708
000040 f9 bd a4 bc 71 22 6a 3e 9a ab 0f be ca ec 2c be
       -0.020110117 0.22864701 -0.14030305 -0.16887203
000050 33 39 ae be 13 a9 3c be 52 b9 2b 3e 99 6c c8 3e
       -0.34028015 -0.18423872 0.16769913 0.39145353
000060 61 e6 c0 3d a0 65 13 3d e4 61 d9 bd 2f 1e 72 be
       0.09418941 0.03598559 -0.10614374 -0.23644327
000070 f4 fa 81 38 9f 03 d1 be 29 a6 96 be ba 30 11 be
       6.197943e-05 -0.40823075 -0.29423645 -0.14178744
000080 64 ce c9 3e ba 48 86 be 89 b6 bc 3e 54 d3 ce 3d
       0.39415276 -0.2622736 0.36858013 0.100989014
000090 63 0d c6 3e 3a 7a a2 be a4 8d 28 3e b1 9a 83 be
       0.38682088 -0.31733876 0.16460282 -0.25703958
0000a0 49 56 b0 bd 97 14 e1 3d b6 6f aa 3e fa 41 ce bd
       -0.086102076 0.10990255 0.33288354 -0.10071178
0000b0 86 72 f8 bc fd ab c4 3b c5 90 83 3e 87 1b 6d 3d
       -0.030328047 0.006001948 0.25696388 0.05788758
0000c0 e1 d3 c5 3e b2 16 ca be 7b ef 77 3e 83 29 c6 3e
       0.38638213 -0.3947044 0.24212448 0.38703546
0000d0 f0 67 01 be 25 f7 00 be 68 ce b4 3e c4 ac d1 3e
       -0.12637305 -0.12594278 0.35313725 0.40952122
0000e0 a1 14 6c bd fe d0 79 3d 74 ca 98 be d8 06 45 be
       -0.05763686 0.060990326 -0.2984196 -0.19240892
0000f0 f4 c1 45 bd 4b 3a 59 3e a7 9c 6e 3d f5 60 33 be
       -0.04828067 0.21213643 0.058254864 -0.17517455
000100 bf 85 9d bc ae ea d4 3e 35 2a 75 be e6 a0 14 3e
       -0.019228814 0.41585296 -0.23941882 0.14514503
000110 c5 3e 9c 3d 6a c6 63 be e0 c4 1f 3e 84 f7 28 3e
       0.0762916 -0.22243658 0.15602446 0.1650067
000120 38 22 8c be 1b 4f b4 3c 36 e3 b3 3e d9 8c 72 be
       -0.27369857 0.022010377 0.35134286 -0.23686542
000130 40 e8 a9 be 8a 0f a8 bc 9d 6c 68 3d fb e5 09 be
       -0.33185005 -0.020515222 0.056744207 -0.13466637
000140 e6 80 0d 3b 89 a6 aa 3e 64 b1 6c 3e df 05 88 bd
       0.0021591722 0.3333018 0.23114544 -0.06641745
000150 6d 8e 53 3e 78 cb 5e be d5 37 35 3e 24 b6 9c 3e
       0.206598 -0.21757305 0.1769708 0.30607712
000160 8d 85 fe 3d 35 ca 0e be 77 75 bd 3e 39 1b 51 3d
       0.124278165 -0.13944323 0.3700368 0.051051352
000170 e5 34 de bd 5d b2 92 be 40 d3 81 3e 8b 1e a5 be
       -0.108499326 -0.28651705 0.25356483 -0.32249865
000180 33 8c b7 bd de db 7d 3e 26 77 b3 be 33 c5 35 3e
       -0.08962288 0.24790904 -0.3505184 0.17751007
000190 09 b0 47 3d b4 a8 1d 3d 73 38 62 bd 40 0c 9c be
       0.048751865 0.038490966 -0.055229615 -0.30478096
0001a0 4e 52 b6 3e 66 e3 b2 be 57 2f 90 be 1c 3f 22 be
       0.35609668 -0.34939116 -0.28161117 -0.15844387
0001b0 12 c7 b3 3e 41 7f 09 be fd 21 a3 bd 9d 01 d0 bb
       0.35112816 -0.1342745 -0.07965467 -0.0063478486
0001c0 3b 93 a4 be 6a b4 e9 3d 25 1f a1 3e 73 fd 23 3e
       -0.32143578 0.114113644 0.31469074 0.16014652
0001d0 3a 86 83 be 9a f4 bb be 50 3c 89 3e cb 47 89 3e
       -0.25688344 -0.36710054 0.26803827 0.26812586
0001e0 56 66 f0 bd db 49 36 be d6 15 38 3e 00 9f b9 3d
       -0.11738269 -0.17801611 0.1797708 0.0906353
0001f0 8b b6 48 be 76 bb c3 bd 5a 64 9b 3d 34 01 51 be
       -0.19600885 -0.0955724 0.075875 -0.20410615

fc2.weight f4 [128, 128]
000000 63 88 e8 3c 13 8a 8c 3d db 14 8e 3b e3 d7 d2 ba
       0.028385347 0.06862273 0.0043359823 -0.0016086068
000010 95 57 78 3d c9 34 8a 3d 9f bb 75 bd 24 c0 92 3d
       0.0606304 0.06748349 -0.059993383 0.07165554
000020 43 93 79 3d 62 30 a1 bd d8 f6 27 3d 78 9f 50 3d
       0.060931455 -0.078705564 0.041006893 0.05093333
000030 ae d3 a2 bc 44 08 82 3d 51 fa 96 3d e2 8c 8d bd
       -0.019876327 0.06349233 0.07371963 -0.06911637
000040 c0 04 aa 3c 53 88 ff 3c 05 e6 5b 3d 6d 5a 6f bd
       0.020754218 0.031192934 0.05368616 -0.058435846
000050 c7 5b 12 3d 72 52 7c 3d d7 4d 71 bd f6 25 4a bb
       0.035732057 0.061602063 -0.058912124 -0.003084538
000060 a6 05 b2 3d a8 d5 a6 3d 1f b7 47 bd e6 3c 86 bd
       0.086924836 0.081462204 -0.048758622 -0.06554584
000070 06 9f ad bd 1f 66 a6 3d f0 76 07 3d 66 70 9c bc
       -0.08477597 0.08124947 0.033072412 -0.019096565
000080 a2 57 b3 bd 8a 9d 77 3d 6b 80 a4 bd d0 4d 98 3d
       -0.08756949 0.060452975 -0.08032306 0.074367166
000090 cd fe a5 bd a8 97 8e 3c 9a 8d 8a bd b9 5f 5f bb
       -0.0810524 0.0174063 -0.067652896 -0.0034084155
0000a0 84 45 5d bd e6 f9 8d bc 3b 05 e0 3c ea 8f 9e 3c
       -0.054021373 -0.017331075 0.027346244 0.019355733
0000b0 d4 a9 10 bd d6 75 21 3d cc 29 70 bd 07 50 aa bc
       -0.03531821 0.039419018 -0.05863361 -0.020790113
0000c0 59 b3 8f 3d 5c 80 94 3d 9b 81 15 3d cd 9d a8 3d
       0.0701663 0.07251045 0.036500555 0.08233223
0000d0 91 1e df 3c c3 a4 e2 bc c8 90 b2 bd 4f 76 56 bd
       0.027236255 -0.027666455 -0.08719021 -0.05235892
0000e0 bf 9b ab 3d bf b5 9f bd 02 39 95 3c 8a 6e 40 3d
       0.083793156 -0.07798337 0.01821566 0.04698042
0000f0 ef 1a 38 bb 51 6b b4 3c d7 0d 14 bd d4 4d a7 3d
       -0.0028092226 0.022023829 -0.03614601 0.081691414
000100 c8 63 aa bc b8 cf 30 bc 99 90 79 3c cc 36 a5 bd
       -0.020799533 -0.0107917115 0.015232229 -0.08067092
000110 03 2b 09 3d 09 86 e1 3b bc 7c 81 bc e8 be 37 3c
       0.033488285 0.0068824333 -0.015806548 0.011214949
000120 1e 84 cd bc 04 2d 97 bb bd 04 f2 3a 5b cc 98 3d
       -0.025087412 -0.0046135206 0.0018464547 0.07460853
000130 6d dc 15 3d bc f2 8e bd 1e 3e 89 3d 22 4a a4 3d
       0.036587168 -0.06979892 0.06701301 0.08021952
000140 d4 4a 38 bc 50 6e 2a bd 8f df 00 3d de 8a 89 3d
       -0.011248309 -0.04160911 0.031463202 0.0671594
000150 a2 da 43 3d 94 55 43 bc ca 91 fa bc c4 39 55 bd
       0.047815926 -0.011922259 -0.030587096 -0.052057043
000160 68 cd 32 bc 95 cf 22 3d a8 b9 8b 3c bc 85 8f bd
       -0.0109132305 0.039748747 0.017056301 -0.0700793
000170 09 5c 72 bd 50 79 f4 ba b1 1d 8a bd 68 a4 67 3d
       -0.059169803 -0.0018651877 -0.067439444 0.056553274
000180 34 f9 8c bd 15 7e 9d 3d 63 62 48 bc 70 12 c0 3c
       -0.06883469 0.07690064 -0.0122304885 0.023446292
000190 8e 68 82 bd 09 cd 51 3d d2 0e ad bd af ee 63 3d
       -0.063675985 0.051220927 -0.084500924 0.05564755
0001a0 1a 2b 01 ba 9d 9c 71 3c fb 2c 86 bd cf 04 fc 3c
       -0.0004927382 0.014746812 -0.06551548 0.030764012
0001b0 1d 15 a2 3d 5f a8 95 3b 67 66 06 3a 9c 67 b6 3c
       0.07914183 0.0045671905 0.00051269535 0.022266202
0001c0 4b a3 4a 3c 12 d9 d9 bc 9c 2e 1e bd 25 a2 7b 3d
       0.012368034 -0.026592765 -0.03861867 0.06143393
0001d0 eb cc bd 3c aa 18 89 bc 2d 76 b8 bb fa e0 29 3d
       0.023169002 -0.016735394 -0.005629322 0.04147432
0001e0 91 1e b1 3c 9e 55 69 bd 45 e3 2c bd d9 8e 19 bd
       0.02162102 -0.056966417 -0.04220893 -0.037489746
0001f0 07 25 a6 3d 56 7a dc bb 55 6b 7d 3d 0e 90 96 3d
       0.08112531 -0.006728451 0.061869938 0.07351695
000200 15 6b 9e bc 00 ac f5 bc 9f 9a f8 bc e8 9c 51 bd
       -0.01933817 -0.029989243 -0.030347167 -0.051175028
000210 c7 f9 0d bb 86 05 99 3c d8 b0 a2 3a 4b b7 6f bd
       -0.0021663771 0.018679392 0.0012412323 -0.05852441
000220 d7 8a c1 3c 48 e3 54 bd 76 0c 9f bd b2 e1 a0 3d
       0.023625774 -0.051974565 -0.077660486 0.07855548
000230 d3 f5 d7 3d a6 89 1f bd 30 c1 84 bd c0 75 91 3c
       0.10544934 -0.03894963 -0.0648216 0.017756343
000240 1c 10 49 3d 02 63 e9 bc 52 1a 9f bb 80 67 d7 3c
       0.04908763 -0.028489593 -0.0048554325 0.02629447
000250 21 4a 62 3d b8 4f 9a 3d 98 ff 37 3c 70 d0 2b 3d
       0.055246476 0.075347364 0.011230372 0.04194683
000260 2f 2a 22 3d 79 6e c8 bc 0c d8 0e be 73 83 8f 3d
       0.03959101 -0.02446674 -0.13949603 0.07007494
000270 04 5a 02 bd 2c 6b 69 3d 1c e4 d6 3b 07 b8 aa 3d
       -0.031824127 0.056986973 0.0065579545 0.08335882
000280 23 6e 9f bd f9 31 a2 3c 59 82 57 bd ba 9e 26 bd
       -0.07784679 0.01979922 -0.052614544 -0.040678717
000290 a6 2d 11 3d b3 08 97 bd a1 b5 86 bd 17 89 ec bb
       0.035443924 -0.07374706 -0.06577612 -0.007218491
0002a0 11 e5 59 3d 48 3c 53 3d c5 4a 92 3d 3c f2 11 bc
       0.05319697 0.05157116 0.071431674 -0.008907851
0002b0 d9 8b 23 3d 08 4e 73 bc 01 84 38 bd aa f2 2f bb
       0.03992829 -0.014850147 -0.045047764 -0.002684752
0002c0 3d 25 52 3d 9d 38 17 bd 01 4a 83 3d a6 d5 62 bd
       0.051305044 -0.036919225 0.064105995 -0.055379532
0002d0 cd 5d 84 bc d9 d2 21 bd aa 8e 4f 3d a3 20 86 bc
       -0.016158009 -0.03950772 0.050673164 -0.016372984
0002e0 60 30 af 3d 1f a4 49 3d 32 82 99 3d 35 b6 a7 bd
       0.08554149 0.049228784 0.07495536 -0.0818905
0002f0 61 fe d8 bb e1 12 80 bd 48 ea 13 bd f6 ae 65 bd
       -0.006622121 -0.06253601 -0.0361121 -0.05607506
000300 0a f9 c9 3c de b1 22 bd 7c 93 5c 3d f5 35 7f bd
       0.024654884 -0.03972041 0.05385159 -0.062307317
000310 65 b5 93 3d 7d cf 99 3d 22 8c 93 3d cd de 80 bd
       0.07212333 0.075102784 0.072044626 -0.06292496
000320 5e fe e2 bd e7 72 8b bc e0 fe 76 3d 7d 37 07 bd
       -0.11083673 -0.017022563 0.06030166 -0.033011902
000330 30 3a a6 3d 89 64 5f 3d 1e 64 4d 3d e1 b4 a7 bd
       0.08116567 0.054539237 0.050144307 -0.08188797
000340 67 24 3d 3d 16 e7 87 39 6a 77 91 bd a5 6a 2c bd
       0.046177294 0.0002592138 -0.071028545 -0.04209389
000350 db 70 01 ba 63 1f 41 3b 33 25 f6 bb c0 9c 2b 3d
       -0.0004937776 0.002946817 -0.0075117587 0.041897535
000360 ef 19 15 3c c1 eb 4c bd 93 69 0f 3d 3e 6c 4d bd
       0.009100421 -0.05002952 0.035012793 -0.050152056
000370 d3 e7 a7 3d d6 79 fa bc 1e 00 66 bd b2 c7 33 bd
       0.08198514 -0.030575674 -0.056152456 -0.043891616
000380 d4 fd e1 bc 9e 96 89 bb 06 9d 15 bd d8 62 81 3d
       -0.027586855 -0.004198863 -0.036526702 0.06317681
000390 3b 9d 59 3b f1 11 c2 3b a5 80 88 bd ed d2 40 3d
       0.003320529 0.005922549 -0.06665162 0.047076155
0003a0 96 c3 90 3d 0b ad 1e 3d f0 68 91 bd ae f7 44 3d
       0.07068555 0.038739245 -0.07100093 0.04808777
0003b0 17 7c 90 3d 94 a7 d6 3c 3f 73 61 3d 85 c3 26 bc
       0.07054918 0.026202954 0.055041548 -0.010178451
0003c0 ba 42 45 bd b5 cf 08 bc 49 f5 5d bd 5f 6b 13 3d
       -0.04815934 -0.008350302 -0.054189 0.03599107
0003d0 8a c6 97 bd d4 99 86 bd 3c 0a 44 3c 45 e7 46 bc
       -0.07410915 -0.06572309 0.011965331 -0.0121401
0003e0 fb c0 94 bc 95 6d 82 3d 6e 98 8c bd c3 89 3f 3b
       -0.018158427 0.06368557 -0.06865011 0.00292264
0003f0 bc bb 64 bc 26 2c 1e bd 2a aa 60 bc 00 63 a3 3c
       -0.013960775 -0.038616322 -0.013712445 0.019944668

fc2.bias f4 [128]
000000 5b d9 48 3c 96 06 0f 3c 60 49 01 3d 2c 99 2c bd
       0.012258853 0.008729598 0.031564116 -0.042138264
000010 47 2b a8 bd eb 85 ad bd f4 58 d1 bc e3 9c 65 bd
       -0.082113795 -0.084728085 -0.025555111 -0.056057822
000020 fb 2c 5e 3c de 81 9a 3d 75 5d 68 3d db e3 9a bc
       0.013560529 0.075443015 0.056729753 -0.018907478
000030 2e d1 04 bd 57 90 04 3d 43 0a b9 bc 6d 26 c8 bc
       -0.03242605 0.032364216 -0.022587901 -0.024432385
000040 83 50 97 bc c9 3a a7 3d 62 01 ae bc ed 9f b3 3c
       -0.018471008 0.08165509 -0.021240894 0.021926844
000050 00 d7 68 3d 22 a7 5b bd c6 8f 8f bd 31 96 ac 3d
       0.056845665 -0.053626187 -0.070098445 0.08427084
000060 0f 33 ba 3d 9b c8 ae 3d 13 74 39 3d 50 26 13 3d
       0.0909177 0.08534356 0.045276713 0.03592521
000070 f4 30 fe 3c 36 c0 9f 3d f4 f8 13 bd e0 32 e1 bc
       0.031029202 0.07800333 -0.036126092 -0.02749008
000080 fc fe 0e 3d 04 9b 8b 3d ff 04 cf 3c 0c f3 b0 3d
       0.03491114 0.06816676 0.025270937 0.086401075
000090 be 5d 8c bd c0 2e 2e bd 8e 11 01 3d 55 db 81 3d
       -0.068538174 -0.042525053 0.031510882 0.063406624
0000a0 c1 5e a8 bc 4b d3 a0 3d 72 bf 5f 3c da 93 5a 3d
       -0.020552995 0.07852801 0.013656484 0.05336366
0000b0 04 ce 4f 3d 28 1a 1e bd 02 84 cf bd 62 6d 3d 3d
       0.05073358 -0.038599163 -0.101326 0.046246894
0000c0 14 23 ea bc 7c d6 74 3c 75 7c 1f 3d bd de ca 3c
       -0.02858118 0.014943715 0.03893705 0.024764413
0000d0 c1 de 81 3b c4 9f 6b 3d de 00 82 3c 1b be ad bd
       0.003963322 0.05752541 0.015869554 -0.08483525
0000e0 0d 04 28 bd 25 f0 a0 bd e2 4b 50 bc ca 57 c2 bc
       -0.041019488 -0.07858304 -0.012713404 -0.023723502
0000f0 d6 58 31 bd eb 8b 6c bd 2d d1 8f 3d 8f 1c d1 bb
       -0.04329761 -0.057750624 0.07022319 -0.0063815783
000100 56 05 3d 3c 80 9e ce 39 9c af 97 3d a9 d3 6b 3d
       0.011536917 0.00039409474 0.07406542 0.0575749
000110 8d e2 a7 3d 3f 42 8f 3d 3b 09 cf 3c e9 d7 82 3d
       0.08197508 0.06995057 0.025272956 0.06388838
000120 c5 af 88 3d f6 a7 45 bd a3 81 8e 3d 35 a1 01 bd
       0.066741504 -0.048255883 0.0695832 -0.03164788
000130 ef 59 9d 3d 48 4d 1a 3c 10 d8 b3 bc 89 40 96 3d
       0.07683169 0.009417839 -0.021953613 0.07336528
000140 88 af aa ba 1f 0e 56 3c 0b 98 5a 3d 7f 92 a9 3c
       -0.0013022283 0.01306489 0.053367656 0.020699738
000150 7a a1 42 3d 28 06 4c 3d b2 4a 1b 3d 59 ed 4c bd
       0.047517277 0.04981056 0.037913032 -0.05003104
000160 61 7d a0 3a 9f e1 70 3d 2d 29 d5 3c e5 00 8f bd
       0.0012244397 0.05880892 0.02602061 -0.069825925
000170 de 96 af 3c 3c c7 2c bd af e3 86 bd 41 c9 87 bd
       0.021434244 -0.042182192 -0.06586396 -0.06630183
000180 8f 2d 83 3d 85 7a 11 3c d3 75 80 3d e9 81 2a 3d
       0.06405174 0.008879309 0.06272473 0.0416278
000190 8a fb ab 3d f4 51 8c 3d ad 26 62 3c bf 41 7b 3d
       0.08397587 0.06851569 0.013803166 0.061341997
0001a0 2e 69 db 3c 75 10 5e 3c 2e 7c 90 3c 9f c9 93 3b
       0.026783552 0.013553728 0.017637338 0.004510119
0001b0 1d 44 84 3d 1d 72 c1 bd d1 23 46 3c 34 0a 05 bc
       0.06458304 -0.094455935 0.0120935 -0.008120108
0001c0 be 02 80 3d 85 80 c8 3c c7 7d 81 bd 1f 29 e6 bc
       0.06250523 0.024475345 -0.06322818 -0.02809578
0001d0 fc 7e bb bd 86 9f b7 bc b0 84 6d bd 82 07 d2 bc
       -0.0915508 -0.022414934 -0.05798787 -0.025638346
0001e0 db 74 96 3c 55 b9 8a 3d f8 f6 35 bd 29 22 20 bd
       0.018366268 0.067736305 -0.04442498 -0.039095078
0001f0 ab 72 51 3c 95 37 7b 3d e7 a6 d2 3c aa e2 ad 3c
       0.012783687 0.061332304 0.02571435 0.021226246

fc3.weight f4 [5, 128]
000000 45 e0 a8 bd fc 30 e9 3d 70 4d af 3d 95 9a 99 3d
       -0.08245901 0.11386296 0.08559692 0.07500187
000010 09 bb 84 bd 66 13 b2 bd 47 33 6e bd 81 6c af bd
       -0.064809866 -0.08695106 -0.05815437 -0.08565617
000020 a8 cb 90 3c 03 b1 48 3c b8 b2 94 3d fb b0 e7 bc
       0.017675236 0.012249234 0.072606504 -0.028282633
000030 13 da 38 ba de 9a a1 3d 8d 8f 4f bd 45 32 2c 3d
       -0.00070515386 0.07890867 -0.05067401 0.04204013
000040 88 59 04 bd 4f 58 ab 3d 49 93 89 3b 0f 00 1f 3d
       -0.032311946 0.08366453 0.004198466 0.038818415
000050 49 e0 f7 bb b8 57 3b bd 36 3a 92 bd 1c b0 90 3b
       -0.0075645787 -0.045737952 -0.07140009 0.004415525
000060 fb 5b 89 3d 13 64 fd 3c 8f 9b 98 bb 27 44 c2 3c
       0.06706997 0.030931508 -0.004657216 0.023714138
000070 f6 6c b6 3c b6 c0 d1 bd aa b3 9f bc ec 77 7e 3d
       0.022268753 -0.10241835 -0.01949485 0.062126085
000080 77 9b 8f bd 73 cf 5f 3a 7f e5 71 bd bb b2 f5 3d
       -0.070120744 0.0008537687 -0.059056755 0.11996981
000090 4d dd a6 bc d1 86 2d 3d 9a 10 50 bd a5 47 2d 3b
       -0.020369196 0.0423649 -0.050797082 0.0026440409
0000a0 4c 2a 87 bd 4a 8b 9d 3d 74 e4 4e bd ca a9 af 3c
       -0.06599864 0.07692583 -0.05051084 0.021443266
0000b0 f1 ab 33 bd d3 55 55 bc 95 ed 83 bd 9a 98 a2 3d
       -0.043865148 -0.01302095 -0.064417996 0.07939263
0000c0 c0 56 1c bd a0 62 45 bd d8 c7 6a bd 7e 19 46 bd
       -0.03816867 -0.04818976 -0.057319492 -0.048364155
0000d0 3b 61 cc 3b e6 8d 06 bd af 54 b4 3a 56 70 77 bd
       0.0062371767 -0.03285017 0.0013758148 -0.060409866
0000e0 ac 1a 9f bc e0 72 7f 3c 81 87 c0 3c 74 c6 b1 3c
       -0.019421898 0.015591353 0.023502113 0.021701075
0000f0 4d 5c 5f bc c5 80 e7 3c 78 82 a0 3c 23 62 17 3d
       -0.013632846 0.028259644 0.019593462 0.036958825
000100 c2 b7 bc bd 06 7f 8a bd 54 15 33 3a 8a 19 99 3d
       -0.092147365 -0.06762509 0.0006831486 0.07475574
000110 49 76 6c bc 72 c3 14 3d 0f a5 78 3d 61 e6 91 3c
       -0.014432498 0.036319204 0.060704287 0.017810049
000120 29 cc 81 3d d3 1d 22 bb 17 8f 63 3d bb 6c 76 3d
       0.063377686 -0.0024737015 0.055556383 0.060162287
000130 e7 25 d2 39 42 78 62 3d 4a f6 36 bd c7 28 14 3d
       0.0004008256 0.055290468 -0.044668473 0.0361717
000140 26 5c b2 bc 6e 58 d5 3d 20 8c 77 bd 10 46 80 3d
       -0.021772455 0.10417257 -0.060436368 0.06263363
000150 8e 3b 57 bd 2a 20 59 bd 5e e4 4b bd fd 0a 50 bd
       -0.05254703 -0.05300919 -0.049778335 -0.05079173
000160 4d ef 8e bd a1 3d 97 bc 6e 1f 96 3d db 37 3a 3d
       -0.06979237 -0.018462004 0.073302135 0.045463424
000170 1b 56 8a bd b8 6e aa bd bf 71 b5 3c 46 ad 7f 3d
       -0.067547046 -0.08321899 0.022148965 0.062421106
000180 34 d2 7d bd 0c 51 f5 bc 1d 48 aa bd 3b 02 c8 3d
       -0.061968043 -0.029945873 -0.08314536 0.097660504
000190 93 69 64 3d 7e e3 a8 bd 57 c2 8f bd a4 57 6f 3c
       0.055764746 -0.08246516 -0.07019489 0.0146082975
0001a0 f0 ff 8a 3d 82 3c 16 3c 56 51 40 bd 65 53 83 bd
       0.067870975 0.0091697 -0.046952568 -0.064123906
0001b0 b8 d9 03 bd 28 dc 69 bd b0 9a d1 3c a1 6a 9e bd
       -0.032190055 -0.057094723 0.025586456 -0.077351816
0001c0 bb 3f b0 bd 29 ad 51 3d b5 da 0b 3d b7 3b 3e bd
       -0.086059056 0.05119053 0.034144122 -0.046443667
0001d0 52 b3 2b bd 6b 04 0f bd 62 74 90 3d c3 b8 34 3d
       -0.04191906 -0.034916323 0.07053448 0.044121515
0001e0 85 3c a5 bd ef db 41 3d 41 ee b2 3d ce 1e aa bd
       -0.08068184 0.047328886 0.087368496 -0.08306657
0001f0 e8 e3 6c 3d cb f5 12 3b 33 93 40 bd aa bd b3 bd
       0.057834536 0.0022424336 -0.04701538 -0.0877641
000200 c0 d5 8e 3c 05 ec 4f bd 2a 16 e0 bc 78 e7 4e 3d
       0.017435908 -0.050762195 -0.027354319 0.050513715
000210 53 a9 28 3d db 32 61 bc 9d 21 4f 3d 2e a8 44 3d
       0.041177105 -0.013745035 0.050569165 0.04801195
000220 78 96 3f bd b4 27 77 bd 7b 33 62 bd 16 d5 f4 bc
       -0.046774358 -0.0603406 -0.055224877 -0.029886764
000230 fa e2 14 bd 35 ce 99 3d aa 9d 26 3d 5e 42 7a bd
       -0.036349274 0.07510034 0.040677704 -0.06109845
000240 2f 97 05 3d 64 bb 80 3c a5 0d 9b bd 4a 6a d6 bc
       0.032614883 0.015714355 -0.07570962 -0.02617373
000250 9d aa 8c 3d 1d 06 8d 3c b0 39 58 3c 0d 25 ae bc
       0.068684794 0.01721483 0.0131973475 -0.021257902
000260 15 fc de bc 1a b1 b6 3a fb d3 80 3d b8 fd 8f 3d
       -0.027219811 0.0013938278 0.06290432 0.07030815
000270 5b 9f 83 3d 52 d3 33 3d c0 be 34 3d 68 bd 5c 3d
       0.06426879 0.043902703 0.044127226 0.05389157
000280 89 38 b7 3c 4a ae ab bd 63 0c 64 bd 11 21 c1 3c
       0.022365825 -0.083828524 -0.055675875 0.023575338
000290 4d 19 92 3d 2a b4 35 bd 3a 9c de ba a9 26 01 bd
       0.07133732 -0.04436127 -0.0016983815 -0.03153101
0002a0 b9 f0 83 3b 2d 00 25 bc 75 8c b0 bd 87 7f b4 bd
       0.004026499 -0.010070843 -0.0862054 -0.088133864
0002b0 b6 2d dd bc 6e 7d 22 3d de 3e 50 3d c9 28 78 3c
       -0.026999336 0.0396704 0.050841205 0.015146443
0002c0 50 9f 1d bc 85 f3 80 3d ee 79 83 3d f5 43 3e bd
       -0.009620503 0.06296448 0.064197406 -0.046451528
0002d0 57 06 15 bd 76 61 98 bd 69 8e 3b 3d 74 84 c1 bc
       -0.036383 -0.07440464 0.04579011 -0.023622729
0002e0 80 5c 46 bb 97 1e 0f bd ba 30 bc bc 27 fd 3c 3d
       -0.0030267537 -0.034941282 -0.022972453 0.046139862
0002f0 0d 7d 88 3d 3b 2d b2 bd 83 a6 9c 3d ac ed a0 3d
       0.066644765 -0.08700033 0.07648947 0.07857832
000300 3f a2 ac bd 44 6a 3b 3d 77 d8 a9 3d 72 4d 45 3d
       -0.084293835 0.04575564 0.082932405 0.04816956
000310 ef b1 b0 bb 4d 49 5f 3d 2d fa bd 3b bb 25 33 bd
       -0.005392305 0.054513264 0.0057976455 -0.043737154
000320 2a f3 a3 3d 61 e6 2f 3d 32 68 44 bc 6c 91 97 3c
       0.08005364 0.042944316 -0.011987733 0.01850196
000330 98 10 a5 bd 02 97 57 bd 0f e0 84 3d ca 3f a3 bd
       -0.08059806 -0.052634247 0.06488048 -0.07971151
000340 cc a3 22 3d f9 1a 07 bd 2d 8f 44 3d 76 c0 14 3d
       0.03970699 -0.032984708 0.047988106 0.036316358
000350 e3 af 9c bc 08 92 54 3d 71 08 52 3d e8 9a 14 3d
       -0.019126838 0.05189708 0.05127758 0.036280543
000360 99 80 2c 3d 3d 36 32 bd 09 70 75 3d 08 0f d7 3c
       0.042114828 -0.043508757 0.0599213 0.026252285
000370 e7 f6 a2 bc e6 3d da 3c 31 90 64 bc e7 ad 2e 3d
       -0.019893123 0.026640844 -0.013950394 0.042646315
000380 e7 7d 01 bd 3c 07 3e 3d aa 92 b3 bc 25 42 bd 3d
       -0.03161421 0.046393618 -0.02192052 0.09241132
000390 b7 52 a7 bd ba b6 49 3d 9b 5e ee ba 5a 86 ac 3d
       -0.081700735 0.049246527 -0.0018186154 0.08424063
0003a0 28 46 1a 3d ac 6d c5 bc 4e 46 95 3d 9c 38 9b bc
       0.037664562 -0.024100147 0.072888 -0.018947892
0003b0 23 33 4d 3b a3 52 ac 3c 33 a8 79 3d bd 16 95 bd
       0.0031310997 0.021035498 0.060951423 -0.072797276
0003c0 65 c1 a5 bd 1e 03 0f 3d 7b c7 4c 3d 17 50 0c bd
       -0.08093528 0.034915082 0.049994927 -0.034256067
0003d0 d7 60 90 3d c2 fc 4a 3d fa 96 23 3d 07 17 e3 bc
       0.07049721 0.049557455 0.039938904 -0.027720941
0003e0 0a e3 54 bd 13 c2 21 bc 9f de a0 3d 3a 88 86 3d
       -0.051974334 -0.009872931 0.078549616 0.06568952
0003f0 c7 52 1b 3d 37 1b 88 bb a6 54 00 bd 0f 06 9f bc
       0.03792074 -0.004153635 -0.031330727 -0.019412069

fc3.bias f4 [5]
000000 a0 51 b1 3d d0 be 00 bd 92 07 54 3d 5d 6d d9 3c
       0.08658147 -0.031431973 0.051765032 0.026541406
000010 8d d3 3a bd
       -0.045611907
