dynamics/src/dynamics/old/outputs/DDQN_RobotOptEnv/20230120-114232/models/model_last.pkl (torch, 79767 bytes, 6 tensors)

nn.0.weight f4 [128, 10]
0	0x3e7c1983	0.24619107
1	0x3dcb1ffb	0.09918209
2	0x3e2c5c86	0.1683217
3	0xbe8111ae	-0.252088
4	0x3d86c237	0.06580012
5	0x3e8e25d8	0.27763247
6	0x3c80770e	0.01568177
7	0xbe08d999	-0.13364257
8	0x3e313b27	0.17307721
9	0xbd230fce	-0.039809994
10	0x3e37de4e	0.17955896
11	0xbe5df651	-0.21675994
12	0x3dc33acf	0.09532701
13	0xbd864239	-0.065556
14	0xbe81b0d8	-0.25330234
15	0x3c9ef67b	0.01940464
16	0x3e5ce154	0.21570331
17	0xbe3c3f94	-0.18383628
18	0x3cbbed64	0.022940345
19	0xbda26eba	-0.07931276
20	0xbec727fb	-0.3889769
21	0xbe87a2cf	-0.264914
22	0xbe465750	-0.19369245
23	0xbca03e3f	-0.019560931
24	0x3de236be	0.110455975
25	0xbec4f48a	-0.38467818
26	0x3d9b47c9	0.07582051
27	0xbcc62419	-0.024187135
28	0xbd907e4c	-0.07055339
29	0xbe939479	-0.28824213
30	0xbe1e47d1	-0.15457083
31	0xbe4bdb1e	-0.19907805
32	0xbe9f0050	-0.31054926
33	0xbde3b281	-0.11118031
34	0xbea9b766	-0.33147734
35	0xbe206d1c	-0.15666622
36	0xbdd55294	-0.10416141
37	0xbda3f069	-0.08004839
38	0xbe9df9fa	-0.3085478
39	0xbe846cce	-0.2586426
40	0xbe8ec3a3	-0.27883634
41	0xbd037866	-0.032097243
42	0x3cfbeddd	0.03075307
43	0xbe4ad9b5	-0.19809611
44	0x3e79e4cc	0.24403685
45	0x3dae3fbe	0.085082516
46	0x3d484649	0.048895154
47	0xbe5686f3	-0.20949917
48	0xbe722909	-0.23648466
49	0x3e4597b9	0.19296159
50	0xbe1b1762	-0.15145639
51	0xbe7d74ca	-0.24751583
52	0xbe81e8fe	-0.2537307
53	0x3e37c42b	0.17945926
54	0xbc0524c5	-0.008126442
55	0xbe5e340c	-0.21699542
56	0x3e367a3e	0.17820069
57	0xbdb665e0	-0.0890615
58	0xbe628101	-0.22119524
59	0x3e9dccd0	0.30820322
60	0x3de359b5	0.11101095
61	0x3d056e56	0.032575928
62	0xbe0603f0	-0.1308744
63	0xbea2911f	-0.31751344
64	0xbe00e35e	-0.12586734
65	0x3dc81d90	0.097712636
66	0x3e2a9a33	0.16660385
67	0xbd7e3514	-0.062062338
68	0xbe97f4b2	-0.29678875
69	0xbe356102	-0.17712787
70	0x3cd88675	0.026431302
71	0x3e3e5875	0.18588431
72	0xbe0c10a7	-0.13678227
73	0x3e7c862f	0.24660562
74	0xbd8d5945	-0.069017924
75	0xbe341acf	-0.17588352
76	0xbe74ff7a	-0.23925582
77	0xbe0c2372	-0.13685396
78	0x3e19dbf2	0.15025309
79	0xbd877c28	-0.06615478
80	0xbe5b2125	-0.21399362
81	0xbdfc658f	-0.12324058
82	0xbdd99326	-0.106237695
83	0x3df6110b	0.120149694
84	0xbe98654d	-0.29764786
85	0xbdd56212	-0.10419096
86	0xbe8a8d82	-0.27061087
87	0xbd2698a2	-0.040672906
88	0xbe6bc781	-0.23025323
89	0xbe2437ad	-0.16036864
90	0xbd49038a	-0.04907564
91	0xbef80ada	-0.4844578
92	0xbc90dd70	-0.017683715
93	0xbe7a169c	-0.24422687
94	0xbdb806e7	-0.089856915
95	0x3da7e6cc	0.08198318
96	0xbee4f0f3	-0.4471508
97	0xbda13e81	-0.0787325
98	0x3dd1ee40	0.10250521
99	0x3d456337	0.04819032
100	0xbe8ea470	-0.2785983
101	0xbee28e2b	-0.4424909
102	0xbe674568	-0.2258507
103	0xbea41154	-0.3204447
104	0xbf15de50	-0.58542347
105	0xbe7c46a6	-0.24636325
106	0xbf17585e	-0.5911921
107	0xbd9f1712	-0.07768072
108	0xbde231d8	-0.11044663
109	0xbf0b6213	-0.54446524
110	0x3ea1d27f	0.31605908
111	0xbd08478d	-0.03327136
112	0xbe0822b1	-0.13294484
113	0xbcb4cab3	-0.02206931
114	0xbe24025f	-0.1601653
115	0xbc208ddd	-0.009799448
116	0x3e0b0fe2	0.13580278
117	0xbea12a81	-0.3147774
118	0xbda1b3a8	-0.07895595
119	0xbe055fc6	-0.13024816
120	0xbe81fe13	-0.25389156
121	0xbeb4786c	-0.35248125
122	0xbd989e9b	-0.074521266
123	0xbe46a121	-0.19397403
124	0xbecf142a	-0.4044507
125	0xbebd61bd	-0.3698863
126	0xbed68af4	-0.41902888
127	0xbd4d4dd6	-0.05012306
128	0xbe3ec356	-0.18629202
129	0xbea2f8ed	-0.3183054
130	0xbecf6ae9	-0.40511253
131	0xbceec685	-0.029147396
132	0xbd191b28	-0.037379414
133	0xbd239f24	-0.03994669
134	0xbecea7f9	-0.40362528
135	0xbcc85331	-0.024453731
136	0xbc0e6960	-0.008692116
137	0xbd9bdaf0	-0.076101184
138	0x3e23237a	0.15931502
139	0xbea43b0a	-0.32076293
140	0x3e343148	0.17596924
141	0x3e19b3d6	0.15010008
142	0x3e8e924d	0.27845994
143	0x3e85d4e0	0.26138973
144	0x3e8e8706	0.2783739
145	0x3dec21e2	0.115299
146	0x3e264b2a	0.1623961
147	0xbe046f43	-0.12933068
148	0x3d40fe01	0.047117237
149	0x3e8f7a7d	0.2802314
150	0x3e47eab7	0.1952313
151	0x3df2e77d	0.11860559
152	0x3dcac976	0.09901707
153	0xbea79a7d	-0.32735053
154	0xbe639e0f	-0.22228263
155	0xbea24064	-0.3168975
156	0x3be5bf4e	0.0070113307
157	0xbd5988fe	-0.05310916
158	0x3d90aa53	0.07063737
159	0xbebb4027	-0.36572382
160	0xbe5cc57b	-0.21559708
161	0xbc8bdcb3	-0.017073011
162	0xbe8c89f7	-0.2744901
163	0xbdb34c13	-0.087547444
164	0x3e4b92f1	0.19880272
165	0xbea4c81b	-0.32183918
166	0xbddd274a	-0.107985094
167	0xbd292dfb	-0.041303616
168	0xbdee04fc	-0.116220444
169	0xbe0b999f	-0.1363282
170	0xbe9c66a6	-0.30547065
171	0xbf0802fb	-0.5312955
172	0xbec1571e	-0.37761778
173	0x3d07cc0a	0.03315357
174	0xbef84143	-0.4848729
175	0xbee5df69	-0.4489701
176	0xbdb8c3a3	-0.0902169
177	0x3b1da92e	0.0024057138
178	0xbece682b	-0.4031385
179	0xbe8e04c6	-0.27738017
180	0x3dfe2951	0.12410224
181	0xbe36fa05	-0.17868812
182	0x3bd68622	0.0065467516
183	0xbdc2f1e2	-0.09518792
184	0x3d39857e	0.045293324
185	0xbd5efa1a	-0.054437734
186	0x3d695d02	0.056973465
187	0xbd91979c	-0.07108995
188	0xbebda98d	-0.3704342
189	0xbe9f991c	-0.311715
190	0xbef17aa8	-0.47163892
191	0xbec58df0	-0.38584852
192	0xbe9f1ac2	-0.31075102
193	0xbe2e0ed2	-0.16997841
194	0xbe3b96ad	-0.18319197
195	0xbd8959af	-0.06706559
196	0x3ca0e3ab	0.01963981
197	0xbd042dc8	-0.032270223
198	0xbf0d789c	-0.5526216
199	0xbef3a7c9	-0.47588947
200	0xbe4371fb	-0.19086449
201	0xbe72973d	-0.23690505
202	0x3e697fd5	0.2280267
203	0x3e502b14	0.20328933
204	0xbe22803f	-0.15869235
205	0xbe25bb85	-0.16184814
206	0xbe637274	-0.22211629
207	0xbe9d372a	-0.3070615
208	0x3e964746	0.29351252
209	0xbe580dde	-0.2109904
210	0xbe2dc373	-0.16969089
211	0xbf049daa	-0.51803076
212	0xbe50e553	-0.2039998
213	0xbea20c16	-0.31649846
214	0xbf2b4ac3	-0.6691095
215	0xbe437757	-0.19088493
216	0xbec35328	-0.3814938
217	0xbd4ef0c2	-0.050522573
218	0xbecdbd5a	-0.40183526
219	0xbe0d548f	-0.13801788
220	0xbe94f2cc	-0.2909149
221	0xbe092213	-0.13391905
222	0x3cb2cff5	0.021827677
223	0x3d715b87	0.058925178
224	0xbeda3ce6	-0.42624587
225	0xbe23ee05	-0.16008766
226	0xbea7455f	-0.32670113
227	0xbd1d7c0b	-0.038448375
228	0x3d0b50b3	0.034012508
229	0xbe060fa7	-0.13091908
230	0x3de1ede2	0.11031701
231	0x3d5e7957	0.054314937
232	0x3d0348a5	0.0320517
233	0x3e41f5fa	0.18941489
234	0x3d9c6c8e	0.07637893
235	0xbdb440e2	-0.08801438
236	0xbe1a6ced	-0.15080614
237	0xbde003b5	-0.10938207
238	0xbe10e678	-0.14150417
239	0xbe116b28	-0.14201033
240	0xbe12652e	-0.1429641
241	0xbd850921	-0.06495882
242	0xbd5ffae9	-0.054682646
243	0xbf21d877	-0.63220924
244	0xbe441355	-0.19148
245	0xbed23ce6	-0.41062087
246	0xbeac03fc	-0.3359679
247	0xbe9ae8f8	-0.30255866
248	0xbefd04a3	-0.494176
249	0xbddd3518	-0.108011425
250	0xbd904fd3	-0.07046475
251	0xbe8a0cf8	-0.2696302
252	0xbd7776f0	-0.060416162
253	0xbdaec60f	-0.085338704
254	0xbdc94bc4	-0.09828904
255	0x3ddb88ac	0.107194275

nn.0.bias f4 [128]
0	0xbd3823ea	-0.044956125
1	0xbe8d6a2a	-0.2762006
2	0x3bffff3a	0.007812408
3	0xbe0b2dd5	-0.13591702
4	0x3e7d73e6	0.24751243
5	0x3ca72254	0.020402111
6	0xbe2d4f89	-0.16924872
7	0x3e9e9afc	0.3097762
8	0x3db5a3ac	0.088691086
9	0x3cd9352d	0.026514614
10	0xbf000771	-0.50011355
11	0x3e820b2b	0.25399145
12	0xbef883a4	-0.48537934
13	0xbedcdb55	-0.43136087
14	0x3e878bf0	0.2647395
15	0xbea5d57d	-0.3238944
16	0xbe989e66	-0.29808348
17	0xbe998491	-0.29983953
18	0xbdccf75c	-0.100081176
19	0x3d202a6f	0.039102968
20	0xbda1b9fb	-0.07896801
21	0xbf0f2470	-0.55914974
22	0x3e202428	0.15638793
23	0xbea999d2	-0.33125168
24	0xbe97ec9f	-0.29672715
25	0xbe072ca5	-0.13200624
26	0xbed72d22	-0.4202662
27	0x3e6b1345	0.2295657
28	0xbeb0c900	-0.3452835
29	0x3d3b1d6e	0.045682363
30	0xbee04d52	-0.4380899
31	0x3c1cf2af	0.009579345
32	0xbe635333	-0.22199707
33	0xbe322529	-0.17396988
34	0xbd6384da	-0.05554662
35	0x3e2fa37a	0.17152205
36	0x3e056660	0.13027334
37	0xbf14a8b0	-0.58069897
38	0xbef27100	-0.47351837
39	0xbea30e8e	-0.31847042
40	0xbed68e20	-0.41905308
41	0xbe5fca07	-0.21854411
42	0xbb270752	-0.002548654
43	0xbea9723e	-0.33094972
44	0x3e1244ba	0.1428403
45	0xbcb516e9	-0.022105651
46	0xbed1d010	-0.40979052
47	0xbe4ac826	-0.19802913
48	0xbe46c477	-0.19410883
49	0xbe9f7cd1	-0.31149915
50	0xbeb4b332	-0.35292965
51	0x3e4cec21	0.20011951
52	0xbe2588b8	-0.16165435
53	0xbe8a8e4d	-0.27061692
54	0x3d9b875e	0.075941786
55	0xbd0499a7	-0.032373097
56	0xbc8c12b0	-0.017098755
57	0x3d8c6635	0.06855432
58	0xbe23488a	-0.1594564
59	0xbeefebb4	-0.46859515
60	0xbe8fbc32	-0.2807327
61	0xbee01893	-0.4376875
62	0xbf0e070e	-0.55479515
63	0xbe548e82	-0.20757487
64	0x3d055a40	0.032556772
65	0x3ea17ed1	0.31542066
66	0xbe56cb37	-0.20975958
67	0xbeb97b46	-0.36226863
68	0xbee5e324	-0.44899857
69	0x3ddca92b	0.10774454
70	0xbe67e2f8	-0.22645175
71	0xbd1806f3	-0.037116002
72	0x3b87e854	0.0041475687
73	0x3e4742c8	0.19459069
74	0xbdfc9294	-0.12332645
75	0xbe2dc6d3	-0.16970377
76	0xbe9840f1	-0.29737046
77	0x3de039dd	0.109485365
78	0xbde7e985	-0.11323837
79	0xbea08d3c	-0.31357753
80	0xbe2ac80f	-0.16677879
81	0x3e98fd92	0.2988096
82	0xbbdde44f	-0.0067716013
83	0xbf04eaf1	-0.5192099
84	0x3d4443e4	0.047916308
85	0x3e28bcb4	0.16478235
86	0xbde4317c	-0.11142251
87	0xbb548e52	-0.0032433462
88	0xbe8bb7db	-0.27288708
89	0xbeb54686	-0.35405368
90	0x3d60fead	0.054930378
91	0xbd70a515	-0.058751184
92	0xbc9297ef	-0.017894713
93	0xbe809a56	-0.2511775
94	0xbe835b9d	-0.25655833
95	0x3e711625	0.23543604
96	0xbe85b620	-0.26115513
97	0xbd6efe9c	-0.058348283
98	0xbe7c35fd	-0.2462997
99	0xbe262da8	-0.16228354
100	0xbe9aaa61	-0.30208114
101	0xbdf8512c	-0.12124857
102	0x3d1a1182	0.037614353
103	0x3e07c393	0.132582
104	0xbe567d99	-0.20946349
105	0x3e80c080	0.25146866
106	0xbe96539e	-0.2936067
107	0x3e3ea214	0.18616515
108	0xbeb9c4ec	-0.36283052
109	0x3d125fc4	0.03573586
110	0xbe517371	-0.20454194
111	0xbd93bc3f	-0.072136395
112	0x3edb16c0	0.42790794
113	0xbe985555	-0.29752603
114	0xbe5c0245	-0.21485241
115	0xbc35d912	-0.011099117
116	0xbebc3b0f	-0.36763808
117	0x3e1d0ae9	0.15336193
118	0xbd18fb49	-0.03734902
119	0xbc6434e5	-0.013928627
120	0xbedfa9fb	-0.43684372
121	0xbd695c00	-0.056972504
122	0xbe8e4b76	-0.27791947
123	0x3de9af8e	0.114104375
124	0x3d837c18	0.064201534
125	0xbec2b1a2	-0.38026148
126	0xbdbea267	-0.093083195
127	0xbef5d429	-0.48013428

nn.2.weight f4 [128, 128]
0	0xbd067066	-0.032822035
1	0x3d81c667	0.0633667
2	0xbcb35877	-0.02189277
3	0x3e0bc6b4	0.13650018
4	0xbd8c4ac8	-0.06850201
5	0xbd655d65	-0.05599727
6	0x3d90499f	0.07045292
7	0x3cce8db6	0.025214057
8	0xbd523e9d	-0.051329244
9	0x3d263095	0.040573675
10	0x3e347fcf	0.1762688
11	0x3d988f26	0.074491784
12	0x3e752c09	0.2394258
13	0x3cc12b78	0.023580298
14	0xbc64eb76	-0.013972154
15	0x3d8b4110	0.06799519
16	0xbd995282	-0.0748644
17	0x3c25b531	0.010114
18	0xbdab4584	-0.083628684
19	0x3d9c8e58	0.076443374
20	0x3cc4c452	0.024019394
21	0x3e808aeb	0.25105986
22	0x3cf626ed	0.030047858
23	0x3d37d348	0.044879228
24	0x3e2e880a	0.17044082
25	0x3da20045	0.07910208
26	0x3ded86a9	0.1159795
27	0x3d393292	0.045214243
28	0x3b91ce66	0.0044496534
29	0x3d83c053	0.06433167
30	0x3c66f045	0.014095371
31	0x3e3831a6	0.1798769
32	0x3c1d1c30	0.00958924
33	0x3d855aa1	0.06511427
34	0xbd8347a3	-0.06410148
35	0xbd3876fd	-0.04503535
36	0xbd328110	-0.043580115
37	0x3e0efe9d	0.13964315
38	0xbbf7841a	-0.0075535895
39	0xbd2c26df	-0.042029258
40	0x3e8715f6	0.26383942
41	0x3d51f4c1	0.051258806
42	0x3cbc2680	0.022967577
43	0x3cea5517	0.028605027
44	0x3d8a8495	0.06763569
45	0x3d6d9049	0.05799893
46	0x3dc821e8	0.09772092
47	0x3d8a330a	0.06748016
48	0x3e3baed5	0.18328412
49	0xbd97df26	-0.07415609
50	0x3cab912a	0.020943243
51	0x3d4b1535	0.04958077
52	0x3e4ec448	0.20192063
53	0x3cc6c2b2	0.02426276
54	0xbd057ef2	-0.032591768
55	0x3e2f61bb	0.17127125
56	0x3e67cc66	0.22636566
57	0xbd8d38cd	-0.068955995
58	0xbc0cd3d7	-0.008595428
59	0x3db27689	0.08714015
60	0xbd7cf915	-0.06176098
61	0x3d5d2a6d	0.05399554
62	0x3dfef454	0.12448946
63	0xbb131b9f	-0.0022446883
64	0x3cb3a4ca	0.021929163
65	0x3d8b0d3c	0.06789634
66	0xbd89ddd5	-0.06731764
67	0x3e777c0c	0.24168414
68	0xbd2d4c74	-0.04230924
69	0xbd566ab0	-0.05234784
70	0x3d106bff	0.035259243
71	0x3c32983e	0.010900555
72	0x3d9c5117	0.07632654
73	0xbda24ea3	-0.07925155
74	0x3db36a57	0.08760517
75	0x3d72c51b	0.059270006
76	0x3cac9a8d	0.02106979
77	0x3daa4eaa	0.08315785
78	0x3ba7d4b1	0.0051217903
79	0xbc891906	-0.016735565
80	0xbb73c44b	-0.0037195857
81	0xbc87f57f	-0.016596554
82	0x3cb731c0	0.02236259
83	0x3d1a3bc8	0.037654668
84	0x3e366731	0.17812802
85	0x3c44baee	0.012007458
86	0x3d53886a	0.051643766
87	0x3c3188ab	0.010835807
88	0x3d434747	0.047675397
89	0x3e17bba4	0.14817673
90	0xbd686ac2	-0.056742437
91	0x3d58ed6d	0.052960802
92	0xbcb4d42e	-0.022073831
93	0x3d2de3e5	0.042453665
94	0xbca988f4	-0.020695187
95	0x3d92dd1e	0.07171081
96	0xbd9c2c66	-0.07625656
97	0xbc950250	-0.01818958
98	0x3e8b02e8	0.27150655
99	0xbcfc82ed	-0.030824149
100	0x3c2a919c	0.010410693
101	0xbd87e6de	-0.06635831
102	0x3c9b791e	0.018978652
103	0xbd80c638	-0.06287807
104	0x3bbd44cf	0.005776025
105	0x3d111f64	0.035430327
106	0x3e57ec41	0.21086217
107	0x3daaae11	0.08333982
108	0xbc9f18ee	-0.019421067
109	0xbcd9cd5c	-0.02658718
110	0xbd45cc53	-0.048290562
111	0x3d048811	0.032356326
112	0x3e6e1552	0.2325032
113	0xbd192b9d	-0.03739511
114	0xbd1a64c3	-0.03769375
115	0x3d9d2f3e	0.07675026
116	0xbcb6a909	-0.0222974
117	0xbd294189	-0.041322265
118	0xbdb02e34	-0.086025625
119	0x3d970d5f	0.07375597
120	0x3e09cc1b	0.13456766
121	0xbd87555d	-0.06608079
122	0x3e5dcb70	0.21659636
123	0x3db47caf	0.08812844
124	0xbd6f9af0	-0.05849737
125	0xbcd481a8	-0.025940731
126	0xbd103784	-0.035209194
127	0x3d5ab39c	0.053393945
128	0xbd953540	-0.07285547
129	0xbda2a29b	-0.07941171
130	0xbba290fd	-0.0049611316
131	0xbce74c78	-0.028234705
132	0xbd1ba3c4	-0.037997976
133	0xbdac5998	-0.08415526
134	0xbc644903	-0.013933423
135	0xbd9a6c73	-0.07540216
136	0xbddc7f25	-0.107664384
137	0xbdfb1c36	-0.1226124
138	0xbda88c45	-0.08229879
139	0x3db3aff7	0.08773797
140	0xbd2c5c68	-0.042080313
141	0x3d54e191	0.05197293
142	0xbd285075	-0.041092355
143	0x3ce9b35d	0.02852791
144	0x3c4902f6	0.012268772
145	0x3b36dc04	0.0027902136
146	0xbd36853f	-0.044560667
147	0xbcdd7ffd	-0.027038569
148	0xbd70048a	-0.05859808
149	0xbdb53df6	-0.08849709
150	0xbd8515b7	-0.064982824
151	0xbd140fdf	-0.03614795
152	0x3d2dc760	0.042426467
153	0xbd6d63c0	-0.057956457
154	0xbccfa197	-0.025345607
155	0xbd5da32a	-0.054110684
156	0x3d173872	0.036919065
157	0xbb8c1ba3	-0.0042757555
158	0xbc320b1d	-0.010866907
159	0xbdb37dae	-0.08764206
160	0xbcb76b48	-0.022390023
161	0xbdde0ef8	-0.10842699
162	0x3bbf3e99	0.0058363196
163	0xbd57bd18	-0.05267057
164	0xbcbb5537	-0.022867782
165	0x3c4d5aa7	0.01253382
166	0x3c1e7302	0.009670975
167	0xbe185887	-0.1487752
168	0xbd9af062	-0.07565381
169	0x3d803af8	0.062612474
170	0x3cd284f0	0.025698155
171	0xbd20c2cf	-0.039248284
172	0xbcd4caa5	-0.025975535
173	0x3d8423f6	0.064521715
174	0xbdbda660	-0.09260249
175	0xbd7a8397	-0.06116065
176	0xbe115f0f	-0.14196418
177	0xbdd87fd1	-0.10571254
178	0x3c9700f9	0.018433081
179	0xbd0f526c	-0.034990713
180	0xbdf582ff	-0.11987876
181	0xbe0c5fce	-0.13708422
182	0xbc901dd3	-0.017592346
183	0xbdd61970	-0.104540706
184	0xbc4e62ef	-0.01259683
185	0xbc6abf71	-0.01432787
186	0x3d61b92d	0.055108238
187	0xbde1e7de	-0.11030553
188	0xbd8d5c54	-0.06902376
189	0xbdec3ff4	-0.115356356
190	0xbd368663	-0.044561755
191	0xbd9365cb	-0.0719715
192	0xbd227d04	-0.039670005
193	0xbdad840b	-0.08472451
194	0xbe1c72f8	-0.15278232
195	0xbe1bbae1	-0.15208007
196	0xbcb014ab	-0.02149423
197	0x3da8ce4b	0.08242472
198	0xbd96b017	-0.07357805
199	0x3d8b44c5	0.06800226
200	0xbca0f826	-0.019649576
201	0xbd8badfc	-0.06820294
202	0xbdd2020e	-0.10254298
203	0x3d31e800	0.043434143
204	0x3ccaf69a	0.024775792
205	0x3c63d7bc	0.013906416
206	0xbe065c50	-0.13121152
207	0xbda9191f	-0.082567446
208	0xbb349bc4	-0.0027558664
209	0xbd98c8c4	-0.07460168
210	0x3c30741a	0.010769868
211	0xbdffc4bf	-0.12488698
212	0xbc8af304	-0.016961582
213	0xbd5f2b74	-0.0544848
214	0xbc8d1c57	-0.017225428
215	0x3c1b6990	0.009485617
216	0x3d0f5ef1	0.035002653
217	0xbd42bb8e	-0.047542147
218	0xbc70bdb3	-0.014693665
219	0xbc9bcd38	-0.019018754
220	0x3cf6a5ce	0.030108359
221	0x3ce76256	0.028245132
222	0xbe19ae87	-0.15007983
223	0xbb5105d1	-0.0031894336
224	0x3cee87e8	0.02911754
225	0xbceb7387	-0.028741611
226	0x3bffa770	0.0078019425
227	0xbda9953f	-0.082804196
228	0xbcae5955	-0.021282831
229	0xbccc7f06	-0.024962913
230	0xbd92484c	-0.07142696
231	0x3b394a7d	0.0028273158
232	0xbbfa7097	-0.0076428163
233	0x3d413cc8	0.047177106
234	0xbe064497	-0.13112102
235	0x3d811a15	0.06303803
236	0xbbf0ca1c	-0.007348312
237	0xbd642d8f	-0.05570751
238	0x3cc47d74	0.023985602
239	0x3c5cd135	0.013477613
240	0xbdba06ac	-0.09083304
241	0x3aa7071a	0.0012743205
242	0xbd29188c	-0.041283175
243	0x3b27e6f1	0.002561983
244	0xbc4bac03	-0.0124311475
245	0xbe10e986	-0.14151582
246	0xbe0312b2	-0.128001
247	0xbd3663d2	-0.04452879
248	0xbe144c59	-0.1448225
249	0xbd293aa0	-0.041315675
250	0xbd1cdeef	-0.038298544
251	0x3caea5be	0.021319266
252	0x3cec295d	0.028828317
253	0xbde4977f	-0.11161708
254	0x3da849c4	0.08217195
255	0xbb4c511b	-0.0031176272

nn.2.bias f4 [128]
0	0x406f47f2	3.7387662
1	0xbd3c3c22	-0.045955785
2	0xbaae73d3	-0.0013309665
3	0xbd8f56fe	-0.06999014
4	0x3c20fbf3	0.009825694
5	0x3b75d119	0.0037508665
6	0xbddf69af	-0.109088294
7	0xbd7b4627	-0.0613462
8	0xbd9a0e4e	-0.0752226
9	0x3ce6da8d	0.028180385
10	0xbe03941b	-0.12849467
11	0xbdb38163	-0.08764913
12	0x3e0b0ec2	0.13579848
13	0xbd03b148	-0.03215149
14	0xbdee0a5f	-0.11623072
15	0xbd903ffd	-0.07043455
16	0xbd4585d9	-0.04822335
17	0xbbe00a80	-0.006837189
18	0xbdcc812c	-0.09985575
19	0xbe2ce01e	-0.16882369
20	0xbd43c4eb	-0.047795217
21	0xbe16c290	-0.14722657
22	0xbdfe2e5a	-0.124111846
23	0xbd3c7b74	-0.04601617
24	0xbe1b1f79	-0.15148725
25	0xbde6b67b	-0.11265274
26	0xbe29107f	-0.16510199
27	0xbd8f491a	-0.06996365
28	0x3a718591	0.00092133234
29	0xbd4a8786	-0.04944565
30	0xbb01c7ec	-0.0019803
31	0xbe39bd7d	-0.1813869
32	0xbdd6daf1	-0.104909785
33	0xbda2db3a	-0.079519704
34	0xbdb6188b	-0.088914
35	0xbd96e3ca	-0.07367666
36	0x3c2cc77d	0.010545609
37	0xbc03b70e	-0.008039249
38	0xbe01cfc8	-0.12676919
39	0xbd3e2da1	-0.046430234
40	0xbe18400f	-0.14868186
41	0x3db3dfe0	0.08782935
42	0x3d94c432	0.07263984
43	0xbd2b51cc	-0.041826054
44	0x3f3b7dc8	0.732388
45	0xbc917b4a	-0.017758984
46	0xbc1bdf39	-0.00951367
47	0xbdaab52d	-0.08335338
48	0xbd48a64e	-0.048986726
49	0x3cc2179e	0.023692902
50	0xbcaad537	-0.020853622
51	0xbd58ea90	-0.05295807
52	0xbb58efed	-0.0033101991
53	0x3cb2a603	0.021807676
54	0xbdf08b0a	-0.117452696
55	0xbdcf813b	-0.10132071
56	0xbd496979	-0.049172852
57	0xbd8ee7ce	-0.06977807
58	0xbdc18c45	-0.094505824
59	0x3da76a95	0.08174626
60	0xbe05a052	-0.13049439
61	0xbd920190	-0.07129204
62	0xbdf82367	-0.121161275
63	0xbd97cee3	-0.074125074
64	0xbe0ea486	-0.13929948
65	0xbdee791a	-0.11644192
66	0xbdba585f	-0.09098887
67	0xbd85ef0e	-0.06539737
68	0xbd4f5cd4	-0.050625637
69	0xbcf1eea8	-0.029532745
70	0xbc1da01e	-0.009620694
71	0xbe10a7e7	-0.1412655
72	0xbe0a2156	-0.13489279
73	0xbd389900	-0.045067787
74	0xbca2278a	-0.019794244
75	0xbcc335dc	-0.023829393
76	0xbd6ec95b	-0.058297496
77	0xbac818bb	-0.0015266159
78	0xbe00846b	-0.12550513
79	0x3d69b417	0.057056513
80	0xbbb6100f	-0.0055561136
81	0x3efa34d6	0.48868436
82	0x3dd586d0	0.10426104
83	0xbd621a93	-0.055201124
84	0xbddd745c	-0.108132094
85	0xbbdd20bc	-0.006748287
86	0xbc9609b0	-0.018315166
87	0xbe270511	-0.16310526
88	0x3e1c2644	0.15248972
89	0xbda77b08	-0.08177763
90	0xbd53e547	-0.051732328
91	0xbe09a444	-0.13441569
92	0xbd02c22f	-0.03192347
93	0xbe84180c	-0.25799596
94	0x3a8e4bf6	0.0010856378
95	0xbcc4fd44	-0.024046548
96	0xbcf1e11f	-0.029526291
97	0x3e96165d	0.29313937
98	0xbe13b925	-0.14426096
99	0xbe12bc9e	-0.14329764
100	0xbe0282a8	-0.12745154
101	0xbde7f546	-0.11326079
102	0xbdabfebe	-0.083981976
103	0xbe59931b	-0.21247523
104	0x3da1e85f	0.079056494
105	0xbcff8022	-0.031189028
106	0xbd60625c	-0.054781303
107	0xbe369b1e	-0.1783261
108	0x3c12bf6c	0.008956771
109	0xbddc131e	-0.10745834
110	0xbe0f3cd5	-0.1398805
111	0xbd331514	-0.043721274
112	0xbe3a59f7	-0.18198381
113	0xbd5742f9	-0.052554104
114	0xbdd6c77b	-0.10487267
115	0xbd5ac3a2	-0.053409226
116	0x3c8ff549	0.017573016
117	0xbd915ba8	-0.0709756
118	0xbd11052e	-0.03540533
119	0xbd811926	-0.06303625
120	0x3be27d2a	0.0069118934
121	0x3f14edda	0.5817543
122	0x3b88386e	0.0041571176
123	0xbd0ddb24	-0.034632817
124	0xbe4de511	-0.20106913
125	0x3f236695	0.638284
126	0xbd9808fe	-0.0742359
127	0xbe32e6b9	-0.17470826

nn.4.weight f4 [12, 128]
0	0xbf2f56d3	-0.6849186
1	0xbcb22fcb	-0.021751305
2	0xbd9aa4cf	-0.07550966
3	0xbe40172e	-0.18758842
4	0xbcc01a4e	-0.023450043
5	0x3d817216	0.06320588
6	0x3d41a17f	0.047273155
7	0xbe1db6bc	-0.15401739
8	0x3beb6f27	0.0071848813
9	0xbe004383	-0.12525754
10	0xbdb996aa	-0.0906194
11	0x3cabc39e	0.020967301
12	0xbcbd6972	-0.02312157
13	0xbdf0e877	-0.11763089
14	0x3c9d66ca	0.019214053
15	0xbd6acc1d	-0.057323564
16	0xbcc58556	-0.024111431
17	0xbd4287d9	-0.047492836
18	0xbc89d504	-0.016825207
19	0xbd17d39b	-0.037067037
20	0x3c418d2c	0.011813443
21	0xbcf0ebd2	-0.029409323
22	0x3b270099	0.0025482534
23	0x3df0993f	0.117479794
24	0xbd4bba6b	-0.04973833
25	0x3c162162	0.0091632325
26	0x3e0c894f	0.13724254
27	0x3d980d00	0.074243546
28	0x3dbb97b7	0.09159797
29	0xbdb1328b	-0.086522184
30	0x3d0552a6	0.032549523
31	0x3dab883b	0.08375593
32	0x3dff8c23	0.12477901
33	0x3d3ab23d	0.045580138
34	0x3cdb731f	0.026788292
35	0x3d0074af	0.03136128
36	0xbdb6acef	-0.08919703
37	0xbda3426c	-0.07971653
38	0xbe8757a9	-0.26434067
39	0xbc925f7d	-0.017867798
40	0xbcca163b	-0.024668803
41	0x3d402097	0.04690608
42	0x3d38762c	0.045034572
43	0xbd79a891	-0.060951773
44	0xbd99f981	-0.07518292
45	0x3e0f4460	0.13990927
46	0xbd2da15a	-0.042390205
47	0x3d397367	0.045276072
48	0xbe442547	-0.19154845
49	0x3d51969f	0.051169034
50	0x3db9a6ff	0.09065055
51	0xbda468bc	-0.08027789
52	0x3dae4938	0.08510059
53	0x3dc5d6ec	0.09660134
54	0xbd9c4577	-0.07630437
55	0x3dba6524	0.09101322
56	0xbd5acfc1	-0.053420786
57	0x3d77cdb7	0.06049892
58	0x38e3e515	0.00010866873
59	0x3c23dc50	0.010001257
60	0xbdb568b4	-0.08857861
61	0x3dfc4849	0.12318475
62	0x3e0cdb43	0.13755517
63	0xbd4ac114	-0.04950054
64	0x3deef138	0.116671026
65	0xbd0105ae	-0.031499557
66	0x3c9b8832	0.018985841
67	0xbd407826	-0.046989582
68	0xbc81c980	-0.015843153
69	0x3df67eb6	0.12035887
70	0x3cd155a7	0.025553538
71	0xbdaaaf50	-0.083342195
72	0x3da37018	0.079803646
73	0x3e100d45	0.14067562
74	0x3d316cad	0.043316532
75	0xbdb2f7fe	-0.08738707
76	0xbbe6cbc6	-0.0070433347
77	0xbcd380f6	-0.02581833
78	0xbdf9ed40	-0.12203455
79	0x3c9c58bb	0.019085279
80	0xbcba8c9f	-0.022772131
81	0x3d8dc791	0.0692283
82	0xbd95b81d	-0.073105074
83	0xbe10d706	-0.14144525
84	0xbc3b2f20	-0.01142481
85	0xbd3077da	-0.04308305
86	0x3c1c26e9	0.009530761
87	0xbcab4de7	-0.02091117
88	0xbcca3ad4	-0.024686255
89	0x3df688aa	0.12037785
90	0xbd93cda0	-0.07216954
91	0x3dea1a64	0.11430815
92	0x3dfa9e13	0.122371815
93	0xbe799ba3	-0.24375777
94	0xbb44feed	-0.0030059174
95	0x3bdba91c	0.006703509
96	0xbb6b4073	-0.003589657
97	0xbd954764	-0.07289007
98	0x3de36917	0.11104029
99	0x3ca53695	0.020167628
100	0xbd86ddd5	-0.0658528
101	0x3cebc2ad	0.028779352
102	0xbd377967	-0.044793513
103	0x3d06442b	0.032779854
104	0xbd7e2a00	-0.062051773
105	0x3d082444	0.03323771
106	0xbd94ddce	-0.072688684
107	0x3c5e0bad	0.013552588
108	0x3c13fc26	0.009032285
109	0xbddf2ac9	-0.108968325
110	0xbcc24b19	-0.02371745
111	0x3c0560e7	0.008140779
112	0x3d444c2b	0.047924202
113	0xbd30ca19	-0.043161485
114	0xbd229011	-0.039688174
115	0x3d912669	0.07087404
116	0x3d04958c	0.03236918
117	0x3d89a0fe	0.0672016
118	0x3e21f961	0.15817787
119	0x3a12aca4	0.00055951835
120	0x3d0e8414	0.03479393
121	0xbdea724b	-0.11447581
122	0x3ddddbb2	0.10832919
123	0x3d0d50d0	0.034500897
124	0x3dc437b7	0.09580939
125	0x3dca4d48	0.098780215
126	0xbd8f3338	-0.06992191
127	0xbdde59be	-0.10856961
128	0xbf3d36cb	-0.7391173
129	0x3b49eb00	0.0030810237
130	0x3b213643	0.0024598993
131	0xbe46dd72	-0.19420412
132	0x3d8e27c9	0.06941182
133	0x3d92fbad	0.071769096
134	0xbb825a04	-0.003978016
135	0xbac8274b	-0.0015270499
136	0x3d29c7a5	0.04145016
137	0xbddd9f59	-0.10821409
138	0x3d9aeeaf	0.075650565
139	0xbcdcebba	-0.026967872
140	0xbe4995ae	-0.19686005
141	0xbd6e2d54	-0.058148697
142	0x3de8f391	0.113745816
143	0xbd9c8e2b	-0.07644304
144	0xbd971212	-0.073764935
145	0xbdfdd7ae	-0.12394653
146	0xbd8b114e	-0.0679041
147	0xbd8f0335	-0.069830336
148	0x3d36bea3	0.0446154
149	0xbe01f2dc	-0.126903
150	0xbd40a682	-0.047033794
151	0xbccca18b	-0.024979373
152	0xbda310cd	-0.07962189
153	0x3d492553	0.04910786
154	0xbd72fef1	-0.059325162
155	0x3cf17fbd	0.029479856
156	0xb88efaab	-6.817778e-05
157	0x3d9d0e8e	0.07668792
158	0xbcd972db	-0.026544025
159	0xbd76ecc9	-0.06028441
160	0x3d954b7a	0.07289787
161	0xbc18688b	-0.009302269
162	0xbd2d168b	-0.042257827
163	0x3e0176b4	0.12642938
164	0xbd0caa88	-0.03434232
165	0xbe139913	-0.14413862
166	0xbe1ea15d	-0.15491243
167	0xbdb04c88	-0.08608347
168	0xbdf5f41a	-0.12009449
169	0xbdb15d85	-0.086604156
170	0xbd134e15	-0.035963137
171	0xbe0ec38c	-0.13941783
172	0xbe8ef407	-0.27920553
173	0xbd73a5b5	-0.059484202
174	0x3be4a948	0.0069781877
175	0xbdadbe3b	-0.08483549
176	0xbea0170c	-0.31267583
177	0x3caa5940	0.02079451
178	0xbe3cd64c	-0.18441123
179	0x3ce27bdc	0.027646951
180	0xbc2fdeb8	-0.010734253
181	0xbce688a5	-0.028141329
182	0x3d06768c	0.0328279
183	0x3bd652eb	0.0065406463
184	0xbdbb7205	-0.09152607
185	0x3defcf72	0.11709489
186	0xbd8cf311	-0.06882299
187	0x3d0076f9	0.03136346
188	0x3c60360d	0.013684762
189	0x3dec71ca	0.11545141
190	0x3de8fe65	0.11376647
191	0xbd4f0f88	-0.05055192
192	0x3d0ef94b	0.034905713
193	0xbc2ef78f	-0.01067914
194	0x3e03cf8b	0.1287214
195	0xbdcd0ce8	-0.10012227
196	0x3db28ed9	0.08718652
197	0x3c8577b8	0.016292438
198	0x3e15b221	0.14618732
199	0xbdb0f69c	-0.08640787
200	0xbe78ff85	-0.24316223
201	0x3e0af741	0.13570882
202	0x3d904acc	0.07045516
203	0xbd1b47a8	-0.037910134
204	0x3c45d340	0.012074292
205	0x3d0cebb5	0.034404475
206	0xbd3b772e	-0.045767955
207	0xbe74a94d	-0.23892708
208	0xbc769507	-0.015050179
209	0xbec605ed	-0.38676396
210	0xbdb2122f	-0.086948745
211	0xbdcdfdfb	-0.100582086
212	0x3e0ec5b1	0.13942601
213	0xbe0c0832	-0.13675001
214	0x3d561d04	0.052273765
215	0xbd091e19	-0.03347597
216	0xbded471d	-0.115858294
217	0x3d302bdc	0.043010578
218	0xbd9224a5	-0.07135896
219	0x3c3235ce	0.010877086
220	0xbe8f142c	-0.27945077
221	0x3bddbf20	0.0067671686
222	0xbe125991	-0.1429198
223	0x3d92523e	0.07144593
224	0x3cd1ddc5	0.025618443
225	0xbde31454	-0.11087862
226	0x3dd1f93d	0.102526166
227	0x3c871c79	0.016493069
228	0x3c16a937	0.009195617
229	0x3d8dff0d	0.06933413
230	0xbd9d0928	-0.07667762
231	0x3c39c607	0.011338717
232	0xbd7a1b07	-0.06106093
233	0x3cef8465	0.029237935
234	0x3d681f4c	0.056670472
235	0x3e291110	0.16510415
236	0xbd67b08e	-0.05656486
237	0xbeaf8005	-0.3427736
238	0xbd0c501b	-0.034256082
239	0x3d013f1c	0.031554326
240	0x3ce79cf4	0.028273083
241	0xbd80a632	-0.06281699
242	0xbdcf2406	-0.10114293
243	0x3c2167de	0.009851424
244	0x3d59a0db	0.05313192
245	0x3ca23b84	0.01980377
246	0xbe510ddf	-0.20415448
247	0xbc74130a	-0.014897117
248	0x3d346174	0.04403825
249	0xbe128cea	-0.14311567
250	0xbd211d35	-0.039334495
251	0x3d35591a	0.044274427
252	0xbe36c889	-0.17849936
253	0xbebe0c91	-0.37118962
254	0xbdd03581	-0.10166455
255	0xbd6bc92e	-0.057564907

nn.4.bias f4 [12]
0	0xbfcd1f84	-1.6025243
1	0xc02c9f1c	-2.6972113
2	0xbf96d9fe	-1.1785276
3	0xc00c9d22	-2.1970906
4	0xbfd8d465	-1.6939818
5	0xc0064274	-2.097806
6	0xc0218521	-2.5237505
7	0xbfdfa75d	-1.747295
8	0xbfb404c0	-1.406395
9	0xc03bf7ac	-2.9369917
10	0xbfa75b75	-1.3074785
11	0xbfbc062c	-1.4689384
