dynamics/src/drl/outputs/RobotOptEnv/20220720-170052/models/dqn_checkpoint.pth (torch, 75015 bytes, 6 tensors)

fc1.weight f4 [128, 7]
0	0xbe4ab444	-0.19795328
1	0xbe9b6efc	-0.30358112
2	0x3e982aac	0.29720056
3	0x3e19713f	0.14984606
4	0x3d6a4f7b	0.057204705
5	0x3e5d3759	0.21603145
6	0xbdae0369	-0.08496744
7	0xbe890323	-0.26760206
8	0x3e747b41	0.23875143
9	0xbe7889c2	-0.242713
10	0x3dbcb477	0.092141084
11	0xbead7494	-0.33878005
12	0xbdf06439	-0.11737866
13	0x3d60a6d6	0.054846607
14	0xbe60d636	-0.21956715
15	0xbdb0d0ca	-0.08633573
16	0x3d97ce1e	0.074123606
17	0x3df2a205	0.11847309
18	0xbd3708a2	-0.044685967
19	0xbdbe5bab	-0.09294828
20	0xbcabb759	-0.02096145
21	0x3d69dc7c	0.057095036
22	0xbd04481b	-0.032295328
23	0xbd8a8954	-0.067644745
24	0xbea72600	-0.3264618
25	0x3ebb6a82	0.36604697
26	0xbdcf7063	-0.10128858
27	0xbe7f90fd	-0.24957652
28	0x3db2f115	0.08737389
29	0x3ea101df	0.3144674
30	0xbe8ce21a	-0.27516252
31	0xbea05d2c	-0.31321084
32	0xbc6f21c5	-0.014595454
33	0xbe8ce68b	-0.2751964
34	0xbe9dfff3	-0.30859336
35	0x3d8b2dee	0.0679587
36	0x3e71d5d0	0.23616719
37	0xbe93f0f6	-0.28894776
38	0x3e40ffc9	0.18847574
39	0xbdc0e8d0	-0.094194055
40	0x3e7314c4	0.2373839
41	0xbe25360f	-0.16133903
42	0xbe15c334	-0.14625245
43	0x3ddcc9df	0.10780691
44	0x3dec40ca	0.11535795
45	0xbe35976f	-0.17733549
46	0xbeae9892	-0.34100777
47	0xbe75aa9e	-0.23990867
48	0xbeb6502d	-0.35608044
49	0x3e0ca0e1	0.13733245
50	0xbe72efab	-0.23724239
51	0x3e97812e	0.29590744
52	0xbeb8ed85	-0.36118713
53	0x3c7d5508	0.015462168
54	0x3d75aabc	0.059977278
55	0xbeb38e9c	-0.3506974
56	0x3d3bf751	0.045890156
57	0xbeb61ae8	-0.35567403
58	0xbdfee6cf	-0.12446367
59	0xbeaff950	-0.34369898
60	0x3e8083c9	0.25100544
61	0xbeb34f62	-0.35021502
62	0xbe41a7b9	-0.18911637
63	0xbe8f4eb4	-0.27989733
64	0x3d5e21ef	0.05423158
65	0xbeb830f3	-0.35974845
66	0x3bf8df34	0.0075949673
67	0x3ea4ca29	0.32185486
68	0x3e812960	0.2522688
69	0xbeb34cf8	-0.3501966
70	0x3d2c1cd4	0.04201968
71	0xbd2ad58f	-0.04170757
72	0xbea1a311	-0.31569722
73	0xbe9af99a	-0.30268556
74	0x3c29034b	0.0103157265
75	0xbe9ce5aa	-0.3064397
76	0xbe919401	-0.2843323
77	0x3eac4876	0.33649033
78	0xbd441644	-0.047872797
79	0xbe9708b5	-0.2949883
80	0x3ec0c301	0.37648776
81	0xbeb32e80	-0.34996414
82	0x3cbaf255	0.022820631
83	0xbe776813	-0.24160795
84	0x3e76a03f	0.24084567
85	0xbe216009	-0.15759291
86	0xbe116563	-0.14198832
87	0xbddc5404	-0.10758212
88	0x3e367c08	0.17820752
89	0x3e9853ef	0.29751536
90	0xbea34387	-0.31887457
91	0xbe3a6652	-0.18203095
92	0x3e0fb802	0.14035037
93	0xbd025e07	-0.031827953
94	0xbe93fe29	-0.28904846
95	0x3c9d7086	0.019218694
96	0x3ea1cd9e	0.31602186
97	0xbe290f2a	-0.16509691
98	0x3d816be5	0.063194074
99	0x3dce6567	0.10077935
100	0x3e5a6c10	0.21330285
101	0x3d2f3fe9	0.04278556
102	0xbb9d3241	-0.0047972505
103	0x3eb30642	0.34965712
104	0x3e4fff42	0.20312217
105	0xbe334c62	-0.17509606
106	0xbe0408c6	-0.12893972
107	0xbe8b189e	-0.2716722
108	0x3e7dedbb	0.24797718
109	0x3eb3cbc8	0.3511641
110	0x3e91e27b	0.28493103
111	0xbea91e3f	-0.33030888
112	0x3ded6708	0.11591917
113	0x3e59d5ae	0.21272919
114	0x3e522b77	0.20524393
115	0x3e923593	0.285565
116	0xbe24a700	-0.1607933
117	0xbe8f8a4c	-0.280352
118	0x3ea550e0	0.32288265
119	0x3d4bbd71	0.049741212
120	0xbe7b1a5e	-0.24521777
121	0xbe38bad8	-0.18040025
122	0xbea73463	-0.32657155
123	0x3e121cec	0.14268845
124	0x3ea1065f	0.31450173
125	0x3dd33ba9	0.10314114
126	0x3eaf2e9b	0.34215245
127	0xbdc1eed6	-0.094693825
128	0xbde32fcd	-0.11093102
129	0xbe4c3dae	-0.19945404
130	0x3e9af7c8	0.30267167
131	0x3e63e2a6	0.22254428
132	0x3e0a7ee3	0.13524966
133	0x3e93145b	0.28726467
134	0xbea6d45f	-0.325839
135	0x3d742122	0.05960191
136	0xbd47ce73	-0.04878087
137	0x3e5c118d	0.2149107
138	0x3df34ac2	0.11879493
139	0xbe0a0182	-0.13477138
140	0xbe7d8490	-0.247576
141	0x3e86f0df	0.26355645
142	0x3e5bacb8	0.21452606
143	0xbeadc281	-0.33937457
144	0x3d0b6de1	0.034040336
145	0x3dcf95f2	0.10136022
146	0x3e3dd945	0.18539913
147	0xbda0251f	-0.0781958
148	0x3db96885	0.09053139
149	0x3eb80939	0.35944536
150	0x3de65fd4	0.112487465
151	0x3eb54362	0.35402972
152	0xbe4954b9	-0.19661225
153	0xbd887631	-0.06663168
154	0x3e493637	0.19649588
155	0x3e9dc9f9	0.30818155
156	0xbe0a5cdb	-0.13511984
157	0x3ebad14d	0.3648781
158	0x3e8d74d1	0.27628186
159	0xbc6c9261	-0.014439196
160	0xbeaeb003	-0.3411866
161	0xbe6c086c	-0.23050088
162	0xbd9b93b3	-0.07596531
163	0x3e9aa87e	0.30206674
164	0x3d3ab56f	0.045583185
165	0x3dc3ae6b	0.09554752
166	0xbc8a79c3	-0.016903764
167	0xbeaec520	-0.3413477
168	0xbd68aa86	-0.05680325
169	0xbe54ba0b	-0.20774095
170	0xbea8c6b8	-0.3296411
171	0xbdb10f45	-0.086454906
172	0x3e7c718c	0.2465269
173	0xbd264ddf	-0.040601607
174	0xbcec0ba3	-0.028814143
175	0xbe82b7ee	-0.25530952
176	0x3ca4d9b8	0.020123348
177	0x3d6a50a9	0.05720583
178	0x3e70856c	0.23488396
179	0x3eb3cbb9	0.35116366
180	0xbd882fcc	-0.066497415
181	0x3d90ce24	0.07070568
182	0xbd4b435c	-0.049624786
183	0x3e3fa048	0.18713486
184	0xbc148494	-0.009064812
185	0xbafc71e0	-0.0019260012
186	0x3e47f237	0.19525991
187	0xbdffb0ed	-0.12484918
188	0xbe365562	-0.17806008
189	0x3ea239a0	0.3168459
190	0xbe7d9f72	-0.24767855
191	0xbea5c3ea	-0.32376033
192	0xbe8974d7	-0.26846954
193	0xbd42a40c	-0.04751973
194	0xbdb32f29	-0.087492295
195	0x3e6bc79d	0.23025365
196	0xbe966595	-0.29374376
197	0x3d7ba7db	0.061439376
198	0x3e44b15f	0.19208287
199	0x3e90a705	0.28252426
200	0xbe919e77	-0.28441212
201	0xbdc675c5	-0.096904315
202	0xbe79ed85	-0.24407013
203	0x3e35ad4f	0.17741893
204	0x3de765da	0.112987235
205	0xbd7ef416	-0.062244497
206	0xbe9292ce	-0.28627628
207	0x3eb04e06	0.34434527
208	0x3e40eb42	0.18839744
209	0xbe900eff	-0.2813644
210	0x3ead3a31	0.3383346
211	0x3e6a0b97	0.22855984
212	0xbeb63480	-0.3558693
213	0xbdf5a486	-0.11994271
214	0xbe841c29	-0.25802734
215	0x3e84ef94	0.25964034
216	0xbe129f31	-0.14318539
217	0xbe4ba100	-0.19885635
218	0x3ec0e651	0.37675717
219	0x3ea127ef	0.3147578
220	0xbe85a021	-0.2609873
221	0xbddf744f	-0.10910856
222	0xbe4df78e	-0.20113966
223	0x3eb0cdf9	0.34532145
224	0x3e1b4132	0.15161589
225	0xbe55d667	-0.20882569
226	0xbd8d3131	-0.06894148
227	0xbe556034	-0.2083748
228	0xbe4658c6	-0.19369802
229	0x3e98ca53	0.2984186
230	0x3e016896	0.12637553
231	0xbe72738e	-0.23676893
232	0xbeb98fb2	-0.36242443
233	0xbe8ad3bf	-0.27114674
234	0xbdfffa52	-0.12498917
235	0x3e958bb4	0.29208148
236	0x3e92571d	0.28582087
237	0x3e8ca544	0.27469838
238	0x3eaaa103	0.33325967
239	0xbdd949b1	-0.10609759
240	0xbe6d749b	-0.23189013
241	0xbeb133c3	-0.34609804
242	0x3e4574b5	0.19282801
243	0x3eaa6de3	0.33286962
244	0x3df427d2	0.119216576
245	0xbc08758e	-0.0083288085
246	0x3d2c3498	0.042042345
247	0x3e90a72b	0.2825254
248	0xbd585fd4	-0.052825764
249	0xbc329e24	-0.0109019615
250	0xbe17e74d	-0.14834328
251	0xbd9bbb26	-0.07604055
252	0x3c3245e3	0.01088092
253	0x3deaa8d8	0.11457986
254	0x3e2b1c7a	0.16710082
255	0xbd9bd58f	-0.076090924

fc1.bias f4 [128]
0	0x3da0e385	0.07855896
1	0x3e8b8f8a	0.2725795
2	0xbe5dcfb7	-0.21661268
3	0xbd432f3c	-0.047652468
4	0x3e6f19cc	0.23349684
5	0xbe737502	-0.23775104
6	0xbd763ca1	-0.060116414
7	0xbe903419	-0.28164747
8	0xbe809125	-0.25110736
9	0xbdb3f549	-0.08787019
10	0xbe13c683	-0.14431195
11	0xbdd1931c	-0.10233137
12	0x3c1b12be	0.009464918
13	0xbd8ac744	-0.06776288
14	0x3cb3d2c0	0.02195108
15	0x3ea11827	0.3146374
16	0xbe53c766	-0.20681533
17	0x3dc3cd3f	0.09560632
18	0x3ea82b87	0.3284571
19	0xbe877c0a	-0.26461822
20	0xbebd00ab	-0.36914572
21	0x3e963bfe	0.29342645
22	0x3eb54844	0.35406697
23	0x3e5633aa	0.20918146
24	0xbe39ba16	-0.18137392
25	0xbdd11b09	-0.10210235
26	0xbe4f4df2	-0.20244578
27	0xbda48972	-0.08034028
28	0xbe9d04ae	-0.30667633
29	0x3e3a06a0	0.1816659
30	0xbc133615	-0.008985062
31	0x3e8dd35c	0.27700317
32	0xbe877198	-0.26453853
33	0xbeb2e0dc	-0.3493718
34	0xbdd65b87	-0.10466676
35	0x3e03a73f	0.12856768
36	0x3e700e21	0.2344289
37	0x3e36779a	0.17819062
38	0xbe9f0fd5	-0.31066766
39	0xbe4e0db7	-0.2012242
40	0xbd7a2024	-0.061065808
41	0xbe40b50e	-0.18819067
42	0xbeb3231f	-0.34987733
43	0xbe7b1d85	-0.2452298
44	0xbc7b9c23	-0.01535705
45	0x3e6fa076	0.23401055
46	0x3e5cbcda	0.21556416
47	0x3e7f86d7	0.24953781
48	0xbd7ea988	-0.062173396
49	0x3e5fc954	0.21854144
50	0xbebafc75	-0.36520734
51	0xbe26d0dc	-0.16290611
52	0x3e81604b	0.25268778
53	0x3ea59e54	0.32347357
54	0x3e39b9e6	0.18137321
55	0xbe875fe0	-0.26440334
56	0x3e459dab	0.19298427
57	0xbe42bbbe	-0.1901693
58	0xbe05db10	-0.13071847
59	0xbdc3688b	-0.09541424
60	0x3eb18dcb	0.34678492
61	0x3eb0181b	0.3439339
62	0x3b878317	0.0041355
63	0xbdd4aa2b	-0.103840195
64	0x3d02a37a	0.031894185
65	0x3e7a1602	0.24422458
66	0x3e21be75	0.1579531
67	0xbe47b9ec	-0.19504517
68	0xbe6929c4	-0.22769839
69	0x3dcd87d2	0.10035671
70	0x3e87cd2f	0.2652373
71	0xbd0b1bdc	-0.033962116
72	0xbc9f95b5	-0.019480566
73	0xbeb7ddef	-0.3591151
74	0x3d294e6a	0.041334547
75	0xbebabc84	-0.3647195
76	0x3d169e18	0.036771864
77	0x3e988e96	0.29796284
78	0xbc5e7479	-0.013577574
79	0x3d3f72d7	0.04674038
80	0xbe9202cc	-0.2851776
81	0xbd3dc1d6	-0.046327434
82	0x3e6aece1	0.22941925
83	0x3e046416	0.12928805
84	0xbe9a8972	-0.30182987
85	0xbea4f707	-0.32219717
86	0xbe17a36e	-0.14808437
87	0xbe4efeb9	-0.20214356
88	0xbea87841	-0.32904246
89	0xbdbea835	-0.09309427
90	0x3bba2f36	0.0056818975
91	0xbe1cc5be	-0.15309808
92	0xbe9f8138	-0.31153274
93	0x3eb25054	0.3482691
94	0x3c47c62f	0.012193247
95	0xbebcc1fa	-0.36866742
96	0x3ea3a17c	0.3195914
97	0x3da2bedc	0.0794656
98	0x3ce1b962	0.027554218
99	0x3de11234	0.109898
100	0xbd81017f	-0.062991135
101	0x3e305917	0.17221485
102	0x3e4f68f8	0.20254886
103	0x3eab71a7	0.33485147
104	0x3ebfb811	0.3744512
105	0x3e5786d1	0.21047522
106	0xbe8b2e52	-0.27183777
107	0x3e683833	0.22677688
108	0xbeabe1a5	-0.3357059
109	0xbdafae77	-0.085781984
110	0xbe923487	-0.285557
111	0x3e72292d	0.2364852
112	0x3ea28fa4	0.31750214
113	0x3e15542a	0.14582887
114	0x3e865fb9	0.26244906
115	0xbbcf95ce	-0.006334997
116	0x3e9af99a	0.30268556
117	0xbe144111	-0.14477946
118	0xbe0afe3d	-0.13573547
119	0x3ded8790	0.11598122
120	0xbeb7ba24	-0.35884202
121	0x3da478ef	0.08030879
122	0x3d78bc92	0.06072671
123	0x3eb79637	0.35856792
124	0xbea6dcc2	-0.325903
125	0x3c3478dd	0.011015144
126	0xbe38256b	-0.17983024
127	0x3e0146b9	0.12624635

fc2.weight f4 [128, 128]
0	0x3d37baa7	0.04485574
1	0x3d94435f	0.072394125
2	0xbd10963c	-0.035299525
3	0x3daeace5	0.08529071
4	0x3da702f5	0.08154861
5	0xbbba7e6f	-0.0056913416
6	0xbd4705ac	-0.048589393
7	0xbdb31d7e	-0.087458596
8	0xbd9f704f	-0.07785093
9	0x3cce1235	0.025155166
10	0x3d42109a	0.047379114
11	0xbd580680	-0.052740574
12	0xbbbac881	-0.0057001715
13	0xbd8766f3	-0.06611433
14	0xbd96381a	-0.07334919
15	0x3da5a0c5	0.08087305
16	0x3c94391e	0.018093642
17	0xbc80ca7d	-0.015721554
18	0xbd2857e7	-0.041099455
19	0x3c78440a	0.0151529405
20	0xbd97803a	-0.07397504
21	0x3cf4ab02	0.0298667
22	0x3d887c70	0.066643596
23	0xbd7f7acd	-0.06237297
24	0x3d3eeb3e	0.046611063
25	0x3d3bd6cf	0.045859154
26	0x3d4d3847	0.0501025
27	0xbd3dc653	-0.046331715
28	0xbd742e78	-0.05961463
29	0xbcb5c9e1	-0.02219099
30	0x3cb872c2	0.022515658
31	0x3cde467f	0.027133225
32	0x3cd6cb62	0.026220027
33	0x3d5cb29b	0.05388127
34	0x3da43277	0.08017438
35	0xbd3df265	-0.046373744
36	0x3d8bf244	0.06833318
37	0xbc19ecf0	-0.009394869
38	0xbd135913	-0.03597362
39	0x3d9ff2d3	0.07809987
40	0x3db4c1ef	0.088260524
41	0xbd8fdafa	-0.07024188
42	0x3d04e64a	0.032446183
43	0xbba23166	-0.0049497364
44	0xbd6a9467	-0.057270434
45	0x3d2b3dbc	0.04180692
46	0x3cdbbce8	0.026823476
47	0x3da787c3	0.08180191
48	0xbd90cdf8	-0.070705354
49	0xbc441057	-0.011966786
50	0xbd0ff950	-0.035149872
51	0xbcccfeca	-0.025023837
52	0x3cc0532e	0.023477163
53	0x3c2cb18d	0.010540378
54	0x3d9df1c0	0.07712126
55	0xbd4d65be	-0.050145857
56	0x3dacbb22	0.0843413
57	0xbd5124c4	-0.051060453
58	0xbd2c558a	-0.042073764
59	0xbd1dfccb	-0.03857116
60	0xbd95e4dd	-0.07319043
61	0x3c42a5c5	0.011880343
62	0x3d98b8a3	0.07457092
63	0xbca37cbe	-0.019956943
64	0x3caa26f8	0.020770535
65	0x3da6ae67	0.08138733
66	0x3a78c7b1	0.00094902056
67	0x3b5ee976	0.0034013665
68	0xbc87f5a1	-0.016596617
69	0x3d27a93d	0.040932883
70	0x3d237a59	0.0399116
71	0xbd5438f5	-0.05181213
72	0xbda72128	-0.08160621
73	0x3d6ceabc	0.057841048
74	0x3ccd11e8	0.025032952
75	0xbd2ad053	-0.04170258
76	0xbd85b339	-0.06528325
77	0xbca7ad2e	-0.02046832
78	0x3aeb853a	0.0017968782
79	0x3d5875ce	0.052846722
80	0x3d870f2e	0.06594692
81	0x3db43e23	0.08800914
82	0xbd9cebbf	-0.076621525
83	0xbd50334a	-0.050830163
84	0x3da2e67a	0.07954116
85	0x3a7e0a06	0.00096908247
86	0xbca6af16	-0.02034716
87	0xbda696aa	-0.08134206
88	0x3b401681	0.0029310288
89	0xbd3402fa	-0.04394815
90	0x3cf803f5	0.030275324
91	0xbdaa8107	-0.08325391
92	0xbda63213	-0.0811502
93	0xbd106845	-0.03525569
94	0x3cb71e6b	0.022353372
95	0xbc73d500	-0.014882326
96	0x3cf07068	0.029350474
97	0x3d4151f9	0.047197316
98	0xbd6e766d	-0.05821841
99	0xbd3e683d	-0.046486128
100	0xbd8c7297	-0.06857794
101	0x3d061def	0.03274339
102	0xbda8b952	-0.08238472
103	0xbc3ea5ec	-0.011636239
104	0x3d7938d4	0.06084521
105	0x3d0b3549	0.033986364
106	0x3d986c4d	0.07442532
107	0xbd9b66d1	-0.0758797
108	0x3cd8e743	0.026477462
109	0x3cafc59a	0.021456528
110	0xbd9587ce	-0.07301293
111	0xbd489d6b	-0.04897825
112	0x3d193bc9	0.03741053
113	0x3d9c75c1	0.07639647
114	0xbd9dd46a	-0.077065304
115	0x3d7b6e8f	0.061384734
116	0xbd74f9f1	-0.059808675
117	0x3bfeef7b	0.007780013
118	0x3d9b8764	0.07594183
119	0xbda72631	-0.08161581
120	0x3db26df4	0.08712378
121	0x3cefd653	0.029277002
122	0xbb627b93	-0.003455852
123	0x3da46bdd	0.08028386
124	0xbd0d175e	-0.034446113
125	0xbd987888	-0.074448645
126	0xbca217d5	-0.019786755
127	0xbd8876b3	-0.06663265
128	0xbb8dd50c	-0.0043283757
129	0x3da1f79d	0.079085566
130	0x3d822720	0.06355119
131	0xbd0bd4e8	-0.03413859
132	0x3d9d1d7b	0.076716386
133	0x3d23e7ea	0.040016092
134	0xbd1888ca	-0.037239827
135	0x3db0f871	0.086411364
136	0xbd885500	-0.066568375
137	0xbd168de7	-0.036756422
138	0xbdb38c5f	-0.08767008
139	0x3da6a3c9	0.08136708
140	0x3cca3d0e	0.024687316
141	0x3da00463	0.07813337
142	0xbcf8dd81	-0.030379059
143	0xbd143b07	-0.036189105
144	0xbda1aa49	-0.078938074
145	0xbd960603	-0.073253654
146	0xbda9da6a	-0.08293612
147	0xbbceb6a2	-0.0063083926
148	0x3da4737b	0.08029839
149	0xba714d8e	-0.0009204977
150	0xbce89735	-0.028392414
151	0xbd58e60e	-0.052953772
152	0x3dad3a81	0.08458424
153	0xbd88cdf7	-0.0667991
154	0x3d5d4850	0.05402404
155	0xbdaf2bb6	-0.08553259
156	0x3abb86e5	0.001430717
157	0x3d08ae1e	0.033369176
158	0x3c6ce158	0.014458023
159	0x3dabd33c	0.08389899
160	0x3d15b9bd	0.036554087
161	0xbc9b85b7	-0.018984659
162	0xbb70566c	-0.0036672605
163	0x3b1ed8d4	0.0024238126
164	0xbd8255de	-0.06364034
165	0xbcd47274	-0.025933482
166	0xbc9de705	-0.019275198
167	0xbd4b84a7	-0.049687054
168	0xbdab4e5a	-0.08364554
169	0xbdadf018	-0.0849306
170	0x3d2da5fb	0.04239462
171	0x3d024563	0.031804454
172	0xbd80a848	-0.06282097
173	0x3c4ced45	0.012507741
174	0x39fd3cf6	0.0004830134
175	0x3da97700	0.082746506
176	0xbd9a5b90	-0.075369954
177	0x3b04ac48	0.002024429
178	0x3c86b15b	0.016441992
179	0xbd6397ff	-0.055564877
180	0xbd4aceee	-0.04951375
181	0x3b8ee724	0.00436105
182	0x3c5438f5	0.012953033
183	0xbda5f6b6	-0.08103697
184	0xbd88ca8c	-0.06679258
185	0x3da1eb13	0.07906165
186	0xbcba5cac	-0.022749268
187	0xbdb3f19f	-0.0878632
188	0x3d34a59f	0.04410326
189	0x3b5d960d	0.003381136
190	0xbc469aec	-0.012121897
191	0x3d954b31	0.07289732
192	0xbcf7535b	-0.030191114
193	0x3c0a9e27	0.008460558
194	0x3cadafc8	0.021201983
195	0xbd7caa92	-0.061686106
196	0x3d50b398	0.050952524
197	0x3d98c865	0.07460097
198	0xbd162bdc	-0.03666292
199	0x3d7a7312	0.061144896
200	0x3db2adf0	0.08724582
201	0xbc6332e4	-0.013867114
202	0x3d5f8e57	0.054579105
203	0x3d74ef64	0.059798613
204	0x3c4ea999	0.012613677
205	0xba8dc441	-0.0010815935
206	0x3d4a2f55	0.049361546
207	0xbdac33d5	-0.08408324
208	0x3d4e3f47	0.050353315
209	0x3da524b0	0.08063638
210	0xbcecf766	-0.028926563
211	0xb894ab51	-7.0891e-05
212	0xbcc4c0ce	-0.024017718
213	0x398e224d	0.00027109907
214	0xbd8f4f84	-0.06997588
215	0xbd2ca9aa	-0.04215399
216	0xbd4b5a9a	-0.04964695
217	0x3ca0f79f	0.019649325
218	0xbcecf49d	-0.028925234
219	0xbc162ff5	-0.009166707
220	0x3da71da8	0.08159953
221	0x3da21e76	0.07915966
222	0x3ca2f4ef	0.019892184
223	0x3d36a36a	0.044589438
224	0x3c42bb78	0.011885516
225	0x3c1c1faa	0.009529034
226	0xbd57db91	-0.05269963
227	0xbc2b2ce9	-0.010447719
228	0x3c6bc55a	0.014390314
229	0xbd1053da	-0.035236217
230	0xbd8452a7	-0.06461077
231	0x3d04f82d	0.03246324
232	0x3d3e38b8	0.04644081
233	0x3a56040c	0.0008164055
234	0xbdb459bb	-0.08806177
235	0xbcc693ce	-0.0242404
236	0x3cfe7636	0.031062227
237	0x3d9f0b4f	0.07765829
238	0xbd730f79	-0.059340928
239	0xbd225910	-0.039635718
240	0xbc07a4dd	-0.008279053
241	0x3c2734b5	0.010205437
242	0x3d96fb61	0.073721655
243	0xbd94d99c	-0.07268068
244	0x3d5f13ee	0.054462366
245	0x3d67448f	0.056461867
246	0xbcfce2b2	-0.030869815
247	0xbd2b56d7	-0.041830864
248	0x3d3afa88	0.04564908
249	0xbcdf16ac	-0.02723249
250	0x3d46296b	0.048379343
251	0x3d9d7372	0.07688035
252	0x3c8f8484	0.017519243
253	0x3cb8d944	0.022564538
254	0xbca71cde	-0.020399507
255	0xbda6da99	-0.08147163

fc2.bias f4 [128]
0	0x3c9652b8	0.01834999
1	0xbd190d38	-0.037366122
2	0xbd9d74ff	-0.07688331
3	0xbc815a73	-0.0157902
4	0xbd8ef216	-0.06979768
5	0x3cf0b6e0	0.029384077
6	0x39765970	0.00023493706
7	0x3da14e01	0.07876206
8	0xbb2549fa	-0.0025221095
9	0xbcd4cbf3	-0.025976157
10	0xbd728698	-0.05921039
11	0xbd930cf6	-0.071802065
12	0x3d3e2eb0	0.046431243
13	0xbd2f51bc	-0.042802557
14	0x3d2d4839	0.042305205
15	0x3d91e6a8	0.07124072
16	0xbc5a295f	-0.013315528
17	0x3d6255a2	0.055257447
18	0x3c696691	0.014245645
19	0x3db12047	0.086487345
20	0x3d006d1b	0.03135405
21	0x3cb78a8f	0.022404937
22	0xbc82aa5f	-0.01595038
23	0x3d27561c	0.040853605
24	0xbc6c6a81	-0.014429689
25	0x3d553738	0.052054614
26	0x3dad1881	0.084519394
27	0xbd6d1c4d	-0.057888318
28	0xbd8227e9	-0.063552685
29	0xbc9e201e	-0.019302424
30	0x3b9670bf	0.004591077
31	0x3da1d4bf	0.07901906
32	0xbd685501	-0.05672169
33	0xbd834d92	-0.0641128
34	0x3d0cff9d	0.03442346
35	0xbcf8b3f6	-0.03035925
36	0x3d5eab0f	0.054362353
37	0xbda142be	-0.07874058
38	0x3d86c88c	0.0658122
39	0xbccde341	-0.025132777
40	0xbd30f27a	-0.043199994
41	0xbcf03f4f	-0.029327063
42	0x3d1fe0da	0.039032795
43	0x3c815f99	0.015792655
44	0xbd0ce26c	-0.03439562
45	0x3d13bedb	0.036070686
46	0x3ceedc46	0.029157769
47	0xbbb6971e	-0.005572214
48	0xbd8d3c78	-0.06896299
49	0xbda2be20	-0.0794642
50	0x3d99a980	0.07503033
51	0xbd80b3b2	-0.06284274
52	0x3d9773b0	0.073951125
53	0xbd91c8cd	-0.07118378
54	0x3be80076	0.007080133
55	0x3d834177	0.06408971
56	0x3d84379c	0.06455919
57	0xbdb30cad	-0.08742652
58	0x3bddef80	0.0067729354
59	0x3d86d161	0.065829046
60	0xbd5a2972	-0.05326218
61	0x3d7e49e0	0.06208217
62	0xbda5fe2c	-0.0810512
63	0x3d3627c8	0.044471532
64	0xbd87ca16	-0.06630342
65	0x3d952d98	0.07284087
66	0xbcea6c16	-0.028615993
67	0xbd0a6b0e	-0.0337935
68	0x3d683970	0.0566954
69	0x3d9b084c	0.07569942
70	0x3ca814f3	0.020517802
71	0xbdaa553e	-0.0831704
72	0xbd8cb85c	-0.06871101
73	0xbbea266a	-0.0071456926
74	0xbc8088cb	-0.015690228
75	0x3d39955b	0.045308452
76	0x3d1029a9	0.03519598
77	0xbd9fab84	-0.07796386
78	0xbd821b33	-0.06352844
79	0x3da6c991	0.081439145
80	0xbb518486	-0.003196986
81	0x3cec87b8	0.02887331
82	0xbd880613	-0.066417836
83	0xbc63ff3f	-0.013915836
84	0x3d3ab230	0.04558009
85	0x3d98f30c	0.074682325
86	0xbd981484	-0.07425788
87	0x3db23b8a	0.087027624
88	0xbc9b01f3	-0.018921828
89	0xbd73feaf	-0.059569057
90	0x3d9d80de	0.07690595
91	0xbd7a69ea	-0.061136164
92	0xbd952c86	-0.07283883
93	0x3dafd6a6	0.08585863
94	0x3d0cadfc	0.034345612
95	0x3d7e22ce	0.06204491
96	0x3c785327	0.015156544
97	0x3bb2fa93	0.0054619997
98	0x3cfe0f76	0.031013232
99	0x3d117f5e	0.035521857
100	0x3da3feff	0.08007621
101	0xbd8013c2	-0.062537685
102	0xbdb4485f	-0.08802866
103	0x3d909ba1	0.07060934
104	0xbb897efb	-0.0041960455
105	0xbdb30c38	-0.08742565
106	0xbd725fec	-0.05917351
107	0xbd8b6588	-0.06806475
108	0x3d5a9ed6	0.053374134
109	0xbd21b06b	-0.039474886
110	0xbd8f614e	-0.07000981
111	0x3d6d9299	0.058001135
112	0xbd121f0b	-0.035674136
113	0xbc732170	-0.014839515
114	0x3d6b62ef	0.057467397
115	0xbd8a522e	-0.06753956
116	0x3d8bf57e	0.06833933
117	0xbca983ea	-0.020692784
118	0x3d97cf58	0.074125946
119	0x3d47c75d	0.048774112
120	0xbc8bc00b	-0.017059347
121	0x3c7d491e	0.015459327
122	0x3d0a16a2	0.03371299
123	0xbd04a2d9	-0.032381866
124	0x3d7d1128	0.06178394
125	0xbd1ef10e	-0.038804106
126	0x3d0b8005	0.034057636
127	0x3a54e0b8	0.0008120644

fc3.weight f4 [5, 128]
0	0x3aaaa295	0.0013018424
1	0x3d624fff	0.05525207
2	0xbd7725e4	-0.06033887
3	0xbb7dbee5	-0.0038718518
4	0x3d3cb8d9	0.046074722
5	0xbd7fe709	-0.06247619
6	0x3d31bb73	0.043391656
7	0x3d81439c	0.063117236
8	0x3d796edb	0.060896736
9	0x3c0e430c	0.008682977
10	0xbd904cdf	-0.07045912
11	0x3d825e58	0.06365651
12	0xbd8bd2e1	-0.06827331
13	0x3c404433	0.01173501
14	0xbce3fe2f	-0.027831165
15	0xbc1ff8d7	-0.009763918
16	0x3ba3689d	0.004986836
17	0x3d12ae30	0.03581065
18	0x3da216bd	0.07914493
19	0x3be7dc4f	0.0070758234
20	0xbdb3ab2e	-0.08772884
21	0x3c4d35d6	0.0125250425
22	0xbb2eb974	-0.0026660832
23	0x3d2c70d5	0.042099793
24	0x3da7e8c0	0.081986904
25	0xbda61e51	-0.08111251
26	0xbca30d98	-0.019903943
27	0xbc1713c7	-0.009221024
28	0x3daea6e1	0.085279234
29	0x3d4166ee	0.047217302
30	0xbd724e94	-0.05915697
31	0xbd8805e7	-0.06641751
32	0x3d8af5b8	0.067851484
33	0x3d7b8935	0.061410148
34	0xbd0d2128	-0.03445545
35	0x3d6be26f	0.05758899
36	0xbd303723	-0.043021332
37	0x3b6b0f51	0.0035867284
38	0xbd61e17d	-0.055146683
39	0xbd2aaa95	-0.041666586
40	0x3d473126	0.048630856
41	0x3d4c8e46	0.04994037
42	0x3d99f4bd	0.07517383
43	0x3c871b55	0.016492525
44	0xbdada7aa	-0.08479245
45	0x3cfde30b	0.030992052
46	0x3c999e02	0.018752102
47	0xbd97fac1	-0.074208744
48	0xbd6d946b	-0.05800287
49	0xbd18b162	-0.03727854
50	0x3cd1b77b	0.025600186
51	0xbdb0913e	-0.08621453
52	0xbd152786	-0.036414646
53	0xbbf3592b	-0.007426401
54	0x3c15a487	0.009133465
55	0x3d2970d6	0.041367374
56	0x3d7f7c24	0.06237425
57	0x3d8f542b	0.06998476
58	0x3d78685b	0.060646396
59	0xbd9e1484	-0.07718757
60	0xbd6f13f2	-0.05836863
61	0xbd0f70d7	-0.03501972
62	0x3ab69e5d	0.0013932694
63	0x3d970a21	0.07374979
64	0x3c51579f	0.012777238
65	0x3d103f7b	0.03521679
66	0x3d3be142	0.04586912
67	0xbd1348fd	-0.03595828
68	0xbb11d496	-0.0022251955
69	0x3c9fa320	0.019486964
70	0x3d0579fc	0.032587036
71	0xbd418230	-0.047243297
72	0x3d3e129a	0.04640446
73	0x3daf65db	0.08564349
74	0x3d9ff75b	0.07810851
75	0xbc9eba82	-0.019376043
76	0x3d4f943f	0.050678488
77	0x3cdb80bd	0.026794786
78	0xbd80f271	-0.06296242
79	0x3d646ef8	0.05576989
80	0x3da2ec32	0.07955207
81	0x3d8bf8b8	0.06834549
82	0xbc14f173	-0.009090769
83	0xbd1721d8	-0.03689751
84	0x3cba5462	0.022745315
85	0xbd7ff5b5	-0.062490184
86	0xbd6eed39	-0.058331702
87	0x3d4646be	0.04840731
88	0x3c6dab39	0.014506155
89	0x3c63f870	0.013914213
90	0x3d258e7d	0.04041909
91	0xbd9fd3dc	-0.07804081
92	0xbd930d53	-0.07180276
93	0x3c57acf9	0.0131637985
94	0xbdaf700d	-0.08566294
95	0x3d8f89ea	0.07008727
96	0xbdac9b09	-0.08428008
97	0x3d700ef3	0.058608007
98	0xbd758886	-0.059944652
99	0xbc659016	-0.014011404
100	0x3d12b975	0.035821397
101	0x3d22865c	0.039678916
102	0xbc6ec0ce	-0.014572335
103	0xbd118bfa	-0.035533883
104	0x3da2da78	0.07951826
105	0xbd4db5db	-0.05022226
106	0xbd10ada2	-0.03532184
107	0xbd93f71e	-0.07224868
108	0x3b825190	0.003977008
109	0xbd789beb	-0.06069557
110	0xbdae75f1	-0.08518589
111	0x3d600a07	0.054697063
112	0x3d8f8ca0	0.07009244
113	0xbd446523	-0.047948014
114	0x3c4edb01	0.012625457
115	0x3d95f936	0.07322924
116	0x3d570dc6	0.05250337
117	0x3d38017c	0.04492329
118	0xbcf0c8c6	-0.029392611
119	0x3d8517aa	0.06498654
120	0xbd78fa35	-0.06078549
121	0x3d52d384	0.05147125
122	0xbda1641f	-0.07880425
123	0xbd90d4a4	-0.07071808
124	0xbd8bd2b9	-0.068273015
125	0xbdac24ba	-0.084054425
126	0xbd7e7c88	-0.06213048
127	0x3d4a18c8	0.04934004
128	0xbd95d3f8	-0.073158205
129	0xbdac5d4c	-0.084162325
130	0xbd99ec58	-0.07515782
131	0x3da18880	0.078873634
132	0xbd40f1e5	-0.04710569
133	0xbc540841	-0.012941421
134	0x3d3dc650	0.046331704
135	0x3cba78b1	0.022762628
136	0x3cd3fa67	0.025876237
137	0xbd17c157	-0.037049618
138	0x3bda14d2	0.006655314
139	0x3ca0f84e	0.01964965
140	0xbd8a0e10	-0.067409635
141	0xbd35b7fb	-0.04436491
142	0xbdabac78	-0.08382505
143	0x3d6c67c7	0.057716157
144	0x3d379697	0.044821348
145	0x3d39b4ff	0.045338627
146	0xbcebb47e	-0.028772589
147	0xbd940c55	-0.07228915
148	0xbaaf9941	-0.0013397114
149	0x3da55e4d	0.08074627
150	0x3cac5d46	0.02104057
151	0x3d9b262c	0.0757564
152	0xbd1b1362	-0.03786028
153	0xbd70035c	-0.058596954
154	0xba558903	-0.00081457215
155	0x3d36467f	0.044500824
156	0x3d1f72e6	0.038927935
157	0x3c40e144	0.0117724575
158	0x3d8bc820	0.0682528
159	0x3db1179c	0.08647081
160	0xbdac804f	-0.084229104
161	0xbda961d6	-0.08270614
162	0xbd8bb610	-0.06821835
163	0xbd25ee06	-0.0405102
164	0x3da687af	0.08131348
165	0xbabbae7e	-0.001431897
166	0x3d396be4	0.04526891
167	0xbcb07338	-0.021539316
168	0xbd70073a	-0.05860064
169	0x3da4c2b4	0.08044949
170	0x3da21ffc	0.07916257
171	0x3da74c4b	0.081688486
172	0xbd69e803	-0.05710603
173	0xbd8c1a87	-0.06840997
174	0xbcaf4603	-0.021395689
175	0x3cc4bd1e	0.02401596
176	0x3db18604	0.086681396
177	0x3d4d7530	0.050160587
178	0xbab756eb	-0.0013987696
179	0xbd7aa7a7	-0.061195042
180	0x3d528b15	0.05140217
181	0x3da1844e	0.07886563
182	0xbd26247f	-0.04056215
183	0x3c9a1e9d	0.018813426
184	0x3d1a84bf	0.037724253
185	0x3cd13b1e	0.025540885
186	0x3d73d45c	0.059528694
187	0x3bb21c5e	0.0054355105
188	0xbd58fbde	-0.052974574
189	0x3b145d2e	0.0022638547
190	0xbdaf5704	-0.08561519
191	0xbd0156a1	-0.031576756
192	0xbd8cd667	-0.068768315
193	0xbdacf718	-0.08445567
194	0x3d8b7eb3	0.06811275
195	0x3cbb804f	0.02288833
196	0x3d755761	0.059897784
197	0x3bba856b	0.005692174
198	0x3d10a479	0.035313103
199	0xbcdc8f01	-0.026923658
200	0x3d77cbc1	0.06049705
201	0xbd53c31d	-0.051699746
202	0xbccac565	-0.024752328
203	0x3d86390c	0.065538496
204	0x3cf32d1b	0.029684594
205	0x3b18384d	0.0023226917
206	0xbd066c34	-0.032818034
207	0x3d30553b	0.043050032
208	0xbd849132	-0.06473006
209	0xbd892c9d	-0.066979624
210	0x3d94dd9a	0.0726883
211	0xbd5f1509	-0.05446342
212	0xbbf9124b	-0.0076010576
213	0xbd0f5162	-0.034989722
214	0xbda35487	-0.07975107
215	0x3d29f40c	0.041492507
216	0xbcad86d0	-0.021182448
217	0x3db26123	0.087099336
218	0xbd412a02	-0.047159202
219	0xbb9ba81e	-0.0047502657
220	0x3cad93a6	0.021188568
221	0xbd75afdb	-0.059982162
222	0x3d66b452	0.05632431
223	0xbcb26e42	-0.02178109
224	0x3db21485	0.0869532
225	0x3d7fb1db	0.062425476
226	0xbcfe43f6	-0.031038266
227	0xbcc0527f	-0.023476837
228	0xbcd3a866	-0.025837135
229	0xbd639b06	-0.055567764
230	0x3d75f7de	0.060050838
231	0xbd63e52b	-0.055638473
232	0x3d901ffc	0.070373505
233	0xbda8700a	-0.08224495
234	0x3d78c710	0.060736716
235	0x3d977007	0.073944144
236	0xbd2d24f2	-0.042271562
237	0x3c9c6030	0.019088835
238	0x3c3bdd8f	0.011466398
239	0xbd5f338d	-0.054492522
240	0xbd9742ea	-0.0738581
241	0x3d6ca6aa	0.05777613
242	0x3d72c581	0.059270386
243	0x3d72113c	0.059098467
244	0x3da468cf	0.08027803
245	0xbd9f0e10	-0.07766354
246	0x3d5d6a7c	0.05405663
247	0x3cb9925f	0.022652803
248	0xbcce7534	-0.025202371
249	0xbd878632	-0.066173926
250	0x3b4c0f75	0.0031137143
251	0x3c3627f8	0.011117928
252	0x3d356b04	0.04429151
253	0xbc164fb1	-0.009174273
254	0x3ca2c239	0.019868003
255	0xbd676746	-0.056494974

fc3.bias f4 [5]
0	0xbccfce46	-0.025366914
1	0xbd90dc0c	-0.070732206
2	0x3c82bae6	0.01595826
3	0xbccfc0cb	-0.025360486
4	0x3cda2274	0.026627757
