dynamics/src/drl/outputs/RobotOptEnv/20220720-112404/models/dqn_checkpoint.pth (torch, 75015 bytes, 6 tensors)

fc1.weight f4 [128, 7]
00000000: 9253 ffbd 99c4 873d cb1b 5bbe c118 babe
00000010: f5ab 863d fc1a 9a3c 3077 b7bc c558 12be
00000020: b163 b63e adb7 a8be baad a33e 3df2 9a3e
00000030: 9952 483e 5e2d b3bd 6734 82bc a057 9b3c
00000040: 60ea 60be c3f8 e03d 7793 dbbd f747 b63d
00000050: 6777 d53d c64a 97bc f995 90be 5ea7 2bbe
00000060: 3fcb 8ebe 9e2e b23e 1894 84be 6d15 383e
00000070: d92a 24be 9505 883e 6264 0d3e 02f5 90be
00000080: cf7f 163c dde5 62be 25b6 67be bb52 b13e
00000090: 3e7c cdbd 3678 8bbe 0f30 8a3e f337 a7be
000000a0: 1d78 a7be 3470 923e 46e3 bc3e b7fd 873e
000000b0: 0c03 29be e38d 053e da6d 80bd 6498 68be
000000c0: a25a f4b8 a7c9 183c 44aa 9a3e 3d0c 90be
000000d0: 2c2c 863e d0ba a1be 6bbe bcbe ee2b f83d
000000e0: bb6e 15bc ff2d 8fbe 42e8 443e 5c25 323e
000000f0: 430d 8f3d 1f77 9a3e b7a6 203e ed85 863d
00000100: f0e1 b93e 286b 97be 5b2a 373e d537 56be
00000110: b16f 90be fd50 2c3e 2504 253d ff5b 85bd
00000120: 4e60 86be f68e a63e 6920 3e3e 4da5 b3be
00000130: 23b4 fb3d a5a0 323d a8fc 19be 8544 ec3b
00000140: 0cc1 763e f228 913e 4930 493e 616e cb3d
00000150: 238e a7be cb93 973d 725f a13d 8d8e 50bd
00000160: c5b5 7bbe 2378 863e 47fc 193e 2e4f 9e3e
00000170: cc14 3a3e e6cb 3fbd 24e9 9cbd 342d d2bd
00000180: ffe8 7bbe c5bc adbe 172e 9a3e cc31 c13e
00000190: e5a5 fe3d 697c 8cbe 1be2 b73d 163d b73e
000001a0: d24a c03e 22a7 6ebe e259 ac3e 0805 583e
000001b0: be13 a5be 711c 503e a359 b33e 3088 5e3e
000001c0: 0ed0 8e3e 9e9b 99be e53b 27bd 44af 2d3e
000001d0: d0c2 0b3e 78e4 543e 3609 48be d62e 9f3e
000001e0: 62dd ed3d dc65 afbe b95d 50be 7352 023d
000001f0: 3ebb 983d 587b 99be c8c9 083e c498 2fbe
00000200: 0bb1 92be d513 53bd 92e4 983e 2323 b63e
00000210: 7114 9ebe 3ca2 9fbe 7b9f 9b3e 3ffd 14bd
00000220: 357b 793e 6a59 5bbe e1a4 6c3e b59e bbbe
00000230: ec3c 44be 6695 983e 72e5 84be f9e2 9ebe
00000240: 0a1b 94be fced 2f3e a600 503e baa2 99be
00000250: 8144 083e 40d5 1d3d e2ee 0dbe 5cb2 9b3e
00000260: cdff 84be b2db 973e baf7 09be 9e28 8d3c
00000270: b4e4 3dbd c931 3dbe 5acc 8abe 0d1e 593e
00000280: ab7f 1b3e 1821 353e 86ea 203e c269 16be
00000290: f960 8abe 0bbd 9ebe 2091 b93d f580 65be
000002a0: 8f2e 2f3e 1c7c c0be 5028 5dbe 373d ae3d
000002b0: e702 873e 79d4 8a3e 817f ebbc ae43 5bbe
000002c0: 6707 2cbe deec 903e b1d9 9fbd 5097 af3b
000002d0: 2ca5 6fbe 1a07 7abe cb18 5dbd de28 be3e
000002e0: 6bee b13e 28b7 373e 42f4 403e a139 d6bd
000002f0: 4a4c cc3d c5a5 81be 1da8 643b f803 6ebe
00000300: dbfc 18be 8290 8bbc d54c 983d c9d1 683e
00000310: 5195 953e 00eb 52be bff2 913e 453b acbe
00000320: 6189 37be af42 8dbe 4f55 153e 7876 683e
00000330: 932e 9f3e 81fd a3be c114 5abd 7e2f c13d
00000340: 6c3b 303e de7f b03e e198 753c 39ac e63d
00000350: 8590 88be bfbe c0be d5a7 a3be a6ed abbe
00000360: ed5e 0a3e 6359 3fbe a37a 253e 2860 d1bd
00000370: 304b a33e dc09 a43d 9da1 9b3d 05c6 60bd
00000380: 3a0c 563e 691d 483e 36e7 643e 07f3 143e
00000390: f54e 8e3c 4870 54be 0a4e db3d e39b ab3e
000003a0: f1df a63e 1eef 063e bce0 59bd 129e d23d
000003b0: 894e e63d 8238 97be 92dc a2be dddc 55be
000003c0: 9b18 633e fb79 7fbd f6f1 a33e 8700 943d
000003d0: 271b 093d 8e8f 47be 3c7a 303d 2046 79be
000003e0: c506 6c3e b016 b93d 44c2 923e f619 4fbe
000003f0: 374d b2be 1c6c c1be 9bbe aa3e aaf5 b83e
-0.12467112 0.06629295 -0.21397321 -0.3634701 0.06575767 0.018811695 -0.0223957 -0.14291675
0.35622934 -0.32952634 0.3196848 0.30262938 0.19562759 -0.087488875 -0.015894128 0.018962681
-0.21964407 0.109849475 -0.10721486 0.08900445 0.10423165 -0.018468272 -0.2823942 -0.16763064
-0.2788944 0.3480119 -0.25894237 0.17976923 -0.1603197 0.2656676 0.13807824 -0.28311926
0.009185745 -0.22157998 -0.22628076 0.3463343 -0.10033463 -0.2724015 0.2698979 -0.32659873
-0.32708827 0.2860123 0.36892146 0.26560757 -0.16505069 0.13042407 -0.062709525 -0.22714382
-0.00011651708 0.009325421 0.30208027 -0.28134337 0.26205575 -0.3158784 -0.36864027 0.12117754
-0.0091206385 -0.2796478 0.19229224 0.17397064 0.06984951 0.30169007 0.15688597 0.06568513
0.3630519 -0.2957394 0.17887251 -0.20919736 -0.28210214 0.1682777 0.040287156 -0.065116875
-0.2624535 0.32530946 0.18567051 -0.35087052 0.12290218 0.043610234 -0.15037787 0.0072103166
0.24097079 0.2835155 0.19647326 0.099331625 -0.3272563 0.07401236 0.07879533 -0.050917197
-0.24581058 0.26263532 0.15037642 0.30919784 0.18171996 -0.046825312 -0.076616555 -0.10262528
-0.246006 -0.33933082 0.3011329 0.37733305 0.124339856 -0.27438667 0.08978673 0.35788792
0.37557083 -0.23305944 0.33662325 0.2109567 -0.32241625 0.2032335 0.35029325 0.21731639
0.27893108 -0.3000154 -0.040828604 0.1696139 0.13648534 0.20790279 -0.19534764 0.3109042
0.11614491 -0.342574 -0.20348252 0.03181691 0.074575886 -0.29976916 0.13358223 -0.17148119
-0.28650698 -0.051532585 0.29861885 0.35573682 -0.3087497 -0.31178463 0.3039511 -0.036374327
0.24363406 -0.21420828 0.23109771 -0.3664452 -0.19163865 0.29801482 -0.25956303 -0.3103254
-0.2892688 0.17180628 0.20312747 -0.30006963 0.13307382 0.03853345 -0.13860658 0.30409515
-0.2597641 0.29659802 -0.13473406 0.017231282 -0.046360686 -0.18476023 -0.27109033 0.2120287
0.1518542 0.17688406 0.15714464 -0.14688781 -0.2702711 -0.31003603 0.090608835 -0.22412474
0.17107604 -0.37594688 -0.21597409 0.085077696 0.26369402 0.2711523 -0.028747322 -0.21412537
-0.16799699 0.28305715 -0.07805193 0.005358614 -0.23402852 -0.24416772 -0.053978723 0.37140554
0.3475221 0.17940962 0.18843177 -0.104602106 0.099754885 -0.25321785 0.0034890242 -0.23243701
-0.14940207 -0.01703668 0.074365295 0.22736277 0.29215482 -0.20597458 0.28505513 -0.3363897
-0.179235 -0.27589938 0.14583324 0.22701442 0.3109022 -0.32029346 -0.05324245 0.094328865
0.17210168 0.34472555 0.014990062 0.112633176 -0.2667276 -0.37645528 -0.31963983 -0.3357975
0.13512774 -0.18686442 0.16160063 -0.102234185 0.318933 0.08009693 0.07599185 -0.054876346
0.20903102 0.19542469 0.22353825 0.14545833 0.017371634 -0.20745957 0.10708244 0.3351737
0.3259273 0.13177153 -0.05319284 0.10284056 0.11245448 -0.295353 -0.31808907 -0.20885034
0.22177355 -0.06237219 0.3202054 0.07226663 0.03347316 -0.19488356 0.04308532 -0.24343157
0.23049457 0.090375304 0.28663838 -0.20224747 -0.34824535 -0.37777793 0.33348545 0.36124927

fc1.bias f4 [128]
00000000: dab0 c33d 903e 8ebd 4de1 9c3e 7906 863e
00000010: 1531 abbe 43f2 19bd be3c a73e a483 723d
00000020: cdad 81bd 280e 863d 8fc9 873d e80e 473e
00000030: 3496 a53d 631c bfbe b0b1 893e ac79 fa3d
00000040: 433f 5a3e af29 823e e0f5 b4bc bd4b a83e
00000050: cc14 2f3e afbe ba3e a976 8c3e d944 ba3c
00000060: 1d8e 2fbe 998f 123e 10c3 ad3d 8411 1fbc
00000070: f192 073e e0fe 313e d1cf c0be 8296 97bd
00000080: d905 f33d 64ba 8d3d adbd aabe 3355 fd3d
00000090: f922 b6bd 964f 94be 6655 9abe 2e2a 53be
000000a0: 5443 b4be 76f4 86be 6ba2 e53d 0b37 a5be
000000b0: 93c3 9abe 7668 553e 21d9 c7bd e0e2 8c3e
000000c0: 0433 9bbe 8dea b5be d6ed 943e 8a96 993e
000000d0: 128e 863e a078 18bd 9429 9bbe e4f5 92be
000000e0: a69e b2be 167e 333c bfba a23e 79b7 86be
000000f0: 007b a73e 155f bebe be7e 84bd f0bd a53d
00000100: 61ff 9ebe e31b cdbd 19f8 a83d 545c ad3e
00000110: 0458 00be 09e8 603d cad6 abbd a3cd 893e
00000120: 2b30 693e a8ed 58bd bd27 98be 522e 003e
00000130: 1c86 66be 461e d73c 459b 343e 4215 9fbe
00000140: 4cbb 8e3e 45a0 64be 269d b4bc a9c1 553e
00000150: b45b 30be f0f3 b0bd 0e71 89be cf30 7ebe
00000160: ef0d 803e 2cc4 28bc 62bc 903e 7b16 93be
00000170: f2fd bf3e 75b8 aa3e e080 433e ec7f aebe
00000180: 0c26 d43d adcf 86be 0cce 2f3e 1714 9cbe
00000190: d719 0d3e 2935 203e ede0 4bbe fd6b 853d
000001a0: 68f0 27be aba9 ac3e b6fa 81be 0516 6c3e
000001b0: b0a5 193e 3351 1abe 6771 e5bd 1898 16be
000001c0: b14c db3d eb25 7fbe dd24 42be 077c 18be
000001d0: a478 3dbe 388e b03c 258f f23d 2fb1 803e
000001e0: d58b 353c 6849 94bd 5eb1 84bc 822a 19bd
000001f0: b752 25be f5e9 813e a02d a83e 9852 8c3e
0.09555216 -0.069455266 0.3064064 0.26176813 -0.33435884 -0.037584554 0.3266353 0.059207574
-0.06331978 0.06545669 0.06630241 0.1943928 0.080852896 -0.37326345 0.26893377 0.12230238
0.21313195 0.25422427 -0.022089899 0.32870284 0.17097777 0.36473605 0.2743428 0.022737907
-0.17144056 0.1431259 0.08484471 -0.009708766 0.13239647 0.17382383 -0.3765855 -0.07401754
0.1186635 0.06920317 -0.33347836 0.12369766 -0.08893389 -0.2896697 -0.3014328 -0.20621559
-0.35207617 -0.26358384 0.112126194 -0.32268557 -0.30227336 0.2084063 -0.09758211 0.27516842
-0.3031236 -0.3553051 0.29087704 0.29997665 0.26280266 -0.037224412 -0.3030516 -0.28703225
-0.34886664 0.010955354 0.317831 -0.26311854 0.3271103 -0.37181917 -0.06469487 0.08092868
-0.31054214 -0.100150846 0.08250446 0.33859503 -0.12533575 0.054908786 -0.08390577 0.269147
0.22772281 -0.05296102 -0.29717818 0.1251767 -0.22512096 0.026259553 0.17637356 -0.31070906
0.2787727 -0.22326763 -0.02204759 0.20874657 -0.17222482 -0.086402774 -0.26844066 -0.24823307
0.2501063 -0.010300677 0.28268725 -0.2872809 0.37498432 0.33343855 0.1909213 -0.34081972
0.10358819 -0.2633032 0.17168444 -0.30484077 0.13779388 0.15645279 -0.19910021 0.06514738
-0.16400301 0.33723196 -0.2538659 0.23055275 0.15004611 -0.15070038 -0.112032704 -0.14706457
0.10707987 -0.24916808 -0.18959375 -0.14891063 -0.18503052 0.02155219 0.11843709 0.2513518
0.011080702 -0.07240564 -0.016197857 -0.037394054 -0.16144834 0.25373808 0.3284731 0.27406764

fc2.weight f4 [128, 128]
00000000: 6c2c 25bd 851e eb3b b125 0a3d 7b2f 643d
00000010: 8f99 8abc 759f 0eba bbcc a23d ba15 8a3c
00000020: 88ab 67bd e4cc 253d c898 87bd 0d0f 893d
00000030: d1c8 81bd 0c7e 23bd 0b99 ec3c 8c2a b73b
00000040: 547e a4bd a648 8c3d 334d 80bd f715 bd3c
00000050: 8694 8cbd 2d04 5d3d c20d ad3d 645e 88bd
00000060: 7e6d e7bc 18fc c8bc 6525 803d 8d8a 45bd
00000070: ab59 4abd a3ca 143d 982c 9bbc 0dbc 25bd
00000080: e318 123d 8dfc 883d 170a 693d 71a8 f9bc
00000090: 88b5 6d3d 94b0 5fbd 2b52 9e3c 887f 0dbc
000000a0: 1328 ccbc 4a37 bdbc 38d4 cabc 0aad a6bd
000000b0: 7990 8fbd e9c8 2c3d 5621 65bb 2a1f 103d
000000c0: fdae b93b 024b 483c e0e6 883d 8d3a 8b3d
000000d0: ca9b b43d f487 8cbd 4aaf 993c f5fd cb3a
000000e0: c89f 7f3d af06 353d 0854 a83d 69d1 683c
000000f0: 9e33 8abd 4ecd 023c 4d1b d03c b159 a6bd
00000100: b911 e33c a4d0 a53d c1de 69bd 2b80 77bd
00000110: 15f4 88bd 48c2 b13d cd59 18bc c16b 86bd
00000120: 8de5 c03c bd4b f6bc fc05 513d fc2e bcbc
00000130: 14d9 a5bc 6af7 58bd 68e3 9b3d 5664 58bd
00000140: e188 a33d 0b73 4bbd cb2f a53d 8da3 2fbc
00000150: 618a 3abd 41ee 86bc d811 37bd d4d6 b13c
00000160: 18aa f63c 0397 9e3d 216d 473d 0804 9c3d
00000170: affc c13c b397 2cbc d511 65bd 482c cabc
00000180: e296 efbc bc53 533d e149 a8bd 6637 633c
00000190: 0f59 03bd 703f fdbc c031 c8bc f2d9 e33c
000001a0: de5e 2ebd df32 8dbd 344e 763d f32b 2dbd
000001b0: c4b9 4bbc 86d7 1abb a573 50bd e8b1 41bc
000001c0: 6e60 c63c 70a6 af3d e0b9 a0bd d4e7 4f3d
000001d0: 4977 0a3d 00ef 01bd f16a 7cbd 075c b23c
000001e0: 83ed d43c eb4e acbd a164 74bd a7be e83c
000001f0: b217 b0bd 2336 ca3c 60b4 903d 00d2 153c
00000200: a6cd e93c 8189 8abd d8d6 5e3d 0cdb d73c
00000210: a250 8d3d 6604 c1bc 9b27 fbbc 1e5a b4bc
00000220: c9fd 94bd c1c7 3abd 34e3 a13d 400b 17bc
00000230: d72e e0bc 0b8c 113d 4c0a b43d b56e 933c
00000240: b253 963d 4204 b3bd 0d46 ac3c 9d8a 8b3d
00000250: 7bb4 263d d0b4 d4bc 26a2 883d 5ac7 9abd
00000260: 0a7c 66bd 17df 313d d624 d23c 9ed0 a33d
00000270: 81ea 89bc ea4e b3bd 64e9 19bd 9d9c 6ebc
00000280: 6e3d 6cb9 6f8c a13d 2447 a2bb cfcf 38bd
00000290: 4ecd 173c 1997 3cbd 2ebc 973d 3e3b a8bd
000002a0: e281 a23d cb23 f93c c0f4 e33c bae5 4dbc
000002b0: 043a 593d 335f 873d d4af 04bd 9d0c be3c
000002c0: ed39 2bbd ce94 7ebd 5d75 a4bd cb4d 96bd
000002d0: 3205 833d 1ec4 0c3d 1b3d d53c e7e9 9bbd
000002e0: cb5f a53d 2666 21bd d750 98bd ff6e 783d
000002f0: 00e4 9abd 9cde b0bd e88f 8c3d 7b18 2d3c
00000300: 3cc4 37bd bfc0 75bc e86b 733d b45f 8b3d
00000310: d433 9b3d 7ecf e33c 6a65 74bd 8946 f4bc
00000320: 2171 893d 1cf2 b1bd 6d36 653d 0892 99bd
00000330: 2ca4 41bd 576b 963d 3261 173d f76a aeba
00000340: 3b22 863c 99c1 c5bc fa07 b33d c974 56bd
00000350: 3c84 583d eec7 a43d 70e6 1e3d 29e1 24bd
00000360: 3bff 37bd 93df 813d 69c9 e0bc b4b7 6ebb
00000370: 01b8 193d 483f e03c adc4 11bd 0957 903c
00000380: 7baf c43b 561d 1d3d 3e50 b8bc ef8f 1bbd
00000390: cb46 473c 3666 48bd fce3 85bc f4e6 0cbd
000003a0: 0f13 1c3d 381a f6bc 8924 093d 56f8 013c
000003b0: 0b6d babc 2e43 8ebb e555 02bb a3df 8c3c
000003c0: 3544 9ebd 40e7 6b3c 906d 8d3d 2a94 98bd
000003d0: 3b2a 523d c85e 4b3d 1694 6bbd cedd 863d
000003e0: 13d8 553d 7c35 373d ae13 4e3d f1af b03b
000003f0: 9f5e a2bd 37ac 80bc 82a5 a33d c9c6 11bd
-0.040325567 0.007175269 0.03372735 0.055709343 -0.016918926 -0.0005440631 0.079492055 0.016856063
-0.05656007 0.040478602 -0.066209376 0.06692324 -0.06337131 -0.03991513 0.02888157 0.005589789
-0.08031908 0.06849794 -0.062647246 0.023081763 -0.06864266 0.05395906 0.0844989 -0.066586286
-0.028250452 -0.02453427 0.062571324 -0.048227835 -0.04940192 0.036326062 -0.018942162 -0.040462542
0.035668265 0.06688795 0.056894388 -0.030475827 0.05803445 -0.054611757 0.01932629 -0.008636363
-0.024921453 -0.023097653 -0.024759397 -0.08138473 -0.07009978 0.04218379 -0.0034962497 0.03518597
0.005666612 0.0122249145 0.06684661 0.06798277 0.08818777 -0.068618685 0.018760342 0.0015563356
0.06240824 0.044195827 0.08219153 0.0142100835 -0.067481264 0.007983519 0.025403643 -0.08122576
0.027718412 0.08096436 -0.0570972 -0.060424965 -0.0668718 0.08679634 -0.009298754 -0.06563521
0.023546958 -0.030065412 0.051031098 -0.022971623 -0.020245112 -0.052970327 0.07611734 -0.052830063
0.07985092 -0.04967026 0.080657564 -0.010720146 -0.045542125 -0.01647103 -0.04469475 0.021708883
0.030110404 0.07743647 0.048688058 0.076179564 0.02368006 -0.010534215 -0.05592521 -0.024679318
-0.029246751 0.051593527 -0.08217216 0.0138681885 -0.032067355 -0.030914038 -0.024437785 0.027813885
-0.04257094 -0.068944685 0.060133174 -0.04227824 -0.012434427 -0.0023626997 -0.050891537 -0.011822201
0.024215903 0.08576667 -0.07847953 0.050758198 0.033805165 -0.03172207 -0.061625425 0.021772398
0.02599216 -0.0841349 -0.05966628 0.028411223 -0.085982695 0.024684018 0.07065654 0.009144306
0.028540444 -0.06764508 0.05440411 0.026349567 0.06900145 -0.023561668 -0.030658534 -0.022015627
-0.07274968 -0.045600656 0.07904664 -0.009218991 -0.027366085 0.035533946 0.087910265 0.017997125
0.07340182 -0.087410465 0.021029497 0.06813548 0.040699463 -0.025965124 0.06671552 -0.075575545
-0.056270637 0.043425646 0.02565233 0.07998775 -0.016835453 -0.08755286 -0.037576094 -0.014563707
-0.00022529598 0.07888114 -0.0049523283 -0.045120057 0.009265257 -0.046042535 0.07408939 -0.082144246
0.079349294 0.030412575 0.027826667 -0.012566978 0.053033844 0.06609955 -0.032394245 0.023199374
-0.04180329 -0.06215363 -0.08030198 -0.073390566 0.06397475 0.03436672 0.026030114 -0.07612973
0.08074912 -0.039404057 -0.07437294 0.06065273 -0.07563019 -0.08636209 0.068633854 0.010564919
-0.044864878 -0.0149995675 0.05942908 0.06805363 0.07578245 0.0278089 -0.05966703 -0.02981879
0.06711031 -0.08688757 0.055960108 -0.074985564 -0.047275707 0.07344692 0.036957927 -0.0013307024
0.016373744 -0.024140166 0.08741756 -0.05235747 0.052860484 0.08045946 0.03879398 -0.040253792
-0.04492114 0.063414715 -0.02743979 -0.0036425414 0.037528995 0.027373925 -0.035587955 0.017619627
0.006002364 0.038358055 -0.0224992 -0.037979063 0.012162874 -0.0489256 -0.016344063 -0.03439994
0.038104113 -0.030041799 0.03348211 0.007932743 -0.022757074 -0.0043415045 -0.0019887623 0.017196482
-0.07727853 0.014398396 0.06905663 -0.07450135 0.051309805 0.049650937 -0.057514273 0.06585275
0.052208018 0.04472874 0.050311737 0.0053920676 -0.07928204 -0.015707118 0.079905525 -0.035589967

fc2.bias f4 [128]
00000000: ac2e 803d d7ea 8a3d 5f2d 9f3d 9d80 3c3d
00000010: 65d9 67bc 9d4b 253c e30f 0bbd 9db8 b23d
00000020: 9666 3bbd fcd0 943d d802 843c 5744 903c
00000030: ea7e b7bc 6a3b a9bd 3c41 9c3d feb4 b63c
00000040: babf 72bb 4e6b 13bc c863 4c3d 624c 47bd
00000050: 654e 32bb 5cf3 7e3d a956 e43b aa61 77bd
00000060: 9e7a f8bb 6636 91bd 78d6 0abd 10d8 4f3d
00000070: e6ab 493c fc69 8f3d 3553 bbbc c9b9 06bd
00000080: a622 bdbc 55eb b3bd ce56 aa3d eb04 ae3c
00000090: 8d71 8cbc 24a5 2b3d 8901 613c aa5e 0b3c
000000a0: 3141 e23c a986 83bd fa40 24bd 673d 083d
000000b0: 0ab5 3cbd 673d 303d 40e4 eeba ee41 2c3d
000000c0: 4731 bdbc 82d3 363d 194f 283d 50dc 0e3d
000000d0: f3dc 703c 4f24 993d 981e 63bd 9e26 7abd
000000e0: 8387 723a a19b a03d da68 2abd 507d 8d3d
000000f0: d298 25bd a97b 9abd b6ed 15bd 396a 173c
00000100: 9a3c dd3b 0c89 a0bc 9707 2f3d c842 5abd
00000110: ec4f aabd 7d8a 1dbd 2fdd 583d 6836 8b3d
00000120: ea6b bbbc 7fec aa3c 1607 3f3d 58fc 82bd
00000130: b2af 8f3a 4f13 bebc 5bac 2f3d 888b ffbc
00000140: d922 ca3c 2896 a8bd 0f61 6c3d e4c6 12bd
00000150: 8a49 b03d 9468 063d 9902 9abd 09bf 96bc
00000160: 0d4a 97bc 8cf4 d33c f7d0 2ebd 89be 8c3d
00000170: 99a8 053d da37 69bc 626b c3bc d66f 0abb
00000180: 0663 183d 5fac 3b3d 156c 88bd c20f 26bd
00000190: 975f 87bc 971a 963d 9001 6f3d 9138 aebd
000001a0: 0b1e 84bc 382c 763d d2df 613d 4b44 413d
000001b0: eeef 8bbd 8c82 a9bd 6211 96bd e997 60bd
000001c0: eebf 1d3c bfc8 babc 429a b13c 3762 9d3c
000001d0: ea74 70bd c674 93bd 73e6 2f3d 5d8a 6b3d
000001e0: a46e 39bd 6b9d 8c3d b757 a63d cd88 7d3d
000001f0: 839c b3bd 1631 85bc f870 553a ff74 c33b
0.06258902 0.067830734 0.07772326 0.046021093 -0.014150952 0.010088828 -0.033950698 0.087266184
-0.04575213 0.07266423 0.016114637 0.017610712 -0.022399385 -0.082632855 0.0762963 0.0223031
-0.0037040547 -0.008997751 0.049899846 -0.04865683 -0.0027207371 0.062243804 0.0069683385 -0.060395874
-0.0075829765 -0.07090454 -0.03389594 0.050743163 0.01230905 0.07002637 -0.022866825 -0.032892022
-0.02308781 -0.087851204 0.08317338 0.02124258 -0.017143989 0.041905537 0.013733276 0.008506456
0.027618976 -0.06422169 -0.04010103 0.033261683 -0.04607109 0.043027308 -0.0018225983 0.042055063
-0.023094786 0.044635303 0.04109106 0.034878075 0.014701116 0.074776284 -0.0554491 -0.061071984
0.000925176 0.07842184 -0.0416039 0.06908667 -0.040428944 -0.075431176 -0.036603652 0.009241634
0.006751609 -0.019596599 0.042731848 -0.053286344 -0.08316025 -0.03846215 0.052945312 0.067974865
-0.022878606 0.020864723 0.046637617 -0.06395787 0.0010962395 -0.023202566 0.04288898 -0.031194463
0.02467482 -0.08231765 0.05770975 -0.035834208 0.086077765 0.032814577 -0.07520027 -0.01840164
-0.018467927 0.025873445 -0.042679753 0.06872279 0.03263149 -0.014234507 -0.023854915 -0.0021123788
0.03720381 0.045818683 -0.0666124 -0.04054237 -0.016525073 0.0732929 0.0583511 -0.08506883
-0.016127607 0.060100764 0.055145092 0.04718427 -0.06832872 -0.08276853 -0.07327534 -0.054832373
0.009628279 -0.022800801 0.021680001 0.019211872 -0.058705248 -0.07200007 0.042944383 0.057505
-0.04527153 0.068659626 0.08122199 0.06189804 -0.087700866 -0.016258758 0.0008142139 0.0059648748

fc3.weight f4 [5, 128]
00000000: 9453 4dbc e78e 4c3d f3fc 5c3d da3b 2ebd
00000010: 0dd4 2b3b 5883 df3c cdeb 963d f1c1 8fbd
00000020: 4862 71bc 9812 eebc 41c6 31bd 3d4a bfbc
00000030: 8177 e7bc 3127 7ebd 0680 1fbd 8afb 163d
00000040: 9d5a 2e3d d0e2 46bd ec54 a93d 5f54 b83c
00000050: 28a0 2f3d 6dae 323c 8d7c 8a3d fb93 593d
00000060: 01bb 4b3d 2197 fb3c f328 a03d b473 883d
00000070: c04f 063d b67f ccba 3a99 87bd 293d 813d
00000080: c8b1 8ebd a94c 753d f446 263d 6809 9d3c
00000090: 91b6 3bbd e6cb 16bd 59b7 663c c748 b7bc
000000a0: 149a 293d 1df3 80bd f37d a43d e21d 773c
000000b0: 25cd 25bc a040 7abc 3aa7 833c ef36 4a3c
000000c0: 5955 89b8 68e6 373d 1f2c 9a3d bf01 63bc
000000d0: c897 a7bd aaeb 5b3d fc63 913d 98c4 733d
000000e0: 6880 46bd 1098 8ebd 66b5 853d ca2b 303d
000000f0: f53b 01bd 4e97 10bd 45db 5bbd 8ef9 803d
00000100: aa09 c4bc 6b08 0d3d 6e56 59bd a98e 95bd
00000110: 7320 9eb9 9f10 0e3d b6a7 5c3c bd26 a4bc
00000120: 1479 1abc c780 34bd c0ba 7d3d ed77 efbc
00000130: 1b6a 10bc f105 ad3d a159 c13c f7f9 063d
00000140: 8169 72bc c137 69bd 8192 8fbd a058 8e3d
00000150: 5033 823d 26aa 843d 6d3b ae3d 438a 00bd
00000160: 00fe b0bd c23d 68bd 56c8 9fbc 261c b13d
00000170: d0a6 acbd 1b75 99bd 9640 623d a411 7fbd
00000180: 3003 303d 1d91 b9bc fceb 89bc 490d 643d
00000190: c496 2b3d 838b 2abc 5923 6f3d 38a3 ae3d
000001a0: dd0f b4bd 3688 773c 91e6 cdba dcd7 a3bd
000001b0: 6cb7 4dbd bb18 4bbd f2bf 373d 72ce 94bd
000001c0: 8387 543d 87ce 31bd 8670 77bd c240 e13c
000001d0: e702 903d d2bb e0bc 7611 8ebd 9b12 a0bd
000001e0: 1d1b 463d e4bb 8bbd 544f 5fbc f99e 8e3c
000001f0: 3795 f5bb c07d 99bd 5da8 38bd 79b0 5aba
00000200: 3446 a4bc 08c2 86bd 29df 0f3c e75b e33c
00000210: 6e07 92bd 8d6d 253c 7c44 5cbd f975 983c
00000220: beb6 1e3d b0f9 a1bd b631 8a3d 0a61 5b3d
00000230: 262d 38bd b542 cbbc 8af5 adbc b3ab 713d
00000240: e805 793d c84f 313d d9d4 333c 8c9a 093d
00000250: b785 603d 900c 48bc cf12 323d 4d43 97bd
00000260: e38d 7a3d d924 913d edfb 983d 07ec c83c
00000270: ead7 da3c 3312 f6bb c136 d73c 088c a3bd
00000280: f09e 213d 12ef eb3c 4eeb aa3d ee76 a0bd
00000290: 515a 273c efb4 3d3d 9f74 23bd e886 c13c
000002a0: 43ad 0d3d a4a1 1e3d a6b9 243d d048 19bd
000002b0: 5786 52bd 53cc aa3d e86e 4ebc 25bf b0bd
000002c0: 5abc 9a3d 05f1 273c 666a 933d df08 b33c
000002d0: 7fa5 443d 4513 a0bd d0df 7cbd 43fe 153d
000002e0: 1b67 76bd d964 51bd c86e 1a3d 274c 71bd
000002f0: dc77 303d d63b 553d 8fd0 a43d 8d7f 2b3c
00000300: b517 853d 1b03 903d 4a37 b0bb ef74 8f3d
00000310: aa3e 18bd e34e 203b 9b70 183c 977d 853d
00000320: 5112 29bd 2f26 28bd 4c6c b5bc 341b 373d
00000330: ab75 783d 22e4 fcbb bd6c 983d a8f0 b13d
00000340: 1cc3 9bbd 7da9 85bd 8145 a93d 2328 943d
00000350: dffd 01bd 4f63 413d 58ea 5e3a 66ae 9a3d
00000360: 2a4d 63bd 73b0 973b b439 913d 4d61 12bb
00000370: a397 81bd aced 71bd 24ed 88bc 7a6c 863c
00000380: 7bec 793d 0047 ce3c de3c 153d c17e a03d
00000390: 98cc 9cbd e165 dd3c b2c3 ae3d 7c18 b5bc
000003a0: 26d8 363d 2bc3 4b3d 32ee 8dbd e6b6 283d
000003b0: 40ce adbc 371f 283d e5ce 5bbc fa69 873c
000003c0: 8e3e 013d bc29 58bc f10e 213d ecec 643c
000003d0: 8aa0 ac3d 99ec 363d c9af 63bd 4487 1e3d
000003e0: b0b4 37bd 1668 463d 4f92 733c 2654 263d
000003f0: 0227 fb3c 5ac0 f53b 033a 533d c683 59bb
-0.012532134 0.04994097 0.05395217 -0.042537548 0.0026218921 0.02728431 0.07369194 -0.07019413
-0.014732905 -0.0290616 -0.04340196 -0.02335083 -0.028255226 -0.062049095 -0.038940452 0.03686098
0.042566884 -0.04855615 0.08268151 0.022501169 0.042877346 0.010905844 0.067620374 0.05311964
0.049738888 0.030711712 0.078203104 0.066626936 0.0327909 -0.0015602026 -0.066210225 0.063104935
-0.06967503 0.059887562 0.04059501 0.019169524 -0.045828406 -0.036815546 0.014081799 -0.02237357
0.041406706 -0.0629637 0.080318354 0.015082808 -0.010119711 -0.015274197 0.01607095 0.012342199
-6.548566e-05 0.044897467 0.07527947 -0.013855397 -0.08183247 0.053691544 0.07099149 0.05951366
-0.0484623 -0.06962597 0.0652874 0.04301051 -0.03155132 -0.035300545 -0.05367591 0.06297599
-0.02393039 0.034431856 -0.05306094 -0.07302601 -0.00030160285 0.03468382 0.01346772 -0.020038003
-0.009428281 -0.044068124 0.061945677 -0.02923199 -0.00881436 0.08448399 0.023602309 0.03295323
-0.014795662 -0.056937937 -0.07010365 0.069504976 0.06357443 0.06477766 0.08507428 -0.031381857
-0.08642197 -0.05669952 -0.019504707 0.08647947 -0.084302545 -0.07493039 0.055237375 -0.062272683
0.04297179 -0.022652203 -0.016836159 0.055676732 0.04189183 -0.010409239 0.05838332 0.08527225
-0.08792088 0.015108159 -0.0015708973 -0.08000156 -0.050223753 -0.04958413 0.044860788 -0.07265939
0.051887047 -0.04340985 -0.060410045 0.0274967 0.070318036 -0.02743331 -0.06936924 -0.07816049
0.0483657 -0.06822947 -0.013629753 0.017409788 -0.0074945944 -0.07494688 -0.04508244 -0.00083423365
-0.020053007 -0.06579977 0.008781233 0.027753783 -0.07130323 0.01009692 -0.05377625 0.018610941
0.038748495 -0.07908952 0.06747763 0.05355934 -0.044964932 -0.024812082 -0.021235246 0.059001636
0.06079665 0.043288976 0.01097604 0.033594653 0.05481502 -0.012210026 0.04347497 -0.073858835
0.06117047 0.07087106 0.07469926 0.02452661 0.026714284 -0.0075094937 0.026271226 -0.07985693
0.039458215 0.028800521 0.08345662 -0.07835184 0.010214404 0.04631513 -0.03990614 0.023623899
0.034589063 0.03872837 0.04021611 -0.037422955 -0.051397648 0.08339753 -0.012599684 -0.08630208
0.075554565 0.010250335 0.07198028 0.021854816 0.048009392 -0.07816175 -0.06173688 0.036619436
-0.060156923 -0.051121566 0.037703305 -0.058910515 0.043083057 0.052059017 0.08047592 0.010467422
0.064986624 0.07031842 -0.0053776847 0.07004725 -0.037169136 0.0024461083 0.009304191 0.06518095
-0.041277234 -0.04105204 -0.022146367 0.044703677 0.060659092 -0.0077176252 0.07442615 0.0868848
-0.076055735 -0.06526468 0.0826521 0.07234218 -0.03173625 0.04721385 0.0008503548 0.07552795
-0.05549351 0.0046291887 0.07091084 -0.0022335828 -0.063277505 -0.059064552 -0.01671464 0.016409148
0.06101654 0.02518034 0.036435 0.078366764 -0.07656211 0.027026119 0.0853342 -0.022106402
0.04463973 0.049746674 -0.06930198 0.04119005 -0.021216512 0.041045394 -0.013416027 0.016530026
0.031553797 -0.013193544 0.03932089 0.013972502 0.08429058 0.04465923 -0.055587564 0.038703218
-0.04485005 0.048439108 0.014866426 0.040607594 0.030658249 0.0074997367 0.051568996 -0.0033190115

fc3.bias f4 [5]
00000000: e9b7 fd3b 781b e33c 9955 75bd 5eb1 a0bd
00000010: 06e6 af3d
0.007742871 0.027723059 -0.059896085 -0.0784633 0.08588795
