dynamics/src/drl/outputs/RobotOptEnv/20220719-105215/models/dqn_checkpoint.pth (torch, 74071 bytes, 6 tensors)

fc1.weight f4 [128, 6]
00000000: 644f 003e 5b5c d53c 9d3b fc3d c2ef a13e
00000010: 8dbd f8bd 0f4c 583e d12d 51be 3972 b13e
00000020: 6d56 e23d 770a 91be b0dc b83e 4cf4 57be
00000030: 2715 1f3e e33f 9f3e 9e7f b83e 10b9 3cbe
00000040: 07d4 adbe dcee 4abe a11b 1c3d 73dc 74be
00000050: d6f8 b1be f1a8 b53d 7528 babb 933b 0a3c
00000060: 16fb 5bbe d4d9 08bc be4e 093d e672 63be
00000070: 0f26 bcbe 0aae d23d c3f3 2dbe 79c2 8bbc
00000080: 6064 e5bd e31a 843e a68a 063e 4b46 13bd
00000090: 93ea ba3e 5298 5ebc 9a5a 26be a3df 923e
000000a0: 52b3 6a3e fe41 aebe 29b0 7a3e dc03 d83d
000000b0: fe27 0abe 240e fdbd 6222 a93e e5a6 b3be
000000c0: 7953 8a3e dcb4 903e c86e 793e 6301 853e
000000d0: d227 933e 1569 3dbe df2c 03ba 3227 be3e
000000e0: 572f bc3e 5ce3 83be 6513 c6be b802 813e
000000f0: 5aff 9ebd a5b4 aa3e 15ca a03e f347 0bbd
00000100: 2eb6 bd3e 1dd5 663e e995 b23e 1c84 ae3e
00000110: 0abb 93be b5b0 b2be 92f3 2e3e 707b c63e
00000120: 7fd1 823e 6f02 9abe 6a8c 8bbe 2ce7 cfbe
00000130: 6f1a cbbe 2e3b aa3d c9aa 133e 9924 583e
00000140: 659a a4be 766e 42be d12e 66bd 4dec c8bd
00000150: 556c 663e 4d94 c7be 2569 81bd 1fbd 7f3e
00000160: 17b7 9e3e 500e d33d c206 93be 77f9 a63e
00000170: f45e d83d e3a0 bb3d 4cfb 593e fabe adbe
00000180: 2426 6b3e 7183 e0bd 45c3 a0be aef1 81be
00000190: 6bfb 713e e60e ae3e eea0 81be 70c3 aabe
000001a0: 6709 00be 30a1 873e b3bd 39bd 57a3 4c3d
000001b0: a3ae aabd 6ae0 34be d68e ab3e 35d3 233e
000001c0: 49e7 0ebd fc48 bc3e 11dd cd3e cb3b 2abe
000001d0: 972b c7be 6584 983e 746d c2bd acd0 2b3d
000001e0: 3311 48bc 0b9d 6b3e 7155 a83e 95bb ab3e
000001f0: 70e5 88be 929b 84be 6a67 a4bd c691 c33e
00000200: 2936 27be 614c a23e 5de4 363e 3f07 94be
00000210: 5ac7 4ebe 59bd a5bc c460 ac3e 139f c53d
00000220: ff66 1a3e d1e7 21bc 4653 2c3e 3849 433e
00000230: bd62 c9be 0baf c83e 0d0a e5bd 8595 0ebe
00000240: 0e2b 973e 1ca5 b33e 8a6b a8be 109c 853e
00000250: 22ef 283e 82ab 99be c45e 0d3e 30ed bf3e
00000260: 6680 7abe 5f79 8f3e 237c 35bd 85e1 abbe
00000270: 83c3 b23e c331 c6bd 0a8c b8be 5508 7fbe
00000280: 4fe8 16be cd47 1b3e a6bf f63c a656 aebd
00000290: 26e5 503e 5919 893e 43d0 033e ae16 133d
000002a0: 0fef 873d 5c70 91be 1284 5f3e 6e0e 24be
000002b0: 208d 6dbd baf0 b7be 10bb c13e 66c7 c93e
000002c0: f8be 6abe 3004 cc3e af22 aabd f7bf c0be
000002d0: be23 413e d13a 96be 3f7f 89be dc0f 7b3d
000002e0: 0c6f 233e 5150 b7be 5205 84be 7f22 923e
000002f0: 005b 4d3d 3afb 0d3e 8760 16be c35b a2bd
00000300: f7fb 9b3e d8c0 a53e 885e a3be 3882 e8bd
00000310: 78d9 a7be 31f3 8cbe 2a9e e7bd 4c46 e3bd
00000320: cb0e 87be 7c98 93be c9d4 5bbe 890d d63b
00000330: fd23 b03e 42d1 9b3e 8f16 7e3e a265 1abe
00000340: 2412 723e be7c afbe 360d b93e a5d5 ec3d
00000350: 1d7f 91be 7268 ccbe 1f77 df3d dccb 1f3e
00000360: d586 f33d b211 17be 0124 5fbe 7bc3 8d3e
00000370: 1385 b23e 57f7 8c3d 80e7 bcbe b5b3 913c
00000380: 5f36 053e 398d 82be beb5 92be b620 cd3e
00000390: 5882 8a3e 02f2 54bc e285 dabd 35a7 7a3e
000003a0: d709 83be 9e32 8dbe 36b5 ffbd 3a8c 14bd
000003b0: 2804 af3e a38c b83e 388a 9abe 5c8b 823e
000003c0: fedc 033e 304a 8b3e cf6e c1bd 7dc9 b7be
000003d0: 0840 6dbe e671 613e 2404 94be b4c5 1d3e
000003e0: cb93 a03e ad76 e3bd 18d7 9abe d996 c6be
000003f0: 19c8 ce3e 5e9c 58bd a024 0a3e a542 453e
0.12530285 0.026045015 0.12316058 0.31628233 -0.12145529 0.21122764 -0.20427634 0.34657457
0.11051641 -0.28328297 0.3610587 -0.21089286 0.15535413 0.3110343 0.36034864 -0.1842997
-0.33950827 -0.1981768 0.038112286 -0.2391222 -0.3476016 0.08870114 -0.0056810924 0.008437055
-0.214825 -0.0083527155 0.03352236 -0.22211799 -0.36747786 0.102871016 -0.16987519 -0.017060505
-0.11200786 0.25801763 0.13138828 -0.03595571 0.3650709 -0.013586121 -0.16245499 0.28686246
0.22919968 -0.34034723 0.24481262 0.10547611 -0.13491818 -0.12356213 0.33034045 -0.35088268
0.2701681 0.28262985 0.24358666 0.2597762 0.28741318 -0.18497117 -0.000500394 0.3713928
0.36754867 -0.257594 -0.38686672 0.25197387 -0.07763548 0.33340946 0.31404176 -0.034004163
0.37053055 0.22542234 0.34879997 0.34085166 -0.28853637 -0.34900442 0.17085102 0.3876605
0.25550458 -0.30079982 -0.27255565 -0.40606058 -0.39668605 0.08312069 0.14420618 0.21107711
-0.32149044 -0.1898745 -0.05619699 -0.09810696 0.22502263 -0.38980332 -0.06318883 0.24974488
0.3099906 0.10305464 -0.28716093 0.32612202 0.10564986 0.09161546 0.21287268 -0.33934766
0.22963768 -0.109625705 -0.3139898 -0.253797 0.23631065 0.33995742 -0.25318092 -0.33352232
-0.12503587 0.26490164 -0.045346927 0.04996046 -0.083340906 -0.17663732 0.33507413 0.15998538
-0.03488854 0.36774433 0.40207723 -0.16624372 -0.38900444 0.2978851 -0.09493533 0.041947052
-0.012211132 0.23009126 0.32877687 0.3354155 -0.26737547 -0.2589994 -0.08027537 0.38197154
-0.16329254 0.31698897 0.17860551 -0.28911778 -0.20193234 -0.02023189 0.33667576 0.096494816
0.15078352 -0.0098819295 0.16828641 0.190709 -0.39333144 0.39196047 -0.11183558 -0.13924225
0.29525036 0.35086906 -0.32894546 0.2609563 0.16497472 -0.30013663 0.13805681 0.37485647
-0.24463043 0.28022286 -0.04430784 -0.33570495 0.3491479 -0.0967746 -0.3604434 -0.24905522
-0.14737056 0.15164109 0.030120682 -0.08512621 0.20399913 0.2677715 0.12872414 0.0359103
0.06637394 -0.28406036 0.21827725 -0.1602113 -0.057995915 -0.35925847 0.3783803 0.3940994
-0.22924411 0.39846945 -0.083073966 -0.37646458 0.18861291 -0.29341748 -0.26854894 0.06129442
0.1596033 -0.35803464 -0.2578531 0.28541943 0.050135612 0.13865367 -0.1468526 -0.079276584
0.3046567 0.3237369 -0.3190806 -0.11352962 -0.32783103 -0.2752929 -0.11309464 -0.110973924
-0.26378474 -0.28827274 -0.2146789 0.0065323752 0.34402457 0.3043309 0.24813293 -0.15077832
0.23639733 -0.34274858 0.36142892 0.11564187 -0.28417292 -0.39923435 0.109113924 0.1560511
0.118909515 -0.14752844 -0.21791078 0.27688202 0.34867153 0.06883114 -0.3689537 0.017785886
0.13009022 -0.2549837 -0.28654283 0.4006402 0.2705257 -0.012997152 -0.10670067 0.24477847
-0.25593445 -0.2757768 -0.12485735 -0.036266543 0.34182858 0.36044797 -0.30183578 0.25496948
0.1287727 0.27205038 -0.09444963 -0.3589591 -0.23168957 0.22016105 -0.2890941 0.15407449
0.31362757 -0.1110662 -0.30242229 -0.38786963 0.40387037 -0.0528835 0.13490534 0.19263704

fc1.bias f4 [128]
00000000: 58a7 8d3d 4f5e 08be 6b88 97bd 97fe 91be
00000010: 6895 043d 6579 a73d 42f8 993e e233 cc3e
00000020: 2ceb 8fbe 12fa 7ebe 243c edbc be8b 343e
00000030: a193 b1be 43bc 143e 036d a33e 84ed 1a3e
00000040: 4990 b4be f85d 813e ef33 aabb b20a fe3d
00000050: ddb4 613e 5d3f 1cbe 096f a5be fc15 763e
00000060: b28c 283e e911 81bd 5033 723e 0966 40be
00000070: 33d2 363d 3f8c dfbb b820 cdbe 7c56 25be
00000080: 3976 bcbd 59fa f13d e930 ae3d 73b5 aabe
00000090: f761 81be cdfa b33d 32c7 933e 74b2 383d
000000a0: 6b2c 8b3d b437 d13d 2745 9c3e 71b8 cc3e
000000b0: 0925 20be a509 17be 956b cf3e f3c9 bf3e
000000c0: cf3e 043e 959a 33be 68e7 a0be 1126 693e
000000d0: 9013 62be f19f 053e b6a8 adbc 5cf1 aa3b
000000e0: 6b47 c93e 56fc 963c 8d63 bfbe 5c3a 67be
000000f0: 0a83 e7bb d64a 373d fe9f 95be 85bf 17be
00000100: 8a59 ccbe 44e8 0abc 6483 873e ea56 8bbe
00000110: aaba 95be 766e 9e3e 87fe cc3e dd0e c23e
00000120: 114a 96be f6c9 abbd bba6 4ebe eb14 ef3d
00000130: 243c 6dbd ff9f 71be d3bc a3be b834 b33e
00000140: 3319 35be ca54 f63c cbf2 09be 5674 72be
00000150: c128 903e 28a6 723e 4a8b 683e d691 11be
00000160: 368f ab3e fc8b 193c 1b7b 9bbe 5086 373e
00000170: 941d 153e e81b 10be 6a58 08bc 0eff ec3d
00000180: 5571 753e db94 a2be 82a8 81be b3e3 173e
00000190: 2e92 813e a085 ff3d 3332 913e 84ab 2d3d
000001a0: ea01 883e 861c 40be 751d d6bb 2581 d0be
000001b0: 5049 993d 400e 943e c3b9 45be a3d2 62be
000001c0: 8691 38be f423 b63e 1ad6 293e 87e6 14be
000001d0: 9259 fc3d 2422 bfbe dbcd 4f3e b45a 33be
000001e0: baac d6bd bf88 a1bd ef23 a1bd e2e5 b93e
000001f0: 230c e7bd 8be4 ff3d 457b 15be 11cd 253e
0.06916684 -0.13317226 -0.073990665 -0.2851455 0.032369047 0.08177451 0.30072218 0.39883333
-0.2810911 -0.24900082 -0.028959341 0.17631432 -0.34682944 0.14524941 0.31919107 0.15129668
-0.3526633 0.25267005 -0.0051941792 0.12404384 0.2204165 -0.15258546 -0.32311276 0.24031824
0.16459921 -0.06302244 0.23652387 -0.18788923 0.044634055 -0.0068221386 -0.40064025 -0.16146272
-0.09202237 0.11815328 0.085054226 -0.3334156 -0.25270054 0.08788071 0.2886291 0.04509206
0.067955814 0.10215703 0.3052151 0.39984468 -0.15639128 -0.14749773 0.40511766 0.37458763
0.12914585 -0.17539437 -0.3142655 0.22768427 -0.22077775 0.13049294 -0.021198612 0.0052167606
0.393123 0.01843087 -0.3738064 -0.22580856 -0.0070651816 0.044749103 -0.29223627 -0.14819153
-0.39912063 -0.008478228 0.2646743 -0.27214748 -0.29243976 0.3094365 0.4003794 0.37901965
-0.29353383 -0.0838813 -0.2018079 0.11673912 -0.057918683 -0.2359619 -0.3198 0.3500116
-0.17685394 0.030069727 -0.13471524 -0.23677191 0.28156093 0.23696196 0.22709385 -0.14215788
0.335077 0.009371754 -0.3036736 0.1792233 0.14562064 -0.14073145 -0.008321861 0.11572085
0.23969014 -0.31754193 -0.25323874 0.14832954 0.2530684 0.12476659 0.2835861 0.0423999
0.2656396 -0.18760881 -0.0065342733 -0.4072353 0.074846864 0.28917122 -0.19309144 -0.22150664
-0.18024263 0.35574305 0.1658558 -0.14541064 0.12321772 -0.37330735 0.20293371 -0.17515069
-0.10482164 -0.0788741 -0.07868182 0.363082 -0.11281612 0.12494763 -0.14597805 0.16191508

fc2.weight f4 [128, 128]
00000000: b939 8abd 56c2 b03d 1746 e83c 921d b0bc
00000010: ab07 24bc 173e b23d a93d ab3d 41c7 8ebc
00000020: 87f0 8a3d 39b6 6abd ee49 cbbc a2f1 2e3d
00000030: 8914 4b3d 13cf 323d 7ec4 883d d30a e8bc
00000040: 7b41 d1bc bd1e 7a3d 5694 b1bd a7f0 1dbd
00000050: 2bf0 be3b f770 8b3d 8de1 efbc 22f9 1e3c
00000060: 327c 9bbd 1087 9abd 0393 a03d 4b39 8ebd
00000070: ebe0 653c 81de abbd 28c3 9d3c 9c53 4fbb
00000080: e37c 1d3c 8d0b c33c dbd5 a43c e5de 8cbd
00000090: a7ed a33d dd2d 24bd b758 a0bd 0314 04bd
000000a0: 915a 0fbd fb30 883c 1355 11bd 5b4f 8d3d
000000b0: b86f 9a3d f1a4 9abd c221 a13d 988d 953d
000000c0: 69be 883d 6c0c 693d 8c49 983d 5e61 443d
000000d0: 1185 d7ba 7e56 23bd 52f8 feba edac f13c
000000e0: c2bd 0dbd 20f9 ad3d e684 903d c86f 97bd
000000f0: 7ecc e6bc 39e4 97bc 4de7 593d 22b2 09bd
00000100: 0d7b 5ebd 754f e0bc e2f2 883d fe5e 4f3d
00000110: 86c3 51bd 7f6c 90bd e080 85bd cadf a43d
00000120: ec86 d73c c5a0 b03d 2c18 b43d 871f a5bd
00000130: 6c42 0bbc 3002 0fbc c09d 1ebd bcaf 0ebd
00000140: 5dc8 72bd 6d78 9d3d 9738 1c3c 8d8c 9cbd
00000150: a562 eb3c 4673 4bbd 5d6c 633d 7132 b63c
00000160: 4c16 783c 5c7c 423c d996 9cbd cc9b 65bd
00000170: 4f62 9c3c 260e 8b3d 3e27 66bd 88a9 e3bc
00000180: e8bd 863d e7a0 a63c daa9 913d 7892 403c
00000190: 26c9 9e3d 43c9 ebbc bc0b b93b 0920 f13c
000001a0: ee38 adbd 8ab3 ca3c 7dd1 7dbd 7cfe fa3c
000001b0: d1be 12bb 1542 52bd a9e4 20bc a769 923d
000001c0: c747 a03d e00f b03d 2946 7cbd 0b98 233d
000001d0: 308b b13c e56d 8cbd 4dd3 ea3c b5f8 563a
000001e0: a9da 57bd cd04 233d 1380 913d 2add 4f3d
000001f0: d2ef 173a a601 c33c 221b 7bbd 602e 4b3c
00000200: ce0c 4abd 7763 de3b d886 3e3d 153d e23c
00000210: fa8e c03b bf07 95bc 47ea 6f3c 15fb e9bc
00000220: a9c0 38bd c30e 673c 7a28 a5bc aa78 93bd
00000230: e40c 25bd 7bbf 18bd f5ed 9bbd 8ca4 843d
00000240: 8d7c 33bc 8be4 8c3b 2300 ac3d 031f 4cbc
00000250: 15fd 843d 34a2 483d ac91 98bd 53ea c0bc
00000260: 0e68 44bd 8eea 4fbd 4dc3 96bc c928 a2bd
00000270: e7bc 603c a153 113c 2aee 7e3d b5f5 553d
00000280: ca83 7cbd 2c07 2e3c b6c3 51bd ad94 c0bc
00000290: 8d72 90bd 253d 0fba 91e4 a0bd 45d2 c33c
000002a0: ff1b 90bd ba03 88bd 9f46 b13c 5258 1a3d
000002b0: 2d57 aa3d f351 28bd 3c6f fdbc 368d a63c
000002c0: 4e61 61bd f6a5 a63b 03f3 893c 6567 b03c
000002d0: 7cab 9e3b a92d ad3d bb67 0ebc 4b05 5dbd
000002e0: 9f5f 2f3c 2009 853d 20ae 46bd c9a2 03bd
000002f0: c4f2 01bc eb22 893d 6cba cc3c 7010 7d3d
00000300: 5b3c 833d 2862 4a3d d0ca b03d e494 a33d
00000310: 04ab de3c 088d 183d 3587 5cbd 5b10 b2bd
00000320: d276 9f3d 09e7 4abd 3a92 1e3d e9b7 51bd
00000330: 4cd8 8a3d 99fd 113c 0d78 87bb fc08 adbd
00000340: 4ec6 a53d dcbf 93bd 28b8 a43c 78dd 26bd
00000350: 7140 933d a8e0 a1bd 4178 a33d 3e3a 923d
00000360: 5b1b 573a 6b45 093d f527 8abc 0b35 a13d
00000370: dd20 213d c2bd 76bc 3b0b 233d 122f 4b3d
00000380: 3a3f 253d 92ae a93d f034 693c 4121 46bc
00000390: 51ea 18bd 56a6 11bd 181f 173d cafd b1bd
000003a0: 4fbf 82bd 7c96 063b cd51 a03b 0ba9 96bd
000003b0: 4ad6 523d bef8 213d ab27 9fbc 4d88 a13d
000003c0: 46b1 073d dca8 5c3c 414f 133d 765f 943d
000003d0: e408 40ba 2bf7 7e3d 535a 2abc 3c19 b4bd
000003e0: b74a c1bc a338 1b3d 13f1 47bd 427f 0fbb
000003f0: 073e 173d 0466 c7bc 11c0 b4bd 3a3d 96bd
-0.06749291 0.08630817 0.028353734 -0.021498475 -0.010011594 0.08703249 0.0836137 -0.017428996
0.06784158 -0.057302687 -0.024815526 0.042710908 0.04958013 0.043654513 0.06678103 -0.028325474
-0.025543919 0.06106447 -0.08670871 -0.038559582 0.00582697 0.06808656 -0.029282356 0.009702953
-0.07592048 -0.075452924 0.0784054 -0.069445215 0.014030675 -0.083920486 0.019258097 -0.0031635528
0.009612295 0.023809219 0.020121505 -0.06878451 0.08004313 -0.0400828 -0.07829421 -0.032245647
-0.03499848 0.016624918 -0.035481524 0.068999015 0.0754084 -0.07550991 0.07867767 0.073023975
0.06676943 0.056896612 0.07435903 0.04794442 -0.0016442855 -0.039877407 -0.0019452667 0.029501403
-0.034604795 0.084947824 0.07056598 -0.073943675 -0.028173681 -0.018541442 0.0531991 -0.033617146
-0.05431657 -0.027381638 0.06686951 0.0506277 -0.051211856 -0.07051944 -0.065187216 0.08050497
0.026309453 0.08624414 0.08793673 -0.08062654 -0.008499723 -0.008728549 -0.03872466 -0.034835562
-0.059273113 0.07688985 0.009534976 -0.076439954 0.02873356 -0.04967048 0.055523265 0.02224085
0.015142035 0.01187047 -0.076459594 -0.056056783 0.019089846 0.06789808 -0.056189768 -0.0277908
0.065791905 0.020340396 0.07112475 0.011753671 0.0775321 -0.028782493 0.005647151 0.02943422
-0.08458124 0.024743814 -0.06196736 0.030638926 -0.0022391567 -0.051332552 -0.009820142 0.07149058
0.078261904 0.08596778 -0.061590347 0.03993992 0.021672815 -0.06856898 0.02866521 0.00082005124
-0.052698765 0.0397995 0.07104506 0.050748028 0.0005795929 0.023804497 -0.061305173 0.012401193
-0.049328618 0.0067867595 0.046515316 0.027617017 0.005876419 -0.01819217 0.014643258 -0.028562108
-0.04510561 0.014102641 -0.020160902 -0.07200749 -0.040295497 -0.037291985 -0.07613746 0.06476697
-0.010954988 0.0042997054 0.083984636 -0.012458566 0.06493584 0.048982814 -0.0744966 -0.023549234
-0.047950797 -0.0507608 -0.018403674 -0.079179354 0.013716913 0.008870036 0.06223885 0.052236278
-0.06164912 0.010621827 -0.051212035 -0.023508394 -0.07053099 -0.00054641283 -0.078560956 0.023903975
-0.0703659 -0.06641336 0.02164012 0.037681885 0.08317409 -0.041093778 -0.03093683 0.020331006
-0.055024438 0.005085702 0.01683951 0.021533677 0.00484222 0.084559746 -0.008691723 -0.053960126
0.01070395 0.06495881 -0.048505902 -0.032137666 -0.007931415 0.06696113 0.024991237 0.061783254
0.06407996 0.049410015 0.086324334 0.07987383 0.027181156 0.037243873 -0.05383988 -0.08694526
0.07786335 -0.04953674 0.03871367 -0.05120078 0.067795366 0.00891056 -0.004134184 -0.08448979
0.08094464 -0.07214329 0.020107344 -0.040738553 0.071900256 -0.07904178 0.07981921 0.07140015
0.00082056754 0.033513468 -0.016864756 0.07871445 0.03933798 -0.01505989 0.039805632 0.049605437
0.0403435 0.0828525 0.014233813 -0.012092889 -0.037332837 -0.03555902 0.036894888 -0.086909845
-0.063841455 0.0020536473 0.004892564 -0.07356461 0.051473893 0.03954386 -0.019428095 0.078873254
0.033128045 0.013467994 0.035964254 0.0724477 -0.00073255436 0.062247436 -0.010397512 -0.087938756
-0.023595197 0.03789581 -0.04881389 -0.002189592 0.03692439 -0.024340637 -0.08825696 -0.07335897

fc2.bias f4 [128]
00000000: 3900 ac3d 491f 01bd 5518 85bd aee7 3dbd
00000010: 33a2 77bc e1ba 17bd b2dd 8d3d 0bb1 99bd
00000020: 9c8e 1fbd afe0 0dbd fec5 92bd af58 92bd
00000030: ed6e 973d e9ec ae3d 3269 803d 6725 81bd
00000040: c556 f9bc c309 963d d9e4 8cbd b71c d9ba
00000050: 6fcf abbd 645b d73c 9398 d8bc cb9f 9cbd
00000060: 1785 a0bd d0cf a3bd 9268 8dbd e621 58bd
00000070: c2ad 643d 0f17 743d 9c02 92bd 6d63 63bd
00000080: ada9 edbb 86ae 1e3d 4130 4fbc 995e df3c
00000090: b41a 55b9 5203 96bd 8b82 7ebc 5aaf 673d
000000a0: 58ed 0b3d 92f5 5a3d 81ec 4e3c b961 f23c
000000b0: 106d 043d 657e 993d dca0 8c3c ca68 8f3d
000000c0: 1fc4 6ebc f988 363b cca1 6dbd 72d2 173d
000000d0: ca4b fdbc 0599 863d 4b15 323a decc 9b3d
000000e0: b761 e7bb 8d56 75bd b6ff 97bd 6a5b f43c
000000f0: aa5b b43c 5e70 f3bc b7d8 893d f467 98bd
00000100: 49c3 17bd 2212 95bc ede7 8a3d a2af 513d
00000110: d331 293d 1089 32bd 2061 09bd 67d4 73bd
00000120: cd84 aabd 3f73 373c ffb2 9bbd bd4f 96bd
00000130: 266b 8f3d d8c6 93bd a7e9 9cbd fefb 1cbd
00000140: c96e ab3d c48c 40bb 827d 3cbd d8f2 313d
00000150: 5d48 943c 9d55 b73c f3eb d7ba 2d92 43bd
00000160: c032 84bb 54a8 43bd 6c63 a93d f927 70bd
00000170: d951 52bc 1d84 b33d 7faf cebc 6266 f33c
00000180: f841 ee3b cddd fe3c 79a7 a33d 36c4 72bd
00000190: 5a9a 0a3c b29f b5bc a005 043d 0ad0 213c
000001a0: e3e2 9d3d f6df 4b3d 9699 723c 2c5e 4fbd
000001b0: d7bf ae3d e820 863d 6db5 983d 516e 93bd
000001c0: d274 19bc ef94 42bc 3184 42bd eeb6 9dbd
000001d0: 38cc bebc 6e18 4a3d b6d8 b8bc b714 113d
000001e0: c24e d6bc 8a2b 59bd 0f42 b0bd 6cfa 753d
000001f0: a090 37bd 975d 44bc 86ea 363d df65 a93d
0.0839848 -0.031523976 -0.064987816 -0.046363525 -0.015114355 -0.037043456 0.06927051 -0.075044714
-0.038954362 -0.034638103 -0.0716667 -0.07145821 0.07394204 0.08541281 0.062700644 -0.06305962
-0.030436883 0.07326081 -0.06879587 -0.0016564344 -0.08389174 0.026288696 -0.02643994 -0.076476656
-0.07837885 -0.079986215 -0.06904711 -0.052766703 0.05582977 0.059592303 -0.07129404 -0.05551474
-0.007252893 0.038740657 -0.012645782 0.027266787 -0.0002032321 -0.07324852 -0.015534054 0.056563713
0.034161896 0.05345685 0.012629629 0.029587613 0.032330573 0.07494811 0.017166547 0.07002409
-0.014573126 0.0027852638 -0.05801563 0.03706593 -0.030919928 0.06572155 0.0006793334 0.07607435
-0.007061209 -0.059896994 -0.0742182 0.029828746 0.022016365 -0.029716667 0.06730788 -0.074417025
-0.037051473 -0.018197123 0.067825176 0.051192887 0.04130728 -0.043587744 -0.03353989 -0.059528735
-0.08326111 0.01119691 -0.076025 -0.073394276 0.07002859 -0.07215661 -0.07661753 -0.038326256
0.0837074 -0.0029380778 -0.04601813 0.043444484 0.018100912 0.02237969 -0.0016473517 -0.047746826
-0.00403437 -0.047767952 0.08270916 -0.05863187 -0.012836897 0.08765433 -0.025230167 0.029711906
0.0072710477 0.031111622 0.07990927 -0.059269153 0.008459652 -0.022170875 0.032231927 0.0098762605
0.07709291 0.049774133 0.014807126 -0.05062692 0.08532684 0.06549245 0.07456479 -0.071987756
-0.009366231 -0.011876329 -0.04748935 -0.07700907 -0.023290738 0.049339704 -0.022564273 0.035420146
-0.026160602 -0.053020038 -0.0860635 0.060053274 -0.04481566 -0.011985204 0.044657253 0.082713835

fc3.weight f4 [5, 128]
00000000: 8a4e 12bd 4c6b 1bbd 2571 6abc 6c0e 3dbd
00000010: 16b4 4fbc f3bf 81bd 1aeb 87bd 4304 ecbc
00000020: 4f65 9dbc 2462 3cbd ce6c b43d 4fd4 0b3d
00000030: 378d 8abd 3f3a aabd 3a77 95bd 308c 713d
00000040: 7e29 25bd 9859 76bd d554 563c 045e d4bc
00000050: 1b32 4cbd d9de 90bd b214 28bd ea46 363d
00000060: 243a bd3c 622f ac3d 2659 b4bd c180 e0bb
00000070: a3c1 8ebd 5907 f63c c2ab 8abd 1fd5 9e3d
00000080: 3518 09bd a1f8 083d 1c86 17bb bfb1 adbc
00000090: d9c6 d7bc 38cf 6b3d 2c62 623d d836 90bd
000000a0: d0c6 8abd 3024 9d3c 1788 1d3d 1182 a93d
000000b0: 5931 c93c 7e7b 99bd 624c 88bc 97a6 91bd
000000c0: 26dd 3dbc 8caf c0bc ea99 16bd acf5 ec3c
000000d0: 60ab a63d b377 443d fb95 bcbc b012 10bb
000000e0: fe34 6f3d ca46 aabd b5b4 1abd 20e9 28bc
000000f0: ab72 493c b790 acbd 48df 633d 4286 38bd
00000100: 2150 cd3b 09b1 7e3d d810 b1bd 8ecb 62bd
00000110: 9690 b3bd 35fb c0bc 3675 6a3c 2e50 5bbd
00000120: c85b 54bb 25ee 9ebd 59ad 68bc ce72 763c
00000130: a053 9abd 8d92 283d 09bc 0b3d 52ab 76bd
00000140: e538 b13d 5d15 3ebc b8b9 5abd b023 e3bb
00000150: b745 053d 8c12 923d cfa9 cb39 fa0f 74bd
00000160: 1772 8abc 3f20 163d 5441 953d 48fa 24bd
00000170: 9771 91bb bdaa a13c 8a28 9c3d 6b97 7f3d
00000180: 631d 83bc 067b 6ebd f4d6 9dbc 6692 dabc
00000190: a0db 6dbd 05e3 f9bc 30ee 0cbd 6f2c c2bc
000001a0: f29d 793d 7637 adbd a342 b2bd e78d 7bbd
000001b0: 08f6 67bd 64c8 febc 1127 873c 40eb 8a3c
000001c0: beb9 4bbd f0ea 35bd 414c 933d 7ae6 2abd
000001d0: d44c 3c3d 099d 11bc 89b2 e5bc 1885 883d
000001e0: e31c 27bd dccb 9a3d 2c16 51bd 5d41 00bd
000001f0: 4291 323d 14ed 533c 3a18 803d da2f 11bd
00000200: b169 543d 7639 aa3d 27d2 ab3d 137c 1c3c
00000210: f6cc ae3d c13f 713d 5ce7 303d 0df1 4d3d
00000220: 7178 17bd b013 c23c bce6 e83c 2e49 1fbd
00000230: cc55 43bc 3088 9fbc d7b2 813d 733a 0a3c
00000240: f122 3ebd 254b 19bd 0a03 693d 4c35 aebd
00000250: 6503 bfbc a2f0 233d eee9 39bd 86e4 3c3d
00000260: 5c5b c83c dcc3 37bd 316e 8b3d 1b5d 203d
00000270: 9b7f 623d f292 4a3c 8b7b 3ebd 0678 343d
00000280: 4e46 993c f6a3 a83b 0d52 ebbc b685 563d
00000290: 6acb 8dbd 0163 eabc 061e 91bd b123 32bd
000002a0: 4d68 8abd 9e2a 82bd b460 97bd a6f5 683d
000002b0: ba2b 10bd 759f 1b3c 5bfa acbd 4afb 92bd
000002c0: 976d a43d a3c8 64bd d21f 48bd f07c a0bb
000002d0: dea1 8a3d 5ebc 17bd 35b1 223d 8d43 9fbd
000002e0: f4fe 4f3d c3c3 43bd 56a5 dabb 272f be3c
000002f0: f6e9 ec39 b153 f6bc 30da 95bd 9c0a ab3d
00000300: 7511 523d 983e 96bd 60b5 7cbb 087c 743d
00000310: a3cb 5dbd fa63 72bc 3159 91bd 9ff0 ab3d
00000320: e617 113d 7eae 133d ab5e 173d cf7c adbd
00000330: 8e02 473d 2a91 8b3d 9da7 4b3d ffd2 93bd
00000340: 3a87 32bd 2afe c93c a986 3dbb 328c 8abd
00000350: 1b08 98bd 2382 18bd 23a2 24bd e758 49bb
00000360: 0076 743d b32a 163c 1415 9dbd cc76 28bb
00000370: 94d2 1dbd 1580 b8bc cf71 803d b0fe 873d
00000380: 0f72 32bd 0edb a73b b58d a33d a255 733b
00000390: 6df6 74bd e3d6 9fbd 6165 b1bc 69f6 293d
000003a0: 6fe4 103c fa7c 94bd 3775 63bd 26d8 babc
000003b0: 7f4c 8f3d 8766 9d3d d7d9 0ebd 4854 0abd
000003c0: 5ecb 91bd 05f3 5e3d d3a9 b2bd 14af 6bbc
000003d0: 5b88 a9bc 9490 87bd c572 823d c9e4 893d
000003e0: 6593 af3d c984 83bd 41ee 6fbc b60e a1bd
000003f0: 7471 93bd e526 953d cf0a 2a3d 5c99 013c
-0.035719432 -0.037944123 -0.014309202 -0.046156332 -0.012677213 -0.063354395 -0.06636639 -0.028810626
-0.019213347 -0.04599203 0.08809815 0.03413802 -0.06765216 -0.08311891 -0.07298131 0.058971584
-0.040322773 -0.060144037 0.013081749 -0.025923736 -0.04985247 -0.07073755 -0.04103536 0.044501223
0.023099013 0.08407475 -0.08806066 -0.006851286 -0.06970527 0.0300328 -0.067710415 0.077554934
-0.03347035 0.033440236 -0.0023120707 -0.02120292 -0.026339935 0.057570666 0.055269405 -0.070417106
-0.06776202 0.019182295 0.038459864 0.08276761 0.024559664 -0.074942574 -0.016637985 -0.071118526
-0.01158837 -0.023521207 -0.036767878 0.02892574 0.08138156 0.047965717 -0.023020735 -0.0021983795
0.058400147 -0.08314283 -0.037769992 -0.010309488 0.012295405 -0.0842604 0.05563286 -0.045049913
0.0062656556 0.062180553 -0.08645791 -0.055369906 -0.08767812 -0.023557285 0.014310172 -0.053543262
-0.0032403339 -0.07760266 -0.014201486 0.01504202 -0.075354815 0.041155387 0.03411487 -0.060221978
0.0865343 -0.011601773 -0.05339977 -0.0069317445 0.03253719 0.07132444 0.00038845695 -0.05958555
-0.016900105 0.036651846 0.07287851 -0.04027775 -0.00443859 0.019734735 0.0762492 0.062400263
-0.016005224 -0.058222793 -0.019267537 -0.026681136 -0.05807078 -0.03050376 -0.03440684 -0.023702828
0.060941644 -0.08457844 -0.08704116 -0.061414625 -0.056631118 -0.031101413 0.01649812 0.016957879
-0.049737684 -0.044413507 0.07192279 -0.041723706 0.045971707 -0.008887538 -0.028039234 0.066660106
-0.040799033 0.07558414 -0.051046535 -0.031312335 0.04359556 0.012934942 0.06254621 -0.035446025
0.051858608 0.08311741 0.08389693 0.009551066 0.08535187 0.05889869 0.04318939 0.050278712
-0.036980096 0.023691028 0.028430335 -0.03888815 -0.011922311 -0.019474119 0.06332939 0.008436787
-0.04642004 -0.03742518 0.056887664 -0.08506259 -0.023317048 0.040024407 -0.04538911 0.046116374
0.024457626 -0.04486452 0.06808127 0.039151292 0.055297475 0.012364136 -0.04650454 0.044059776
0.018710282 0.005146499 -0.028725648 0.05237361 -0.06923564 -0.028611662 -0.07085805 -0.04349107
-0.06758175 -0.06355785 -0.073914915 0.056874894 -0.03519795 0.009498467 -0.08446189 -0.07176836
0.08028715 -0.055855405 -0.04885847 -0.004897706 0.06769155 -0.037044875 0.03971978 -0.07776556
0.05078025 -0.047794115 -0.0066725416 0.023215843 0.00045187742 -0.030069204 -0.073170066 0.08351633
0.05128618 -0.073361576 -0.0038560256 0.059688598 -0.05414928 -0.014794344 -0.0709709 0.08395504
0.035423182 0.03605508 0.036955517 -0.08471071 0.04858642 0.06814797 0.049720395 -0.07217979
-0.043585993 0.024657328 -0.0028919375 -0.067650214 -0.07423421 -0.037233483 -0.040193688 -0.0030723156
0.059682846 0.009165454 -0.07670036 -0.0025705574 -0.0385309 -0.022522012 0.06271707 0.06640375
-0.043565806 0.005122549 0.07986013 0.0037129899 -0.059805322 -0.07804658 -0.021654787 0.04149476
0.008843525 -0.072504 -0.055531707 -0.022808146 0.06997012 0.07685571 -0.034875717 -0.033771783
-0.07118867 0.05443098 -0.08723798 -0.014385004 -0.020694902 -0.06619373 0.06369547 0.067330904
0.08573035 -0.06421811 -0.0146442065 -0.07864134 -0.07199374 0.07282809 0.041514214 0.007910099

fc3.bias f4 [5]
00000000: ece1 283d ab47 03bd 3f79 783c 7463 b63c
00000010: 1e4b 2fba
0.04123108 -0.03205077 0.015165626 0.02226422 -0.00066869135
