dynamics/src/drl/ref/outputs/CartPole-v1/20220718-091410/models/dqn_checkpoint.pth (torch, 71511 bytes, 6 tensors)

fc1.weight f4 [128, 4]
00000000: 3079 433e 5364 bc3d 6183 ad3f 1e1d e23d
00000010: 70ad fb3e 94e2 243f 51e5 64bf 941c 3abf
00000020: 999d 873d 882f bcbb 29a5 bdbf 7573 6abe
00000030: d7a7 65be 0e4e c8bb 1c5c 14bf d344 90bd
00000040: 1b2e ee3e c124 7fbf 9e51 5bbf bc9d d73e
00000050: d917 4abd 51b2 cb3d 3c45 7bbf 0306 883d
00000060: 4e52 52bc bdea 163e f1ce f03e 3959 0e3d
00000070: bc60 6a3e 73d7 18bf 8913 8cbf c823 353e
00000080: db74 c6bd 2ea5 243d eb14 923f 5741 913d
00000090: 4ac7 353e 5cd1 b0bd 6084 a1bf faa2 e4be
000000a0: 6449 52bd 0f5b ab3c 66ba 363f 98a0 7e3d
000000b0: cfe0 03be 3b51 903d 50c8 a63f 2bb4 163e
000000c0: ca72 59bd ab59 9dbd 28ae babc 8082 993e
000000d0: 9fa9 89bc a910 46bd 6320 8bbe 2c13 7cbd
000000e0: f2fc 95bc 190a 3e3f 2edc afbd 39c4 c7be
000000f0: 4491 3bbe 5c17 b53e 9a9e c6be 7a4f 713e
00000100: e66f b3be 531d 233f fe3c fbbe 07e8 d63d
00000110: f3e8 b53d d478 eabd 708a b43f 7e89 233e
00000120: 5c86 b23b 2a82 b4be 89ca d4bf ef6f 8fbe
00000130: 0cc6 223e b4a8 b43e 44c5 c1be 835a 54bf
00000140: 5c9a 91bd 7bbd 1f3e e8df c4bf 10e3 ae3d
00000150: 4f23 3d3e 84c7 a1be 7400 203f 1736 0bbd
00000160: ea12 f53b 9343 02bc 8d60 073d 7eec a83d
00000170: ed13 423d 2a09 c1be f35e 6cbf 9b53 b0be
00000180: 8194 1fbd 48ab b83e 5c0a 74be 1799 d73d
00000190: 3dca 51be 9be3 e8bd 35aa 9ebe 1709 03bf
000001a0: ef37 e63e 1cba c1bd 05da 5fbf 797c debe
000001b0: 5737 8e3f 88ba 393f b344 1abe 75ce 513e
000001c0: 7409 033f a4a2 b4bd aae7 b8bf 26ff 57be
000001d0: 551a 103c 5f39 2dbd 6efc d73e 6423 50bd
000001e0: 305e 94b9 1f96 b4bd badb 85bf e535 bbbd
000001f0: 02b9 403d 6a68 83bd d2b0 58bf 7f6b d1bd
00000200: 1d7b a13e 7ccf 9cbe 0eeb 76bf 5c43 29bf
00000210: b99b b03c 8f54 93bd 45c0 35bf e6cd 1bbe
00000220: 0ac6 4ebd b9bc ff3c 5a61 fb3e 0adc 223d
00000230: 4ed0 003f 63a1 31bc f911 33be e3b0 9ebe
00000240: 91a7 0ebe c0fc ab3d 0789 8a3f 210a 9a3e
00000250: a288 b83d 464d 03be 53de 20bf b467 e3be
00000260: dd38 853c b833 1dbe 1ddc 5cbf 3d97 3dbe
00000270: 1191 bc3e 5ae8 05bf a2ea 35bd fd8b 5e3e
00000280: 6fc1 b6be b0be 1b3f 88b9 483e 6167 51bd
00000290: 579c 6a3e ed52 30be fc5c afbf a3ae 82be
000002a0: 8deb 4bbd 2602 47bc c303 cd3e bc3a 3d3e
000002b0: d098 563d a260 e53d 37e9 25bf 1aee 17be
000002c0: b2c2 7e3e 7534 9cbe dcef d5be 6e88 0abf
000002d0: 98fd 6f3f 17a5 893e 2da4 39bd 23ca c3be
000002e0: 01b1 a23d 6627 a0bc 0fda 40bf c123 25bd
000002f0: 3752 4ebe af46 693e b39f a93f a262 5f3e
00000300: 0d9d 75be a7f9 433e f2ab dc3f 36eb 7d3e
00000310: 3bd8 063f ac62 d4be 0edc a8bf cd2f ecbe
00000320: d2b1 2abe ec53 1bbe e3e0 a1be 5c71 d7be
00000330: 6f00 cc3d 876e abbd b523 8bbe 9a67 c0bd
00000340: 58c4 55bd 1417 253d 2d03 f1bd 3aea 363d
00000350: a191 a5bc 60f2 04bd 66d1 dfbe ebf7 98bd
00000360: 55cd 7abd d6a2 2c3e 9556 bcbf c8fb a73d
00000370: 423d 123e a845 273e 7454 9d3f b0d8 9b3e
00000380: 19dd 193e 83ac 11be d0e1 283e 8b1e 78bd
00000390: cf06 b4be d642 f93e c9a1 a0be 0702 3c3d
000003a0: 401a a43d 1865 463e 206d 513f c5ee 5a3e
000003b0: d734 65bd 92ce 923d 1085 5c3e 3eb9 a93d
000003c0: 8380 ddbd 26d0 c03d c495 503f d198 083e
000003d0: 36c4 063e dd9d 50bd 5ac9 71bf a6a3 bebd
000003e0: 267b ac3c a032 5ebd 2a7b 6bbf 427f 79bd
000003f0: 2b2d d8bd 669f 94be ebce b5bf 05cf 86be
0.19089198 0.09198823 1.3555719 0.1104071 0.4915576 0.6440823 -0.8941241 -0.72699857
0.06621856 -0.005742971 -1.4816028 -0.22895606 -0.22427307 -0.0061128205 -0.5795305 -0.07044377
0.4651955 -0.99665457 -0.8567141 0.4211253 -0.04933915 0.099461205 -0.9815252 0.06641772
-0.012837006 0.14737983 0.47032884 0.034753058 0.22888464 -0.5970375 -1.0943462 0.1768943
-0.09690257 0.04019659 1.1412634 0.07092541 0.17751804 -0.08633682 -1.2618523 -0.4465559
-0.051339522 0.020917444 0.7137817 0.062164873 -0.12878726 0.070467435 1.302988 0.14717166
-0.053087987 -0.076831184 -0.022788122 0.29982376 -0.016804514 -0.048355732 -0.27173147 -0.06154172
-0.01830909 0.7423416 -0.08586918 -0.39016894 -0.18317133 0.35369384 -0.38792878 0.23565474
-0.3504631 0.6371662 -0.4906997 0.104934745 0.08882322 -0.114488274 1.4104748 0.15970418
0.005448146 -0.35255557 -1.6624309 -0.28015086 0.15895861 0.3528496 -0.37845814 -0.8295061
-0.0710952 0.15599625 -1.5380831 0.085394025 0.184705 -0.3159753 0.6250069 -0.03398713
0.0074790614 -0.007950681 0.033051062 0.08248232 0.047382284 -0.37702304 -0.9233238 -0.34438786
-0.038959984 0.36068177 -0.23832077 0.105272464 -0.20487304 -0.11371537 -0.30989233 -0.51185745
0.4496455 -0.09459326 -0.87442046 -0.4345434 1.1110638 0.7255025 -0.15065269 0.20488913
0.511863 -0.08820084 -1.4445698 -0.21093425 0.008795341 -0.04229104 0.42184776 -0.050815
-0.00028298935 -0.08817696 -1.045768 -0.09141139 0.047051437 -0.064164 -0.84644806 -0.102255814
0.3153924 -0.30627048 -0.96452415 -0.6611841 0.02155863 -0.07193863 -0.70996505 -0.15215263
-0.050481834 0.03121792 0.4909771 0.039760627 0.5031785 -0.0108417 -0.17487325 -0.3099433
-0.13931109 0.083978176 1.0823067 0.30085853 0.09010436 -0.12822446 -0.6283924 -0.44415057
0.016262466 -0.1535176 -0.86273366 -0.18514724 0.36829427 -0.52307665 -0.044413216 0.21733089
-0.35694453 0.6083784 0.19602025 -0.05112398 0.22911201 -0.17219134 -1.3700252 -0.25523862
-0.049785186 -0.012146508 0.40041932 0.18479437 0.052391827 0.11200072 -0.6480898 -0.14836922
0.24878958 -0.30508772 -0.4178456 -0.54114425 0.9374633 0.26883766 -0.045322586 -0.38240156
0.07943917 -0.019550037 -0.7533273 -0.0403173 -0.2014855 0.2278087 1.3251861 0.21814969
-0.23985691 0.19138204 1.7239974 0.24796757 0.5267369 -0.4148153 -1.3192155 -0.4613022
-0.16669396 -0.15168732 -0.31616887 -0.42078674 0.0996102 -0.08370691 -0.2717568 -0.093947604
-0.0521892 0.040305212 -0.11768184 0.04465697 -0.020211043 -0.03245771 -0.43714446 -0.074691616
-0.061230976 0.16858992 -1.4713923 0.0820232 0.1428118 0.16335166 1.2291398 0.30438757
0.15025748 -0.14225964 0.1649239 -0.060576003 -0.35161445 0.48683804 -0.31373432 0.04590037
0.08012819 0.19374502 0.81807137 0.21380146 -0.055958595 0.071683064 0.21535134 0.08287285
-0.10815527 0.09414701 0.81478524 0.13339545 0.13160786 -0.0509318 -0.94447863 -0.09308557
0.021054816 -0.0542475 -0.9198481 -0.060912378 -0.1055549 -0.2902786 -1.4203771 -0.26329818

fc1.bias f4 [128]
00000000: 9aa4 fcbe cf74 f4be 9506 99be f225 ef3e
00000010: fab6 a83f afc1 09be 22f2 293f fe21 f93f
00000020: abee 38be d363 8abe 3d0e dfbd f520 67be
00000030: 9c98 9ebe c857 04be c55c 0d40 b827 5b3b
00000040: 3eb0 1f40 cdca 3abe 4058 bfbd f578 0640
00000050: fbf2 27be ab06 05bf 69a6 8fbd e822 f2bd
00000060: 7508 a63d 8faa 993f d6ca b7be bd0a 3c3e
00000070: 7af5 05bf dcf8 eebc 287d 4abc 66c5 49bd
00000080: 67a9 00bf f88a 45be 841e b5bd f00a 10bf
00000090: 7dc9 b4be 79c2 5a3c c346 2fbe 9700 283f
000000a0: 6905 2340 ea99 bbbe af43 4cbe 090a bbbd
000000b0: f86a c8be 186c 39bf 38db f3bd 9581 e6be
000000c0: 15dd d5be c75f f9be 90a5 953e c758 bdbd
000000d0: f6b6 b5bd f08d 98bc 7b5d c7ba 9473 26bf
000000e0: 280c ae3e 701e 1a40 1e83 16bf 0f75 dcbd
000000f0: af81 6cbe 275b 25be 3550 e5bc ae02 7fbe
00000100: 98bd f6be ea30 4abd e1fe 9dbe e597 74be
00000110: d044 c0be 0640 7d3e 1529 a6be 6406 f6bd
00000120: 2533 15be c395 20be e063 abbe 239f 233f
00000130: 6c3e 92be 8f20 06bf ba71 eb3d c480 4cbe
00000140: 1d22 edbe 0b23 1cbe 702f f4bd 20f5 74bc
00000150: 7a9f 86bd e6fa 5cbe 10c9 2040 95fa 7abe
00000160: 9c84 edbe f67a dbbe 46fa dbbe d28c 9c3f
00000170: d60e f2bd ecfd b5be 3e2c e4be 861d b63b
00000180: b018 19bf 7be4 13be 5a04 26be 37e9 a9be
00000190: 5e92 05bf af0f e0be 3dfd 9dbd 9c5f 0ebe
000001a0: 7b97 4bbe 07c7 03bf 27f2 13be 73d5 2140
000001b0: c006 c53f 219e d0be 3795 25bb b5a0 ccbc
000001c0: 7118 893f 9a5d ecbe 8958 f6be e6c2 0fbf
000001d0: 1a0c e0bd bb90 1dbf 70e1 bcbe d04a 0fbf
000001e0: 8f41 afbe e285 2240 0ab3 0340 8fe9 dfbe
000001f0: 202f 2040 b03f 1a40 79a9 1ebe 3bc3 b7bd
-0.4934433 -0.47745368 -0.29887834 0.46708637 1.318084 -0.1345279 0.6638509 1.9463499
-0.18059795 -0.27029285 -0.108913876 -0.22571166 -0.30975807 -0.12924111 2.2087872 0.0033440422
2.495132 -0.18241425 -0.09343004 2.1011326 -0.16401283 -0.519633 -0.07014162 -0.11823064
0.08107082 1.2005175 -0.3589694 0.18363471 -0.5232769 -0.0291714 -0.012358941 -0.04926052
-0.5025849 -0.19291294 -0.08843711 -0.5626669 -0.35309973 0.01335203 -0.17116837 0.656259
2.5472052 -0.36640865 -0.19947694 -0.091327734 -0.3914411 -0.7243056 -0.11907047 -0.45020738
-0.41770235 -0.48705885 0.29227877 -0.092454486 -0.08872788 -0.018622369 -0.0015210354 -0.6502011
0.3399365 2.4081078 -0.5879382 -0.10764515 -0.23096345 -0.16148053 -0.027992347 -0.24903366
-0.48191524 -0.049363054 -0.3085852 -0.23886068 -0.375525 0.24731454 -0.32453218 -0.12012938
-0.14570291 -0.1568213 -0.33474636 0.639147 -0.2856325 -0.5239343 0.11496301 -0.19970995
-0.4631509 -0.15247743 -0.119231105 -0.0149510205 -0.065733865 -0.21580085 2.512272 -0.24509652
-0.46390235 -0.4286725 -0.4296438 1.2230475 -0.11819236 -0.3554529 -0.44565004 0.0055577187
-0.59803295 -0.14442627 -0.16212597 -0.3318574 -0.52176464 -0.43761966 -0.07714317 -0.1390366
-0.19882004 -0.51475567 -0.14447843 2.528653 1.5392685 -0.40745643 -0.002526594 -0.024978975
1.0710584 -0.46165162 -0.48114422 -0.56156766 -0.10939808 -0.61548966 -0.36890745 -0.5597353
-0.34229705 2.5394216 2.0578027 -0.4373288 2.5028763 2.4101372 -0.15494336 -0.08972784

fc2.weight f4 [128, 128]
00000000: 19fd 53bc c7f2 e8bc 1f9c c93c 0bc6 353d
00000010: c41a 963c 3429 75bd f257 dabc 3fe5 013d
00000020: 378f 5fbd 01df 52bc 007a b1bc 5214 ac3c
00000030: 9f52 a6bd 096a 27bc 56b3 533c d5d1 46bd
00000040: e7e2 90bb 78a1 ba3c 140a 81bd f461 b0bd
00000050: 9fb1 97bd 4b43 31bd 0eea c9bd a9f2 853d
00000060: 1670 e5bc a2dc a8bc 89c6 bd3c 52d1 943c
00000070: 04f5 fc3c 6b5d bebd e0a6 3fbd c3c6 c4bd
00000080: 610e 53bb 0af6 9cbd e443 833d b0af 923d
00000090: 576f abbd 2da7 033d 86c9 d73c 0b6e f23c
000000a0: e0c6 a8bb 8035 b03d 2829 8cbc 2174 16bd
000000b0: 43a0 91bd 726e b0bd 55ab adbd 33e4 56bd
000000c0: 550e a53d 7c99 8c3d 60a3 c1bd cf8c 733d
000000d0: dd10 acbc ddf2 8d3d 36b3 253c a1b0 21bd
000000e0: 05ca cbbd 9dea 3b3d 98bd 393d b958 543d
000000f0: d2f6 7b3c 9cb8 7d3c 9d05 a1bc 2b86 2cbd
00000100: e0e3 3dbc 826a 773d 3793 403d 0ee8 9b3d
00000110: 7535 733b b1ed 83bd 00ce 3b3d 9322 16bb
00000120: c93d 8a3d 0ca9 f63c f049 863d ca22 7f3c
00000130: d280 953d fe29 4abd 37d3 9dbd ad4e 9ebd
00000140: 6eed b8bd 416b a4bd 97dc 533c 40f8 0b3d
00000150: 8870 53bd 6cde 783d 2c59 1c3b bf95 8a3c
00000160: e1a2 aa3d e733 6abd 1551 89bd 2a53 abbd
00000170: 2aae 223d ff6d e4bb 1a2a 593c a10d 33bd
00000180: c400 cb3c 758b 97bd ee6a e23b 8f8e 78bd
00000190: 5daf 94bd 3944 963c 18b1 5dbd adb5 273d
000001a0: 00df 2abd 3ae3 fdbc 2a44 ea3c 18f5 a9bb
000001b0: e3b2 9dbd 48ec e8bc 3254 efbc c568 d0bd
000001c0: 208b bfbd 3ab6 7c3d f8c3 9d3d 7733 b9bc
000001d0: f8f5 bbbd abc7 313d 9872 fe3c 0d40 7a3d
000001e0: 729b b7bd 1b14 abbd 7b97 a7bd 091c 0e3d
000001f0: 0688 7c3d 7dae 8dbd 69f2 3b3d d615 a23c
00000200: dd1f 94bf 32c4 f73e c31f d4be ae92 06bf
00000210: ec80 f2bb be08 5dbf f5e0 e3be adf5 a63d
00000220: 371a 35bf 5811 e3be 22f3 18bf 6151 30bf
00000230: 8b59 56bf fb89 2abf 13f6 b63c d2e2 55bf
00000240: 00ec 0b3e 4c38 a4be 3b58 b1be e6f4 eabc
00000250: a59c 72bf 4c3d a4be 7d95 1bbf 6af4 f6be
00000260: c0be 19bf fa10 18be 82a9 63be f288 ebbe
00000270: 7531 4cbf 2dac 1fbf 45f3 8cbe f2dd 13bf
00000280: 01b8 17bf 31d4 42be 2b6a 5ebf 1afb e1bd
00000290: ac93 92bf 9af6 cfbc 9e48 1dbf bf0d a4be
000002a0: 86df 013e cb54 3cbf ea94 3bbf 36ed d5bd
000002b0: 6012 6abe ee57 e1bd 8a3b b4be 2f18 c9bf
000002c0: f8f1 62bf 1718 55bf a159 0abf b08a 97be
000002d0: 61ec 36bf db7c 39bf a162 99bf f168 3abf
000002e0: 4f14 d2be 01a9 f63d 10d6 96bf be93 14bf
000002f0: 7187 2ebf 3fb5 f2bd f238 26bf 9741 28bf
00000300: 43a0 84bf bbe0 29bd 6204 35bf d7bb 8abe
00000310: dd30 8ebc b5b9 c1be 3c47 24bf 493b bbbe
00000320: 65f6 6ebe 315a 58bf 4127 45bf 8611 f7be
00000330: dbe4 90bf 3899 84bf 4704 0cbf b33c a9be
00000340: 151c b1be e817 05bf eaa4 90be d13e 3ebf
00000350: 063a fcbe 33c8 f3be bf93 9a3e eee6 39bf
00000360: 5158 a7be 97e4 a2bf 2af3 8fbf 745d 58be
00000370: 0b89 48be 716c a9be 216d cfbe c7da 1e3e
00000380: 4d0b 91bf d41d a5be 8610 b7be ef0f 8fbf
00000390: 80ac 81bf 1ca9 2ebf f442 24be 0511 77be
000003a0: 8455 cbbd 58c0 a7bf 3377 0fbe 298c be3e
000003b0: 5d00 cbbd b805 cfbe 1ceb 2ebf 3cbf 0abf
000003c0: 302b e3bd 3a6a 363d 2f36 e7be 5fd8 e3bf
000003d0: 0b42 6ebe 01bc 8dbe b9a6 c2be 9122 fdbe
000003e0: 6faf 96be caa8 3a3e f6d0 8abd 8c1f 33bf
000003f0: df9c 493e 7d72 353e f0d1 863d 1b0d 2fbe
-0.012938761 -0.028436078 0.024610577 0.04437832 0.01832331 -0.059853747 -0.026653264 0.031712767
-0.05457994 -0.012870551 -0.02166462 0.021005783 -0.081212275 -0.010218152 0.012921175 -0.048539955
-0.00442158 0.022782072 -0.063007504 -0.08612433 -0.074069254 -0.043277066 -0.098590955 0.065404244
-0.028007548 -0.020613018 0.023165958 0.018166218 0.030878551 -0.09295162 -0.046790004 -0.09608223
-0.0032204615 -0.07664116 0.064094335 0.07162416 -0.08370846 0.032141853 0.026341211 0.029593488
-0.005150661 0.08603954 -0.017109469 -0.036731843 -0.071106456 -0.08614816 -0.084799446 -0.05246372
0.08059374 0.06865212 -0.094549894 0.059460457 -0.021004135 0.06931088 0.010113528 -0.039475087
-0.099506415 0.04587804 0.045346826 0.051842425 0.015378671 0.015485909 -0.019655997 -0.04212014
-0.011589974 0.06040431 0.047015395 0.0761262 0.003711072 -0.064418204 0.045850754 -0.0022908791
0.06750066 0.030109905 0.06557071 0.015572259 0.07299961 -0.049356453 -0.07706302 -0.0772985
-0.09029661 -0.080282696 0.012931011 0.034172297 -0.05162099 0.060758993 0.0023856862 0.016917108
0.08331848 -0.057178404 -0.06704918 -0.08365472 0.039716877 -0.0069711204 0.013254667 -0.04371417
0.024780639 -0.07399646 0.0069097197 -0.06068283 -0.072600104 0.018343078 -0.054123968 0.040944744
-0.041716576 -0.03099214 0.028596956 -0.005186688 -0.077001356 -0.02843298 -0.029214952 -0.10176233
-0.09352708 0.061697222 0.07703394 -0.022607548 -0.09177774 0.04340331 0.031060502 0.06109624
-0.08965196 -0.08353444 -0.081831895 0.034694705 0.06165316 -0.069180466 0.045885477 0.019785803
-1.1572224 0.48391873 -0.41430482 -0.52567565 -0.0074006226 -0.86341465 -0.44507566 0.08152328
-0.70743126 -0.4434917 -0.5974599 -0.68874174 -0.8373038 -0.6661679 0.022334134 -0.83549225
0.13664246 -0.320742 -0.34637627 -0.02868123 -0.9477027 -0.32078016 -0.60774976 -0.48233348
-0.60056686 -0.14850226 -0.22232631 -0.46002918 -0.79762965 -0.62372094 -0.2752935 -0.57760537
-0.5926514 -0.19026257 -0.8688075 -0.11034222 -1.1451316 -0.025386143 -0.6143893 -0.32041737
0.12682924 -0.73566884 -0.732741 -0.10445635 -0.22858572 -0.110030994 -0.35201675 -1.5710505
-0.88650465 -0.83239883 -0.5404301 -0.29597998 -0.71454436 -0.7245614 -1.1983224 -0.7281638
-0.4103112 0.12043954 -1.1784077 -0.58037937 -0.6817542 -0.11850976 -0.6493064 -0.6572508
-1.0361408 -0.041474085 -0.7070981 -0.27096435 -0.017357284 -0.37836996 -0.64171195 -0.36568668
-0.2333618 -0.8451262 -0.7701302 -0.48255557 -1.1319841 -1.0359259 -0.54694027 -0.33054122
-0.34591737 -0.51989603 -0.2825082 -0.743146 -0.49263018 -0.47613677 0.30190846 -0.72617996
-0.32684568 -1.272601 -1.1246083 -0.211294 -0.19583528 -0.33090547 -0.40512946 0.15513144
-1.1331574 -0.3224932 -0.35754794 -1.1176738 -1.0130768 -0.6822679 -0.16041166 -0.24127586
-0.0992842 -1.3105574 -0.14010315 0.3721631 -0.09912179 -0.4043405 -0.683275 -0.5419805
-0.11092222 0.0445349 -0.45158526 -1.7800406 -0.23267381 -0.27682498 -0.38017824 -0.49440435
-0.2943072 0.1822845 -0.067781374 -0.6997001 0.19688748 0.17719455 0.06583011 -0.17094843

fc2.bias f4 [128]
00000000: 656e babc 073d 03bf 51b6 d9be 306a 0ebf
00000010: b2fe 45be 4351 15bf 7cf4 8d3c a79d 04bf
00000020: 6b17 2a3e e000 3f3c e2a7 e03e 3190 01bf
00000030: 5249 12bf fbca a63b 0e2b f63d 4798 f3be
00000040: 7c7e 15bf ce3c b1bb a14c 07bf 4b4f 373e
00000050: 9a01 95bd 81af e7be 2e09 9bbd 870b bdbe
00000060: 3125 08bf 358d f0be 45aa 03bf 5a53 d4be
00000070: 3f80 e0be 0135 f5be 052a f3be 4790 eabe
00000080: c3b7 9b3d 4824 83bc 0384 a3bd 8f6b dabe
00000090: 13ce 09bf e522 08bf 912f 0abf e4b1 1bbe
000000a0: c8f3 11bc d25d aabd 42a7 c23c ed91 f4be
000000b0: c27e 3c3d 966a dbbe f5c8 f8be 5211 c3bd
000000c0: 2383 ffbe e950 6ebb cb2b 1abf fae3 96bd
000000d0: e387 f6be a25f 233f 4a57 f4be 2cb8 efbe
000000e0: 751a fcbe 62f0 1a3f 94c5 c2bd 7859 fbbe
000000f0: 42bd 1c3d 9a47 08bf c42f 8c3c ab21 e0be
00000100: defa b0be b016 a33d 8be9 0fbf 7cee b03e
00000110: e93a f3be 3361 0dbb fda4 dabe ee9b dabe
00000120: e1c4 eabe 5cff 14bf 5045 22be 4438 adbe
00000130: a39a 99bb 8884 c4bc 8753 31bd f594 00bf
00000140: c32a 74bd a322 373d 1120 ddbe 4d83 d4bc
00000150: 54a6 14bf 4f4b 0ebf 4b52 10bf 8725 05bf
00000160: d715 ecbe 7a84 003e ea65 0fbf 8842 11be
00000170: f98e fabe ef0c f5be c89a e73c 7264 f9be
00000180: 18ed 0bbf 5ca3 38bd a014 1bbd be7e f4be
00000190: ecee f4be fcd6 4eb9 2f80 13bf 42b8 c83d
000001a0: 292d d9be 9798 8cbe f292 3ebb 206c 993d
000001b0: 93b2 283e 82f6 dc3d 4eb6 1cbf 380f 18be
000001c0: cffe 08bf d9b8 e73d b0d9 fabe e5c6 aa3c
000001d0: 9a99 a8bd 8ad1 dd3d b96c dbbe 1a6c e3be
000001e0: fb16 c03c 57c3 903c 971b 99bd 8cd7 ffbe
000001f0: aa76 43bd 7d9e 11bf 4f65 713d 091f 46bd
-0.022757718 -0.51264995 -0.4252191 -0.5563078 -0.1933544 -0.5832712 0.017328493 -0.5180306
0.16610496 0.011657923 0.43878084 -0.50610644 -0.5714313 0.005090115 0.12019931 -0.47577116
-0.58396125 -0.00540886 -0.528513 0.17901342 -0.07275696 -0.45251086 -0.0757011 -0.36922857
-0.5318175 -0.46982732 -0.51431686 -0.41469842 -0.43847844 -0.47892 -0.47492996 -0.458132
0.07603409 -0.016008511 -0.079841636 -0.42660186 -0.5383007 -0.53178245 -0.5397883 -0.15204579
-0.00890822 -0.08318676 0.023761395 -0.47767583 0.046019323 -0.42854756 -0.48590818 -0.09524788
-0.49904737 -0.0036364144 -0.6022307 -0.07367702 -0.48150548 0.638178 -0.47722846 -0.468202
-0.49238935 0.60523045 -0.09510341 -0.49091697 0.038266428 -0.53234255 0.01711262 -0.43775687
-0.34566396 0.07963312 -0.56215733 0.3455695 -0.47505882 -0.0021572828 -0.42704 -0.4269709
-0.45853332 -0.5820215 -0.15846753 -0.3383199 -0.0046876236 -0.023988977 -0.04329255 -0.5022729
-0.059611093 0.044710767 -0.43188527 -0.025941515 -0.58066297 -0.5558366 -0.5637557 -0.5201039
-0.46110412 0.12550536 -0.56014884 -0.14185536 -0.48937204 -0.4786143 0.028272048 -0.48709446
-0.5465865 -0.045077667 -0.037861466 -0.47752947 -0.47838533 -0.00019725779 -0.5761747 0.098007694
-0.42417267 -0.27460167 -0.0029079285 0.07491326 0.1647437 0.10789205 -0.61215675 -0.14849555
-0.5351381 0.11314554 -0.48994207 0.020846793 -0.08232422 0.10830982 -0.42856386 -0.44418412
0.023448458 0.01767127 -0.074759655 -0.49969137 -0.04772059 -0.5688246 0.058934506 -0.04836944

fc3.weight f4 [2, 128]
00000000: a6da e2bb ca9c 4d3f aea7 c23f bb21 4d3f
00000010: 0570 2b3f a6aa 673f 1dd3 7e3e d1a0 603f
00000020: 07c3 6bbf c7ee 573b b811 94bf 1c51 413f
00000030: 8e4e 8e3f 2672 0e3f 7ed3 003e dff0 ab3f
00000040: 3ab9 243f 3f4d d43d 78d0 233f fce1 9f3d
00000050: a80b 4ebd 143a 623f d93b 01bc 4323 4b3f
00000060: cf1e 2a3f 6008 8c3f 3366 9c3f 8edd 3e3f
00000070: 896e cb3f f084 3c3f dafb 533f 6b28 213f
00000080: c81c e03d 680f 253d 9109 103d 5aaa 8d3f
00000090: 8162 8d3f b1a8 6e3f 3c63 c63f a688 083e
000000a0: aef8 aa3d 9538 653c 4ad5 4a3e 8e30 b03f
000000b0: 8a60 81bd b7d3 473f 34d5 a73f 1516 9a3d
000000c0: 1949 9f3f fbaa 943d 12c3 983f 6668 be3e
000000d0: bbd8 373f 49fa f2be fc30 3e3f d8af 703f
000000e0: 38e3 393f 1e35 3fbf 17c0 563d cef8 593f
000000f0: 13e8 093c 4140 4d3f b843 69bd 704d 153f
00000100: 6d94 dc3d d322 2c3e c734 a33f 22d3 a6bf
00000110: d409 953f 06f3 92bd 8979 553f 3442 9a3f
00000120: 0062 683f 3916 363f 5d76 4f3f 3c19 073f
00000130: 5acd fc3e 7081 5d3f 643b c63e 26dd 133f
00000140: 70d5 533d 46aa 88bd efdd 5e3f 69ec a4bd
00000150: 8677 5c3f 8964 a53f ef3c 843f ecdc 8b3f
00000160: 8835 953f 8f3c c83e f348 2f3f a02f 063f
00000170: 455f 223f 601c 823f 4960 9bbc 7ed3 353f
00000180: 62e3 593f dcea bb3c 482a a23e 1da7 8e3f
00000190: 5b2b 253f 9175 8ebd 38b1 263f b294 90bf
000001a0: a237 a43f 7f8e 84bd a40d 9d3f df80 943e
000001b0: 93c9 1f3e dbd4 febe 1090 863f 790a 803f
000001c0: f74d ae3f 2b6c 2b3d 6b5f 993f 300f e53c
000001d0: 4999 45bd 2e0f 0abf 222b 8a3f 28d2 593f
000001e0: 8c6c 5b3f 0ff3 2cbd 598d a93d 3f37 9d3f
000001f0: a638 2a3d 938d 3a3f 4405 b83d b25e 393e
00000200: bdde 90bd a22a 903f 733b a73f 7300 1b3f
00000210: 1a6c 87be 5ab9 8f3f 2334 88be 5cc7 3c3f
00000220: 2392 033e 4bf1 2e3d 298f d6be 73cf 1a3f
00000230: 6608 923f 4242 89be 47a9 b5bd ea8c 8f3f
00000240: 207c 283f c238 e5bd fa63 983f 7767 37bc
00000250: 7b5c 9f3d 1c3d 143f 39f8 77bd a160 893f
00000260: 9f17 2b3f 4896 523f ee7a 853f 334a 5f3f
00000270: ff63 d13f 9b13 283f 89ee 1e3f 02db 813f
00000280: dde7 7a3b 6116 6fbd a1d5 983d 7b52 9a3f
00000290: 6f89 733f 1cf6 533f 86ad 623f fdbc 883f
000002a0: 180e 8fbd 2371 44bd 36ca 3dbe 0a46 1b3f
000002b0: 679d fd3c 4a17 163f 1fc7 823f b1f6 843d
000002c0: 6700 4f3f 5d6a aabc e327 593f 0747 a1be
000002d0: c1e6 743f 1c4d 9a3d ed0f 453f 872c 173f
000002e0: 70cf 9c3f c2d5 00be fb30 3fbd a856 533f
000002f0: d651 22bd 1d84 233f 7bce acbd d7dc 6c3f
00000300: 7945 a43f 9b7a 80be 810f 9e3f ff71 94be
00000310: d6f5 933f a062 81bd 096f b03f 5b64 213f
00000320: 7ace 703f b9fa 4f3f 1e5b 92be cb40 d93f
00000330: 0407 86be b280 90be 05e1 94be 2f23 7d3f
00000340: e859 403e f1ec 0cbc 26d7 a23f 9aa8 993c
00000350: 8087 603f 853f 753f 9320 4d3f 0575 373f
00000360: 53c9 5f3f a7f0 9a3d 7acb 693f cd87 81be
00000370: 8cb8 503f a835 603f 2ebf 7fbd e078 803f
00000380: d964 823f 7cc3 463d 2cb8 88be 3f3a 5d3f
00000390: 01be 663f d2c8 acbc b9f0 3e3f 2946 17be
000003a0: 52ba 793f 026b 943f ba7f f9bf 8266 85be
000003b0: d0f0 2bbe 6c8a 3a3d 681e 3f3f 7a4d 1140
000003c0: c828 783f e07d 923e b02a b13f a607 53bd
000003d0: 76b1 ac3b 07f4 323e a47f 6c3e 58c8 4c3f
000003e0: 3401 9fbe f4fe 0f3d 8ae6 4e3b 431e 5d3f
000003f0: 9fd8 b0bd 6e10 0d3f 443a 1c3c f383 093d
-0.0069230376 0.80317366 1.5207422 0.80129594 0.66967803 0.90494764 0.24885221 0.87745386
-0.92094463 0.003294872 -1.1567907 0.7551439 1.1117723 0.55642927 0.12580678 1.3432883
0.64345133 0.10366296 0.63989973 0.07806775 -0.050304085 0.8836987 -0.007887804 0.7935068
0.6645326 1.0940056 1.2218689 0.74556816 1.5893108 0.73640347 0.8280617 0.629523
0.109429896 0.040297896 0.035165373 1.1067612 1.1045686 0.9322615 1.5499034 0.13333377
0.08348213 0.013990541 0.19807926 1.3764818 -0.063172415 0.78057426 1.311194 0.07523743
1.2444183 0.072591744 1.1934531 0.37189025 0.7181508 -0.47456577 0.74293494 0.94018316
0.72612333 -0.74690425 0.052429285 0.8514527 0.008417147 0.8017617 -0.056949347 0.58321285
0.107704975 0.1681016 1.2750481 -1.3033183 1.1643624 -0.07175259 0.8338857 1.2051454
0.90774536 0.7112766 0.81039983 0.5277288 0.4937542 0.8652563 0.38717186 0.5775932
0.05171722 -0.06673102 0.87057394 -0.08052904 0.8611988 1.2921306 1.0331095 1.0926795
1.1656961 0.39108703 0.68470687 0.5241642 0.6342662 1.0164909 -0.01896681 0.71025836
0.85112584 0.022939138 0.31672883 1.1144749 0.6451928 -0.06956018 0.65114164 -1.1295378
1.2829478 -0.064724915 1.2269788 0.2900457 0.15604238 -0.4977177 1.0512714 1.0003196
1.3617543 0.041851204 1.1982244 0.027961344 -0.048241887 -0.5392941 1.0794413 0.850863
0.85712504 -0.042223986 0.08278913 1.2282485 0.04155793 0.72872275 0.08985379 0.1810253
-0.07073734 1.126301 1.3065017 0.6054756 -0.26449662 1.122844 -0.26602277 0.737417
0.12848715 0.042710584 -0.41906098 0.6047279 1.1408813 -0.26808363 -0.08870178 1.1214879
0.658144 -0.11192466 1.190551 -0.011194102 0.07781311 0.57905746 -0.060539458 1.0732614
0.6683292 0.8226056 1.042814 0.87222594 1.6358641 0.65654916 0.62082726 1.0144961
0.0038285174 -0.05837095 0.074626215 1.2056421 0.9513158 0.8279741 0.88546026 1.0682675
-0.0698511 -0.047959458 -0.18534169 0.60653746 0.030958844 0.58629286 1.0217017 0.06492365
0.8085999 -0.020802671 0.8482649 -0.31499502 0.956646 0.07534239 0.76977426 0.5905232
1.2250805 -0.12581542 -0.04667757 0.825541 -0.039628826 0.63873464 -0.084378205 0.92524475
1.2833701 -0.2509354 1.2348481 -0.28993222 1.1559398 -0.06317639 1.3783885 0.63043755
0.9406506 0.8124195 -0.28585142 1.6972898 -0.26177227 -0.28223187 -0.29077926 0.9888181
0.18784297 -0.008601413 1.2721908 0.018757153 0.87706757 0.9580005 0.8012783 0.7166293
0.8741657 0.07565432 0.91326106 -0.2529892 0.81531596 0.8758187 -0.062438183 1.0036888
1.0187026 0.048526272 -0.26703012 0.86417 0.9013367 -0.021091852 0.74586064 -0.14772858
0.9754993 1.1595156 -1.9492104 -0.2605477 -0.16791081 0.045542166 0.7465577 2.2703538
0.9693723 0.2861166 1.3841152 -0.051520966 0.0052701784 0.17475902 0.23095566 0.799932
-0.31055605 0.03515525 0.0031570517 0.863743 -0.08635067 0.55103195 0.009535376 0.033573102

fc3.bias f4 [2]
00000000: 2bde a1be 2c66 b5be
-0.31614813 -0.35429513
