dynamics/src/drl/outputs/RobotOptEnv/20220719-104109/models/dqn_checkpoint.pth (torch, 74071 bytes, 6 tensors)

fc1.weight f4 [128, 6]
00000000: 9f2c 81bc f809 823d 1f1e 3fbe 5b31 2abe
00000010: 6081 c73e e2e5 443e 3bed 4dbe 07fe 82be
00000020: d761 323b b01c 613d af45 32be 637d a33d
00000030: eb33 a83e 199c f93d 43a4 3e3e 95e6 403e
00000040: cc33 b23e 2318 9cbe a4a7 903e 6d2e 893e
00000050: cefb 82bd b6b1 813e 7623 cbbe 50f9 abbe
00000060: 30dc e83d d9c4 8a3d ca85 69bd 8fe3 d7bd
00000070: ff6e 9fbe 6bc2 3abd e73f c73e 3b70 24be
00000080: 5b49 803d a0c1 ad3e bf7c 9f3e 7a81 ca3e
00000090: 993e 6abe aba5 383e d0c6 38bd 998a 4abd
000000a0: 7454 533e 602b 6d3e 1d9f ae3d 3798 9f3d
000000b0: 27b5 553d 86b7 7abe d97e 183d 0d5c a13e
000000c0: 86dd 653d 9880 2f3d f69e 8bbe 9094 9a3e
000000d0: b806 33be 19e8 4fbe 18fa c33d 9106 66be
000000e0: dcec 85be c9a7 a33e 1d40 5dbe bdd5 02be
000000f0: 4836 d83d 0029 ef3d cca4 79be 473e e6bc
00000100: 8e6f a6be c62e 883e 0a0b 713e dfcf 21be
00000110: 06bc 5fbe f8e7 eb3c adef c33e 0016 5e3e
00000120: 98f0 33be 7441 e2bc e412 61bd da10 6d3e
00000130: 2c9c 55be 4c49 95be 7a28 86be 3f46 b33e
00000140: cd9b 7fbe 0856 b53e 17f6 84be a0df 543e
00000150: 0e80 103e 5e36 8d3e e490 c1be 43e2 ae3e
00000160: eb01 ba3e ebfe 39bd 7d80 80be 6045 723e
00000170: 2e62 c3be c9f9 96be f26a 38be 0fa3 dfbd
00000180: e609 453e 340c a63e bd5a b4be f903 023e
00000190: 72b8 30bb 998b 563e f0d6 94be 6d3d 45bd
000001a0: b098 433e 7465 863e f7ae 4b3e 95d1 81be
000001b0: d94f c5be 326e 9d3d 4117 613e 7c44 243d
000001c0: 51a1 01be f5b8 8a3e 0ba0 a6be b1b9 b8be
000001d0: d63d b23d 416b 97be 70f9 9a3e e076 c33e
000001e0: ea8e 1a3d 613d a6be 6a4c 06be 5c93 263e
000001f0: e055 553d 8501 4dbe e32c c03e 5162 c2be
00000200: a9f2 babe f129 823e 5260 aebe 6083 cabe
00000210: 249e 613e e54b 8c3e 0af7 b93e 88ec 1a3e
00000220: 32c9 85be c805 513e bcc5 563e f298 22bd
00000230: b4ff c03e 2ac0 4f3e 47a8 4d3e 82b4 acbe
00000240: 5227 c23e 3e6b 86be 8923 893e f638 723e
00000250: a91b da3d 1ab2 9a3e 36e0 26be 9e62 5bbe
00000260: 3d4b 8c3e 83b7 353e 558d cdbe a6a2 fbbd
00000270: a9a6 adbe 3969 4fbe 4e11 4bbe 8ed9 3cbe
00000280: a24d 713d d8cd 40be 4051 963e c5d3 9fbe
00000290: 0796 ad3e c177 53be 5457 df3d 8661 a83e
000002a0: e178 7bbc 386f b73e 03cc 43be 7d19 7cbe
000002b0: 7315 a03e c84a cb3d 6ccf 673e bd5c 8abe
000002c0: 598f a63e e15d 82be 4cac 913e 0f2c cbbc
000002d0: 15a9 91be 913d 9c3e 0d16 80be b47a 49bd
000002e0: 8f75 213d 388c e03b 38a2 113e 8913 8fbe
000002f0: b7ef 9cbc 9631 cf3e 4903 4f3e dbf2 cc3e
00000300: 568a c53e fe44 cbbe d9a8 4ebd 81a9 ec3d
00000310: 3b99 21bd 521a 7b3e f205 4dbe dcc6 85be
00000320: a639 9dbe e51a edbd 56c6 473d f394 283e
00000330: 386f efbc b1bf 893e d46a 063e 0576 37be
00000340: 61fd 20bd 2afb 9f3d f10b e43d 9d12 4ebd
00000350: b818 663c 7d41 7abd 1ec0 a13d 808a 71be
00000360: 8ae3 f9bd eeb8 673b 5208 63be c81d 02be
00000370: 72ba 8f3e 5e3b 033e 43be 59be 1a16 2b3e
00000380: 82bf 7b3e 994c bf3d 5634 083d d1d8 77be
00000390: d82e afbd 421c 0e3e d767 a03e d013 84be
000003a0: f873 49be d35f a6be af9e ad3d 4fb1 3f3e
000003b0: 4e5c 3a3e 3214 cebd d6b3 cc3e 6a48 db3d
000003c0: 6b49 8fbe 58ab 903d 6fab 3dbe 88da f1bd
000003d0: 8369 2bbe 5dc8 83be 5f28 75be 3fb9 b8be
000003e0: 623a 9ebe 4bbc 7bbe 88a2 c9bd 27f1 75be
000003f0: 90bd 7dbe c65d 75be 3f58 cfbe 42e9 613e
-0.015768347 0.06349558 -0.18663834 -0.1662039 0.38965893 0.19228318 -0.20110027 -0.25584432
0.0027218962 0.054959 -0.17409395 0.079829 0.3285211 0.121879764 0.18617348 0.1883796
0.34805143 -0.30487165 0.282529 0.26793233 -0.06395684 0.25330895 -0.39675492 -0.33588648
0.113701224 0.06775827 -0.057012357 -0.1054145 -0.3113937 -0.045595568 0.3891594 -0.16058438
0.062639914 0.33936787 0.3114986 0.39551908 -0.22875442 0.18031947 -0.045111477 -0.049448583
0.20637685 0.23161077 0.08526442 0.077927046 0.052174713 -0.24484071 0.037230346 0.31515542
0.056119464 0.042847246 -0.27269715 0.3019147 -0.17483032 -0.20303382 0.09569186 -0.22463442
-0.26157272 0.31963947 -0.21606489 -0.12776847 0.10557228 0.11677742 -0.24379271 -0.028105868
-0.32506984 0.26598185 0.23539367 -0.15801953 -0.21849069 0.028797135 0.38268796 0.2168808
-0.17572248 -0.027619101 -0.054949656 0.2315096 -0.20860356 -0.29157484 -0.26202756 0.3501453
-0.24961777 0.354172 -0.25969002 0.20788431 0.14111349 0.2758054 -0.37805855 0.34157
0.36329588 -0.045409124 -0.2509803 0.23659277 -0.38160843 -0.29487446 -0.18009546 -0.10919773
0.19242057 0.32431185 -0.35225478 0.12696828 -0.0026965407 0.2095169 -0.29070234 -0.048154283
0.19101214 0.26249278 0.19890963 -0.2535521 -0.3853748 0.07687034 0.21981527 0.040104374
-0.12659194 0.27094236 -0.32543978 -0.3607917 0.087032005 -0.29574016 0.3026843 0.38176632
0.03773395 -0.32468703 -0.13115087 0.1626715 0.05208385 -0.20020111 0.37534246 -0.37965634
-0.3651326 0.25422624 -0.34057862 -0.39553356 0.22032982 0.27401653 0.36321288 0.15129292
-0.26130062 0.20412362 0.20973867 -0.03969664 0.37695086 0.20288149 0.20083724 -0.33731467
0.37920624 -0.26253694 0.26784924 0.23654541 0.10649807 0.30214006 -0.16296467 -0.21424338
0.27401152 0.17745785 -0.4014689 -0.12286882 -0.33916214 -0.20254983 -0.1983082 -0.18442366
0.058911927 -0.18828523 0.29358864 -0.31216255 0.33903524 -0.20651151 0.109053284 0.32886904
-0.015348644 0.3582704 -0.19120793 -0.24619098 0.31266364 0.09926373 0.22637719 -0.2702388
0.3253124 -0.2546225 0.28451765 -0.024801282 -0.28449312 0.3051572 -0.25016823 -0.049189284
0.039418753 0.006852653 0.14222038 -0.27944592 -0.019157274 0.4046752 0.20216097 0.40029034
0.38582104 -0.39701074 -0.050453994 0.11555768 -0.039452773 0.24521759 -0.20021799 -0.2612828
-0.30708045 -0.11577395 0.048773132 0.1646307 -0.029227838 0.2690406 0.13126689 -0.17916115
-0.03930414 0.078115776 0.1113509 -0.05031072 0.014043979 -0.06109761 0.078979716 -0.2358799
-0.12201603 0.003535803 -0.22171143 -0.12706673 0.28071934 0.12815616 -0.21263985 0.1670765
0.24584773 0.09340782 0.033253036 -0.24203803 -0.085538566 0.13877967 0.31329224 -0.25796366
-0.19673145 -0.32494983 0.08477532 0.18719982 0.18199274 -0.10062446 0.39980954 0.10707171
-0.279857 0.07063931 -0.18522428 -0.1180926 -0.16739468 -0.25738803 -0.23941182 -0.36078832
-0.30903918 -0.24583547 -0.098454535 -0.24017774 -0.24779344 -0.23961553 -0.40497014 0.22061637

fc1.bias f4 [128]
00000000: 2d0b c8bd 6939 9b3d 098c 103d 7747 783d
00000010: 2258 a4bd b249 8bbe 1d4e 4a3e 9dab 94bd
00000020: 1ff6 9abe aeeb c93e 1e5a 5cbe c092 973d
00000030: a467 853e 2745 fdbd 34e4 cb3d 4500 3fbe
00000040: c704 26be 6823 633e 5c4a 0b3e af54 c03d
00000050: fb04 5e3e a747 223e 85cc 00be 498e c53d
00000060: 24de 4d3e b99b 9bbd 2be8 bfbd f34e 23be
00000070: 822f 72be 0d53 c7be 5a79 1b3e 4a8b 82be
00000080: dc88 61be eadf ba3d df2d 8dbe 554d 26be
00000090: d7c5 79bd ccd8 8cbc 999b 07bd a538 afbe
000000a0: 9c58 9dbe 9266 9e3e b53b 9dbe 0af8 8fbe
000000b0: 7d59 cdbe c74e aabd 16c0 d93d 8c42 4d3e
000000c0: 2972 d1bd 04e3 883c 14ca 8bbe 616c c339
000000d0: 1f5e d43c 22fe d03e a520 d03e 78d1 323e
000000e0: 8a36 e0bd 9d52 cb3d 9238 863e 08e1 0a3e
000000f0: 1229 973e 1102 17be b7ee 553c fb80 9bbe
00000100: de83 91be 23a5 af3e fb5f aabe 874e 96bc
00000110: 70f5 75be 0fe5 bd3e 5cad 863e b057 c5be
00000120: d45d 963e c23c d0bc 052b 1b3e d45b 57be
00000130: 5b33 15be 6b68 c6be 52d1 553d 7079 4e3e
00000140: 50a8 0dbe 6bc0 023e 0696 673c ffcf b63e
00000150: 42e0 6dbd 08f3 eebd 11cf 73be bdbe 733e
00000160: baf1 a2be 9998 cfbe 2978 e2bd 3f16 be3e
00000170: de60 aabe 152d 8cbe 0144 a93e aa18 b13d
00000180: d9c8 43bd d1a1 913e e084 c33e 9e18 6f3d
00000190: e034 b4bb 01a5 cabd 3197 ce3e 15ac 35be
000001a0: 1488 753e 2398 c63e 5c6b 9f3d aaa7 913d
000001b0: a25c 653e e0fe ff3b fa9d 98bc 52d6 ba3d
000001c0: e656 673e 987e 12be 0e17 313e 8629 17be
000001d0: 4f00 cabe a26c 99be d22c bd3e 1928 8ebe
000001e0: 64f1 bbbc b6aa 56bc 88ed 413e 29e9 8cbe
000001f0: d10a b23e a528 953e 43f4 cbbe dfd2 773e
-0.097677566 0.075793095 0.035289798 0.06061503 -0.080246225 -0.27204663 0.1975636 -0.07259295
-0.302659 0.39437622 -0.21518752 0.07401037 0.26055634 -0.123667054 0.09955636 -0.18652447
-0.1621276 0.22181475 0.13602585 0.09391152 0.21681587 0.15847646 -0.12578018 0.09646279
0.20104271 -0.07598061 -0.093704544 -0.15948085 -0.23650935 -0.3893055 0.1518301 -0.25496894
-0.22024864 0.091247395 -0.2757406 -0.16240437 -0.06097969 -0.01719322 -0.033107374 -0.34222904
-0.30731666 0.3093763 -0.30709615 -0.28118926 -0.40107337 -0.08315807 0.106323406 0.20044917
-0.102268524 0.016709812 -0.2730261 0.00037274047 0.025923787 0.40818888 0.40649906 0.17462718
-0.109479025 0.099278666 0.26215035 0.13562405 0.29523522 -0.14746882 0.013057402 -0.30371842
-0.2842092 0.34305677 -0.33276352 -0.018347992 -0.24019408 0.3708882 0.26304138 -0.38543463
0.2936846 -0.025419597 0.1515313 -0.21031123 -0.14570372 -0.3875154 0.052201577 0.20163512
-0.13833737 0.12768714 0.0141348895 0.35705563 -0.058075197 -0.11667448 -0.23809458 0.2380323
-0.31825048 -0.4054611 -0.11058075 0.37126347 -0.3327703 -0.27378145 0.33059695 0.086472824
-0.047798965 0.2844377 0.38187313 0.058373086 -0.0054994673 -0.09894753 0.40349725 -0.17741425
0.23977691 0.38787946 0.07784149 0.071120575 0.22398618 0.007812366 -0.018630017 0.091229096
0.22591743 -0.14306104 0.17293951 -0.14761934 -0.3945336 -0.29965693 0.36948258 -0.27764967
-0.022942252 -0.013102224 0.18938267 -0.27521637 0.34773877 0.29132572 -0.39834794 0.24201535

fc2.weight f4 [128, 128]
00000000: b46b 133b 7ffb 9a3c b00c 7e3d d74b 953d
00000010: 7a42 053d a2a7 cd3b b054 5bbd e31a 9dbd
00000020: ac6e c8bb e0d9 573c 624b 8cbd 9446 ca3c
00000030: 8a61 323d 148c 233d d3ef 8aba 129a b43d
00000040: 85b5 04bc d62c 2c3c b91a 033d 3cb3 89bd
00000050: 41ff 503d d99f 683d 3e6c d9bc 5fb5 98bd
00000060: 075d 203b 6d8a c8bb 7433 a23d 5dd8 88bd
00000070: e768 883d f64a 4d3d 9d5e 58bd 9f90 053d
00000080: 080c 8cbd 9bec 483d 6590 52bd cac8 edbc
00000090: 8ac8 123c ef95 25bd e41b 6b3d 7e34 203d
000000a0: 4802 bc3a 921f 0ebd c43a 18bd de4d 6c3c
000000b0: c54a 9cbd 66a4 663d aaaf 87bd f2fd 3abd
000000c0: 3172 30bd 5714 c83c aad2 6b3d f78f 7c3d
000000d0: a74d 6f3d a7e9 a9bd e841 a4bd 1326 a6bd
000000e0: 51e2 8e3d 6b9d ec3c b6f0 9c3d 56d5 50bc
000000f0: 7791 c63b 004e 403d 65c0 733d f26e a1bb
00000100: da1a 0e3d af41 35bd 133f 853c cc94 a3bd
00000110: 6d75 e33c b1cc 93bd 24a6 9f3d 9944 01b8
00000120: 80fb 3f3d 97dd 9d3d 22b6 703d 8803 1a3d
00000130: 1f6d a3bc e3df b13c 7c28 afbd e885 403d
00000140: b62e 1a3d fa11 e1bc 6a95 3abc 2f33 2bbc
00000150: 0e73 03bd 36c9 903d 612e e4bc 45cc 88bd
00000160: 0901 a9bb 3577 863d e4e0 643d bda3 ecbc
00000170: 4716 413d d0ea 403c d0ae 15bd b269 733d
00000180: 7e61 b4bd dd4d b2bb c798 c23c c070 a2bc
00000190: b9b8 693b 87d8 223d 4f00 a03c bed2 93bc
000001a0: b027 56bd ce32 0cbd 0bc5 2abd 2a5a aabd
000001b0: 4e87 6dbd 147e 8cbc 80e3 48bd b7af 613d
000001c0: 4532 85bd 4ae6 6fbd 8000 fa3c 0ab2 45bd
000001d0: 70ab 33bc 6682 52bd 3012 613d 2486 b3bd
000001e0: 8741 8a3d 4afa 16bd 0591 bebc 76c7 a8bd
000001f0: 2cd8 aebd 47ca b4bd 8731 1a3b 7d24 8e3c
00000200: 045a 7e3c 9e60 9ebb 9fe2 063d 5ef2 7dbd
00000210: cae5 653d 232d 0cbb a161 b0bb cc61 4fbd
00000220: f242 f6bc 9af0 953d 4cdd 383d 8f72 6abc
00000230: 40b4 4bbd 2d1a 633d 8b34 163d f02a 78bd
00000240: 2585 dd3c 73c7 acbd 83da 84bd 6f2a 053d
00000250: b169 7a3d 112d 8f3d f592 d03b 2a6b 453d
00000260: ee06 e13b a7bc c83c d63a 04bc 1c0a bb3c
00000270: b512 90bd 1bba acbd 222f 913d 16ae 92bc
00000280: c34f 803c 8b31 4a3c d5fd b3bd efa8 19bd
00000290: 01e1 b43d 761d 883d c538 7a3d 5d15 36bc
000002a0: 5fbe 34bd 35f4 22bd 4c0e 5b3d 15e0 90bd
000002b0: f5bd 113c 870c fd3c fcd7 813d d0fd 4d3c
000002c0: d82c afbd 53b7 01bd 924d ae3d 44fe 9f3d
000002d0: c376 8ebd d653 20bc ce62 27bc eb02 fcbb
000002e0: 6a56 45bd 0ee1 14bc 715d cb39 2414 a2bb
000002f0: a467 b83c 67a9 793d ac7b b33d d8d5 c4bb
00000300: bae4 11bd b660 b1bd 74d3 de3b fdc6 1b3d
00000310: d5e0 a13d 7ff3 ab3c 6bf8 a93d b2ad a9bd
00000320: c940 1cbd c802 983d 958f a13d de03 883d
00000330: 5f64 8fbd 2836 14bd 96dc 80bc 0f2f 82bd
00000340: 048e 9e3d 88e4 583d b3c9 6a3d e117 9d3d
00000350: ee93 523d 7374 053d 8654 813d fe71 b2bd
00000360: 1b0d 983d d394 0fba 377b df3b f106 abbd
00000370: 934b 063c aff2 50bd 53f7 17bd 054c a4bd
00000380: 6ed8 9d3d 8e41 1bbd 90fb 843d 7df6 68bd
00000390: e4c0 b2bd 799b 27bd afd4 4e3c 4978 a3bd
000003a0: 5cd7 b5bc 0755 823d b9c2 eb3c afb7 ac3d
000003b0: afb2 813c 81c0 1dbd 80e3 8d3c 6afe 8e3d
000003c0: 18be 04bc a525 003d 3b6a 883d 3171 ad3d
000003d0: c59c 653c f0bb 913d b7ab 74bd 589a b4bd
000003e0: b2a7 5b3d 1821 80bc 5bb5 6d3d f584 7fbd
000003f0: 1fa6 cbbc 004c 2fbd a278 10bd 8ee5 f23c
0.0022494616 0.01891875 0.06202382 0.07289856 0.0325341 0.006276087 -0.05354756 -0.07671144
-0.0061167087 0.013174504 -0.06850316 0.024691857 0.04355005 0.03992851 -0.0010600038 0.08818449
-0.008099918 0.010508737 0.032007907 -0.06723639 0.05102468 0.056793068 -0.026540872 -0.07456469
0.002446951 -0.0061200173 0.0791997 -0.06681893 0.066606335 0.050120316 -0.052824605 0.032608625
-0.06838232 0.04905377 -0.051407237 -0.029026408 0.008958945 -0.04042619 0.057399645 0.03911256
0.0014343942 -0.034698077 -0.03716542 0.014422862 -0.07631449 0.056309126 -0.06625302 -0.045652337
-0.04307765 0.024423761 0.05757395 0.061660733 0.058423664 -0.08296519 -0.08020383 -0.08112731
0.0697676 0.028883656 0.076630995 -0.012746176 0.006059821 0.046949387 0.059509654 -0.004926556
0.034693576 -0.044252094 0.016265428 -0.07987365 0.027765954 -0.07216776 0.07795361 -3.0819883e-05
0.04687071 0.077082805 0.058767445 0.037601024 -0.019949494 0.021713203 -0.08552644 0.047002703
0.037642203 -0.027474392 -0.011388162 -0.010449215 -0.032092147 0.07069628 -0.027854146 -0.06679586
-0.005157594 0.06565706 0.055878535 -0.02888667 0.047140386 0.011774734 -0.036543667 0.05942697
-0.08807658 -0.005441411 0.02375449 -0.019829154 0.0035663082 0.039757278 0.019531397 -0.018044826
-0.052283943 -0.03422814 -0.04169182 -0.08317979 -0.057990365 -0.017149962 -0.049045086 0.055099215
-0.06503729 -0.05856923 0.030517817 -0.048265494 -0.010966167 -0.05139389 0.054948986 -0.0876582
0.067507796 -0.036859788 -0.02326251 -0.08241169 -0.08537325 -0.08827644 0.0023528056 0.017351383
0.015524391 -0.004833295 0.032930966 -0.061998717 0.056127347 -0.0021389208 -0.005382732 -0.050630376
-0.030061219 0.07321282 0.04513292 -0.014309539 -0.049732447 0.055444885 0.036671203 -0.060587823
0.027041027 -0.084364794 -0.0648699 0.03251117 0.06113595 0.069910176 0.006365175 0.048197903
0.006867281 0.024504019 -0.008070668 0.022831969 -0.07034818 -0.08433934 0.07089068 -0.017905276
0.015663033 0.0123409135 -0.08788649 -0.037514623 0.088319786 0.06646244 0.061089296 -0.011113492
-0.044126865 -0.039783675 0.05348043 -0.0707399 0.008895387 0.030889763 0.06340024 0.012572721
-0.08553475 -0.031668972 0.08510889 0.07812169 -0.06956246 -0.009785613 -0.010216428 -0.0076907775
-0.048178114 -0.00908686 0.00038788797 -0.0049462486 0.022510357 0.06095257 0.08763823 -0.0060069375
-0.03561852 -0.08661024 0.0068001095 0.038031567 0.079042114 0.020990131 0.08299335 -0.08285083
-0.03814772 0.074224055 0.07888714 0.066413626 -0.07001566 -0.03618446 -0.015730184 -0.06356632
0.07741931 0.05295232 0.05732126 0.0767057 0.051410608 0.032581758 0.0631495 -0.087131485
0.07424375 -0.00054771936 0.0068201083 -0.08350933 0.008196729 -0.05101269 -0.0371011 -0.08022312
0.07707296 -0.037904315 0.06493294 -0.056875695 -0.08728197 -0.040919755 0.01262395 -0.07981927
-0.022197418 0.06363874 0.028779374 0.08433472 0.015832273 -0.038513664 0.017320395 0.069821194
-0.0081019625 0.0312859 0.06660887 0.08468855 0.014014428 0.07115924 -0.059734073 -0.08818501
0.053626724 -0.01564078 0.058034282 -0.062382657 -0.024859486 -0.04279709 -0.035271294 0.029650476

fc2.bias f4 [128]
00000000: 9922 0e3d 64f2 383d d585 413d 4b7a 62bc
00000010: e874 ae3c f118 d8bb 8c06 a4bd 6075 913d
00000020: fe39 163d e4a4 2cbd 74c4 1abd 1a26 ab3c
00000030: fda0 503d b705 9a3d 1c95 99bd 03db 753d
00000040: 86a1 cf3c 4989 4f3d da9d 2a3c d82a 8a3d
00000050: 7570 49bd c9c1 8c3c f5a5 40bc 4a9c 3cbd
00000060: 98fd 97bd a34c fcbb 0124 513b 074a 9dbd
00000070: d523 00bd 615d 79bc ff2e 733d a7b5 2cbd
00000080: 74e2 a53d 7544 b9bc d5df e1bb 5e65 31bd
00000090: d48d 033d f763 9cbd 4333 b0bd f3d8 39bd
000000a0: b2ee e7bb 818c a6bb 3cbc b3bb eab2 93bd
000000b0: f9b1 1b3d 4727 9bbd 891a a6bd d23a 9abd
000000c0: 130d 993c 9347 ac3c 5dd4 afbd 2d0d 5abc
000000d0: 443a 293c 4ca8 b0bd 9d7b 52bc 85b8 83bd
000000e0: 5d99 683d 1979 ef3b 3d22 a2bc c84b 99bd
000000f0: ba66 fd3c a559 fdbc 0baf 933d 632f 593d
00000100: c6f8 1bbc b262 1e3d 3498 7dbd ae9b 4fbd
00000110: 74a1 803c 9626 aebd 7993 ac3d 2c85 56bd
00000120: 6a79 933d 1294 9fbd 8ed8 a0bd f79d 7cbd
00000130: 748d d53c 8687 84bd 6d4a b4bc 4c6c 633c
00000140: 8029 a7bd ab65 c63c 2d86 503d e8b4 b33d
00000150: 9a86 913d 9b75 b0bb 294f 853d fd7c 4fbd
00000160: e8ec 453d db57 553d fb80 6ebd 66c1 62bc
00000170: 218e d23b 0346 093c 3213 6d3c e382 813d
00000180: 858f a43d 72c9 16bc 5a36 d8bc 646a 43bb
00000190: 928a 443d 2e62 3939 d71c 58bd ea84 953d
000001a0: b3f1 923d 4ef2 a3bd 0d03 4e3d 770e 043d
000001b0: 51de 83bd f0ce 8f3c a978 703d 3569 ab3d
000001c0: 322e 8fbd beba b03d fe4c 1dbd 7f18 fabc
000001d0: 5e2c 553d 012d 84bb 8df9 7b3d 663e 833d
000001e0: 6c7c 43bd b80f 103d aa45 503d 0301 51bd
000001f0: f0f7 f7bc 3a32 e33c 3cc1 94ba c66a 3dbd
0.034700964 0.045153037 0.047246773 -0.013823102 0.02129598 -0.00659477 -0.08009061 0.07102466
0.0366764 -0.04214944 -0.03778501 0.020892192 0.05093478 0.07520621 -0.074991435 0.06002332
0.025345575 0.050668035 0.010413611 0.06746453 -0.049179513 0.017182248 -0.011758317 -0.046047486
-0.07421416 -0.0076995655 0.003191233 -0.07680135 -0.031284172 -0.015220017 0.05937099 -0.042165425
0.08099833 -0.02261565 -0.006893138 -0.043309562 0.03211768 -0.07636254 -0.086035274 -0.045372915
-0.0070780152 -0.0050826673 -0.005485086 -0.072118595 0.038011525 -0.07575851 -0.0811053 -0.0753075
0.018682992 0.021030223 -0.08585427 -0.013308805 0.010328833 -0.0862585 -0.0128468545 -0.06431679
0.056786884 0.007308137 -0.019791717 -0.07485157 0.030932773 -0.030926535 0.07211121 0.053023707
-0.009519761 0.038668342 -0.06191273 -0.050685577 0.015701987 -0.085034534 0.08426566 -0.052373096
0.07200892 -0.07791914 -0.078538045 -0.061674085 0.026068427 -0.064711615 -0.022008145 0.0138808
-0.08162212 0.024218401 0.05090921 0.087747395 0.07105751 -0.0053851134 0.06509239 -0.050656307
0.048321635 0.05208574 -0.058228474 -0.013840055 0.0064256345 0.0083785085 0.014469909 0.06323793
0.08035187 -0.009203302 -0.026393104 -0.0029818052 0.047983713 0.0001767955 -0.05276188 0.07300742
0.07175007 -0.080052 0.05029588 0.032240357 -0.06438888 0.01755473 0.05870882 0.08369676
-0.06991233 0.08629368 -0.038403504 -0.030529259 0.052044265 -0.004033685 0.061517287 0.06408386
-0.04772608 0.03517124 0.050847687 -0.051026355 -0.030269593 0.02773391 -0.0011349092 -0.046244405

fc3.weight f4 [5, 128]
00000000: f029 afbd d8e1 973d 1d6d 8c3d 2af8 80bc
00000010: a95e 8e3d 5da2 8b3d abc0 b43d 8995 a13d
00000020: 4f2f 8f3d a01c 7bbd ff2f abbd 9207 003d
00000030: 079d 94bd 8db6 273c 21b8 ba3c 1e94 953d
00000040: 41c7 6bbd 9838 973c d140 0a3b f3ac b63c
00000050: 93aa 96bc ee84 4f3c ddfe 4f3d 4511 c83c
00000060: ab39 be3c 3fdf 8cbd 56e7 78bb 1a9b 9c3d
00000070: d504 343d c2fd 5ebd 6900 503d a462 393d
00000080: 4a4c b3bd 511f 64bd f0d4 4cbd c5b8 88bc
00000090: 9b8f 7dbc cba7 83bd 78e8 553c f099 09ba
000000a0: b5a2 c93c 047d a63d 5a24 78bd ba83 a1bd
000000b0: fb17 913d e407 2a3d 308c 9b3d ffe9 46bd
000000c0: 7359 263d ab07 b53c 5ce2 55bd f594 5f3d
000000d0: 0725 1b3d 04a8 9fbd e68b 853d 51c6 90bc
000000e0: 20db 91bb bb9d 243d cfb7 643d 93b8 af3d
000000f0: 430f 9e3d 2fd5 81bd 86e1 5fbc d06e a93b
00000100: 48bd 423d c6a5 67bc 07a3 123d f7d7 09bd
00000110: 085d dab8 6f9c 07bd 87be 77ba d48e 69bb
00000120: 9685 fb3c c446 313d f239 2dbd 6e37 6ebd
00000130: 4ff3 44bd 2759 803d 08d9 f13c 10e4 ca3c
00000140: 7388 1cba a6a4 2cbd 6527 903d f5ba 563d
00000150: 9b9c 2cbd 7394 283c 3898 81bd ddde 6f3d
00000160: e723 a53c 3f1c b8bc 3925 f23a 1941 133c
00000170: b680 903c 1411 893d bc80 1cbd 92b0 fabc
00000180: f54e f33c ddbe 59bd b708 fb3c 42cd 9d3d
00000190: d540 cebc a4e3 a73d f524 65bc 1be1 7a3d
000001a0: aa43 b0bc 87fe 543d 5658 43bd 959e bb3a
000001b0: 6e9c 4d3d 5680 18bd f0a0 6d3d 27df 0abd
000001c0: cdd5 4cbd 07b0 3b3d 9d34 0f3c 2543 9c3d
000001d0: 14f6 253d b9f5 133c c8af 873d a178 e3bb
000001e0: 0c66 9e3d 7b58 08bd dd97 f2bc c262 f33c
000001f0: 13cd 6dbc 241e cebc 708c 1c3d bc5c 843d
00000200: c12d 26bd baca cd3c 742e 8dbd 9c9c 553d
00000210: 2596 a5bc 1142 d7bb d5c1 a8bd 5deb a7bc
00000220: 4658 8cbb 7a88 253d 5864 b53c 5938 5fbc
00000230: 6641 083c b6ff 9bbb 0447 29bd 58ec 473d
00000240: a33d 81bd 0693 20bd 8e83 c83c 5e7a a53d
00000250: 99ac 993d 23cf 423c 12f1 7c3d d328 f6bb
00000260: 9122 843d 5753 933d 23f4 e2bb eb03 53bd
00000270: 2c8b c9bc 75e6 c9bc 8b94 a9bd ea38 71bc
00000280: 1a1b 6c3d b76d 1fbc e022 b23d acde 76bd
00000290: 000d bcbc afb5 023d 4178 9abd 869a 483d
000002a0: 61cd 723c f5f7 4d3d ba47 44bd f178 afbd
000002b0: f2bb ddbc 683c ae3c 2583 8b3d 54eb 903b
000002c0: a611 2e3c ecac 5d3d a050 c3bc 4c65 fcbc
000002d0: 62ec 61bc 458d 8a3d 2a87 cb3c f927 5bbb
000002e0: 9aca 8abd 7412 41bd d215 70bd f00d a5bd
000002f0: f536 583d fff1 093d 6df4 1e3d 9e20 873d
00000300: 72a7 45bd 8e92 85bc 92f6 b3bb 7153 a6bd
00000310: 87b2 8abc ca38 5f3d af2b ae3d b997 9abd
00000320: 7701 143d 8455 b13c f90f e03b 59be b43c
00000330: 942e 3ebd 2334 d93c 2f98 173d 58f9 723d
00000340: 3bf1 1c3d b028 273d 7ac0 893b 42b7 97bd
00000350: bd1f 643d c78a 143d 31d0 dc3c 39c3 5abd
00000360: 948f 003c 40e3 963d 6522 7a3c 32a6 7a3d
00000370: d633 963d 0942 573d 29bf 55bd ff88 a33d
00000380: c1a2 ddbc f7f9 9bbb f3cd b4bc 4f0a 723d
00000390: dd33 abbd 02d2 793d dfdc 94bd 412a 30bc
000003a0: 2ea4 8abd 4ee0 823d b393 853d 6909 83bd
000003b0: c227 21bd 63be adbc 94f1 04bb 6349 4ebc
000003c0: 6e3e 8bbd 2773 4dbd 3218 f03a b29c 2ebd
000003d0: 3acf a8bd bb87 843d ead7 98bd 208d af3d
000003e0: 3a2f f73c ed26 7cbd f6be 203b 46a2 3f3d
000003f0: eb48 c23c c8a4 9c3d 8592 6f3d da0a 95bd
-0.08552921 0.07416123 0.06856749 -0.015743334 0.06951649 0.06818078 0.08825811 0.0788985
0.06991445 -0.061306596 -0.08358764 0.03125722 -0.07256513 0.010236395 0.022792878 0.07303642
-0.05756307 0.018459603 0.0021095762 0.022299265 -0.018391883 0.01266597 0.050780166 0.024422297
0.023220858 -0.06878518 -0.0037979684 0.07646771 0.04394992 -0.05444122 0.05078164 0.045260087
-0.08754785 -0.05569393 -0.05000776 -0.016689667 -0.015476133 -0.06428488 0.013055913 -0.0005249074
0.024613718 0.081293136 -0.060581543 -0.07886453 0.07084652 0.04151143 0.07595098 -0.048563
0.04061265 0.022098383 -0.052217826 0.054585416 0.03787711 -0.07795718 0.06520824 -0.01767269
-0.0044511706 0.040189486 0.055839356 0.085801266 0.07717755 -0.0633949 -0.013664609 0.0051706806
0.047543794 -0.014138645 0.035800006 -0.033653226 -0.000104123785 -0.03310817 -0.0009450693 -0.003563811
0.030703347 0.043280378 -0.04229159 -0.05815833 -0.0480836 0.062670045 0.029522434 0.024766952
-0.000597126 -0.04214921 0.07038764 0.05242439 -0.042141538 0.010289299 -0.063278615 0.05856215
0.020158721 -0.022474406 0.0018474228 0.008987688 0.0176395 0.066927105 -0.03820871 -0.030601773
0.029700736 -0.053160537 0.030643804 0.077051654 -0.025177399 0.08197716 -0.013985862 0.061249834
-0.02151664 0.05200055 -0.047691666 0.0014314229 0.05019801 -0.037231766 0.05801481 -0.03390422
-0.050008584 0.04582217 0.008740571 0.07629994 0.04051788 0.009030753 0.066253245 -0.0069418703
0.07734308 -0.033287507 -0.02961343 0.029710177 -0.014514226 -0.025160857 0.03821987 0.06463
-0.040570978 0.025121082 -0.06893626 0.052151307 -0.020213196 -0.006569155 -0.082400955 -0.020497972
-0.004282984 0.040413357 0.022142574 -0.013624274 0.008316373 -0.0047607077 -0.04132749 0.04880938
-0.063105844 -0.039202712 0.024476793 0.0807998 0.075036235 0.011890206 0.06175334 -0.007512191
0.064519055 0.0719363 -0.006926076 -0.05151741 -0.024602495 -0.024646023 -0.082802854 -0.014723042
0.057643034 -0.009730748 0.08698058 -0.06027095 -0.022955418 0.03191155 -0.07542468 0.04897549
0.014819474 0.0502853 -0.047919966 -0.085679896 -0.027067158 0.021269038 0.06812123 0.0044225845
0.010624325 0.05411999 -0.023842156 -0.03081002 -0.013789268 0.06765226 0.024844725 -0.0033440574
-0.067769244 -0.04713674 -0.05861456 -0.08059299 0.052786786 0.03367805 0.03880732 0.06598018
-0.04825539 -0.016305234 -0.00549204 -0.08121384 -0.016930832 0.054497518 0.08504426 -0.0754847
0.03613421 0.021647222 0.0068378416 0.022063421 -0.04643114 0.026514119 0.037010368 0.059319824
0.038315993 0.040810287 0.004203853 -0.074080005 0.05569433 0.03626516 0.026954742 -0.053408835
0.007846732 0.07367563 0.015266989 0.061193652 0.07334106 0.05255321 -0.052184258 0.07985114
-0.027055146 -0.0047600227 -0.02207086 0.059091862 -0.083595015 0.060991295 -0.0726869 -0.010752262
-0.06769596 0.06390439 0.06522312 -0.06398279 -0.039344557 -0.021208948 -0.0020285593 -0.012590739
-0.06799017 -0.050158646 0.0018317758 -0.042629905 -0.0824265 0.06471201 -0.07463057 0.08571839
0.030173887 -0.06156056 0.0024527884 0.046785615 0.02371641 0.07648617 0.05848934 -0.072774604

fc3.bias f4 [5]
00000000: 4b50 1d3d 99e3 f93b 4038 7e3d 57a8 acbd
00000010: 8409 89bd
0.03840665 0.0076260087 0.062065363 -0.08430546 -0.06691268
