dynamics/src/drl/outputs/RobotOptEnv/20220719-111500/models/dqn_checkpoint.pth (torch, 74071 bytes, 6 tensors)

fc1.weight f4 [128, 6]
00000000: 074e 1f3d 8dcd d1bd 8c3a 9e3e 2f6c c4bd
00000010: 0bfb cd3e 8ebe 753d 4268 88bd 85a8 a1be
00000020: 9ec0 b9be eb46 b8be 4204 053e 3d90 873e
00000030: 99fa 303e 3670 c6be 1621 053e ca5e 53be
00000040: 30cb 4a3e dd09 653d 8003 e43c f5e1 d2be
00000050: e37f b43e 5483 93bd 7d71 afbd 810b 0e3e
00000060: 145b 56be c0f0 a13e 415b c33e 695a 223c
00000070: b942 553e bb5a b93e fd0b c13c 82ec bbbe
00000080: f16f c7bc eaa3 bd3e cc2d 183e c36e bebe
00000090: 17e5 60be 008c e0bc 1720 983e 4f1e 78be
000000a0: 5705 2b3e 3617 613e 8709 61be 5551 7e3e
000000b0: dd41 edbd 234b 34be 6d43 f23e a739 963d
000000c0: d890 9a3d 56c2 2a3e e807 933e ce3a c93e
000000d0: 025e b5be 9a8d 82bc 9b2f 24bd 06e4 933e
000000e0: 87a2 86be f2d0 853e 36af 3abe 2b63 803e
000000f0: 4f56 dc3d 2474 c2be 5c15 b33e 6bb1 a23e
00000100: e136 993d 4feb bc3e 7cc1 86bc e005 8d3e
00000110: cd24 24bd d2e2 aabe 605e ccbe be10 72bd
00000120: 1529 aabe f6e7 84be e2eb 30bb 8d97 cfbe
00000130: 97a9 84be 54d9 96be 446f c43e ec76 57be
00000140: 0d9f 4d3e 921a 78be a7e6 87bd 6de1 673d
00000150: 3adf 8d3e 25b1 ce3e a758 063e 2b35 56be
00000160: 3565 17be f530 afbe 816f cfbe f82b b0be
00000170: 563d c1be c149 56bd bc39 4bbe 9c00 a5bd
00000180: 56b4 8c3e 9251 7b3e bf95 ab3e ee19 37be
00000190: 2453 d73d c8c3 e9bd 2aaf fd3d 8dec 853e
000001a0: bbaa 63be ebe4 1b3e a3b3 aa3e d5d0 3c3e
000001b0: 54cb 78bd f8f8 1fbe 41ec 30be 98ee 9ebe
000001c0: ea59 9a3e ab34 ccbe 344e 3a3e 9dd3 213e
000001d0: b96e 55be c773 d5be e9d0 bc3e e278 3abe
000001e0: da01 1a3e 9c37 bdbe 5a7e 4ebe 72cd 71be
000001f0: 1b9d 0b3e c3e0 733e 237d af3c 4f56 16be
00000200: 3166 133e abe4 c3be 7822 a3be 3578 9ebe
00000210: 789e 00bc 5d62 a2bd 2966 c03d d148 3c3e
00000220: 3e24 d63e 779e 8c3e b836 8a3e 63f5 703e
00000230: 64b5 29bd fb80 533e 334a 7dbe bf4c 3b3e
00000240: 5bab 80be 7674 cfbd fd18 86bd 938d 94be
00000250: b28a 393e 2b1a 98be 03fe 98be b9a0 9b3e
00000260: c494 d7bd 4b4c e4bd f449 bd3e 24d8 1cbe
00000270: 2018 09be 1019 bdbd 00a1 dcbd c5cd 5f3e
00000280: e098 a93d c166 2339 25f0 cebe 836b a4be
00000290: 51d9 9b3d 9913 963e dde8 863d 7a3c 8cbe
000002a0: 2542 a6be ca10 92bc 6506 1e3e 067a 06be
000002b0: 81d1 4ebe 9753 313e d321 10ba 4c14 ddbd
000002c0: 041d 983e 7f28 54be ebbd c0bd 8d01 7a3c
000002d0: 1e22 523d 6e54 a83e 307c 833e 0cff 8dbd
000002e0: e12b 4d3d a40a 41bd 063b 303e 6702 91bd
000002f0: b073 c83e fbbe 923d 4e82 b33e 0517 32be
00000300: 4f71 9c3e c123 1d3e 0480 8bbd 65d2 7bbd
00000310: 1145 8d3b 5c0a 0fbe 7432 c6be 9f1f c1be
00000320: 1ea1 0d3e 2bbe 203e b5b0 7b3e ec0d 853e
00000330: 5762 5a3b 003d 9ebd e881 d0bd 06bf b2bd
00000340: 4b97 ccbe 34cb dc3c 66f1 cabe 4c3f 9eba
00000350: b657 313d 414e 013d e8a5 c93e 9b5d 56bd
00000360: 310e a3be 643c a6bd cd90 40be bdd4 83bd
00000370: cfec e43d 900f 7cbe efba 3dbe 0c10 4b3e
00000380: 5ed5 1abd 6020 bcbd 2492 b33e 1e2c 973e
00000390: 56fb a9bd 4b3e ba3e 945e c5be 771c 053e
000003a0: af62 ea3c 0156 c83d 0e40 a3be 573d 24be
000003b0: 5035 1cbe 9bd7 95be d3e8 8dbe 623b 02be
000003c0: c5c9 cebe f0f4 1f3a 6b84 4cbe ecc4 7d3e
000003d0: 7754 afbe f86a b13e 8405 463e 7b3a 1f3e
000003e0: 93c2 90bd 9e5a e938 8c5f 813e 1d23 74be
000003f0: 5332 e43d b948 0fbe 19ea bd3e be45 1b3e
0.038892772 -0.10244284 0.30904043 -0.09590947 0.40230593 0.05999618 -0.066605106 -0.31573883
-0.36279768 -0.35991606 0.12989905 0.26477233 0.17283095 -0.38757485 0.13000903 -0.20641628
0.19804072 0.05591761 0.0278337 -0.41188017 0.3525382 -0.07202783 -0.08566568 0.13871576
-0.20933181 0.3162899 0.3815556 0.009909251 0.20826234 0.36202034 0.023565287 -0.3670388
-0.02434537 0.3703912 0.1486122 -0.3719388 -0.21962391 -0.027410507 0.29711983 -0.24230312
0.16701256 0.2198151 -0.2197629 0.24835713 -0.11584828 -0.17606787 0.47317067 0.07335215
0.07547158 0.16675696 0.2871697 0.39302677 -0.35423285 -0.015936662 -0.040084463 0.28884906
-0.26295874 0.26135975 -0.182309 0.2507566 0.107586496 -0.37979233 0.34977233 0.31775984
0.074811704 0.36898276 -0.016449682 0.27543545 -0.04007416 -0.33376175 -0.39915752 -0.059097998
-0.33234468 -0.25958222 -0.0026996066 -0.40545312 -0.25910637 -0.29462683 0.3836614 -0.21041459
0.20080204 -0.24228886 -0.0663579 0.056611467 0.2770937 0.40369526 0.13119756 -0.2091872
-0.14784701 -0.3421704 -0.40514758 -0.34408545 -0.37742108 -0.05231643 -0.19846243 -0.08056757
0.27481335 0.24542835 0.33512685 -0.17880985 0.10513905 -0.114142954 0.123869255 0.26157036
-0.22233097 0.15224044 0.33340177 0.18439038 -0.060740784 -0.15622318 -0.17277624 -0.31041408
0.30146724 -0.39883932 0.18193895 0.1580338 -0.20843019 -0.41689894 0.36878136 -0.18210176
0.15039769 -0.3695649 -0.20165387 -0.23613527 0.1363415 0.23816209 0.021421975 -0.14681362
0.14394452 -0.38260397 -0.31862235 -0.30951086 -0.007850282 -0.079289176 0.093944855 0.18387152
0.41824526 0.2746465 0.26994872 0.23531108 -0.041432753 0.20654671 -0.24735336 0.18290995
-0.25130734 -0.10129635 -0.06547735 -0.29014263 0.18119314 -0.29707465 -0.29881296 0.3039606
-0.10526422 -0.11147364 0.36970484 -0.15316826 -0.13388109 -0.09233296 -0.10772896 0.21855839
0.08281112 0.0001558317 -0.4041759 -0.32113275 0.07609809 0.29311827 0.06587384 -0.2738989
-0.3247234 -0.017830271 0.15432127 -0.13132486 -0.20197107 0.17317043 -0.0005498204 -0.10794887
0.29709637 -0.20718573 -0.09411224 0.015259159 0.051302068 0.32876915 0.25680685 -0.06933412
0.050090674 -0.04712929 0.17210016 -0.07080536 0.39150763 0.07165333 0.35060352 -0.17391594
0.30555198 0.1534567 -0.068115264 -0.061479945 0.004311212 -0.13968796 -0.38710368 -0.37719437
0.13830993 0.15697543 0.24579127 0.25987184 0.0033322775 -0.077264786 -0.10181028 -0.08727841
-0.39959177 0.026952364 -0.39637297 -0.0012073307 0.04329654 0.03156877 0.3938439 -0.052335363
-0.31846765 -0.08116987 -0.18805237 -0.06437061 0.1117798 -0.24615312 -0.18528341 0.1983034
-0.03780114 -0.091858625 0.35072434 0.29525846 -0.08299892 0.3637565 -0.3854872 0.1299914
0.02861151 0.09782029 -0.31884807 -0.16039024 -0.15254712 -0.29266056 -0.27716693 -0.12717965
-0.40388313 0.0006101867 -0.19972388 0.24782151 -0.3424413 0.34651923 0.19338042 0.15549652
-0.07068362 0.000111271846 0.2526821 -0.2384152 0.11142411 -0.13992585 0.37092665 0.15163323

fc1.bias f4 [128]
00000000: 34d9 413e 3da8 3f3e d336 0bbd 3bac c5be
00000010: 4eca df3c 5894 af3e e8a2 903d 6165 41be
00000020: 1458 a4be d017 85be fba6 e5bc 2d19 8d3e
00000030: cad7 223e d5a3 2d3e 8f60 84bd 4905 07be
00000040: f55e 013d f3b3 ffbb eb9d 11be d5a4 a33e
00000050: 9a64 5a3d 7a6d 8cbd 37f2 413e c80f 403e
00000060: c8ce a3be 28d2 98bd 8a3b 923e 6b0e c43e
00000070: 1867 40be 937b c9be 0f76 aabe 737a 0dbe
00000080: e8a2 f4bc 8180 cd3e a448 333e 654e bb3e
00000090: 01e4 013e ac37 d43c 4492 173d ea73 cabe
000000a0: ad34 493e 6011 eb3d b1f6 213e ec02 553e
000000b0: dc4e aebe 5293 cb3d 4afb 91be fee7 09be
000000c0: 422b a23e 7493 92be 9314 183e 1a76 0d3e
000000d0: bfe8 9b3e c3bd 363e 45b5 1c3e 6a58 c53e
000000e0: a5bb a1be 26a3 ab3e 0be6 8abe 5d14 0c3e
000000f0: 5ee4 b3be a2b0 abbe c8fe 713e 117d f23d
00000100: ffa9 14bd 0cfa edbd 3820 833c d35a aa3e
00000110: e9f9 bb3e cbbd 453e 8a99 693d a652 2e3d
00000120: df9c 45be d0c7 323e 12b1 c5be 9c66 abbe
00000130: c8f7 c63e 6344 5bbe 32cf 05be 9243 ac3d
00000140: d046 bdbe 5f16 aabe de76 f03d 9e3b 9cbe
00000150: 984c c83d 2b98 c3be c526 253e 43a6 8e3b
00000160: 0083 d1bd fbb4 88be b492 8dbd 0b04 d23d
00000170: f384 d53e c09f 203e bfd8 f53c 09fd b33e
00000180: 3e34 c13e 3cd7 b63e 33a8 2dbd ae0c 9bbe
00000190: cec3 0dbc db8b 99be 2361 5e3e 6c6f 1cbe
000001a0: 37da 683e 9ac2 bfbd 22a2 c23e 165d 1f3e
000001b0: c001 dcbd 2af4 f9bd ec65 a43e 3f04 663c
000001c0: ff03 5ebe 8f4c 773c 42ca 78bd 4d5f b53e
000001d0: cadc 673e 5bd2 9c3e 7300 a8bc 433b 9fbd
000001e0: 7afd babe e4f5 c13e 2072 5f3e 7212 223e
000001f0: 8399 53be 3ad1 c1be b3ba bb3e bf62 653e
0.18930513 0.18716522 -0.03398783 -0.38607964 0.027318146 0.34292865 0.07062322 -0.18886329
-0.32098448 -0.2599473 -0.028033724 0.2755827 0.1590263 0.16957028 -0.064637296 -0.1318561
0.0315847 -0.007803434 -0.14220397 0.31961694 0.053318597 -0.068568185 0.18940054 0.1875602
-0.319937 -0.07461959 0.2856105 0.3829225 -0.18789327 -0.39352092 -0.33293197 -0.13816242
-0.029862836 0.40137103 0.17508179 0.36583248 0.12684633 0.025905453 0.037004724 -0.3954156
0.19649 0.114779234 0.15816762 0.20801896 -0.3404454 0.099402085 -0.2851203 -0.13467404
0.31673628 -0.28628123 0.14851598 0.13814583 0.3045101 0.17845826 0.15303524 0.38544017
-0.31588474 0.3352291 -0.27128634 0.13679643 -0.35135168 -0.33533198 0.23632348 0.11840261
-0.036294933 -0.11619958 0.016006574 0.33272418 0.36714104 0.19310682 0.057031192 0.04255929
-0.19298123 0.17459035 -0.38611656 -0.33476722 0.38860917 -0.21412806 -0.1306732 0.084113255
-0.36968088 -0.33220193 0.11741422 -0.30514234 0.09780234 -0.38202032 0.1612807 0.004353316
-0.102300644 -0.26700577 -0.06912747 0.102546774 0.41702995 0.1568594 0.03001058 0.35153988
0.3773517 0.35711086 -0.042396735 -0.3028311 -0.0086526405 -0.29989514 0.21716742 -0.15276879
0.22739492 -0.09363289 0.38014323 0.15562853 -0.10742521 -0.12204774 0.3210901 0.014039098
-0.21681212 0.015093937 -0.060739763 0.3542427 0.22642818 0.30629238 -0.020508027 -0.07774975
-0.36521512 0.37882912 0.21820879 0.15827349 -0.20664029 -0.3785494 0.36665878 0.2240095

fc2.weight f4 [128, 128]
00000000: 76be 79bd 270b 21b9 781b b9ba 0a29 4d3d
00000010: 3ea5 8f3c 3aab 3ebc 0240 06bd bd80 7cbd
00000020: 5896 a43d 7a68 023d 055b 8ebd 7ea2 41bd
00000030: 892f a2bd 14f8 b13d 2252 8a3d ad02 cebc
00000040: 2f03 5fbc a74f 19bd 8869 82bd 5d99 d9bc
00000050: 751d 97bb 4adc 86bd 148e 473c e485 d6bc
00000060: 663f 02bd a805 89bd a398 54bc ad4a 203d
00000070: eece 61bd 62b4 9d3d 8132 f2bc ff7e ad3d
00000080: 801b a2bc ee13 0dbd 2b1c f53c 157f 7cbd
00000090: 6d29 8dbd 473c ec3b e69c 1eb9 838e 44bc
000000a0: 25f9 8a3d 4819 c53b 1f73 4dbd 7bf1 efbb
000000b0: 4902 423d dd0a 9b3d 4f9b 9a3c e13c 8dbd
000000c0: 2f26 88bd 12d2 75bc 8ee0 693d 90bf f83b
000000d0: f632 8abd 48c8 383d 180d 78bd 4a40 35bd
000000e0: fa32 b2bd 1e97 a3bd 64ee e2bb 7f1e 1b3d
000000f0: 3024 adbd d379 d2bc bf16 a6bd e7e1 43bd
00000100: 980a a33d 3839 443c 0a77 943d 80b9 dcbc
00000110: 6c8b b73c c105 1cbd 77a5 a8bb f7af 23bd
00000120: 69a4 553c a632 fcbb 53c2 4e3d 3760 da3c
00000130: 6afa 57bd 882c 733d c67a 283d a609 583b
00000140: 788b 58bd 24ce 5bbc 99e6 953c bf6b 5dbd
00000150: ff43 823d 7d50 113d 6e18 a33d d045 ad3d
00000160: cb7d edbc aa63 383c 4140 f9bb c1f7 98bd
00000170: edd3 a1bd 6703 6e3d 2fab 9d3d 29b7 073d
00000180: 62ea ad3c f6c9 adbd c24a 47bd 321d a2bd
00000190: b03d ac3d 1d04 673b 8ee4 873d e269 8c3c
000001a0: fbf3 8dbd 7cdb 8dbd f421 913d f9a6 e6bc
000001b0: f9da 69bd 806d 683d 02f3 3cbd 273a 2cbd
000001c0: cd4d 593d b31a 8e3c 4ddc 8a3d 50ee 8bbd
000001d0: 5708 313d 9d99 9d3d ed8c 3fbc 7696 f4bc
000001e0: f899 86bd 9e54 64bd c285 97bb 6c4b 0a3c
000001f0: 6769 743d 3a0a 683c ff0f b5bb e12b 903b
00000200: 6e2e 84bd 8382 533d 5388 4d3d 8cbd 3e3d
00000210: db9b cd3c 2cd4 92bd 3fd6 b6bc e160 c53b
00000220: e2d3 e0bc c73c 48bd 0c05 afbd 4008 01bd
00000230: ba9f 953d 5fc6 36bd f059 7cbd 9071 9f3d
00000240: 4dd4 69bc 5b0e 45bd cdd4 e6bc c85e e6bc
00000250: da8f 9f3d ee4e fd3c 9bdf c53c 3582 8dbc
00000260: 9de8 2bbd 7709 93bd 1fe0 743d c032 6fbd
00000270: 14bf 8bbd c7ff f3bc fbc5 a4bd e031 9bbd
00000280: 852b 74bd 929a 763d b4a4 a9bd 7e3e 0f3d
00000290: 8551 6d3d fbf9 0ebd 4886 893d d5c4 323d
000002a0: d1d7 8d3d d331 a93b cf47 21bd 23f2 d7bc
000002b0: af4d 8c3d 5078 603d 842a a03d 6360 203d
000002c0: c60a a73d 3ab3 f0bc c23c c3bc e1d1 763d
000002d0: 8d56 6e3d 8ab7 1e3d 0cda a13c 6270 a5bc
000002e0: 881e 7ebd 6ad3 a73d f434 89bc f83c b3bd
000002f0: 8165 ccbc 02e4 863d f2c3 31bd 3dac 3b3c
00000300: 71b8 443d fd12 a3bd f5c6 793b 6b9a 0ebc
00000310: 7dd5 59bc a064 b4bd 48fb af3d a8fd 6bbc
00000320: 3d16 163b f4a8 aebd e76f d2bb 8ce9 983d
00000330: f933 a83c 1dd8 b33d 8d7a a8bd d68a c639
00000340: 0d81 2e3d 5379 67bd 5eda 863c 28f0 89bd
00000350: f188 4bbd 8b90 77bd e6a8 44bc 5fab 403d
00000360: e796 a5bd 820d 66ba 0712 4f3d 62a7 87bc
00000370: ad4f 493d 1ed9 2cbd 2265 6dbd 9e43 483d
00000380: 2856 873c ba3a adbd d2c4 41bd 578e fe3c
00000390: 8823 883d 4cf0 4e3d ed72 39bd eb5e b43d
000003a0: aac6 393d 3ef7 333d 3551 263d 4d0a aa3d
000003b0: 170f b23d 03ba 5bbd 610a 883d d3f7 663c
000003c0: 5608 8dbd 9871 15bd d017 693c c5b8 aebc
000003d0: a949 11bd 4bec 703d 1ec0 9cbd 13b5 b3bb
000003e0: 02fd a6bd fced 2fbd 7b69 89bd b448 303d
000003f0: fded 2cbd 7ea0 a23d 5be7 a23d 87ae a5bd
-0.060972653 -0.00015358311 -0.0014122566 0.050087966 0.017534848 -0.011637503 -0.032775886 -0.061646212
0.08036488 0.031837918 -0.06950954 -0.047274105 -0.07919223 0.08689895 0.06753947 -0.02514776
-0.013611599 -0.037429478 -0.06367785 -0.026562387 -0.004611666 -0.065849856 0.01217987 -0.02618689
-0.031798743 -0.06690532 -0.012975845 0.039133716 -0.055128984 0.07700421 -0.029565098 0.08471488
-0.019788504 -0.034442835 0.029920658 -0.061644632 -0.06892667 0.007209334 -0.00015126503 -0.011996868
0.06785802 0.0060149767 -0.050158616 -0.007322488 0.04736546 0.075704314 0.018872885 -0.06896377
-0.06647908 -0.015003698 0.057098918 0.0075911954 -0.06748001 0.045112878 -0.060559362 -0.044250764
-0.08701129 -0.07987808 -0.006925391 0.03787088 -0.08454168 -0.025692856 -0.08109807 -0.04782286
0.07961005 0.011976533 0.072492674 -0.026943922 0.022405349 -0.038091425 -0.005146678 -0.039962735
0.013039687 -0.0076964675 0.05047829 0.026657207 -0.052729048 0.05936864 0.04113271 0.0032964735
-0.052867383 -0.013415847 0.018298434 -0.054057833 0.063606255 0.03547715 0.07963644 0.08460581
-0.028990647 0.0112542305 -0.0076065366 -0.0746913 -0.0790175 0.058108713 0.07698666 0.03313366
0.021229926 -0.084857866 -0.04865528 -0.07915725 0.084102035 0.0035250254 0.0663539 0.017140333
-0.06931301 -0.06926629 0.07086554 -0.02815579 -0.057093594 0.056745052 -0.046130188 -0.042047646
0.053052712 0.017346716 0.067803 -0.06832564 0.043220844 0.07695315 -0.011691314 -0.029856902
-0.06572336 -0.05574476 -0.0046240995 0.008440834 0.059670832 0.014162594 -0.0055255885 0.004399762
-0.06454168 0.051638138 0.050178837 0.046567485 0.025098732 -0.07169375 -0.022318957 0.0060235118
-0.027444784 -0.048886087 -0.085458845 -0.03150201 0.07305856 -0.044622775 -0.06160921 0.07785332
-0.014271808 -0.048109394 -0.028177643 -0.028121367 0.077911094 0.030921426 0.024154475 -0.017274002
-0.041969884 -0.0717954 0.05978405 -0.05839801 -0.06823555 -0.02978505 -0.08045574 -0.07577872
-0.059611816 0.060206003 -0.08283368 0.034971707 0.05793907 -0.03490637 0.06715065 0.043644745
0.06925929 0.00516341 -0.039375123 -0.026360577 0.068507545 0.05480224 0.07820609 0.03915442
0.08156352 -0.029382337 -0.023832683 0.06025875 0.05818801 0.038749255 0.019757293 -0.02019519
-0.062040836 0.08194621 -0.016748883 -0.08751863 -0.024950745 0.06586458 -0.04339976 0.011454639
0.04802746 -0.07962606 0.0038112972 -0.008703808 -0.0132955285 -0.08808255 0.0859285 -0.014403738
0.0022901439 -0.08528319 -0.006422031 0.074664205 0.020532595 0.08781455 -0.082265 0.00037868944
0.04260354 -0.05651219 0.016461547 -0.06735259 -0.049691144 -0.06044058 -0.012003159 0.047038432
-0.08085423 -0.00087758165 0.0505543 -0.016559307 0.04914825 -0.042199247 -0.057957776 0.04889261
0.016520575 -0.08458467 -0.047306843 0.031073732 0.06647402 0.050522134 -0.045275617 0.08807167
0.045355476 0.04393696 0.04060479 0.08302746 0.086942844 -0.05364419 0.066426046 0.014097172
-0.068863556 -0.036485285 0.014226869 -0.02132834 -0.03547064 0.058819097 -0.07653831 -0.005484232
-0.08153726 -0.04295157 -0.06709572 0.043038085 -0.04221915 0.07940768 0.07954284 -0.08089929

fc2.bias f4 [128]
00000000: 7c96 08bd 617f 913c ee1d 393d 2439 4abc
00000010: d9a2 9d3d 3426 983c 2587 82bd c4f0 a83d
00000020: a252 9e3c e89b af3b 65de 463d f0c1 69bd
00000030: 40b9 c5bd 7df3 1e3d 3fd4 583d b0be 2abc
00000040: aa03 ac3d a266 9c3d 3667 acbc c6cd dcbb
00000050: 3952 1cbc 746f c93d 4313 2ebd a46d a4bc
00000060: f815 95bd 49a6 8cbd a68a 2ebd 07a2 4e3d
00000070: 24e3 833d 8fc7 d1bc 836e 283d 5f9e ba3b
00000080: 3b33 003d d356 27bc 8ea2 7dbd 4748 e83c
00000090: 27a4 4abd 8f5e 9eba f5b6 f4bd ce04 2ebd
000000a0: 1605 9fbd fce8 d6bc 269d b0bd 7b6a a1bd
000000b0: f37a cd3d 9dd3 153d 2642 73bd 3171 583d
000000c0: f12d 94bd e513 ca3c e527 b7ba 80f6 273c
000000d0: b7e8 933d 03ed ad3b 0585 923d 0808 07bd
000000e0: 8cde 383d b2fc 36bd 3096 78bd 3121 e03c
000000f0: cdc4 44bd 9756 3bbd 30af efbc d5b1 923c
00000100: 3540 a73d d3ad 973d fb7b 8b3d 43b1 3c3d
00000110: 0436 cc3c 97fa 25bd 3d37 5d3d 94da 1d3d
00000120: 1883 073c 091f 5b3d 6153 953d a3fb 9d3c
00000130: 7a86 a53a 9e04 c23c 1985 a9bd 864b afbd
00000140: 2e74 25bc a06b a13d 60e9 993d e51e 34bb
00000150: 33f6 a1bc 4449 7f3d fad9 68bd 0a1c c2bc
00000160: 4809 55bc 5a83 0f3d 6532 2abd 729f 693d
00000170: 72dc 203c c16a 8a3d f92e 433d 4e64 a83d
00000180: f558 99bd d101 c2bc bb4d 38bd fc46 b3bc
00000190: 6c25 3d3d b593 b7bc 3b33 813c df95 0c3d
000001a0: d4ee c3bc 529c 523d 2cd5 7d3d 04e1 41bd
000001b0: 40d9 1abd 6458 94bd ea3c 803d ec66 ecba
000001c0: cfc9 b73d 2ce5 6d3d f925 70bd fc6e 113d
000001d0: bfb5 dbbb aea1 4f3d 5255 c53c c77a 47bd
000001e0: 2fc7 2a3d 2035 e43d 1585 84bd 2812 76bd
000001f0: c369 5a3d 2287 003e 4b25 733d 4964 afbc
-0.033346638 0.017760934 0.04519456 -0.012342725 0.07697076 0.018572904 -0.06373433 0.082490474
0.019326512 0.0053591616 0.048551936 -0.05706972 -0.09654474 0.038806427 0.05293679 -0.01042144
0.08399136 0.07636763 -0.021045309 -0.0067383973 -0.009541088 0.09835711 -0.04249884 -0.020071812
-0.07279581 -0.06867654 -0.042612694 0.05044749 0.06439808 -0.025607852 0.041121017 0.005695149
0.031298857 -0.010213572 -0.061922602 0.028354777 -0.049472954 -0.0012082624 -0.11948959 -0.04248505
-0.07764642 -0.026234142 -0.08623724 -0.07881638 0.10033216 0.036578763 -0.059389256 0.052842323
-0.07235325 0.02466769 -0.0013973681 0.010251641 0.07222121 0.005307795 0.07154278 -0.032966644
0.045134112 -0.044674583 -0.060690105 0.027359577 -0.048039246 -0.045736875 -0.02925834 0.017907063
0.081665434 0.07406201 0.06810757 0.046067487 0.0249281 -0.040522184 0.054007757 0.03853853
0.008271001 0.053496394 0.07291294 0.019285029 0.0012628578 0.023683842 -0.082773395 -0.08559327
-0.0100985 0.07881856 0.07515216 -0.0027484235 -0.019770717 0.06232573 -0.056848504 -0.02369501
-0.013002701 0.035037376 -0.041551966 0.057036825 0.009818183 0.06758643 0.04765222 0.082222566
-0.0748767 -0.023682507 -0.044996005 -0.021884434 0.046178266 -0.0224093 0.015771499 0.034322616
-0.023917593 0.05141861 0.061970875 -0.047333732 -0.037804842 -0.07243422 0.062616184 -0.0018036044
0.08974039 0.058079883 -0.058629964 0.035506234 -0.0067050154 0.0506913 0.024088535 -0.048701074
0.041693863 0.11142945 -0.06470696 -0.06007591 0.05332352 0.12551549 0.059361737 -0.021410124

fc3.weight f4 [5, 128]
00000000: 65aa 5a3d c3da a2bd 2793 a4bd ab06 c0bb
00000010: 8669 5e3d 51df 713d 84bd b1bd caa4 87bc
00000020: 78e5 a13d b8f8 153d ae61 2f3d 5250 ecbc
00000030: 0bb8 08bc 008a 82bd 6094 893d 4a2a dc3c
00000040: b012 b13c 601f f03c db89 adbd 6529 843d
00000050: fa5c 9bbd cb7b 2cbc 44be 723c e9a9 9dbd
00000060: 4b73 b3bc 5b32 80bd 241d 833b e604 45bd
00000070: f305 273d 0388 e4bd fb58 873d a3a0 983d
00000080: e4bf 9e3d 059f 99bd 8026 7cbd 5b8c 6f3d
00000090: f076 f2bc 1988 023c 58e2 00bd e851 6a3c
000000a0: 1d07 94bd 7ab8 5b3d ff52 68bd c010 aabd
000000b0: 2427 903d 3276 96bd fc39 9abd 02e4 893d
000000c0: f20a 80bd 9618 b93c 74e2 98bd 9f93 95bd
000000d0: aae1 eabc 6dc7 ca3c 9751 6fbd d1ea a8bd
000000e0: 2c27 9b3d 7240 c7bb e9f2 473d 4f8b 643d
000000f0: 3d88 2c3d 3b15 7a3b 2778 93bd e78f 3cbd
00000100: dc9b 9abd c894 753c 36eb 1fbc 61aa fb3c
00000110: db82 ccbd 4b37 1e3d e957 463d 258f 61bd
00000120: 741e 43bd a195 9c3d 27a7 bcbd 9f75 763d
00000130: 4f5c 0c3c f6aa 713d 979b 41bc 0582 b2bd
00000140: d120 c5bc 03b3 8a3c 4e4b 093d 5afe a2bc
00000150: 3f89 7ebd 961f 8b3d 55e0 273c 857b 3e3d
00000160: b9bb c33b ec9c 96bd 8d67 8bbd 0927 9e3d
00000170: 1e3f 5a3c 514b fd3c 38b2 9ebd 59fc ec39
00000180: 64cc 54bd 177f 22bb 432a 9bbd 45a7 9f3d
00000190: a9f8 0fbc 0296 98bd 090f 01bc 3203 a73d
000001a0: de34 9f3d e441 293d f2e3 a73d 61bc 543d
000001b0: a319 2abd 8180 2abd 901b 92bd 1cca bbbc
000001c0: e64e fd3b 7d87 45bc 5621 a33b c93a 12bd
000001d0: 102c 13bd 2dae 7bbd a9bb b2bd 3be3 353d
000001e0: a0cf 4d3d f014 893d e0ca b0bd ff72 4b3d
000001f0: d40e 673d b03e 41bd f21b 2abd c8f3 e23a
00000200: 7cce 813c 7c1a 263d 8acb 83bd 0092 993d
00000210: 2bf2 cd3d 63b9 c7bb a122 9a3d 2b21 513d
00000220: 6e9a 73bd 6a05 37bd 013f 8d3d 8c5e 84bd
00000230: 7a33 89bd b19a a23c a23f efbc 6e3f 89bb
00000240: 3b30 d03d bf80 803c 94ce 8c3d 92d2 af3d
00000250: e749 8d3d 53bc dc3c a16b 8cbc dbfd a53c
00000260: 810c c0bd b3b9 553d de48 a7bd 1765 d3bb
00000270: c737 563d b5c4 343c 4d56 d33c e568 973d
00000280: ed8d 1fbd b732 b03d 2ac4 bcbb 7479 943d
00000290: 32a1 f5bb 16dc 22bd 9920 6ebd 5d13 483d
000002a0: 3a67 833d bb6b 6b3d a570 183a 2aa3 d33c
000002b0: 839b 5d3c a2d3 35bd 2207 d8bb 9f4f 0c3d
000002c0: 6c07 53bd e511 6dbd fb60 873d cff7 74bd
000002d0: 66ab 913c 66b0 53bc b348 4ebc ea8b b43d
000002e0: bece aebd 33f7 a93d 792f 633c 1c01 45bd
000002f0: d9eb 8c3d 0032 17bd 2ffc 2cbd 80ed 52ba
00000300: 57d8 abba c179 5bbc bc44 533a 6023 04bd
00000310: 1678 1abc 5f6e 84bc 1d26 243d 3d09 7a3d
00000320: cab1 a53d d6c9 223d 28cf b03c 024d 8abd
00000330: 5197 88bd 54bd 7bbc 3e20 aa3d cd62 55bd
00000340: fde8 983d dc69 e9bc 96ec c3bb 58d6 ae3c
00000350: ee6d 4f3d e47e 073c ec6b 4bbd d516 a7bd
00000360: 2631 86bd 70a2 db3c 8e8c 0c3d 4f6e ca3c
00000370: 42d9 083c 73ab 933d 293f a5bd 1ed6 97bd
00000380: 64f9 8f3c 91b6 4abb 71d8 15bd 58f6 08bd
00000390: e680 033d 661e 1b3d 1ae1 c03c 2f3e 91bc
000003a0: f2a5 b03d 693d 08bd 5ff2 95bd 3c2b f6bc
000003b0: 568b 89bd 6b67 92bc 4690 a33d dccd 883d
000003c0: 22f1 93b8 21e8 5bbd 40c1 80bd 063e 9d3d
000003d0: 50a5 493c 563c c43c 4f93 973c e820 943d
000003e0: df2a fdbb c7d9 dc3d 8e6f ae3d 5f6c 84bd
000003f0: 2994 a1bd f492 8b3c 0e37 37bc 159e 69bd
0.053385157 -0.07951882 -0.080358796 -0.00586017 0.054299854 0.05905086 -0.08678725 -0.01655807
0.07905096 0.03661415 0.042817764 -0.028846893 -0.0083446605 -0.06373978 0.067177534 0.026875634
0.021615356 0.029311836 -0.084735595 0.06453208 -0.07586093 -0.010527561 0.014815871 -0.076984234
-0.021905562 -0.062596045 0.0040012766 -0.048100375 0.040777158 -0.11158755 0.066087686 0.07452514
0.07751444 -0.07501034 -0.061560154 0.058483463 -0.02959773 0.0079670185 -0.03146586 0.0143017545
-0.07227919 0.053642727 -0.056719776 -0.08303976 0.070387155 -0.07346763 -0.07530591 0.06732942
-0.06252088 0.022594731 -0.074650675 -0.07303547 -0.028672058 0.024753297 -0.05842742 -0.08247913
0.07575831 -0.0060806805 0.04881564 0.055796918 0.042122114 0.0038159627 -0.072006516 -0.046035673
-0.07549259 0.0149890855 -0.0097606685 0.030720891 -0.09985896 0.03862695 0.04842368 -0.055068154
-0.047636464 0.07645727 -0.09211569 0.060170766 0.00856693 0.05900093 -0.011816881 -0.087162055
-0.0240635 0.016931063 0.03351908 -0.019896675 -0.062142607 0.06793134 0.010246356 0.046504516
0.005973306 -0.07354149 -0.0680686 0.07722289 0.013320712 0.030919703 -0.07748836 0.0004520144
-0.051952735 -0.002479499 -0.0757642 0.07795576 -0.008787313 -0.07450487 -0.00787712 0.08154906
0.077737555 0.041322604 0.08197774 0.051937465 -0.041528355 -0.041626457 -0.071341634 -0.022923522
0.0077303527 -0.012056229 0.004978339 -0.035700593 -0.035930693 -0.061445404 -0.087271996 0.044406157
0.050246835 0.06693447 -0.08632445 0.049670216 0.056410626 -0.047178924 -0.041530557 0.0017315084
0.01584553 0.0405526 -0.06435306 0.074985504 0.100559555 -0.006095098 0.07526136 0.051057022
-0.059473448 -0.044682898 0.06896783 -0.06463346 -0.066992715 0.019849153 -0.029205147 -0.0041884696
0.10165449 0.01568639 0.06875339 0.08585085 0.068988614 0.026945269 -0.017141165 0.02026265
-0.09377385 0.05217905 -0.08168195 -0.00645126 0.052299287 0.011033227 0.025797987 0.07393054
-0.03895371 0.08603423 -0.0057606893 0.07249728 -0.0074960226 -0.03976067 -0.058136556 0.04884659
0.06416173 0.057475787 0.0005815125 0.025834639 0.013525846 -0.044391282 -0.006592647 0.03425562
-0.05152075 -0.057878394 0.066102944 -0.05980664 0.017781924 -0.012920475 -0.012590575 0.08815749
-0.08535527 0.08299103 0.013866299 -0.04809676 0.06880922 -0.036912918 -0.04223269 -0.00080462545
-0.0013110739 -0.013395728 0.00080592535 -0.0322603 -0.009428045 -0.01616591 0.04007541 0.061043967
0.08090551 0.039743267 0.021583155 -0.06752969 -0.06669486 -0.015364964 0.08306931 -0.052096177
0.07466314 -0.02849286 -0.005979131 0.021342441 0.050641946 0.008269999 -0.04966347 -0.08158652
-0.06552343 0.026810855 0.03431373 0.024710802 0.00835258 0.07210436 -0.080686875 -0.074138865
0.017574973 -0.0030931572 -0.036583368 -0.033438057 0.03210535 0.037870787 0.023544837 -0.017729847
0.086254016 -0.03326169 -0.07321619 -0.030049913 -0.06716029 -0.01787158 0.07986502 0.066798896
-7.054421e-05 -0.053688172 -0.062868595 0.07677846 0.01230748 0.023954552 0.01850286 0.07232839
-0.007726058 0.10783725 0.08517371 -0.06465983 -0.078895874 0.017037846 -0.01118256 -0.057035524

fc3.bias f4 [5]
00000000: b410 743d 2fba fa3d 8e33 933d ac43 b93d
00000010: 0fc7 843c
0.05958624 0.12242543 0.07187568 0.090461105 0.0162082
