dynamics/src/drl/outputs/RobotOptEnv/20220720-112644/models/dqn_checkpoint.pth (torch, 75015 bytes, 6 tensors)

fc1.weight f4 [128, 7]
000000 78 4d 3b 3e bb b8 71 be 2f 82 18 be 34 aa 70 be
       0.1829127 -0.23605625 -0.14893411 -0.23502427
000010 9a 26 5c be 8c 78 4a 3e 82 3f 8c 3d b9 d5 9f bd
       -0.214991 0.19772547 0.06848051 -0.07804436
000020 e7 10 ed 3c 62 19 bb 3d c8 2a 52 be e3 6c 16 be
       0.028938724 0.09135701 -0.20524132 -0.14689974
000030 21 97 87 3e bb 36 99 3e b3 6c a5 3d c4 aa 2e 3e
       0.2648249 0.2992457 0.08077373 0.1705733
000040 b5 b8 83 3e 98 6a 9a 3d 65 ff 83 3e b8 61 7e be
       0.25726858 0.075398624 0.25780788 -0.24841964
000050 62 7b 91 be e2 41 9c be 34 8c 7f 3e 2a 41 d1 3d
       -0.28414446 -0.30519015 0.24955827 0.10217507
000060 cc ca 90 be 48 69 b5 3e 89 99 bd 3d c3 37 de bd
       -0.28279722 0.35431886 0.092578 -0.108504795
000070 fb 5f 90 3e 87 06 1c bc 81 9d bd 3c d3 bf 80 3d
       0.28198227 -0.009523041 0.023146393 0.062865876
000080 77 45 e9 bd 43 16 ac 3e cc 2b bb 3e 08 92 01 3e
       -0.113902025 0.33610734 0.36556852 0.12653363
000090 ba 2e 73 3e fc 84 3b 3e 77 35 8a 3d 1d b9 9f be
       0.23748294 0.18312448 0.06748479 -0.31195918
0000a0 3d 4c 20 be d2 4b 6b 3c 9d cf 7c bc 54 eb 11 be
       -0.15654083 0.014361339 -0.015430358 -0.14249927
0000b0 44 73 9a 3e a9 a1 11 3b e7 38 14 3e 27 17 8c be
       0.30166066 0.00222216 0.14474832 -0.27361414
0000c0 a2 14 a4 bd 60 77 82 3e 5c ec 5d 3d ca 91 de bd
       -0.08011748 0.254817 0.054180488 -0.10867651
0000d0 89 72 d2 bd 00 3c 2b 3e dd 39 53 3e f1 90 6f bd
       -0.10275752 0.16722107 0.20627542 -0.058487836
0000e0 4d 3c fe bd ad 6b be 3e 7a 34 95 3e 58 c3 8e bd
       -0.12413845 0.37191525 0.291416 -0.069708526
0000f0 e7 31 2a 3d db 99 4f be 4f e0 b9 3d fe 06 4a 3e
       0.041551497 -0.20273535 0.090759866 0.1972923
000100 cd 71 97 bd dd b5 94 3e 21 4b 0f 3e e0 e6 a7 bc
       -0.07394753 0.29045 0.13993503 -0.020495832
000110 09 e2 bc be f9 9e 6e 3e f5 63 bd be e2 77 0c 3e
       -0.368912 0.23302831 -0.36990324 0.13717607
000120 d9 f0 ec bd 3c 83 1e be 66 e8 09 be 9c 01 6a be
       -0.115693755 -0.1547975 -0.13467559 -0.22852176
000130 b1 f2 ad be 55 8c 59 be 36 32 5c be 3b c2 a6 3e
       -0.3397422 -0.21244939 -0.21503529 0.3257006
000140 29 cf 87 be 3a 18 64 3e 09 9b 48 be 00 35 61 be
       -0.26525238 0.22274867 -0.19590391 -0.21992874
000150 25 22 a9 bd 2d bf 89 3e 78 38 35 3e be 06 1f 3d
       -0.08258466 0.26903668 0.17697322 0.03882479
000160 29 2f bb bd 1e b2 7e 3e 52 5e 8c be 7c 4b 39 3d
       -0.091398545 0.24872634 -0.2741571 0.045238003
000170 8d 7d 17 be d1 c4 69 bd bf 44 70 3e d0 4f b6 3e
       -0.14793988 -0.057072464 0.23463725 0.35607767
000180 63 1c 8a 3e 88 09 ab be d0 35 4f 3e 7b 9d d7 3d
       0.26974782 -0.3340571 0.20235372 0.10528084
000190 7e db 59 3d b4 fc 9f bd 83 84 e8 3d 2a 8f 48 be
       0.05318784 -0.07811871 0.113533996 -0.19585863
0001a0 c0 c9 54 be 48 a3 92 be 35 68 0b 3d 05 05 60 3d
       -0.20780087 -0.286402 0.034034926 0.054692287
0001b0 2e ab 95 bd f0 d2 41 bd b0 78 c0 be e7 6d 91 3e
       -0.073080406 -0.047320306 -0.37592077 0.2840416
0001c0 44 be 12 be d8 36 9b 3e 91 23 63 3b ad e6 3c be
       -0.14330393 0.3031528 0.003465865 -0.18447371
0001d0 ee 30 bc be 73 58 a4 3e c9 55 d9 3d 4a df 82 be
       -0.3675608 0.3209873 0.10612065 -0.2556098
0001e0 25 ed 93 be 9b fd 65 3e e0 a7 2e 3d 33 a3 4e be
       -0.28891864 0.22460024 0.042640567 -0.20179443
0001f0 a8 2c 8f 3e 87 46 5d be 23 d5 60 3d d3 32 2d bd
       0.27963758 -0.21608935 0.054890763 -0.042284798
000200 38 1c 54 3e 22 ec 52 3e fe f8 81 bd 23 81 a2 be
       0.2071389 0.2059789 -0.063463196 -0.31739148
000210 b8 7c f2 bd c1 76 a2 be c9 b9 f0 3d 5a fa 92 3e
       -0.118401945 -0.31731227 0.11754186 0.28706628
000220 c2 eb 59 be db 37 ae 3d 77 1f 5a be 53 8d 71 be
       -0.2128134 0.08506747 -0.21301065 -0.23589067
000230 61 52 8e 3d 9d 70 b9 be 97 02 69 3d 67 81 84 3e
       0.06949306 -0.3621873 0.056887235 0.25879976
000240 16 72 e1 3d 91 b6 ae 3d 0e 04 f5 3c ea b1 23 3d
       0.11008088 0.085309155 0.02990916 0.039964594
000250 87 18 8a 3b 04 93 a4 3e 3f c0 7e 3e 25 81 30 3e
       0.0042143497 0.32143414 0.24878024 0.17236765
000260 04 dd 52 3e 69 64 6a bd 59 82 bb 3e fc cf c3 3d
       0.20592123 -0.057224665 0.36622885 0.09561154
000270 fc 86 a3 be 67 f7 6c be 49 57 4c be 76 dc 8d 3e
       -0.31938922 -0.23141252 -0.19955172 0.2770726
000280 72 14 60 be 15 b9 2e 3e ab c4 1b be ae 0a a3 3e
       -0.218828 0.1706279 -0.15211742 0.31844085
000290 f0 f0 39 3e e8 12 16 be 7c 13 13 be 65 be 06 be
       0.18158317 -0.1465565 -0.14362901 -0.13158567
0002a0 fb 15 56 bd 5c 30 ba 3e 1f f4 c0 3e 12 2a 33 be
       -0.052267056 0.3636502 0.3768625 -0.17496517
0002b0 ce d3 66 be c4 a7 15 be 1d 96 ed 3d d4 5d 2f 3e
       -0.22541735 -0.14614779 0.116008975 0.17125636
0002c0 b9 38 79 be 1a f0 59 3e 95 5d 58 be a6 11 75 be
       -0.24338044 0.21282998 -0.21129449 -0.23932514
0002d0 1e 62 b0 3d 0c 18 2e 3e 81 9d 9f 3d 4a e8 05 3d
       0.08612464 0.1700136 0.07793713 0.03269223
0002e0 27 01 bf 3e dd ba 96 be 90 e7 e1 bd 94 a0 7d 3e
       0.37305567 -0.2943944 -0.11030495 0.24768287
0002f0 2f 12 b5 3e bd 5b 33 bd 31 d8 98 3e 8d 7f 52 be
       0.35365435 -0.04378866 0.2985244 -0.2055647
000300 cb 10 27 be 9a 38 93 be 52 70 c1 3e f3 9f 53 be
       -0.16315 -0.2875412 0.37781006 -0.20666485
000310 ec 3b e8 bc 0f e2 eb 3d 5d e8 ac bc a8 65 81 be
       -0.028348885 0.11517727 -0.021106893 -0.2527287
000320 a5 b9 be 3e 08 6a 87 be 42 bb 2e 3e 98 5b 20 be
       0.3725101 -0.26448083 0.1706362 -0.1565994
000330 ab c6 8e 3e c0 f5 8f be cb 62 9e be 4c 0f f5 3b
       0.27885947 -0.2811718 -0.30934748 0.00747863
000340 30 e5 2f 3e 8d a9 41 bd 49 d7 d3 3d dd fe 06 be
       0.17177272 -0.047280837 0.10343797 -0.1318316
000350 6b 7f a1 3e 81 ca 9b bd b4 d2 45 3b 16 22 ba be
       0.31542525 -0.07606984 0.0030185403 -0.3635413
000360 47 ff 3a bd e0 80 6d 3b 98 4f 9e bd b0 1c 28 3e
       -0.045653608 0.0036240146 -0.07730025 0.16417193
000370 d8 60 76 3e d5 55 1e be 49 da 59 3e ef 30 a2 3d
       0.2406038 -0.1546243 0.21274675 0.079194896
000380 b2 df c0 bd b2 2d a9 3e 1b e8 c7 bc 2b d3 a3 be
       -0.094176665 0.33042675 -0.024402669 -0.31997046
000390 74 7b 48 be ac 06 10 3e d2 6e 03 bd 81 fe f1 bd
       -0.19578344 0.14065045 -0.03208811 -0.11816121
0003a0 88 e5 bc bc 79 c2 95 3e 07 d9 9d 3e 69 a2 aa be
       -0.023058668 0.29249933 0.3082964 -0.33327034
0003b0 80 52 af be 65 90 50 bc 46 e8 87 3e 84 a5 b1 3e
       -0.3424263 -0.012729739 0.26544398 0.3469659
0003c0 23 ca 01 be 34 22 a1 be 88 90 14 be 92 40 1b bd
       -0.12674765 -0.31471407 -0.1450826 -0.037903376
0003d0 7a c9 22 be c0 3b 92 3d 7e d5 f7 3c a4 c8 54 be
       -0.1589717 0.07140303 0.030253168 -0.20779663
0003e0 ff 97 9a 3e 81 7f 3d bd 89 b7 a4 3e 35 ff 46 be
       0.3019409 -0.046264175 0.32171276 -0.19433291
0003f0 e7 55 9c bd cf 10 58 3e 20 7c 2e 3d 2e 63 a1 3e
       -0.07633572 0.21100162 0.042598844 0.3152098

fc1.bias f4 [128]
000000 3f 58 95 3e a0 30 0e 3e f5 83 6e 3e 5d 85 e5 bd
       0.2916889 0.13885736 0.23292525 -0.11207078
000010 22 8c 5c 3e b6 16 bf be b4 e4 ac 3e a9 74 3a bd
       0.21537831 -0.37322015 0.33768237 -0.045521412
000020 b8 64 75 39 a4 a0 a9 3e 69 66 b6 3e 6b fd 9c 3e
       0.00023402541 0.33130372 0.35625008 0.30662093
000030 02 be b5 3c f2 d7 05 bd d9 be a1 be 02 83 24 be
       0.02218533 -0.032676645 -0.31590918 -0.160656
000040 73 52 83 3e 33 a9 c6 3d 34 83 a7 3e 36 ef bf 3e
       0.2564884 0.09700241 0.32717288 0.3748719
000050 11 c3 e9 bd 14 f7 a2 3d 63 5c bd 3e 0a f6 94 bd
       -0.11414159 0.07957283 0.36984548 -0.07273491
000060 c6 67 9e 3e 20 51 b4 be bb ca ba 3e 01 cb 54 be
       0.30938548 -0.35218143 0.36482796 -0.20780565
000070 04 b2 b9 3e 81 ca b9 3d 21 35 78 be 99 38 1a be
       0.36268628 0.09071828 -0.24239017 -0.15060653
000080 e3 12 ec bd cd 63 86 3e 76 a0 ad 3e 75 69 b6 3e
       -0.1152704 0.26248017 0.33911484 0.35627332
000090 a8 6c b9 3e ed 88 00 3e e9 80 69 be 2a f3 71 3d
       0.3621571 0.12552233 -0.22803082 0.05906979
0000a0 6a 91 79 3d 82 60 a9 3d 10 28 49 3e ae 3e 93 bd
       0.060929693 0.082703605 0.19644189 -0.071896896
0000b0 22 51 85 3e f0 f0 8d bd c0 b2 2d be 1e 73 8e be
       0.26038462 -0.06930721 -0.16962719 -0.27822202
0000c0 f2 32 6b 3e 31 ee a0 be 85 b9 23 3e dd 72 af be
       0.22968653 -0.31431726 0.15988739 -0.3426732
0000d0 ac ff 71 3e 34 42 c4 3d 17 f5 be 3e ed 57 68 be
       0.23632687 0.0958294 0.37296364 -0.22689791
0000e0 19 b7 93 be 86 a7 9a 3e 33 f4 c8 3d 88 49 bc be
       -0.2885063 0.30205935 0.09812202 -0.3677485
0000f0 99 4c 4d 3e bf 1b 3e bd 6b c6 40 be b3 b4 a5 3e
       0.20048751 -0.04641318 -0.1882569 0.32364425
000100 e9 7c aa be 46 21 bb 3e 97 e0 80 3e 0f bf bd be
       -0.33298424 0.36548823 0.25171348 -0.3705983
000110 c4 79 56 bd 0c fc ac be 2f 63 6f 3e de af a0 3e
       -0.05236222 -0.33786047 0.2337768 0.31384176
000120 c4 48 92 be 0c 9b 2b 3d 02 79 b9 bd ff 72 34 be
       -0.2857114 0.04189591 -0.090562835 -0.17621993
000130 5c 8f f9 3d 93 24 ba 3e 5e 9b 3e be 94 e3 0d 3e
       0.12185547 0.3635603 -0.18613955 0.13856345
000140 2b 2a 85 3e f6 1c 55 be a3 98 21 3e 98 81 54 be
       0.26008734 -0.20811829 0.15780883 -0.20752561
000150 73 72 0e 3e e6 10 a0 3d bd 3a 6f be c8 4e 5b 3e
       0.13910846 0.07815723 -0.2336225 0.21416771
000160 36 ad 9c bc cf 57 6e 3e 05 52 55 3e 10 99 bc 3d
       -0.019125562 0.23275684 0.20832069 0.09208882
000170 94 7b 81 bd 84 71 a7 3c b1 16 a3 3e 52 cf 86 3d
       -0.06322399 0.02043987 0.3185325 0.06582512
000180 01 01 3c be bf 12 c6 3d 76 08 8e 3e 5b dd 96 bd
       -0.18359758 0.09671544 0.2774083 -0.07366439
000190 c8 aa b9 bd 67 ea a2 be 32 71 94 be cf 32 8a 3e
       -0.09065777 -0.3181946 -0.2899261 0.2699189
0001a0 d6 e2 22 bd 72 2f ac 3c 4d a8 57 3e 21 36 15 3e
       -0.03976711 0.021018717 0.21060295 0.1457143
0001b0 56 40 33 be c5 57 41 bd b1 be 02 3d 42 51 92 3e
       -0.17505011 -0.047202844 0.03192014 0.2857762
0001c0 f0 88 87 be df 2e 9f be b6 58 8a 3e f1 9e 1e 3e
       -0.26471663 -0.31090447 0.27020806 0.15490319
0001d0 e5 1a 4d be 0f 76 b5 3e ad 15 f6 bd 2b aa c8 3d
       -0.2002979 0.35441634 -0.12015853 0.09798082
0001e0 31 c8 b7 3d 15 d0 7a 3e 97 fb 08 3d 7f 02 fb 3d
       0.0897373 0.2449344 0.03344306 0.122563355
0001f0 13 8b 0e 3e 25 fc 86 3e 92 8e 94 bd 3c 06 28 be
       0.1392024 0.26364246 -0.07253756 -0.16408628

fc2.weight f4 [128, 128]
000000 15 d9 20 3d 51 0a 4f bd 95 5b 24 bd 9a a7 4f bd
       0.039269526 -0.050546948 -0.040126402 -0.050696947
000010 80 fc b1 bc e9 e6 05 3d 89 05 37 3d c2 2c b1 3d
       -0.021726847 0.032690916 0.044683013 0.08651115
000020 6c aa 7f bc 29 cb 8b 3d 05 6b 56 bc 7b 24 7d bc
       -0.015604597 0.06825859 -0.013087039 -0.015450592
000030 a5 5e 92 bd c0 f3 4f 3d d4 c9 34 3d 66 5a b2 3d
       -0.07146958 0.050769567 0.04413779 0.087086484
000040 1f 78 94 bd 3c 96 0e 3d 01 c8 2c 3b cb 12 5f bd
       -0.07249474 0.034811243 0.0026364329 -0.05446128
000050 f1 18 64 bd 6b 21 ea bc c0 6b 4b bd e5 ae 14 3d
       -0.05568785 -0.028580388 -0.049663305 0.036299605
000060 da cc 17 3d 2c 9d 1f bd 9e 5e 2d 3b 57 da 87 3b
       0.037060596 -0.03896825 0.0026454101 0.004145901
000070 30 de 3d 3d 2f 20 5d 3c 2f 75 ae bd f6 17 94 bd
       0.046354473 0.013496443 -0.08518445 -0.07231133
000080 b7 5e 92 3d d6 0d 5a bc 2d f9 a0 3d 19 2a 32 3d
       0.07146972 -0.013308963 0.078600265 0.04349718
000090 3e 72 a8 3d ef 36 a7 bd 84 d4 6e bd 0e ed db 3c
       0.08224915 -0.081647746 -0.05830814 0.026846435
0000a0 33 40 3c bc 1e e1 fa 3c b8 a9 56 3d cc 67 27 3b
       -0.011489916 0.030624922 0.05240795 0.0025544045
0000b0 e1 ae 30 bd 3a 9f be bc f8 d8 81 bd b2 8c 89 bd
       -0.043135528 -0.023269285 -0.06340212 -0.067162886
0000c0 e6 b1 b3 bd 99 d4 a2 bd 35 70 a9 3c 86 dc a4 3d
       -0.08774166 -0.07950706 0.020683387 0.08049874
0000d0 0e d0 1e bd 79 f1 90 bc f9 21 ae 3d 31 86 29 3d
       -0.038772635 -0.017693268 0.085025735 0.04138774
0000e0 87 ed 3c bd 21 96 3b bd ca 78 82 bd 1e e1 9f bd
       -0.04612496 -0.04579747 -0.06370695 -0.078066096
0000f0 28 18 97 b9 0d 35 4b bc 02 76 98 bd 30 25 07 3c
       -0.00028818962 -0.012402785 -0.07444383 0.008248612
000100 5c 45 1a bd 3e 2e 8c 3c 47 5d 3a bd 64 46 65 3d
       -0.037663803 0.017111894 -0.045499112 0.055975333
000110 f4 e2 90 3d c0 ce 0b bd e7 c3 b7 3b b6 2e 79 bc
       0.07074538 -0.03413272 0.00560807 -0.015208891
000120 6c a0 68 3d 89 45 ba 3c 20 ae 3d 3c 67 60 83 3d
       0.056793615 0.022738235 0.011577159 0.06414872
000130 63 c7 71 bd 92 14 87 3c ee 06 54 3b 1f ee a8 3c
       -0.05902804 0.0164893 0.0032352763 0.020621357
000140 73 56 ef 3c 5d e7 3a 3d cc 8a 93 3d d3 6d 24 3d
       0.029216027 0.0456308 0.07204208 0.0401438
000150 65 4b a1 bd e7 55 50 3d a1 7e e5 3c 3e c7 88 bd
       -0.078757085 0.050863173 0.028014483 -0.066786274
000160 fb 5b 63 bd 79 d9 ed 3c bb e5 0b bd 98 d6 9e bc
       -0.05550764 0.029034363 -0.034154635 -0.019389436
000170 c3 95 89 bc 22 df a5 3d c8 07 d2 3c 6d 2c b7 bc
       -0.016795045 0.080992 0.025638476 -0.022360051
000180 f8 4d 9a 3c ad ff 3b bc 57 19 c7 bc a2 ad a6 3d
       0.018836007 -0.011474532 -0.024304075 0.081385866
000190 a6 7e a1 3d 55 f3 74 3d c7 4b a1 3d 28 4a 86 bd
       0.078854844 0.059802372 0.078757815 -0.06557113
0001a0 3c 69 4f 3d bd 12 a9 bd c6 d9 4f bd b4 2b 9e 3d
       0.05063747 -0.08255527 -0.050744794 0.077231795
0001b0 b3 f0 66 bd a8 ab ab bb 27 35 ee bb 48 ce 49 bc
       -0.056381892 -0.005238969 -0.00726952 -0.012317248
0001c0 14 c1 ba 3b 44 fe 21 bd 8b 9d 95 3d 0b e4 92 3d
       0.0056992862 -0.039549127 0.073054396 0.07172402
0001d0 f5 c4 e2 3c f4 16 8e bd 54 56 a0 3d ec 4d 14 bd
       0.027681807 -0.06937972 0.07828966 -0.036207125
0001e0 a5 5f 81 3b 3a ed 8c bc 6a 46 a6 3c a2 44 b9 3c
       0.0039481693 -0.017202962 0.020297248 0.022615734
0001f0 f8 e2 88 bd a4 c4 a4 3d f2 02 a2 3d 84 db 65 bd
       -0.06683916 0.08045319 0.07910718 -0.05611755
000200 db 45 8d bd 69 e6 17 3c 2d 2b 83 3d 4a 51 c3 3c
       -0.068980895 0.009271243 0.064047195 0.023842473
000210 72 88 81 3d 24 b7 8f 3d 56 48 bf 3c c4 a1 99 bd
       0.06324853 0.07017353 0.023349922 -0.075015575
000220 ce 8a 58 3d af 07 5c bd 92 e6 2b 3d 37 85 65 3b
       0.05286675 -0.053718265 0.041967936 0.003502203
000230 78 65 1e 3d 3e 96 ae 3d 00 8e 06 3b 95 5a 94 bd
       0.038670987 0.0852475 0.0020531416 -0.0724384
000240 df 67 69 3d 5f 25 b0 bc 0a 44 7e bd 8a ed 18 3c
       0.056983825 -0.021502195 -0.062076606 0.0093339775
000250 23 6f b0 bd f6 a5 50 3c 40 28 bb 3c 4c 9b a3 3d
       -0.08614948 0.012734881 0.022846341 0.07988605
000260 9a 80 01 3d 62 c1 11 bd 76 bf f6 3c 6e 0d 8c 3c
       0.031616785 -0.035584815 0.030120593 0.017096248
000270 5b fd b7 3c 0d 9e e5 3b b8 79 80 3d ba c4 ad bc
       0.022459676 0.0070073665 0.06273216 -0.02121197
000280 85 82 04 bc 38 d7 9d 3d 5f 04 03 bd b7 e8 a2 bd
       -0.008087759 0.07707065 -0.03198659 -0.07954543
000290 0b 69 ae bc a9 93 88 3d 7e 60 f5 3c 70 7b 1b bc
       -0.021290323 0.06668789 0.029953238 -0.009489879
0002a0 e6 68 06 bd d8 d2 91 bd 4b 90 35 bd d8 98 05 3d
       -0.032814883 -0.071202934 -0.04432706 0.032616466
0002b0 db 30 0d 3d 1a 7a a3 3d 13 78 7d bd be ab f3 bc
       0.03447042 0.079822734 -0.06188209 -0.029744979
0002c0 70 6c a2 3d d4 fe 38 bc 23 4b 95 3d 5a 2a af 3d
       0.07930839 -0.0112912245 0.07289722 0.08553
0002d0 4e a0 63 3d 6e 3d 65 3d 2c 79 7e 3d 61 f2 a6 bd
       0.0555728 0.055966787 0.062127277 -0.08151699
0002e0 2e 3e d3 3c db 6d c8 bc e6 f9 26 bd 3a e9 00 bd
       0.025786486 -0.024466446 -0.040765665 -0.031472422
0002f0 fe d4 8d 3d 61 fe a7 3d 76 71 5c 3d f1 3e 9e 3b
       0.06925391 0.08202816 0.053819142 0.0048292805
000300 54 8b 34 bb 89 2d 19 3c 53 52 e1 3b e7 f0 e3 3c
       -0.0027548866 0.009349235 0.006876269 0.027824832
000310 ed c2 12 bd b7 67 98 3d 3b 9d d9 3c a5 c7 96 bd
       -0.035830427 0.07441657 0.026564231 -0.07362298
000320 df 4d ce bc 47 ef 6a bd e2 17 c2 bc 54 03 26 bc
       -0.025183616 -0.0573571 -0.023693029 -0.010132629
000330 dd 0b 68 3c 27 4e 1f 3d ce 3d b5 bc 3f 83 1e 3d
       0.014162985 0.03889289 -0.022124197 0.038699385
000340 5b 48 5f 3d 35 2d 97 3d 05 99 7d 3c b8 b3 56 3d
       0.054512363 0.073816694 0.015478377 0.052417487
000350 66 52 87 3d 2c 66 8a bd 3a 1f 97 b9 d8 63 96 3c
       0.06607513 -0.06757769 -0.0002882423 0.018358156
000360 e5 04 76 3d d0 17 08 3c 78 11 35 bd 8a 1a 52 3d
       0.06006326 0.008306459 -0.044206113 0.05129484
000370 3a 97 64 bc a7 36 aa bd 0d ec 72 bd 8d 1c 43 bd
       -0.013952071 -0.08311205 -0.059307147 -0.04763465
000380 2d 71 91 bd fb 26 13 3c 9a ed 5a 3d ce 68 99 bd
       -0.07101665 0.008981462 0.05344925 -0.07490693
000390 23 e0 81 3c 0e 27 a2 3d a0 69 90 3d 61 76 a4 3d
       0.015853947 0.07917605 0.07051396 0.080303915
0003a0 52 24 15 3c 21 4a 69 3d 2c 1a 09 3c ed eb 21 3c
       0.009102898 0.05695546 0.008368056 0.009882909
0003b0 2f 84 35 3c 74 64 9e 3d 9f ca 86 bd 60 f7 f0 bc
       0.011078878 0.07734004 -0.06581616 -0.029414833
0003c0 27 f9 59 bc eb 09 40 bd ab 4b 90 3d 20 db cc 3c
       -0.013304031 -0.04688446 0.070456825 0.02500683
0003d0 82 04 d2 bb cf 55 5a 3d 0d 20 8d 3c 30 f1 3e 3c
       -0.006409229 0.05330449 0.017227197 0.011654183
0003e0 a1 c7 ac bc b7 25 0c 3d ad 91 0f bd c5 f9 3a bd
       -0.021091284 0.034215655 -0.035051037 -0.045648355
0003f0 f8 f6 7a bd 49 36 2c bd 93 17 ae 3d c7 86 d1 3c
       -0.061270684 -0.042043958 0.0850059 0.025576962

fc2.bias f4 [128]
000000 ff ab 1f 3d 58 a8 4f 3d 3d 3a 82 3d 39 c5 81 bc
       0.038982388 0.050697654 0.06358764 -0.015841113
000010 54 b1 e3 bc 91 eb 72 bd 11 d8 94 bd 04 d3 22 bc
       -0.027794518 -0.059306685 -0.07267774 -0.009938005
000020 2b a3 54 bd fc ab 56 3b 72 b6 ab 3d f3 7b 21 bd
       -0.05191342 0.003275632 0.08384408 -0.039424848
000030 a2 f9 d2 bc 53 b9 ec bc 3a ef b4 3d 9b 4e b8 3c
       -0.0257538 -0.028896963 0.08834691 0.02249842
000040 f5 68 23 3d ed fa b1 3d 47 2c 3a bc ca 17 9a bd
       0.039895017 0.086904384 -0.011363096 -0.07524069
000050 2d bd 85 3d 57 f2 39 3c 70 12 29 bd 8a 44 36 bd
       0.06530223 0.011349282 -0.04127735 -0.044498958
000060 ab 46 ae 3d 42 f0 44 bd 23 34 76 3c 58 2b 22 3c
       0.085095726 -0.04808069 0.015027079 0.009898029
000070 27 fd 03 3d d9 cf b2 3d 23 ac 67 bd d1 47 13 bb
       0.032223847 0.0873105 -0.056560647 -0.0022473226
000080 39 b7 25 3c 7a ea c9 3b fc c7 66 3d 8d 75 08 3d
       0.0101144845 0.006161985 0.056343064 0.03331523
000090 f9 6e a6 bd 31 25 39 bc cb 70 55 bc 9d 7a 86 3d
       -0.08126635 -0.011300371 -0.01302738 0.065663554
0000a0 e0 6d ac bd 9f 37 a6 3d 69 e3 af 3d 1e bb 5f bb
       -0.084193945 0.08116078 0.08588297 -0.003413863
0000b0 78 8d da bb de 5c 0e bd 3b 89 6a bc 55 2d 48 bd
       -0.0066696964 -0.034756534 -0.014314945 -0.048871357
0000c0 b2 ab 20 3d e3 75 0f 3b b3 b5 36 3c a9 c3 19 3d
       0.03922624 0.0021890334 0.011151719 0.03754011
0000d0 31 cb 96 bd c4 99 81 bd 07 ac 02 bd 9b 7e 80 b9
       -0.073629744 -0.063281566 -0.03190234 -0.0002450839
0000e0 0b 39 44 bb 9a 6e fb bb b9 9b 75 bd 15 61 1a bb
       -0.0029941227 -0.007673097 -0.05996296 -0.00235564
0000f0 d3 90 5f bd 03 46 98 3d 10 9c 02 3d b3 93 52 3c
       -0.054581475 0.07435229 0.031887114 0.012852597
000100 44 16 0a bd 01 41 3a 3d 8e c1 8a bd b1 f8 63 bd
       -0.03371264 0.04547215 -0.06775199 -0.055657092
000110 df 47 37 bd a8 59 6e bb 34 89 93 3d 05 11 8c 3d
       -0.044746276 -0.0036369357 0.07203904 0.06839184
000120 bc 74 7b bd 7d 72 08 3d 66 c8 93 bd 54 59 d0 3c
       -0.061390623 0.03331231 -0.07215957 0.02543322
000130 f4 93 2c bd 4c 0d 49 bd e3 30 27 bd 34 b9 a7 bc
       -0.042133287 -0.049084947 -0.040818106 -0.020474054
000140 f6 60 a5 3d 9d cd 93 bc 85 d5 36 ba 0a 09 ac bd
       0.080751345 -0.01804238 -0.0006974566 -0.084001616
000150 67 04 3a bd 45 fe b0 bd 03 72 92 bd fa 96 b0 3d
       -0.045414355 -0.08642248 -0.07150652 0.086225465
000160 1e 55 8f bc 3d 20 31 bd da 9f 74 bd 90 09 9d 3d
       -0.017496642 -0.043243635 -0.05972276 0.076678395
000170 ce 0e 22 3d c4 51 1f bd 99 27 44 3d 25 55 73 bc
       0.0395649 -0.038896337 0.047889326 -0.014851843
000180 db bf 7b bd e3 4c a2 bd ac 71 0a bd 3d 64 ef 3c
       -0.061462265 -0.07924821 -0.033799812 0.029222602
000190 2a 25 3a 3d 4e 9f 7b bc 32 9f 01 bd 31 26 51 bd
       0.0454456 -0.015357805 -0.03164596 -0.051061813
0001a0 6c e9 63 3d 41 47 7a bd a4 d6 80 3d bc 51 05 bd
       0.05564253 -0.06110311 0.062909395 -0.03254865
0001b0 1a 09 98 bc 1d 79 9b 3d b3 9c 3e 3d 0b 8a 02 bd
       -0.018559027 0.0759146 0.04653616 -0.03186993
0001c0 7c 3e a5 bb 4d d6 b4 3c 41 7c 17 3c 27 d1 41 bd
       -0.005042849 0.022074843 0.009245933 -0.047318604
0001d0 bc c8 f3 bc 79 2e b9 bb 96 23 8d 3c 8c 27 9c bd
       -0.029758804 -0.005651292 0.017228883 -0.076247305
0001e0 f5 cf 06 3d ff e6 10 3c d2 b3 91 bd 26 ac a3 3d
       0.032913167 0.008844136 -0.07114376 0.07991819
0001f0 86 e7 aa b9 69 c7 81 3a 64 2b bf 3b bd 3a 62 bd
       -0.00032597425 0.0009901348 0.00583403 -0.0552318

fc3.weight f4 [5, 128]
000000 d6 85 92 3d 17 32 36 bc 21 ca 25 3d 54 52 e0 bc
       0.071544334 -0.011120341 0.04047597 -0.027383007
000010 bf ee 7f 3b 3c a4 16 bc 18 21 c3 bc 8a 69 ac 3d
       0.0039052216 -0.00919443 -0.023819491 0.084185675
000020 05 34 3b 3d cb e0 4e bd af a5 b1 3d b4 a2 98 bd
       0.045703907 -0.050507348 0.0867418 -0.07452908
000030 97 35 2c 3c c0 94 9b bd 8a 56 ab 3c f1 a0 ae 3d
       0.010510824 -0.07596731 0.020915288 0.08526791
000040 4c 9e 84 bd a2 4a 63 3d 74 42 8e bc 36 d3 2b 3d
       -0.06475505 0.055491097 -0.017365672 0.041949473
000050 26 60 69 3d d5 d0 0c bc bc 74 e0 3c d6 8e 1e bd
       0.05697646 -0.008594711 0.027399413 -0.038710438
000060 b4 75 84 3d 3b 31 b2 3d c7 64 54 3d 31 44 24 bd
       0.064677626 0.08700796 0.05185392 -0.040104095
000070 27 df 9e 3d 65 76 1e 3d bf 90 8c bd b1 39 ec bc
       0.07757407 0.03868713 -0.068635456 -0.028836103
000080 ae 1e c0 bc 43 3d 70 bd e1 bf ae bd d3 53 86 bd
       -0.02345213 -0.058652174 -0.08532692 -0.06558957
000090 e0 50 5f ba 35 76 2f 3c 7f a6 36 3b 50 13 90 3d
       -0.0008518826 0.010709335 0.0027870235 0.070349336
0000a0 54 ad 6c 3b d2 e5 dd 3c e5 a0 b4 3a 7c 0e af bc
       0.0036114054 0.027087126 0.001378086 -0.021369211
0000b0 55 4e 70 3d e5 91 97 bd f9 9f 48 bd c9 ad 00 bd
       0.058668453 -0.07400874 -0.048980687 -0.031415734
0000c0 4d a7 3f bd 77 b5 80 3d 32 37 79 3c e5 a2 a9 3c
       -0.04679041 0.06284612 0.0152109135 0.020707557
0000d0 0a 2f 3a bd 8a 85 66 3b 15 0e 0a bc eb c5 a8 bd
       -0.045455016 0.003517481 -0.008426209 -0.08240875
0000e0 79 6b 84 3d f3 3c a5 bd 38 c0 ad 3c 47 98 83 3d
       0.06465811 -0.08068266 0.021209821 0.06425529
0000f0 05 50 36 3d be 70 b3 3d a5 ae 67 bd f6 5e 7d bd
       0.044509906 0.08761738 -0.05656304 -0.06185814
000100 56 a6 a8 3d 1e f4 59 bc 38 72 ae 3d c6 fe ba 3c
       0.08234851 -0.013302831 0.08517879 0.022826564
000110 21 7d 86 bd 7c 98 ab 3d df 1f 81 bd 35 29 a1 bd
       -0.06566835 0.083786935 -0.06304907 -0.07869188
000120 55 b3 47 3c 6c 3d 86 3d 0b 89 6a bd 35 ae 86 3d
       0.012188752 0.06554684 -0.0572596 0.06576196
000130 51 a5 07 3d 85 94 b4 3a 81 8e a8 3d 1f bc 85 3c
       0.033116642 0.0013777172 0.082303055 0.016325055
000140 29 35 5c bc 0b 14 0f 3d f8 ef 71 3d 48 f2 7f 3d
       -0.013440409 0.034931224 0.059066743 0.062486917
000150 8e 88 90 bd 81 73 9e 3d d1 c3 e9 3c cf 06 28 bd
       -0.07057296 0.07736874 0.028535755 -0.04102212
000160 97 ef 06 bd 6c 8a 0e 3b 74 fd 39 bd 7b 1f b1 bd
       -0.032943334 0.0021749986 -0.045407727 -0.086485825
000170 e0 c4 e9 3c 65 e7 23 3d 27 7d 4f bd d3 80 ca 3c
       0.02853626 0.040015597 -0.050656464 0.024719631
000180 7a cf 2b bd 25 42 3c 3c 55 f4 77 bd be 11 8d 3d
       -0.041945912 0.011490379 -0.060535748 0.0688815
000190 db db b7 bb e9 52 97 bd 26 8e 57 3d 68 90 63 bb
       -0.0056109256 -0.07388861 0.052625798 -0.0034723524
0001a0 08 48 62 3d 69 5e 5d bc 14 83 7d 3d 6d 54 d4 bc
       0.055244476 -0.013511279 0.061892584 -0.025919164
0001b0 58 88 b0 3b 1b 6d 8e bd 5f c2 4d 3d 82 e0 41 bd
       0.005387347 -0.06954404 0.050234195 -0.047333248
0001c0 10 dd 52 3d ab a1 b8 bb 7f a3 88 bd 77 47 b3 3d
       0.051480353 -0.0056345067 -0.066718094 0.08753865
0001d0 11 2a cb bc 2c 43 a7 bd 98 68 82 bd d1 8c 50 bd
       -0.024800332 -0.08167109 -0.06367606 -0.050915543
0001e0 73 95 51 3c 0b 17 8e bd 64 7a 38 3d 55 97 f6 3c
       0.012791979 -0.06937989 0.045038596 0.030101458
0001f0 c7 5e a8 bd c7 20 25 3d e3 6b 1e bc 0c 17 57 bd
       -0.08221202 0.040314462 -0.009669277 -0.052512214
000200 5f 6e 10 bd 06 7c 19 bc 3b 67 71 3c 4d 28 e4 bc
       -0.035261508 -0.009367948 0.014734085 -0.027851248
000210 c2 5a ef 3c d7 67 51 bd 5c 49 64 3d c4 f7 84 bb
       0.029218081 -0.05112442 0.055734023 -0.0040578563
000220 4f 96 5a 3a 1b e2 62 3d 1a 0e 8a 3d 13 5b 8d 3b
       0.0008338438 0.055391412 0.06740971 0.0043138354
000230 85 57 38 bd 9d a1 71 3c 05 27 42 bc 5a 46 8d bd
       -0.04500534 0.014748004 -0.011850123 -0.06898184
000240 d4 ac a2 3d 73 1e 87 3d 02 18 93 bd 8d 97 b3 bb
       0.079431206 0.065976046 -0.071823135 -0.0054807127
000250 0a 47 2d bd d4 b4 bc ba 00 3b f8 3c 20 df 5f 3d
       -0.042304076 -0.0014397153 0.03030157 0.054656148
000260 c3 fe 32 3d e1 8e 4a bd 52 bf 7c 3d 82 60 b0 bd
       0.04369999 -0.049452666 0.061705895 -0.086121574
000270 1e b4 43 bd 31 22 e6 bc 03 8e 5a 3d 21 43 5b 3d
       -0.047779195 -0.028092476 0.05335809 0.053530816
000280 87 d5 86 3c 5d ba 3c 3d f0 1f 36 3d 42 3d ef bc
       0.01645924 0.046076167 0.04446405 -0.029204015
000290 ea 4d 0d 3d 63 47 78 bd 5d a3 a2 3d 10 9f 16 3d
       0.034498133 -0.060614955 0.07941315 0.036772788
0002a0 76 25 9f bb d4 f9 98 3d 45 67 46 bd f5 f3 9b bc
       -0.0048567606 0.07469526 -0.04843833 -0.019037226
0002b0 e7 b6 4b bd 20 ed 6b bd 3e 9b a4 3d a1 d2 1e 3d
       -0.049734976 -0.057599187 0.080374226 0.03877509
0002c0 7b 4f a9 bc 72 59 a9 bc 30 72 22 3b e5 98 27 3c
       -0.020667782 -0.020672534 0.00247873 0.010229324
0002d0 6c 90 3a 3d 80 9a a7 bd 99 dd 2f bd f5 04 83 3d
       0.045547888 -0.081837654 -0.04293594 0.0639743
0002e0 f9 ae 40 bc de 12 a7 bd 97 64 54 bd 3a be cb bb
       -0.011760467 -0.081578955 -0.051853742 -0.006217745
0002f0 58 38 64 3c 18 2b 8b bd 82 fa b3 3d 6d a4 11 3d
       0.013929449 -0.06795329 0.08788015 0.0355572
000300 0a d9 2c 3d 43 c0 0a bd 2f a6 84 3b 5f b9 fd bc
       0.042199172 -0.03387476 0.004048131 -0.03097218
000310 ce 33 72 bd da 4f 04 3d f2 f5 30 bc fd d1 b1 3d
       -0.059131436 0.032302715 -0.010800825 0.0868263
000320 3e a5 2a bd a6 61 93 3d 53 ad 5e bd f0 56 a6 bd
       -0.041661493 0.07196359 -0.054364514 -0.08122051
000330 74 f8 e0 bc 18 6a 3c bc cf 35 97 3d 8f 1b 89 bd
       -0.027462222 -0.011499904 0.0738331 -0.066947095
000340 4f 15 01 bd 27 51 78 3d 5a c9 54 3d a1 cc 22 3d
       -0.031514462 0.060624268 0.051949836 0.03974593
000350 4a 17 5b 3d 89 5c 5e 3d c2 90 a1 bd 1e 0b d6 bb
       0.053489007 0.054287467 -0.078889385 -0.006532087
000360 98 a1 9f bd 00 37 94 3d 2c 40 30 bc 3d c7 37 bd
       -0.077944934 0.07237053 -0.010757487 -0.044867743
000370 11 e3 a7 bd 83 c2 04 3d df 7d a3 bd 4b 6f 67 bd
       -0.08197606 0.032412063 -0.079829924 -0.05650262
000380 5a e0 a9 bd ee fe 7f bd 6d 31 b6 3c 20 ad b2 bd
       -0.08294745 -0.06249898 0.022240365 -0.08724427
000390 0b 8e 65 bd ef 1a 83 bc b7 93 a8 bd 85 0c 99 bd
       -0.056043666 -0.016004054 -0.08231299 -0.07473091
0003a0 d9 c7 87 3d ab 05 8c 3d 6b fa a8 bd 65 8e 63 3d
       0.06629915 0.068370186 -0.082508884 0.05555572
0003b0 81 78 05 bc 5e e3 f2 bc d4 bd 99 bd 14 be df bc
       -0.008146406 -0.029649433 -0.0750691 -0.027312316
0003c0 7a 82 f5 b9 81 8c 09 3b 02 84 a4 3c fc 73 14 bc
       -0.00046827254 0.0020988288 0.020082477 -0.009060856
0003d0 64 0d 00 bd 7f 0a 13 3d bb 37 e7 bc e1 91 1d bc
       -0.03126277 0.03589868 -0.028224817 -0.0096173
0003e0 90 c4 0b bd a1 d9 88 bc 25 b4 82 3d e4 b7 db 3c
       -0.034123003 -0.016705336 0.06382016 0.026821084
0003f0 63 18 19 3d 66 d3 75 3d de 70 b4 3d d0 94 8f 3d
       0.037376773 0.06001606 0.0881059 0.070108056

fc3.bias f4 [5]
000000 da b8 ad 3d 32 57 52 bc 15 64 ae 3d 28 77 79 bd
       0.08482523 -0.012838172 0.08515183 -0.060904652
000010 fc 0c e5 bc
       -0.027960293
