dynamics/src/drl/outputs/RobotOptEnv/20220720-092153/models/dqn_checkpoint.pth (torch, 75015 bytes, 6 tensors)

fc1.weight f4 [128, 7]
000000 ce cb 55 3e bb 95 8f be 99 a6 23 3e 01 96 5c 3e
       0.20878527 -0.28043923 0.1598152 0.21541597
000010 06 88 b2 be f9 4b 88 be 83 8a bf bd f4 3d ad be
       -0.34869403 -0.26620463 -0.09352591 -0.3383633
000020 47 8d d3 3d 49 b9 bb 3d 1d be 09 3e 47 73 9a 3e
       0.10329681 0.091662 0.13451429 0.30166075
000030 c4 7c 97 3e a5 0a f6 bc 14 ac bf 3e 19 92 66 3e
       0.29587376 -0.030034373 0.37435973 0.2251667
000040 e2 b7 a0 3e 7a e4 88 be f3 dd fd bc 6e e3 da bd
       0.3139029 -0.26736814 -0.030989623 -0.1068791
000050 47 87 e4 bd e0 dd 0c be 74 a9 99 3e 30 5c 5a 3e
       -0.111586146 -0.13756514 0.30012095 0.21324229
000060 98 21 a2 3e 5c ac 9b be 53 12 b0 3e ae a2 ea bc
       0.31666255 -0.30404937 0.3438898 -0.028642025
000070 41 d2 4e 3d 85 a1 ba be cb e8 6b 3e 90 99 84 be
       0.050493483 -0.36451355 0.23038022 -0.2589841
000080 91 95 2d 3e c1 98 89 bd 66 41 20 3c f7 08 51 be
       0.16951586 -0.067185886 0.009781217 -0.20413576
000090 96 4a 09 3e e5 9e 92 3e 49 85 ad 3e 87 09 82 3e
       0.13407359 0.28636852 0.3389075 0.25397894
0000a0 8c fb ce bd e8 ac a6 bd ff 3d 42 be 21 6d 74 3e
       -0.101065725 -0.08138448 -0.18968962 0.23869754
0000b0 4b df aa 3d 8b 92 b1 3b aa d3 97 be 87 29 43 3e
       0.08343371 0.0054190806 -0.29653674 0.1905881
0000c0 4a 61 17 3e 47 6f ed bd 64 33 ac 3d 08 58 53 be
       0.14783207 -0.1159349 0.084082395 -0.2063905
0000d0 fb 5f c0 3e 32 e5 00 bd cd 59 23 bc c5 57 c2 3d
       0.37573227 -0.031468578 -0.009970141 0.09489397
0000e0 4d e1 9d be bc 62 63 3d c7 58 77 be 3a 6e 63 3e
       -0.30835953 0.055514082 -0.2415496 0.22210017
0000f0 c9 5b 22 be 22 c9 11 3e 0a da 71 3e b9 72 9c bc
       -0.15855326 0.14236882 0.23618332 -0.019097673
000100 6d e3 93 3e 57 00 a9 3d 7c 12 a5 bd ad 55 8e be
       0.2888445 0.08252018 -0.08060166 -0.2779974
000110 45 ee 19 3e 9a eb 5d 3d 0b ea 3d be f1 f6 6b 3d
       0.15032299 0.054179765 -0.18546312 0.05760855
000120 c5 09 57 bc ab 19 6b be 52 d1 4c 3e 7b 22 e5 bc
       -0.013124888 -0.2295901 0.20001724 -0.027970543
000130 9d 71 3b 3c 40 d7 21 be b6 67 bf 3e 61 ca 73 3e
       0.011440662 -0.15804768 0.37383813 0.2380767
000140 82 e4 b9 be d9 50 19 be b8 e2 b3 bd 82 5a ab bd
       -0.3630715 -0.14972247 -0.087834775 -0.08366872
000150 85 17 a0 3e 4b 3f 9d bc b8 a0 45 bd aa 83 7f bc
       0.31267944 -0.01919522 -0.048248976 -0.015595356
000160 d4 22 a7 3e 8b d7 ac 3d d7 9c a2 be 77 84 42 be
       0.3264376 0.08439549 -0.31760284 -0.18995844
000170 03 8e 71 bd be 38 2f be ac 22 af be fe 7d 68 3e
       -0.058973324 -0.17111489 -0.3420614 0.22704312
000180 20 82 56 3d 51 b2 d2 3d 23 f3 d4 bd a8 7d 05 3e
       0.05237019 0.102879174 -0.10397937 0.13036215
000190 ea bc 7a be 34 2a 7c be 49 6b dc 3d 4e f6 76 bc
       -0.24486127 -0.24625474 0.107626505 -0.015073372
0001a0 f4 4d a6 be fb b7 8a 3e 7d 2d ff 3c 67 36 3b 3e
       -0.3248135 0.2709349 0.03114962 0.18282472
0001b0 83 a1 8f 3e bb 36 9e be 91 6e 2c 3d c5 1c 14 be
       0.2805291 -0.3090113 0.04209763 -0.144641
0001c0 63 47 2c be 2f e1 42 be 40 7e 2c be 1a 44 99 3e
       -0.16824107 -0.19031213 -0.16845036 0.2993477
0001d0 d1 75 3b 3e 0c 53 94 3e 2c 9d 05 3e 05 d6 a6 be
       0.18306662 0.2896961 0.13048238 -0.3258516
0001e0 39 77 4f be d6 d0 45 be 4d 53 01 be e6 2d 53 be
       -0.20260324 -0.19317946 -0.12629433 -0.20622978
0001f0 69 df 1e be ea b9 9b 3e c9 af 99 be b4 4d 85 be
       -0.15514912 0.3041528 -0.30016926 -0.26035845
000200 94 eb b2 be aa 37 26 3d a9 b7 bb 3e b6 aa dd 3d
       -0.34945357 0.04058043 0.3666356 0.10823576
000210 92 e9 b8 3d fa c1 a9 3d 3d 59 fb bc 4a 2c 08 be
       0.09028925 0.08288951 -0.0306822 -0.13298145
000220 e6 d7 1c be 9f 5d 8c be 91 0c 9b be 0e 79 b5 3d
       -0.15316734 -0.27415177 -0.30283025 0.0886098
000230 10 06 ec bc c7 1e 36 3e e0 a4 45 3e 13 e3 c1 bd
       -0.028811485 0.17785178 0.19301176 -0.09467139
000240 f0 6f c3 bd 16 f9 81 be 9c e7 64 3c 48 8d ac 3e
       -0.09542835 -0.2538535 0.013971236 0.3370154
000250 7f 7d cc 3d 69 ff 46 be 36 6e 97 bd 75 04 af 3e
       0.09984874 -0.19433369 -0.07394068 0.34183088
000260 46 b2 73 3e 33 a6 c1 bc 07 85 0d bd d4 a2 84 3e
       0.23798475 -0.02363882 -0.034550693 0.25905478
000270 02 ac 97 3e 55 6f 1e 3e bf 39 c4 3b 87 85 46 be
       0.2962342 0.15472157 0.005988329 -0.19386874
000280 d7 84 84 3e c1 e1 7b be 89 8e 92 3e d4 f5 9e 3c
       0.258826 -0.24597837 0.2862437 0.01940433
000290 8f 4f 0b 3e bd 2e 36 3d 02 16 8a 3e b9 4b b0 3e
       0.13604568 0.044478167 0.26969916 0.34432772
0002a0 9e bc ff bd 06 89 c8 3c 81 10 76 3e f0 86 be be
       -0.12487148 0.0244794 0.24029733 -0.37212324
0002b0 e4 6d 20 be c3 a9 8f 3e 9b 09 6a 3c ed 70 b0 bd
       -0.1566692 0.28059205 0.014284517 -0.08615289
0002c0 89 76 12 be 70 96 a0 b9 b0 3a 87 be 02 16 86 be
       -0.1430303 -0.00030629663 -0.26411963 -0.26188666
0002d0 f4 59 8e 3e 59 f1 ab 3e 34 eb 8f be 00 51 9d be
       0.27803004 0.3358257 -0.28109133 -0.3072586
0002e0 94 1f b6 3e f0 43 90 be 2f 0b 0c be 10 02 02 be
       0.35570967 -0.28176832 -0.13676141 -0.126961
0002f0 96 02 44 3e 64 5b b3 3e 05 3f b7 3e d5 f2 84 be
       0.19141611 0.35030663 0.35790268 -0.25966516
000300 97 3c a0 be 64 8d 92 be c9 1b bf 3e 28 c0 84 3d
       -0.31296226 -0.28623497 0.37325886 0.064819634
000310 5b 2f fc bb ae c0 4e 3e 05 8c 8d 3c d6 98 9d be
       -0.007696075 0.20190689 0.01727868 -0.30780667
000320 0c ad b3 3e f1 8a a2 3e bd 52 b2 bc 28 07 a8 be
       0.35092962 0.3174663 -0.021767968 -0.3281796
000330 f3 e6 3e be a5 ca 0c 3e 18 59 6c 3e e9 15 be be
       -0.18642788 0.13749178 0.23080862 -0.3712609
000340 19 3a a2 3e e6 b6 ba bb a1 cc 96 bc 82 ae 8f be
       0.3168495 -0.0056980727 -0.018408122 -0.28062826
000350 85 ad 31 be bd 43 51 bd e1 cf 9d 3e ca 80 24 3e
       -0.17351349 -0.05108999 0.30822662 0.16064754
000360 4b b2 82 3e 9d 44 4d be f4 61 6c 3e dd 90 01 3e
       0.25526652 -0.20045705 0.23084241 0.12652917
000370 f8 29 62 3d 24 f8 0c 3e 5b d7 bc 3d c8 c2 b8 3e
       0.055215806 0.13766533 0.09220763 0.36086106
000380 ef 8d 95 be ae b8 98 be a4 16 13 3e f9 04 b0 bd
       -0.2920985 -0.298284 0.14364105 -0.085946985
000390 bb df af be a0 77 ad 3e 8b ce 25 3e 2b 0d 99 be
       -0.3435038 0.3388033 0.16192071 -0.2989286
0003a0 d0 dc ac 3e 6b a2 54 3e 8d fe 96 3e d3 74 07 3e
       0.33762217 0.20765083 0.29491082 0.13228159
0003b0 4c b4 95 bd 8a 23 20 bc 68 28 cf bd 45 b8 d9 3d
       -0.073097795 -0.009774098 -0.10115129 0.1063085
0003c0 fc 5d 85 3e 54 9b 0a 3e 94 b2 fd bc 12 c7 47 be
       0.26048267 0.13535815 -0.030968942 -0.19509533
0003d0 5e a5 8d 3d e9 14 b4 be 84 ed 83 3e ac bd a1 be
       0.06916307 -0.35172203 0.25767148 -0.3159002
0003e0 df d8 68 3e 75 7f 41 be 61 dc a4 be 22 12 e3 bd
       0.2273898 -0.18896277 -0.32199386 -0.11087443
0003f0 bf 6f 9f 3e 4a 41 84 be d5 32 09 3e 98 aa a6 3e
       0.31139943 -0.25831062 0.13398297 0.32552028

fc1.bias f4 [128]
000000 a5 af a8 3d 76 e8 95 3e 41 00 b2 3e 11 7d 92 bd
       0.082366265 0.29278916 0.3476582 -0.07152761
000010 73 07 98 3d 28 d3 a7 be 24 cf a0 be 01 40 39 3d
       0.07423296 -0.32778287 -0.31408036 0.045227055
000020 80 85 83 be c5 a5 8b bb 90 17 d6 3d 96 3b a5 bd
       -0.2568779 -0.0042617046 0.10453713 -0.08068006
000030 6b 1c ae 3e 53 f8 a2 be 27 f0 85 be 24 09 38 be
       0.34006056 -0.3183008 -0.26159784 -0.17972237
000040 2e 75 54 be 6b 84 e7 3c 60 4c af be 44 c3 5a be
       -0.20747826 0.028261384 -0.34237957 -0.2136355
000050 39 a4 8e be 14 19 91 be 8a d2 cf bd 4e c5 8f be
       -0.27859667 -0.28339446 -0.10147579 -0.2808022
000060 11 fb 6e be 0c 60 89 be e9 19 81 be 42 b8 53 be
       -0.23337962 -0.2683109 -0.2521508 -0.20675758
000070 a6 73 95 3e aa ae 05 3e 85 ee 33 3e aa 33 95 3e
       0.29189795 0.1305491 0.17571457 0.2914098
000080 99 e2 97 be e8 a7 1e be cc 82 2f be de 7e 58 3e
       -0.29665068 -0.15493739 -0.17139739 0.21142146
000090 cd c9 8f be 01 d6 ae 3e ea 36 75 be 4c 59 84 3e
       -0.2808365 0.34147647 -0.2394673 0.25849378
0000a0 96 87 71 bd 40 d9 62 3d d4 9e 45 3e fa a6 d6 bd
       -0.058967195 0.055382967 0.1929887 -0.10481067
0000b0 c8 ae a7 3e 51 d2 95 be f3 5b a3 3e f1 a8 a7 be
       0.32750535 -0.2926202 0.3190609 -0.3274608
0000c0 07 84 3c 3e 8e fa 3d 3e 99 d3 b1 3d 5a 1f b5 be
       0.1840974 0.1855261 0.08682937 -0.35375482
0000d0 ab f5 fe 3d 69 6a 68 bd e1 b4 32 be 54 cd 2a be
       0.12449201 -0.056742106 -0.17451812 -0.16679889
0000e0 ef 54 19 bd dd 00 6f 3e 27 dc 2d be 8f 3f 81 3e
       -0.037434515 0.23340173 -0.16978513 0.25243804
0000f0 13 24 ab 3e 97 63 84 3e fb ce 27 3e f0 32 86 be
       0.3342596 0.2585723 0.1638755 -0.26210737
000100 51 1e 32 3e 12 e9 9e be 9e c5 84 be c7 25 b5 be
       0.17394377 -0.31037194 -0.2593202 -0.35380384
000110 c0 6d 96 be 88 b8 eb 3d e9 b5 7e bd e2 d8 93 3e
       -0.29380608 0.11509806 -0.0621852 0.28876406
000120 45 41 39 be d1 d9 eb bd ec dd 8f 3d c6 05 3e 3d
       -0.18091305 -0.115161546 0.0702475 0.046392225
000130 a5 26 34 3e 28 80 70 be ac 00 b4 be f2 28 0b 3e
       0.17592867 -0.23486388 -0.35156763 0.13589838
000140 7d 51 c9 3d 19 61 a9 be 8b e3 8c 3e 5a 42 15 3e
       0.09829996 -0.33081892 0.27517352 0.14576092
000150 ad 65 7b 3e 5f 69 80 3e cc 18 7f 3d a7 d0 99 3e
       0.24550505 0.25080392 0.062279508 0.30042002
000160 dc 45 91 be 6a 3c 3d be 37 65 ed 3d ba 6b 04 bd
       -0.2837361 -0.18480077 0.11591571 -0.0323293
000170 0b 9c ed bd 5c 76 b3 be a5 b5 1d 3d 4d dc 04 3e
       -0.116020285 -0.3505124 0.038503308 0.12974663
000180 55 6c a5 3e 3f 2a 90 3c 91 08 70 be 1f 48 3e be
       0.32309213 0.01759827 -0.23440768 -0.185822
000190 b0 49 1d bc 10 8b 15 3e 22 22 aa 3e a8 f3 af 3e
       -0.009600088 0.1460383 0.33229166 0.34365582
0001a0 1c 3c 99 3e 50 88 14 bd 1f 03 aa 3e a6 e6 14 be
       0.29928672 -0.03626281 0.33205506 -0.1454111
0001b0 83 b4 cb 3b b1 6a 1c 3e 4c 0d af 3e a6 9f ab 3e
       0.006216587 0.15275075 0.34189832 0.3352024
0001c0 70 60 35 3e c5 75 ba bd 04 c3 25 3c e8 94 e9 bc
       0.17712569 -0.09104494 0.010117296 -0.028513387
0001d0 4d 88 10 be da 6b d0 3d 80 bf 90 3e b6 1f 8e bd
       -0.14114495 0.10176821 0.28271103 -0.06939642
0001e0 53 ec 59 be 66 56 ac 3e d5 c1 90 be 33 3f 82 be
       -0.21281557 0.33659667 -0.28272882 -0.25438842
0001f0 36 32 bf 3e cf 16 3a be 36 4a 59 be 5a f3 81 3e
       0.37342995 -0.18172763 -0.21219715 0.25380975

fc2.weight f4 [128, 128]
000000 5a 07 4d 3d 36 9e 79 bd 27 94 45 3d 06 56 39 bc
       0.05005584 -0.060941897 0.048236992 -0.0113120135
000010 75 c6 32 bd 30 e9 2d 3d 24 9c 43 bd d2 35 28 bd
       -0.043646295 0.042458713 -0.04775633 -0.041066952
000020 ab 25 6d bd 5c 2b 06 3c 69 34 16 bd c1 d7 86 3d
       -0.05789725 0.008189049 -0.036671076 0.065841205
000030 7d 5d 7d 39 61 88 a7 bd d5 e3 a6 bd 7c 74 1c 3d
       0.00024162787 -0.08180309 -0.08148924 0.038197026
000040 32 36 24 3d 57 99 59 bd d4 62 f6 3c 0f 4e 33 3d
       0.040090747 -0.053124752 0.030076422 0.043775614
000050 81 44 9b bc 9b 54 42 3d a7 ad 50 bc db 24 98 39
       -0.018953564 0.047443967 -0.012736714 0.0002901916
000060 c6 3a 81 bd e0 98 86 3d 3f 74 f1 3c 66 42 53 3d
       -0.06310038 0.06572127 0.029474376 0.051576994
000070 4c ef e2 bc 46 2d 10 bd e9 f7 50 3d 4b dd ed 3c
       -0.027701996 -0.035199426 0.051017676 0.029036185
000080 70 47 07 bc 2c 32 91 bc 69 19 8f 3d 52 e9 27 3d
       -0.008256778 -0.01772412 0.069872685 0.040993996
000090 05 50 3c bd 5a 00 48 3d 41 1f c0 bb 83 91 00 bd
       -0.04597475 0.04882846 -0.0058631008 -0.03138877
0000a0 65 1e 8c 3d 01 68 43 bc 84 65 81 3d ca 58 2e bd
       0.06841735 -0.011926652 0.06318191 -0.042565145
0000b0 d7 91 2d 3c 3b ca fd bc 4a 53 ef 3c 23 7f ac 3d
       0.010593853 -0.03098022 0.02921452 0.08422687
0000c0 1f b3 7c bd 61 fe cf bc cf 8d 80 bb f0 76 09 bd
       -0.06169426 -0.025389852 -0.003923155 -0.033560693
0000d0 63 08 a2 bb e4 a0 17 bd e3 ce 41 bd ed 40 af bd
       -0.0049448474 -0.03701867 -0.047316443 -0.085573055
0000e0 e8 42 cf bb 06 8d 87 3c e4 5d aa 3d 3b 3a a4 3d
       -0.0063251145 0.016546737 0.083186895 0.08018919
0000f0 58 4a 97 3d be c0 5d 3c c4 56 c3 3b 7d b7 36 3d
       0.07387227 0.013534723 0.005961271 0.04460858
000100 46 67 c3 bc 7c ff 48 3d 61 4d a2 bd db 2b 8a bd
       -0.023852956 0.049071774 -0.07924915 -0.06746646
000110 e6 de 21 3d b9 6d 6e bc 6e a7 b1 bd 14 76 b2 3c
       0.039519213 -0.014552527 -0.08674513 0.02178482
000120 ad 03 ff 3c ab c0 7e 3d a8 dc 5c 3c 9c 5d f7 3c
       0.031129682 0.06219546 0.013480343 0.030196004
000130 56 75 93 3c 87 93 85 bd ad 4b 9f 3d 3d 6d 52 bd
       0.018000286 -0.06522279 0.07778106 -0.05137371
000140 e5 b4 c0 bb 04 d8 38 bd f5 22 0d 3d 32 5b 20 bd
       -0.0058809393 -0.045127884 0.034457166 -0.03914947
000150 20 cf 53 bd 9f 1c e2 bc 02 00 64 3d f5 f0 37 3d
       -0.0517112 -0.027601538 0.05566407 0.04490753
000160 b6 95 81 bd 5f 32 95 bc bb cd cd 3c 51 c7 63 bd
       -0.06327383 -0.018212495 0.025122514 -0.055610005
000170 38 ca 1c 3d a5 6e 2c bc b1 dd 88 3d 4f 76 84 bd
       0.03827879 -0.010524427 0.06682909 -0.06467878
000180 b6 6b 97 3d a7 ac 3c bd ea 11 60 bc 70 74 80 3d
       0.07393591 -0.04606309 -0.013676146 0.06272209
000190 4f 1b a6 bd d2 57 0c 3d 92 e5 17 3c 26 51 55 bd
       -0.081106775 0.03426344 0.009271042 -0.052079342
0001a0 6d dd 37 3d 97 f1 39 bc 96 a3 d2 3c 5b 92 ad bd
       0.044888902 -0.011349103 0.02571277 -0.08475181
0001b0 93 17 ab bd 59 27 86 3d 18 e8 1a bd 42 7f 54 3d
       -0.08354106 0.06550474 -0.037818998 0.051879175
0001c0 46 b8 b2 bd 3b 0a 8d bd 6f 48 0b bd 6d 1d 7e bd
       -0.087265536 -0.06886717 -0.034004625 -0.06203978
0001d0 47 65 68 bd e0 ef aa 3c 88 45 9b bd a8 b7 8e bd
       -0.05673721 0.020866334 -0.075816214 -0.069686234
0001e0 b0 9c be 3c 47 d9 ad 3c 5f 1d 54 3d f6 2f e1 3c
       0.023268074 0.02122177 0.051785823 0.02748869
0001f0 c2 07 ad 3d 62 63 3d bd 18 0f 7a bd 8a 33 1e ba
       0.08448745 -0.046237357 -0.06104955 -0.00060349016
000200 95 27 3c 3c 19 ec 24 bd a2 a1 99 bb 5c d6 68 3c
       0.0114840465 -0.040264223 -0.0046884576 0.0142112635
000210 c4 68 17 39 eb 0e 91 bd 72 cc af bd df f0 54 bd
       0.0001443951 -0.070829235 -0.08583917 -0.051987525
000220 6c 08 78 3d 27 d1 c9 bc 72 5e c1 3c e5 58 35 bd
       0.060554907 -0.024635864 0.023604605 -0.04427423
000230 d7 c5 23 3d 67 94 48 bd ff ec 9b bd d2 b1 27 3d
       0.039983597 -0.048969653 -0.07613563 0.040941067
000240 9e 6a 9e bd 77 fc 10 3d 18 e9 3f bd 32 37 cf bc
       -0.07735179 0.03539702 -0.046853155 -0.025294874
000250 2a cc c8 bc 27 fb af bd e5 0d 49 3d f9 65 71 3d
       -0.024511416 -0.085928254 0.049085516 0.05893514
000260 6c b7 75 3c 23 3d 87 3d 1c d5 86 bd f4 32 f9 bc
       0.014997344 0.06603458 -0.06583616 -0.030419804
000270 12 84 83 bc 05 72 fd bc 78 3d 10 bc 4a 77 7f bc
       -0.016054187 -0.030938158 -0.008803718 -0.015592406
000280 91 68 9a 3d 2d 75 3e bc 93 4f 94 3d 8a 24 02 bd
       0.07539476 -0.011624617 0.0724174 -0.031773128
000290 fd 35 af 3d 94 6f e1 bc b9 6a 25 3d 4d 8b b5 3b
       0.08555219 -0.027519025 0.04038498 0.0055402876
0002a0 fc d0 f6 bc 5d fa 9f 3c 31 38 1e 3d 76 20 48 bd
       -0.030128948 0.019528562 0.038627807 -0.048859082
0002b0 ad 5d e6 bb 5b bc 0b 3b 58 24 45 bd 19 d4 97 3d
       -0.00703021 0.0021321985 -0.048130363 0.07413501
0002c0 95 bc 10 bd 79 f9 ba 3c c3 b9 c3 3c 8a 2c b2 3b
       -0.035336096 0.022824036 0.023892289 0.0054374384
0002d0 61 97 6d 3b b9 db 4c 3d a3 a5 79 bc c0 86 b0 bc
       0.003625356 0.05001423 -0.015237245 -0.021548629
0002e0 73 a8 8a bc e9 da 36 bc b3 64 f8 39 b0 fc 05 bd
       -0.016926026 -0.011160591 0.00047377273 -0.032711685
0002f0 7a 68 00 3d b4 39 4f 3d b5 af f6 3c b0 a6 5b 3d
       0.031349637 0.05059214 0.03011308 0.053625762
000300 ff 06 1b bd 41 8f ae 3d 4b 21 9a bd fc de 78 bc
       -0.03784847 0.08523417 -0.075258814 -0.015189882
000310 9a da 8b bd 84 f5 ba bc b1 9d 90 3d 94 82 5e 3b
       -0.06828804 -0.02282215 0.07061327 0.0033952342
000320 a4 53 5e bd 65 87 8f 3d 71 d2 70 bd 6a 87 ac bc
       -0.054278985 0.07008246 -0.058794443 -0.021060664
000330 18 63 46 bd 73 8f 14 3d 5a 92 56 bb df bb 94 bd
       -0.048434347 0.036269616 -0.003274104 -0.07262396
000340 51 14 16 bd 9d 6b bd 3b a4 da d4 3c 20 5a 7e 3d
       -0.03664047 0.005780651 0.025983162 0.06209767
000350 cc 05 16 3b 80 dd a1 3d 33 0f 59 bd 45 55 db 3c
       0.0022891639 0.07903576 -0.05299301 0.026774058
000360 a0 06 95 3d c9 9e e0 3c a9 c3 81 3d 7a 33 04 3d
       0.07276654 0.027419465 0.06336147 0.032275654
000370 00 75 84 3d 67 5d 53 3b 9d 16 80 bd 55 78 04 bd
       0.064676285 0.0032251717 -0.06254313 -0.03234132
000380 e3 52 a2 bd 6e 65 73 bd 92 65 20 3d 17 3e 55 3d
       -0.07925966 -0.059422903 0.039159365 0.052061167
000390 2f 3f 33 bd ea 6b 7e bd 4d f3 91 3d 4f 68 39 3d
       -0.04376143 -0.062114634 0.07126484 0.045265492
0003a0 9d 8a a2 bd bf 81 28 3d f2 f7 0c 3c 0b 63 1b bc
       -0.07936595 0.04113936 0.008604037 -0.009484063
0003b0 69 0f 96 3d 4c 71 47 bd 47 ef 1c 3d f2 80 96 bc
       0.07327158 -0.048692033 0.03831413 -0.018372033
0003c0 27 57 81 bd 30 77 53 bd 9a 0d 48 3d d5 12 cd 3c
       -0.06315451 -0.051627338 0.048841096 0.025033394
0003d0 aa 3f c1 bb 94 ec 6a 3d 09 d3 1e 3c fd 40 a4 3d
       -0.005897482 0.057354525 0.009693869 0.08020208
0003e0 30 e6 c1 bb 59 7b a5 3d 01 fd 8d 3d 49 6f 6f 3c
       -0.005917333 0.08080167 0.06933022 0.014613935
0003f0 06 a7 93 3d 29 8c fd bb fe 3c 10 3d b9 00 89 3d
       0.072095916 -0.0077376557 0.035214417 0.06689591

fc2.bias f4 [128]
000000 78 71 70 3b 19 06 b5 bc 20 c6 fc bc 61 9f b2 3d
       0.0036688726 -0.022097634 -0.030856192 0.08721805
000010 f9 84 fa 3c 14 eb 1c bd ac 3a 02 3b 5b 28 96 bd
       0.030580984 -0.038310125 0.0019871397 -0.07331916
000020 b5 5a 16 3d 9a f8 ea bc d7 72 ab 3d 27 d8 2f bd
       0.0367076 -0.028682996 0.08371513 -0.04293075
000030 01 93 fa 3c c7 33 49 bd 7d 94 12 bd 3e 09 f3 3c
       0.030587675 -0.049121644 -0.03578614 0.029667493
000040 77 10 ad bd 27 23 16 bd da 3f 61 bd 7e 88 f4 bc
       -0.08450406 -0.036654618 -0.054992534 -0.02985024
000050 00 4b 82 3d 00 63 87 bd 41 ae 3a bd 6e cb 8b 3d
       0.06361961 -0.066106796 -0.045576338 0.068259105
000060 d7 c3 36 bd 9a 46 ac 3c 53 ec 40 bd 9e 5e 6c 3c
       -0.04462036 0.02102976 -0.047100376 0.014426855
000070 36 cf 21 bd 8c 5e 73 3d 55 7b 6e 3d e9 6f 9b bd
       -0.039504252 0.05941634 0.058223087 -0.075897045
000080 a9 65 76 bd ff cb d3 bc da d1 b4 3d 9f 62 78 bc
       -0.060155544 -0.025854109 0.088290885 -0.015160232
000090 86 7d a6 bc be 60 8f 3d b2 d5 75 3d de 22 99 bd
       -0.020323526 0.07000874 0.06001825 -0.074773535
0000a0 2f 00 53 3d 1b 92 a2 bd 9f 07 87 3b dc 01 93 bc
       0.051513847 -0.07938024 0.0041207816 -0.017945223
0000b0 4f eb b1 bb 4a 32 aa bd c7 84 d7 3c f1 ba 78 3d
       -0.0054296623 -0.08310373 0.02630843 0.060725156
0000c0 4b be 47 3d 75 3e 26 3d b5 2d 20 3d 58 ad 9b bd
       0.048765462 0.040586907 0.03910609 -0.07601422
0000d0 d2 33 ab bd bc 1d d4 bc 57 64 ab bd b3 8e 80 bd
       -0.08359493 -0.025893085 -0.08368748 -0.06277218
0000e0 57 bd a4 bd df 12 b4 bd 5d 9c ef 3c d1 ae a4 bd
       -0.08043926 -0.08792662 0.029249365 -0.08041156
0000f0 d7 8c 97 bd 4b fc 37 bc a0 e5 58 3d 31 d8 2e 3d
       -0.0739991 -0.011229585 0.052953362 0.042686645
000100 53 da b3 3d d2 16 4f 3d e9 d5 42 bd 83 07 7f 3d
       0.087818764 0.050558873 -0.047567282 0.062263023
000110 86 90 9e ba 2c 57 98 3c 40 11 1d bd 23 8e a8 3d
       -0.0012097515 0.018596254 -0.03834653 0.082302354
000120 ac b4 49 3d 23 92 b2 bd 64 03 6e bd be 77 7d 3c
       0.049244568 -0.087192796 -0.058108702 0.015470443
000130 7f 12 17 bb a7 ba ad bd b7 e3 cd bc f2 d0 3a bc
       -0.0023051796 -0.08482867 -0.025132997 -0.0114023555
000140 e9 60 9a 3d fb 7c b1 bc 70 53 c6 bc f5 59 0d 3d
       0.075380154 -0.02166604 -0.024209708 0.034509618
000150 98 26 7e 3d 2a 44 81 3d e2 61 23 3d 6f 35 1d bd
       0.062048525 0.063118294 0.03988827 -0.038381036
000160 ca 0b 8a bd 59 8f ae bd 79 99 c4 3c ae 9b 45 bd
       -0.0674053 -0.08523435 0.023998963 -0.04824417
000170 59 27 a2 bd f5 00 8d 3d 38 8d 14 bd ef d4 1f bd
       -0.07917661 0.06884948 -0.03626749 -0.03902143
000180 17 b0 68 3d a3 95 16 3d 19 16 33 3d e9 c8 9b 3c
       0.056808557 0.0367638 0.043722246 0.0190167
000190 bb ae aa bd 90 65 56 bd 2a ee 93 bd 1b 1c 81 3d
       -0.083341084 -0.05234295 -0.072231606 0.06304189
0001a0 c8 8b 23 bd de e8 2b 3d fc 3d 8f 3d b1 a6 bf bc
       -0.039928228 0.041970126 0.069942445 -0.023394914
0001b0 5a 5e 79 3c 34 98 2f bd 56 af 53 bd 03 57 3a 3c
       0.015220249 -0.04286976 -0.051680885 0.011373284
0001c0 e4 b1 6a bc 6c b1 56 bd a2 33 19 bc c9 75 9d 3d
       -0.014324639 -0.052415296 -0.009350689 0.07688481
0001d0 c5 6d 6b 3d a9 f9 cd 3a 48 56 98 3d 8b d1 75 bd
       0.05747773 0.0015714663 0.07438332 -0.06001429
0001e0 2e 1d 74 3d 54 ea 90 bd 1a ee 87 bd 20 c5 81 bd
       0.05959814 -0.070759445 -0.06637211 -0.06336427
0001f0 cc 9a a6 bd 5d 3b b3 bd 47 de 32 3d 22 2e a8 bd
       -0.08134994 -0.08751557 0.04366901 -0.08211924

fc3.weight f4 [5, 128]
000000 52 0f 5e bb 80 39 9e bd 77 50 7b 3c cf ee 3c 3b
       -0.0033883643 -0.07725811 0.0153390085 0.0028828864
000010 6b f9 bc 37 6c a3 06 3d 94 12 08 3d b2 ef 81 3d
       2.252749e-05 0.032870695 0.033220842 0.063445464
000020 58 b4 8d bd a4 dc 28 bd 15 1b 80 bd e4 28 dd bb
       -0.069191635 -0.041226044 -0.062551655 -0.0067492593
000030 6b 75 a8 3d a0 0c d1 3c 4e 3f 84 3d ad dc 5e bd
       0.08225521 0.025518715 0.06457387 -0.05440967
000040 30 82 19 3d 37 6c 9f 3c d9 16 4a 3d a4 77 84 bd
       0.037477672 0.01946078 0.049338195 -0.06468132
000050 e4 c2 8c bd 7f ec ab 3d b2 d4 dd bc 37 29 34 bc
       -0.0687311 0.083947174 -0.02707896 -0.0109961545
000060 34 43 b2 3d eb 94 a4 bd 39 71 97 3d 26 f0 98 ba
       0.08704224 -0.08036216 0.073946424 -0.001166825
000070 3f 13 8f bc d1 eb 14 3d a6 fb ab 3d 62 c2 dc 3c
       -0.017465232 0.036357705 0.083976075 0.026948158
000080 15 22 98 3d 15 9f 25 3d d4 40 a5 3c 83 a5 91 3d
       0.07428376 0.040434916 0.020172514 0.07111647
000090 87 23 96 bd 65 d8 ad bc d7 bf af 3d b0 3c 4a 3d
       -0.07330995 -0.021221349 0.085815124 0.049374282
0000a0 64 ba 78 3d 9b e7 5a bd 30 1e 7c 3d ae db c3 3c
       0.06072463 -0.053443532 0.061552227 0.023908462
0000b0 6d c4 de 3b 29 ab a5 bc 62 b1 6e bd 72 92 3c bc
       0.006798318 -0.020223217 -0.058274634 -0.011509525
0000c0 5e 28 8f bd 94 b4 b5 3c 89 48 f6 3c f1 87 46 3d
       -0.06990121 0.022180833 0.030063884 0.048469488
0000d0 e2 e7 b6 3c 9e 4c ab 3c 9b 66 9a bd ef 55 9c bd
       0.022327367 0.020910557 -0.07539102 -0.07633578
0000e0 10 7d 3f 3b 10 29 9e 3d 2d 0c 15 3d 87 b7 35 3d
       0.002921883 0.07722676 0.036388565 0.04436448
0000f0 65 2f 80 bd d0 b4 c7 3c 35 39 3c 3d 8d e8 a2 3d
       -0.0625904 0.02437821 0.045952994 0.07954512
000100 cf 1e b4 bc bf 78 9d 3d 0d 69 35 3d 9c ef dd bc
       -0.021987347 0.07689046 0.044289637 -0.027091794
000110 78 66 a5 3d ba b3 5f 3d 99 0e 11 bc ba 95 99 3d
       0.08076185 0.05461476 -0.008853578 0.07499261
000120 15 3f 8e 3d 49 01 1f bd c5 47 18 3d 61 71 ec bc
       0.06945626 -0.038819585 0.03717782 -0.028862657
000130 c5 dd 95 3d e0 b1 b2 3d e9 e8 e2 3b 9e 5c 85 3c
       0.0731769 0.08725333 0.0069247377 0.016279515
000140 49 2d 96 3c 82 f4 9c bd 36 33 8d bb 85 46 12 3d
       0.01833214 -0.07663824 -0.0043090833 0.035711784
000150 0e a0 5e 3c e4 d4 25 3d 91 d1 3e bd 8d ec 7c bd
       0.013587965 0.04048623 -0.046586577 -0.06174903
000160 95 be a8 3d 27 fc 56 bd ec 3c a8 bc e8 b3 00 bc
       0.08239476 -0.052486565 -0.020536862 -0.007855393
000170 39 2d 8d 3d 38 f8 a7 3d b1 c7 95 3d b0 fe 64 3c
       0.06893391 0.08201641 0.07313479 0.013976738
000180 92 2f e8 3c ea 39 5b 3d 09 bf 81 3d 4c 90 1d bd
       0.028342996 0.053522028 0.06335265 -0.03846769
000190 1e 7c 96 3d 6e ac 9f 3a dc 35 b3 bd ed 0d b3 bd
       0.07347892 0.0012182125 -0.08750507 -0.087428905
0001a0 0d c1 11 3c f4 58 92 bd 33 ce 48 3d 5c 11 99 bd
       0.008896125 -0.07145873 0.049024772 -0.07474014
0001b0 bf 33 a0 3d 81 83 9f bb 2e 40 8d bd ca c4 5e bd
       0.0782237 -0.0048679714 -0.06897007 -0.05438689
0001c0 1d 3c 55 bd 6e 50 6c bd 1d 0b df 3c d9 33 62 bd
       -0.05205928 -0.05769389 0.027226979 -0.055225227
0001d0 ca 7f 93 3c 85 04 11 bd c9 30 cf 3a 1c 56 a9 bc
       0.01800527 -0.0354047 0.0015807386 -0.020670943
0001e0 04 a9 47 3d 04 2a 6a bd 54 df 04 bc d4 b0 ac bd
       0.04874517 -0.057168975 -0.008109886 -0.08432165
0001f0 78 3e 8b bd c4 07 d9 3b 60 e8 11 3d 14 ac 05 bc
       -0.06799024 0.00662324 0.035622 -0.008158702
000200 bc 4c 2e 3c 7d d1 6c bd 51 2b 6f bd 82 23 86 3d
       0.010638412 -0.05781697 -0.05839092 0.06549741
000210 35 b9 92 bd b7 f3 92 3d 9a 74 c7 3c 42 aa 9f bd
       -0.07164232 0.07175391 0.024347592 -0.07796146
000220 27 e1 73 3c f6 dc 95 bb ef a1 a8 bd 69 e0 95 3b
       0.0148852235 -0.0045734597 -0.082340114 0.004573871
000230 bb f9 e1 3c 85 af 95 bd 01 54 43 3d c8 b7 39 bc
       0.027584901 -0.07308868 0.047687534 -0.011335321
000240 cf fb 17 3d 62 26 a6 3d bb 06 98 bd 0e 9f 3d bb
       0.037105378 0.0811279 -0.07423159 -0.0028933915
000250 c5 17 e0 bc 06 6a 81 bd 0d 72 ad 3d 79 f9 16 3d
       -0.027355084 -0.063190505 0.08469019 0.03685901
000260 ff f3 48 bd 26 50 95 bd e7 f0 3d 3b 59 30 4a 3c
       -0.049060818 -0.07290678 0.00289827 0.012340629
000270 08 41 9c 3c d3 97 c7 3c fa a8 9c 3c d4 33 63 3d
       0.019073978 0.024364388 0.019123543 0.05546935
000280 36 16 ae 3d d4 03 f7 3c 87 aa a2 bd ff ed 09 bd
       0.0850033 0.030153193 -0.07942682 -0.033674236
000290 28 8e b4 bd 7c 1a 35 bd e4 4b 96 bb 1e 81 86 3d
       -0.08816177 -0.04421471 -0.0045866836 0.06567596
0002a0 ea f3 ab 3c 13 de ae bd 2d de 17 3d d2 f8 9b bd
       0.02099033 -0.08538451 0.037077118 -0.07615818
0002b0 a9 b4 1d bd ec d5 24 bc be 00 d8 bc 10 13 58 3c
       -0.03850237 -0.010060769 -0.026367541 0.013188139
0002c0 07 8d 88 3d 53 14 5a 3d 0e 10 a2 3d 6b 18 fc bc
       0.06667524 0.05324204 0.079132184 -0.030773362
0002d0 79 3f 1c 3d d5 32 97 bd 73 0f 5c 3d 26 2d de 3c
       0.03814647 -0.07382742 0.05372567 0.027121138
0002e0 d7 b8 31 3d 6e 46 36 3d cb 1c 89 bd f0 0f 3a bd
       0.043389168 0.04450076 -0.06694945 -0.045425355
0002f0 14 2a 8e bd 47 16 5c 3d e0 8b 26 bd 5b 46 53 bd
       -0.069416195 0.053732183 -0.04066074 -0.051580768
000300 e0 5a 7a 3d ac 39 74 3c 59 d8 5c 3d f8 ea 4c 3c
       0.06112182 0.014906328 0.053917263 0.012507193
000310 fe 92 c5 3a b2 6b 0c 3d f4 27 28 bb 34 61 80 bd
       0.0015073714 0.034282394 -0.002565858 -0.0626854
000320 8a fe e7 3c e0 68 5a bc 2a 1e a4 3d 4c be 93 bd
       0.028319616 -0.013330668 0.08013566 -0.072140306
000330 96 9d b3 bd 94 be 54 3d 9d 51 72 bd 9b ca 94 bd
       -0.087702915 0.051939562 -0.059159864 -0.072652064
000340 bb c4 a0 bd 58 64 0b 3d 76 99 e4 bc 31 b9 03 bd
       -0.07850023 0.034031242 -0.027905207 -0.032159034
000350 65 a2 78 3c 33 58 7d bd 30 8d 22 3c ee 65 cf bc
       0.015175437 -0.06185169 0.009921357 -0.025317159
000360 d0 7d 89 3d 58 ef 22 bb c2 43 83 3d c1 f9 bf 3c
       0.0671345 -0.0024861898 0.06409408 0.023434522
000370 7c fa 88 bd e5 d8 54 3c 7c 40 38 bd aa fa 25 bc
       -0.06688401 0.012991165 -0.044983372 -0.010130564
000380 1b c4 8b 3d 3f a6 85 bb 19 cf 82 3d c6 a3 d4 bc
       0.068245135 -0.004078656 0.06387157 -0.025957
000390 4e 4d c4 bc fc 38 05 bd 9e 22 bf bc 41 78 a7 bd
       -0.023962643 -0.032525048 -0.023331936 -0.081772335
0003a0 34 01 85 3c 1e 94 aa 3d 54 e3 9c 3d b1 da 68 bd
       0.016235925 0.08329032 0.07660547 -0.056849185
0003b0 af 04 8b 3a 56 42 0f 3d 10 28 0f 3c 30 17 2f bd
       0.0010606254 0.034975372 0.008737579 -0.042746723
0003c0 10 c1 a6 3d 7e 3d 8d 3d a9 f6 85 3d f5 9a fa 3c
       0.081422925 0.06896494 0.06541187 0.030591467
0003d0 dd 2b 82 3d ca f0 db ba 85 42 6c bd f7 82 d3 bc
       0.063560225 -0.0016780135 -0.057680625 -0.025819285
0003e0 09 b4 4c bc a5 61 40 3d 3b 7f 5c 3d 47 7a aa bb
       -0.012494096 0.04696812 0.053832274 -0.005202565
0003f0 ab ab 42 bd 33 ee ab bd 9b c7 56 3c f3 3f 11 bd
       -0.047526997 -0.08395042 0.013109113 -0.035461377

fc3.bias f4 [5]
000000 0b 1d 03 3d 20 a3 69 bd ca 96 b5 3b a6 82 22 bd
       0.03201012 -0.057040334 0.005541657 -0.039675377
000010 8d b5 df bb
       -0.0068270625
