dynamics/src/drl/outputs/RobotOptEnv/20220720-113622/models/dqn_checkpoint.pth (torch, 75015 bytes, 6 tensors)

fc1.weight f4 [128, 7]
0	0xbeaddf76	-0.3395955
1	0x3e8f5abf	0.2799892
2	0xbe627cdf	-0.22117947
3	0xbeae2a3f	-0.34016606
4	0xbcce6603	-0.025195127
5	0x3eaf5034	0.34240878
6	0xbeaf610d	-0.3425373
7	0x3e938755	0.28814188
8	0xbe1f9b79	-0.15586652
9	0x3df567ac	0.119826645
10	0xbe8fce5a	-0.2808712
11	0x3d60354e	0.054738335
12	0xba21fe43	-0.00061795505
13	0x3d0a0c57	0.033703174
14	0xbe74bb46	-0.23899564
15	0xbe4c6965	-0.1996208
16	0x3e68b787	0.2272626
17	0x3e953a2c	0.29145944
18	0xbe96b847	-0.29437467
19	0xbe71b885	-0.23605545
20	0x3e5ae662	0.21376947
21	0x3ebba719	0.36650923
22	0x3e12acae	0.14323685
23	0x3e290397	0.16505276
24	0x3e00f6c0	0.12594128
25	0x3eb470d9	0.35242346
26	0xbe52b80b	-0.2057802
27	0x3e102b35	0.14078982
28	0x3e5a7254	0.21332675
29	0x3bbfbbad	0.00585123
30	0x3ea18fd6	0.3155505
31	0xbeb57533	-0.35440978
32	0xbe70a4c3	-0.23500352
33	0xbe8aa959	-0.27082327
34	0xbe3e6c69	-0.18596043
35	0xbce05a74	-0.027386881
36	0x3e943e97	0.28954002
37	0x3d245704	0.040122047
38	0x3d0cb765	0.034354586
39	0x3e9bca33	0.30427703
40	0xbeafbadf	-0.3432226
41	0xbe89919d	-0.26868907
42	0xbe15033f	-0.1455202
43	0x3eb8216a	0.35962993
44	0xbe536749	-0.20644869
45	0xbe61e618	-0.2206043
46	0x3d88a94f	0.06672918
47	0x3e9f55f1	0.31120256
48	0xbe93e4cd	-0.288855
49	0x3eafd003	0.34338388
50	0xbe38b673	-0.18038349
51	0x3e00cb3f	0.12577532
52	0xbe588df6	-0.21147904
53	0xbbbd88bd	-0.0057841227
54	0x3d560338	0.052249163
55	0x3ea4fff8	0.3222654
56	0x3e94de04	0.29075634
57	0x3e149b45	0.14512356
58	0x3eb1134b	0.34585032
59	0xbe5708e9	-0.20999493
60	0xbd1a2a94	-0.037638262
61	0xbe8cf151	-0.2752786
62	0x3e8d3251	0.2757745
63	0x3e845069	0.25842598
64	0xbe777710	-0.24166512
65	0x3eb8c9c1	0.36091426
66	0x3dedb451	0.11606658
67	0x3ec721d3	0.38892993
68	0x3e6b3c7f	0.22972296
69	0xbe8d9f0b	-0.27660403
70	0xbd9c53d9	-0.0763318
71	0x39ecc2c7	0.00045158548
72	0xba650a7c	-0.0008737219
73	0x3e73255d	0.23744722
74	0xbd0a0b0b	-0.033701938
75	0x3e9aaf71	0.30211976
76	0x3e7d113f	0.2471361
77	0xbd33935f	-0.043841716
78	0x3e078df4	0.13237745
79	0x3e0f8e46	0.14019117
80	0x3e5fc700	0.21853256
81	0xbe39f284	-0.18158919
82	0xbe3389b6	-0.17533001
83	0x3e045988	0.12924778
84	0x3c01842d	0.007905048
85	0xbe5eefb7	-0.21771131
86	0x3e8e6b7b	0.27816376
87	0xbce5edd3	-0.028067505
88	0xbe329afa	-0.17441931
89	0x3d44b56f	0.04802459
90	0xbe700f4f	-0.2344334
91	0x3e0d8fb5	0.13824351
92	0xbea858c1	-0.32880214
93	0xbea74158	-0.3266704
94	0x3e44931c	0.19196743
95	0x3e26be2c	0.16283482
96	0x3dee75ea	0.11643584
97	0x3eb43f06	0.35204333
98	0xbe38ba95	-0.18039925
99	0x3d766f84	0.060164943
100	0xbeb63b2c	-0.3559202
101	0xbe379fc9	-0.17932047
102	0xbe07433a	-0.13209239
103	0xbe8d10cf	-0.27551886
104	0xbe7c9393	-0.2466567
105	0xbec499b4	-0.38398516
106	0x3e6b062f	0.22951578
107	0x3c8f5ce7	0.017500354
108	0x3b63d71f	0.0034765673
109	0xbeb1425a	-0.34620935
110	0xbe41aeca	-0.18914333
111	0x3e529d3e	0.20567796
112	0x3ea26465	0.3171722
113	0x3ebf222d	0.37330762
114	0x3eb3eee6	0.35143203
115	0x3e9c93d0	0.30581522
116	0xbd953487	-0.072854094
117	0xbd278e30	-0.040907085
118	0xbeb6ff38	-0.3574159
119	0x3d95cec1	0.07314826
120	0xbeb632b3	-0.35585555
121	0xbe60a746	-0.2193881
122	0x3e99eb8c	0.3006252
123	0xbebcb13f	-0.36853978
124	0x3e99dd77	0.30051777
125	0xbea0e35c	-0.3142346
126	0xbe0e4c6d	-0.13896342
127	0x3e146eda	0.14495412
128	0x3e8a39a6	0.26997107
129	0x3dddb2b3	0.108251
130	0xbe3102fc	-0.17286295
131	0xbe58c318	-0.21168172
132	0xbeba976d	-0.36443654
133	0xbe30f39c	-0.1728043
134	0xbe353a41	-0.17698003
135	0x3d15a51c	0.036534414
136	0x3e243064	0.16034085
137	0x3e8f8aba	0.28035527
138	0xbd8eeaa7	-0.0697835
139	0x3e633ad2	0.22190407
140	0xbd05dbea	-0.03268043
141	0xbebb86e6	-0.36626357
142	0x3ca52bbc	0.020162456
143	0xbd95e042	-0.073181644
144	0xbeba68c0	-0.36408043
145	0xbdc17af2	-0.09447278
146	0xbe2f8fca	-0.17144695
147	0x3e8bf94d	0.2733864
148	0xbdb97681	-0.09055806
149	0x3bfac23e	0.00765255
150	0xbe816982	-0.2527581
151	0x3e804acc	0.25057065
152	0xbe57b248	-0.21064103
153	0xbe2a7c77	-0.16649042
154	0xbec16aab	-0.37776694
155	0xbeba7af0	-0.3642192
156	0xbe8ceec3	-0.2752591
157	0x3ebfd6e5	0.3746864
158	0xbe545422	-0.20735219
159	0x3e72ff94	0.23730308
160	0xbe918888	-0.28424478
161	0x3d9b8359	0.07593412
162	0x3dbd6cb4	0.09249249
163	0x3e244209	0.16040815
164	0xbeb6bb94	-0.35689986
165	0x3b3d7c88	0.0028913338
166	0xbdf21185	-0.11819748
167	0xbcbe6c77	-0.02324508
168	0x3dfb00c8	0.122560084
169	0x3e5253d9	0.20539798
170	0x3d5ac76b	0.053412836
171	0x3eaac112	0.33350426
172	0x3e4ab1f0	0.1979444
173	0xbe8b001f	-0.2714853
174	0xbe9e847a	-0.30960447
175	0xbdc60474	-0.09668818
176	0xbe5cc6b4	-0.21560174
177	0x3ce47773	0.02788899
178	0x3db645b9	0.08900017
179	0x3bceabd8	0.0063071065
180	0x3cc8b56f	0.024500577
181	0x3e29f1f7	0.16596209
182	0x3df45251	0.11929763
183	0xbe6e6920	-0.2328229
184	0x3ec78d5a	0.3897503
185	0x3e8c772d	0.27434674
186	0x3d8b1e42	0.067928806
187	0x3eb27c30	0.34860373
188	0x3e2eb398	0.17060697
189	0xbe22c5dd	-0.15895791
190	0xbeb80528	-0.35941434
191	0x3e72453e	0.23659226
192	0x3e36c653	0.17849092
193	0x3e03a335	0.12855227
194	0x3e078f7e	0.13238332
195	0xbd63c305	-0.055605907
196	0x3e8815c4	0.26579106
197	0xbe8e7063	-0.2782012
198	0xbdccf501	-0.10007668
199	0x3dd73a3e	0.10509156
200	0x3e683484	0.22676283
201	0x3d4b1429	0.049579773
202	0xbe1a74df	-0.15083645
203	0x3e459e8e	0.19298765
204	0xbe71812e	-0.23584434
205	0x3ea135d0	0.31486368
206	0x3e9cf770	0.3065753
207	0x3ebf059f	0.37308976
208	0xbe8c8c22	-0.27450663
209	0x3ebdff22	0.37108713
210	0x3eaf6524	0.34256852
211	0xbd843f8e	-0.064574346
212	0xbeb73e05	-0.35789505
213	0xbeb0d84e	-0.34540027
214	0xbe833bf8	-0.2563169
215	0x3e0d5c47	0.13804732
216	0x3ea90ed7	0.33019134
217	0xbd258bd3	-0.04041655
218	0x3e7ea378	0.24867046
219	0xbde1ead2	-0.110311165
220	0xbe290f2c	-0.16509694
221	0x3dabca06	0.08388142
222	0x3dde1fd4	0.108459145
223	0x3eb2e364	0.3493911
224	0xbd9458c8	-0.07243496
225	0xbe934caa	-0.28769428
226	0xbe13672e	-0.14394829
227	0x3e61436f	0.2199838
228	0xbe1e647d	-0.1546802
229	0x3da16180	0.07879925
230	0xbe291052	-0.16510132
231	0x3e91ff70	0.28515196
232	0xbcfff234	-0.031243421
233	0x3e9de771	0.30840638
234	0x3d9b52d0	0.075841546
235	0x3e47ab89	0.19499029
236	0xbd6aa225	-0.05728354
237	0x3ebd7a68	0.3700745
238	0xbe76d7a8	-0.24105704
239	0xbe5635d6	-0.20918974
240	0x3dbda253	0.092594765
241	0xbdb41e33	-0.087948225
242	0x3d16cd9f	0.03681719
243	0x3e01611c	0.126347
244	0xbe898221	-0.26857093
245	0xbcd35a96	-0.02580003
246	0x3ea334ce	0.31876224
247	0xbe982c74	-0.29721415
248	0x3eb19af0	0.3468852
249	0x3de9f850	0.11424315
250	0xbe10ceea	-0.14141431
251	0x3d70db06	0.058802627
252	0xbe40deca	-0.18834987
253	0x3e8dc96e	0.2769274
254	0xbe786144	-0.24255854
255	0xbd51983b	-0.05117057

fc1.bias f4 [128]
0	0x3e43cc88	0.19120991
1	0xbe0471b7	-0.12934004
2	0xbdc58b45	-0.09645704
3	0x3de4b1c2	0.11166717
4	0xbea53562	-0.3226729
5	0xbe68ce74	-0.22735006
6	0xbdf02c76	-0.1172723
7	0x3e2d7d5f	0.16942357
8	0xbde5d3a3	-0.11222007
9	0xbeb39844	-0.35077107
10	0xbea7a93c	-0.32746303
11	0xbe2c12ef	-0.16804098
12	0xbe1e9003	-0.15484624
13	0x3eb70b17	0.35750648
14	0xbdef530c	-0.11685762
15	0x3e586e06	0.2113572
16	0xbe3cd1b9	-0.18439378
17	0xbeb33119	-0.34998396
18	0x3ebca876	0.36847275
19	0xbe2a9c86	-0.16661271
20	0xbdcbeb6a	-0.09957011
21	0x3ea3fd4c	0.32029188
22	0xbebd49af	-0.3697028
23	0xbe19db47	-0.15025054
24	0xbd9598b1	-0.07304514
25	0x3eb06d09	0.34458187
26	0x3e262a25	0.16227014
27	0xbdbac499	-0.09119529
28	0x3d70bc62	0.058773406
29	0x3d3a0b39	0.04542086
30	0xbe759f60	-0.23986578
31	0xbced0374	-0.02893231
32	0xbe7e4709	-0.24831785
33	0x3e8205bf	0.2539501
34	0xbd5f0fa1	-0.054458264
35	0x3ecc3bdc	0.3988942
36	0xbca8323f	-0.020531772
37	0x3e0474f8	0.12935245
38	0x3e062a47	0.13102065
39	0xbc632be1	-0.013865442
40	0x3dfc6e78	0.12325758
41	0xbe30eeb0	-0.17278552
42	0xbea3683b	-0.3191546
43	0xbe38a53d	-0.18031783
44	0x3e9c95ff	0.30583188
45	0xbe75acda	-0.23991719
46	0x3e453474	0.1925829
47	0x3ea8beff	0.32958218
48	0x3c4293f4	0.011876095
49	0xbd3aae5a	-0.04557643
50	0x3dff7ddc	0.12475178
51	0xbeb277ab	-0.34856924
52	0xbe54b3b0	-0.2077167
53	0x3e95d816	0.29266423
54	0xbeb8b59f	-0.36076066
55	0x3eb406a6	0.35161322
56	0xbea287f7	-0.31744358
57	0x3ec01b20	0.37520695
58	0xbe8500c7	-0.25977156
59	0xbe46e402	-0.19422916
60	0xbeb82cbc	-0.3597163
61	0x3dbbc07d	0.091675736
62	0x3e9d6667	0.3074219
63	0xbe5c0580	-0.21486473
64	0x3e9d364e	0.30705494
65	0x3e939640	0.2882557
66	0x3daf0475	0.08545772
67	0xbe7e8099	-0.24853744
68	0xbd9f44f1	-0.077768214
69	0xbd1e1d75	-0.03860231
70	0xbe6fe28b	-0.23426263
71	0x3ea1f896	0.3163497
72	0xbdc6353c	-0.096781224
73	0x3be5c0f1	0.007011526
74	0x3dbc7446	0.09201865
75	0x3e9d9020	0.3077402
76	0xbeb1807c	-0.34668338
77	0xbe3cd734	-0.18441468
78	0x3e301c92	0.17198399
79	0x3e6c805c	0.2309584
80	0x3eb426de	0.35185903
81	0x3e4b9d74	0.19884282
82	0xbd8e2368	-0.06940347
83	0xbe124bef	-0.14286779
84	0xbe024ef1	-0.12725426
85	0xbd9ed0d6	-0.07754676
86	0x3eb11a5e	0.3459043
87	0xbea2d4ab	-0.31802878
88	0xbe27d03a	-0.16388026
89	0x3e50985b	0.20370619
90	0xbd0f6cd1	-0.035015885
91	0x3e0c309d	0.1369042
92	0x3e9fd1b5	0.3121468
93	0xbeae0945	-0.33991447
94	0x3e325e7d	0.17418857
95	0x3d2adfdc	0.041717395
96	0x3e92a9f0	0.28645277
97	0x3eb7e65a	0.35917932
98	0xbe413498	-0.18867719
99	0x3ebd5c33	0.36984405
100	0x3aec11e7	0.0018010706
101	0xbe4016a7	-0.18758641
102	0x3e902c7b	0.28158936
103	0x3e3f6ee8	0.18694651
104	0xbeb7b5a4	-0.35880768
105	0x3e8076f6	0.2509076
106	0x3cf3f56e	0.029780116
107	0x3df5c983	0.12001326
108	0x3eb918dd	0.36151782
109	0xbe91a69a	-0.2844742
110	0x3e9aabd8	0.3020923
111	0xbd98c0ae	-0.07458626
112	0x3e729f7f	0.23693655
113	0xbdf76ea8	-0.12081653
114	0xbdeff23e	-0.11716126
115	0x3dacc9e1	0.08436943
116	0x3e878d6d	0.26475087
117	0xbe85b38d	-0.2611355
118	0x3d6df09d	0.058090795
119	0xbe7f79a3	-0.24948744
120	0x3d64736c	0.055774137
121	0x3e19fa5f	0.15036915
122	0x3c918773	0.017764783
123	0x3e15a45a	0.14613476
124	0xbe892602	-0.2678681
125	0x3ea4fafe	0.32222742
126	0x3daca755	0.084303536
127	0x3e9822ad	0.29713956

fc2.weight f4 [128, 128]
0	0xbd95d6aa	-0.073163345
1	0x3d74dd86	0.059781574
2	0x3d7444f4	0.05963607
3	0x3dc0bc96	0.0941097
4	0x3d61b92f	0.055108245
5	0xba1bed0f	-0.0005948105
6	0xbd578a34	-0.052622035
7	0x3dbe9a28	0.09306747
8	0x3db6af20	0.08920121
9	0xbdbcf735	-0.092268385
10	0x3a736235	0.00092843483
11	0x3d9bfbe5	0.076164044
12	0xbd6a5159	-0.057206485
13	0x3d3b9d1d	0.04580413
14	0xbd7b6b77	-0.061381783
15	0x3d4db771	0.05022377
16	0x3cd239e3	0.025662368
17	0x3c42e1f6	0.011894694
18	0x3d596df9	0.053083394
19	0xbdb19ae9	-0.08672125
20	0xbc1e1d0c	-0.00965048
21	0x3dafbee1	0.08581329
22	0xbd727a4c	-0.059198663
23	0x3d1a13ae	0.037616424
24	0xbd458a23	-0.04822744
25	0x3c93354d	0.017969752
26	0xbd7c59fa	-0.061609246
27	0xbd629bca	-0.055324353
28	0x3ba9f7a3	0.0051869913
29	0x3cee7e0c	0.029112838
30	0x3d358b03	0.044322025
31	0xbd4c4f13	-0.0498801
32	0xbcc925d0	-0.024554163
33	0x3c95b469	0.018274503
34	0xbd78ee7c	-0.06077431
35	0x3cd3e291	0.025864871
36	0x3d5e78ff	0.05431461
37	0xbd1035fe	-0.03520774
38	0x3d72f490	0.059315264
39	0xbd4a2117	-0.049347963
40	0xbd034db7	-0.032056537
41	0x3cf3604e	0.029709008
42	0xbd709a8e	-0.058741145
43	0x3dbdf9a9	0.092761345
44	0x3d7bafd0	0.061446965
45	0x3d128023	0.035766732
46	0xbd31aed5	-0.043379623
47	0x3d298374	0.04138513
48	0x3d409fd9	0.047027443
49	0x3d12bfbb	0.03582738
50	0x3d66e779	0.056373093
51	0x3c1187a5	0.008882438
52	0xbd6fb52e	-0.058522396
53	0x3d790d5a	0.06080375
54	0x3c8c3a8d	0.017117763
55	0x3c917e3b	0.017760387
56	0x3d9b4a3a	0.07582517
57	0x3cdd9848	0.027050152
58	0xb98112ea	-0.0002461889
59	0xbd9cd195	-0.07657162
60	0x3c927519	0.017878102
61	0x39f97f8a	0.00047588005
62	0x3daa9d5d	0.08330796
63	0xbd56025e	-0.05224835
64	0xbd693eed	-0.056944776
65	0x3d1eb99f	0.03875124
66	0xbd9c6fc6	-0.076385066
67	0x3cbc816a	0.023010928
68	0x3d007066	0.03135719
69	0xbd27aa3f	-0.040933844
70	0x3d4bdda8	0.049771935
71	0xbda66366	-0.081244275
72	0x3c5d67e9	0.013513544
73	0xbdab0e02	-0.08352281
74	0xbb9f681a	-0.004864705
75	0xbb4df1fa	-0.0031424747
76	0xbdaea27f	-0.085270874
77	0x3d6505f2	0.055913873
78	0xbd7e30af	-0.062058147
79	0x3d107675	0.03526922
80	0xbd6d7179	-0.057969544
81	0x3c974e1e	0.018469866
82	0xbc4f0d7d	-0.012637493
83	0xbd3687c8	-0.044563085
84	0xbd61c80f	-0.05512243
85	0xbd05f231	-0.032701675
86	0x3d36248b	0.044468444
87	0xbc156c0c	-0.009119999
88	0xbd27b0f8	-0.040940255
89	0x3bebea2a	0.0071995454
90	0x3d630215	0.055421907
91	0xbcf3db4c	-0.029767655
92	0xbd3310a9	-0.04371706
93	0xb90a67d9	-0.00013199392
94	0xbb8b1356	-0.0042442484
95	0x3d38b5bb	0.045095187
96	0x3cd925d7	0.026507301
97	0x3d4243c8	0.047427922
98	0xbd231272	-0.039812513
99	0xbd0d5721	-0.03450692
100	0xbcaa496b	-0.020786962
101	0x3b014b23	0.0019728623
102	0xbce2997b	-0.027661076
103	0xbd2461e4	-0.04013242
104	0x3d8dfe63	0.06933286
105	0x3daa27dc	0.08308384
106	0xbd8f3be6	-0.069938466
107	0x3db024d3	0.08600774
108	0x3da59a57	0.080860786
109	0x3d384b3f	0.044993635
110	0xbbff9376	-0.007799561
111	0x3d5327c2	0.051551588
112	0xbd82701a	-0.06369038
113	0xbc78db93	-0.015189069
114	0xbd02e282	-0.031954296
115	0xbcc7a480	-0.024370432
116	0xbd726882	-0.059181698
117	0xbc5bca2a	-0.013414899
118	0xbd7d117c	-0.061784253
119	0x3d522364	0.051303282
120	0x3d1ca49d	0.038242925
121	0xbd8e133e	-0.06937264
122	0x3ce6c0b5	0.028168062
123	0xbce50994	-0.027958669
124	0x3db5460b	0.0885125
125	0x3b8b539f	0.004251912
126	0x3d6fac65	0.058514018
127	0x3d62166c	0.055197164
128	0x3d46af49	0.04850701
129	0xbd382d7e	-0.04496526
130	0x3cc59a9e	0.024121579
131	0xbd827c8c	-0.06371412
132	0xbd2ad4c4	-0.041706815
133	0x3d3af9c8	0.045648366
134	0x3c9e102a	0.019294817
135	0x3c6459e3	0.013937446
136	0xbd8a268f	-0.06745636
137	0xbd2aaa8f	-0.041666564
138	0xbd9fee93	-0.07809176
139	0x3ad97b1d	0.0016592477
140	0x3c71dd3b	0.014762218
141	0x3da4a470	0.080391765
142	0x3c7bd479	0.015370482
143	0xbce2e4c7	-0.02769698
144	0x3bc582bb	0.006027547
145	0xbd5308fd	-0.051522244
146	0xbd4704e3	-0.048588645
147	0x3d75d451	0.060016934
148	0xbd699f80	-0.057036877
149	0xbc09f840	-0.008421004
150	0x3d17bc01	0.03704453
151	0xbd7c57f6	-0.061607324
152	0xbd125ca6	-0.035732888
153	0xbd161793	-0.036643576
154	0x3c83fc91	0.016111644
155	0x3da078dc	0.07835552
156	0x3d76101c	0.060073957
157	0x3cfc5207	0.030800832
158	0xbdad7dfc	-0.08471295
159	0x3c832e5b	0.016013315
160	0xbc672e8a	-0.014110217
161	0xbb846412	-0.0040402496
162	0xbbbdde14	-0.005794296
163	0x3d358843	0.044319402
164	0x3da9f04d	0.08297787
165	0x3d82967d	0.063763596
166	0xbd660e43	-0.056165945
167	0x3d0e8d84	0.03480293
168	0x3c760f04	0.015018228
169	0x3d11f7e6	0.035636805
170	0x3d86717a	0.06564613
171	0xbcb810ef	-0.022469012
172	0x3db2a781	0.08723355
173	0xbd426c65	-0.047466654
174	0xbcb2a060	-0.021804988
175	0xbc987b58	-0.018613502
176	0xbd6ac1ae	-0.057313614
177	0x3d826c68	0.06368333
178	0x3c1ed1ab	0.009693543
179	0x3c416382	0.01180351
180	0x3d8b865c	0.068127364
181	0xbc6f9753	-0.014623481
182	0xbd250440	-0.040287256
183	0x3d90366d	0.07041631
184	0xbb2f2577	-0.0026725212
185	0xbd798e06	-0.06092646
186	0xbb612555	-0.0034354527
187	0xbdaad149	-0.08340699
188	0x3d685e16	0.056730352
189	0xbc241a8a	-0.010016093
190	0x3b39cb02	0.0028349762
191	0x3cee262c	0.029070936
192	0x3d1e7bcf	0.03869229
193	0xbda3bddc	-0.07995197
194	0x3daaa7db	0.08332797
195	0x3cc378aa	0.023861248
196	0xbd99d1d3	-0.07510724
197	0xbd476d5d	-0.04868828
198	0xbc36fcad	-0.011168641
199	0xbd4498c1	-0.04799724
200	0x3d633a75	0.05547567
201	0xbc82893a	-0.015934575
202	0xbc965b78	-0.018354163
203	0xbc8c2a66	-0.01711006
204	0x3dac9038	0.08425945
205	0x3cf8e76d	0.03038379
206	0xbdafaf43	-0.085783504
207	0x3d5cf4d1	0.053944413
208	0x3b850084	0.0040588994
209	0xbd57a346	-0.052645944
210	0x3c34694c	0.011011433
211	0xbc65655a	-0.014001215
212	0xbd8e01b1	-0.06933916
213	0xbbf29fba	-0.007404295
214	0xbcda7c14	-0.026670493
215	0xbd0281f7	-0.031862225
216	0xbc6718cc	-0.014105033
217	0x3d62190b	0.055199664
218	0x3b5b8b7f	0.0033499894
219	0xbd25f595	-0.04051741
220	0xbcf3b21c	-0.029748015
221	0x3c28a9cc	0.010294389
222	0xbd7e0225	-0.062013764
223	0x3d47e0a5	0.048798222
224	0xbd92ec3c	-0.071739644
225	0xbd1ac800	-0.03778839
226	0xbda6b482	-0.08139898
227	0xbd84682e	-0.06465183
228	0x3cf49522	0.029856268
229	0xbd22d1c7	-0.03975084
230	0x3c57b252	0.0131650735
231	0x3db4626d	0.08807836
232	0xbdb18c44	-0.08669332
233	0x3ca07e81	0.019591572
234	0x3d8885ff	0.06666183
235	0xbcaa3feb	-0.020782432
236	0x3bffe39c	0.0078091156
237	0x3d9a5982	0.075366035
238	0xbd17691e	-0.036965482
239	0xbd53fcdb	-0.051754814
240	0x3da7b73c	0.08189246
241	0xbca47693	-0.020076072
242	0xbd26a75d	-0.040686954
243	0x3d7c8f04	0.061659828
244	0x3da19b2c	0.07890925
245	0xbd81f8c5	-0.06346277
246	0x3c491664	0.012273405
247	0xbd1b8da2	-0.03797687
248	0x3d8c2584	0.06843093
249	0xbdb2d98a	-0.087328985
250	0x3c15e830	0.009149596
251	0xbccd3187	-0.02504803
252	0x3ce64170	0.028107375
253	0xbc845ed5	-0.0161585
254	0xbd908326	-0.070562646
255	0x3d3ec306	0.046572708

fc2.bias f4 [128]
0	0xbd84ccdb	-0.064843856
1	0x3d76be28	0.06023994
2	0x3d5617e8	0.052268893
3	0xbd54dedd	-0.05197035
4	0xbc599ca1	-0.013281972
5	0x3d00031b	0.03125296
6	0x3c9666aa	0.0183595
7	0xbc3f3392	-0.01167001
8	0xbd3e71f4	-0.046495393
9	0x3ac6da64	0.0015171287
10	0xbd6b2864	-0.057411566
11	0xbcfbd079	-0.030739056
12	0xbcd148bc	-0.025547378
13	0x3d9c193c	0.076220006
14	0x3daccb7f	0.08437251
15	0xbdb0710d	-0.08615313
16	0x3d97bde1	0.074092634
17	0xbce6af58	-0.028159782
18	0x3d2859bc	0.041101202
19	0xbd51f839	-0.051262114
20	0xbd3bbfc3	-0.045837175
21	0xbcc5eb67	-0.0241601
22	0xbcd13afd	-0.025540823
23	0x3d934cb5	0.07192365
24	0x3d5d35c6	0.05400636
25	0x3d9410a1	0.07229734
26	0xbd5f2959	-0.05448279
27	0xbd8fddb1	-0.07024706
28	0xbda641e2	-0.08118035
29	0xbd462e86	-0.048384212
30	0xbd93e4b4	-0.07221356
31	0x3d451bec	0.04812233
32	0xbbc275a4	-0.005934434
33	0x3d8bd7b5	0.06828252
34	0xbdba9030	-0.09109533
35	0x3d93ee28	0.07223159
36	0xbc9369de	-0.017994817
37	0x39b16a42	0.0003383924
38	0xbbd4ff4d	-0.006500161
39	0xbd2971ce	-0.0413683
40	0x3d344870	0.044014394
41	0xbd659a00	-0.05605507
42	0x3da34cd9	0.07973642
43	0x3dafe171	0.085879214
44	0x3cf3c1aa	0.029755432
45	0xbcca499f	-0.024693308
46	0xbd4be505	-0.049778957
47	0x3ba3a49e	0.004993989
48	0x3d551281	0.0520196
49	0xbcd09a6b	-0.025464257
50	0xbd24143a	-0.040058352
51	0x3d88aae4	0.0667322
52	0xbd08d99a	-0.033410646
53	0x3d24846b	0.040165346
54	0xbd88d55c	-0.0668132
55	0x3cfba8c9	0.030720131
56	0xbc85bb59	-0.016324686
57	0xbd63487e	-0.055489056
58	0x3d7d090f	0.061776217
59	0xbd1e189d	-0.03859769
60	0x3d4fa436	0.050693713
61	0xbd99d81c	-0.07511923
62	0xbcb55ba8	-0.022138432
63	0x3d4d1828	0.050071865
64	0x3d04c983	0.03241874
65	0xbd489a07	-0.048975017
66	0xbdb57d6e	-0.088618144
67	0xbba8e53b	-0.0051542795
68	0x3cc29f51	0.023757609
69	0xbd214c1c	-0.039379224
70	0xbc692d12	-0.014231937
71	0x3db18ad4	0.086690575
72	0xbd989094	-0.07449451
73	0x3cbb1397	0.02283649
74	0x3c8ecb69	0.017430978
75	0xbd9ade74	-0.07561961
76	0xbcdc2ea3	-0.026877707
77	0x3d0896e7	0.033347037
78	0xbcd4bd7c	-0.02596926
79	0x3d4781fe	0.048707955
80	0x3d7da9ac	0.06192939
81	0xbd49fec3	-0.049315225
82	0x3d1dd644	0.038534418
83	0x3c08dd0d	0.008353484
84	0x3d26a330	0.04068297
85	0x3d4058dd	0.046959747
86	0x3bf8caa4	0.007592516
87	0xbd7cb233	-0.06169338
88	0xbcdbc734	-0.026828386
89	0xbd9a5296	-0.07535283
90	0x3cddb17f	0.027062176
91	0x3d26da2e	0.040735416
92	0x3a9ee8ea	0.0012123857
93	0x3d305dcc	0.0430582
94	0x3d5f0880	0.054451466
95	0x3daa8b91	0.083274014
96	0xbcc395a2	-0.023875061
97	0x3d4e4908	0.050362617
98	0xbd83fea1	-0.06445051
99	0xbcd34b9d	-0.025792891
100	0x3da79568	0.08182794
101	0xbd8ef82e	-0.0698093
102	0xbd9d300c	-0.0767518
103	0x3d8171ad	0.0632051
104	0xbd1ce0f2	-0.038300462
105	0xbd3154a4	-0.04329361
106	0xbda43d97	-0.0801956
107	0x3d8c115c	0.068392485
108	0xbd604353	-0.054751705
109	0x3d9b2346	0.07575087
110	0xbd0df7f3	-0.03466029
111	0x3db2cfdb	0.087310515
112	0x3cddf0c5	0.027092347
113	0xbcb9ec1d	-0.022695595
114	0xbcf14753	-0.029452955
115	0x3b5f3224	0.0034056986
116	0x3d99afd6	0.07504241
117	0x3dadaeea	0.08480628
118	0x3d3e8ed5	0.046522934
119	0xbca68d7c	-0.020331137
120	0xbdae7bd0	-0.08519709
121	0x3d8669e0	0.06563163
122	0xbb355f75	-0.0027675305
123	0x3d3ad6ef	0.045615133
124	0x3cc55f42	0.024093274
125	0xbd504f67	-0.050856974
126	0xbc149a24	-0.009069953
127	0x3c8c1026	0.017097544

fc3.weight f4 [5, 128]
0	0x3df3d626	0.1190608
1	0xbd199202	-0.03749276
2	0xbc1bdb3d	-0.00951272
3	0x3db6d649	0.089275904
4	0x3d7d4d44	0.061841264
5	0x3dff7472	0.12473382
6	0xbd259878	-0.04042861
7	0x3de6ab6b	0.11263164
8	0xbc842528	-0.016130999
9	0x3d893a3b	0.0670056
10	0xbd43a1ad	-0.047761608
11	0x3d856a2a	0.0651439
12	0x3daa9206	0.08328633
13	0x3d8914b0	0.06693399
14	0x3c9d6971	0.019215317
15	0xbda6144f	-0.08109342
16	0xbcee4f87	-0.029090656
17	0xbd8e9385	-0.06961731
18	0xbd35614c	-0.044282243
19	0x3db0a17c	0.08624551
20	0x3b71e1db	0.0036908302
21	0x3d811b49	0.06304032
22	0xba8e3af1	-0.0010851306
23	0xbda83e36	-0.08214991
24	0xbbdd3cf4	-0.006751651
25	0xbb8ae1c5	-0.0042383396
26	0x3e14f746	0.14547452
27	0x3d61d489	0.05513433
28	0xbd942380	-0.072333336
29	0xbdaf54f2	-0.08561124
30	0x3d08f52c	0.03343694
31	0xbd851c89	-0.06499583
32	0x3d4eeda8	0.050519615
33	0xbdb2ef65	-0.08737067
34	0x3da48436	0.0803303
35	0xbd815263	-0.06314542
36	0xbd81f0ea	-0.06344779
37	0x3cce0e25	0.025153229
38	0xbca6a519	-0.020342397
39	0x3e0b35b0	0.13594699
40	0x3c30a1d8	0.010780774
41	0xbd31e6ef	-0.043433126
42	0x3d8079bf	0.06273221
43	0x3e1e78e5	0.15475805
44	0xbcf13a1e	-0.029446658
45	0xbd9a1b2b	-0.07524713
46	0x3d308460	0.043094993
47	0x3d977c11	0.07396711
48	0x3d874d1a	0.06606503
49	0x3b5b8495	0.0033495773
50	0x3de88e49	0.11355264
51	0xbaaea9f7	-0.00133258
52	0x3bb14445	0.0054097497
53	0x3db47d35	0.08812944
54	0xbca10568	-0.019655898
55	0x3d27d0e4	0.040970698
56	0x3d7e8912	0.06214244
57	0x3df20349	0.11817033
58	0x3db51efd	0.08843801
59	0xbd8c4c0a	-0.06850441
60	0xbca5140f	-0.020151166
61	0x3de26638	0.11054653
62	0x3d96d582	0.07364942
63	0x3d911ff2	0.07086171
64	0x3de0c60b	0.10975274
65	0xbd9dc25d	-0.077030875
66	0xbd02c6e6	-0.031927966
67	0x3da83917	0.08214014
68	0x3cd8fe07	0.026488317
69	0x3dcec8af	0.10096871
70	0xbbd92506	-0.006626728
71	0x3d98b682	0.074566856
72	0x3dc1850b	0.09449204
73	0xbd650ab8	-0.055918425
74	0xbd944a2d	-0.072407104
75	0x3dad8ac5	0.08473734
76	0x3de8252d	0.11335216
77	0xbd8414a9	-0.06449253
78	0xbcb883cb	-0.022523781
79	0x3d706479	0.05868957
80	0xbd958823	-0.07301357
81	0x3da3d471	0.07999504
82	0x3d36c2bc	0.044619307
83	0x3d683f3a	0.056700923
84	0x3cbf33eb	0.023340186
85	0x3e1c12f2	0.15241602
86	0x3df4880c	0.119400114
87	0x3da6ba9a	0.0814106
88	0x3dc45e6c	0.09588322
89	0xbd0354e8	-0.032063395
90	0xbd90fabc	-0.07079074
91	0x3dca5220	0.09878945
92	0x3b577829	0.0032878018
93	0x3dec7fff	0.11547851
94	0x3ddcd79f	0.10783314
95	0x3daf04c4	0.08545831
96	0x3da39703	0.079877876
97	0xbd8564e3	-0.06513383
98	0xbc8aaddf	-0.016928611
99	0x3d13a5e5	0.03604688
100	0x3b9be7ab	0.0047578416
101	0x3df89ab3	0.121388815
102	0x3d72412b	0.05914418
103	0x3d8f396b	0.069933735
104	0xbc4a388d	-0.012342584
105	0x3c970f85	0.018440017
106	0x3d0f17e4	0.034934893
107	0x3dfa2bfe	0.12215422
108	0xbd6e263a	-0.058141924
109	0x3d8155d5	0.06315199
110	0x3d080a75	0.033213098
111	0x3e073740	0.1320467
112	0x3b53bea8	0.0032309685
113	0x3d25fd4f	0.040524777
114	0xbd89a10c	-0.067201704
115	0x3df4961c	0.119426936
116	0x3c916ac9	0.017751114
117	0x3d114f51	0.035476033
118	0x3d11249b	0.0354353
119	0x3c4ec694	0.012620587
120	0x3bc8841d	0.0061192648
121	0x3d5fd4ed	0.05464642
122	0x3cf02602	0.029314999
123	0xbd1fcddc	-0.039014682
124	0xbd9acb1b	-0.075582705
125	0xbd4a4c58	-0.049389213
126	0x3a2ceb6f	0.00065963616
127	0x3dfa17c1	0.12211562
128	0x3cad9aaa	0.021191914
129	0x3d81be3b	0.06335112
130	0xbd8ca895	-0.06868092
131	0xbbced0db	-0.0063115186
132	0x3dab661c	0.08369085
133	0x3d85adef	0.06527316
134	0xbb1b22c5	-0.0023671847
135	0x3da51edc	0.080625266
136	0x3e0d8247	0.13819228
137	0x3e03c509	0.12868132
138	0x3d80bb46	0.062857196
139	0xbca81526	-0.020517897
140	0x3c2801fb	0.010254378
141	0xbc911ba8	-0.017713383
142	0xbd4151cc	-0.04719715
143	0xbd98ed49	-0.074671336
144	0xbd8a42a5	-0.06750993
145	0x3c76ae7d	0.01505625
146	0x3d8c786d	0.06858907
147	0xbda07f55	-0.07836787
148	0x3d733b5f	0.059382793
149	0xbda9598d	-0.082690336
150	0xbd6f52aa	-0.058428444
151	0x3d21501e	0.039383046
152	0xbd151685	-0.03639843
153	0x3d11db50	0.035609543
154	0x3d909108	0.070589125
155	0x3e2c69d0	0.1683724
156	0x3d800d3d	0.06252525
157	0x3cd12a75	0.02553294
158	0x3d5cb90b	0.05388741
159	0xbd3152eb	-0.043291967
160	0xbd64f565	-0.05589809
161	0x3bc35779	0.0059613553
162	0x3d4201e5	0.047365088
163	0x3d7e68cc	0.06211166
164	0x3c7531a6	0.01496545
165	0x3d843650	0.06455672
166	0x3c645534	0.01393633
167	0x3d80080f	0.06251537
168	0xbdaec43a	-0.08533521
169	0xbd2bc3e5	-0.041934866
170	0x3b2cbba1	0.0026356953
171	0x3cb37546	0.021906506
172	0x3d7b1c54	0.061306313
173	0x3c0c0076	0.008545032
174	0xbce64247	-0.028107775
175	0x3d50a3a1	0.0509373
176	0x3d23e1d1	0.040010277
177	0x3cac0b76	0.021001559
178	0x3dbacd80	0.09121227
179	0x3dacfc4e	0.08446561
180	0x3dad9942	0.08476497
181	0x3d9c55f0	0.07633579
182	0x3e0d4f40	0.13799763
183	0x3d4100b1	0.0471198
184	0x3d8b6f5d	0.0680835
185	0x3dc3ac14	0.09554306
186	0xbc925106	-0.0178609
187	0xbb115e52	-0.0022181463
188	0x3c127a94	0.008940358
189	0x3dae8368	0.085211575
190	0x3c9645ec	0.018343888
191	0xbd808b9d	-0.06276629
192	0x3dc3da0a	0.09563072
193	0xbb8ca8e2	-0.0042925933
194	0x3dbcce00	0.09218979
195	0x3e030f10	0.12798715
196	0xbd03c5e3	-0.03217114
197	0x3d8f5f11	0.07000554
198	0x3d2250e9	0.039627943
199	0x3de804cd	0.11329041
200	0x3d09a4cd	0.033604432
201	0x3d1f6d13	0.03892238
202	0xbd4454d7	-0.047932472
203	0x3d83d7e4	0.06437662
204	0x3cea42d8	0.028596327
205	0x3d8a2e0d	0.06747065
206	0x3c8cd38a	0.017190713
207	0x3d9a0167	0.07519799
208	0xbd1e8fe8	-0.03871146
209	0xbd41932e	-0.047259502
210	0xbd8a1c98	-0.06743735
211	0x3d92ed02	0.07174112
212	0x3d44e824	0.04807295
213	0x3ded0227	0.11572676
214	0x3e16b7db	0.14718573
215	0x3de088d6	0.109635994
216	0x3da3354f	0.07969152
217	0x3d06ce2b	0.03291146
218	0xbc64c2d9	-0.013962471
219	0x3c121397	0.008915803
220	0x3d9530b1	0.07284678
221	0x3e3646ce	0.17800447
222	0x3ccb89ea	0.024846036
223	0xbd348736	-0.04407426
224	0x3c612fad	0.013744277
225	0x3d8b07f2	0.06788625
226	0xbd3da3ca	-0.04629878
227	0xbd68b761	-0.05681551
228	0x3d72661c	0.05917941
229	0x3d31e888	0.04343465
230	0x3e1abb6f	0.15110563
231	0x3d9e2186	0.07721238
232	0x3dc37bdf	0.09545111
233	0xbd1af8f6	-0.037835084
234	0xbcd8fda8	-0.02648814
235	0x3d75eb6a	0.06003896
236	0xbc398a65	-0.0113245
237	0x3d87f73d	0.06638954
238	0x3d98cbd1	0.0746075
239	0x3e06cf85	0.131651
240	0x3e296721	0.16543247
241	0x3dcf6cb3	0.101281546
242	0x3d662aeb	0.056193274
243	0x3de94190	0.11389458
244	0x3d396eda	0.045271732
245	0x3b4e8715	0.003151362
246	0x3c0e16e6	0.008672452
247	0xbca9061f	-0.020632802
248	0x3df78f37	0.12087863
249	0x3c6070b6	0.013698747
250	0xbd260d9a	-0.040540315
251	0xbb7babae	-0.003840189
252	0xbd1e867a	-0.038702466
253	0x3c82e8da	0.015980173
254	0x3d5248c3	0.051338922
255	0x3d2b68f1	0.041848127

fc3.bias f4 [5]
0	0x3d9b1344	0.07572034
1	0x3d0227c3	0.0317762
2	0x3d8b9381	0.068152435
3	0x3d3921f5	0.0451984
4	0xbbbacf5e	-0.0057009896
