dynamics/src/drl/outputs/RobotOptEnv/20220720-091534/models/dqn_checkpoint.pth (torch, 75015 bytes, 6 tensors)

fc1.weight f4 [128, 7]
000000 6f d9 04 be 36 a7 a7 3e e7 99 82 3e f6 b0 6a be
       -0.1297357 0.3274476 0.25508043 -0.22919068
000010 32 9d 1c be 02 8c 89 be 4e 52 88 be 45 b2 45 3e
       -0.1529434 -0.2686463 -0.26625293 0.19306286
000020 a4 56 7b 3e 78 ca 8d 3e 12 51 1a 3e 46 dc f4 3b
       0.2454477 0.27693534 0.15069988 0.0074725477
000030 84 8f 89 bc 30 e1 f4 3a ad bd 91 3e dd 4e 44 3e
       -0.016792066 0.0018682834 0.28465024 0.19170709
000040 b1 5e 33 be 8a 83 8e 3d 6e b4 58 be a7 fe 56 3e
       -0.1751659 0.06958683 -0.21162578 0.2099558
000050 a6 05 a3 3e 90 02 34 3d 07 24 88 be f1 e7 fe 3c
       0.31840247 0.043947756 -0.26589987 0.031116458
000060 f1 be 35 3e f4 b5 9b bd 67 48 2e be 40 33 eb bd
       0.1774862 -0.07603064 -0.17019807 -0.114843845
000070 12 ad be 3d bc 9b e3 bd 30 3e be bd 9d 0d 83 3e
       0.09310354 -0.11113688 -0.09289205 0.25596324
000080 5e 43 0f 3e 4b d9 9d be 56 82 0b 3d bf 36 d7 3b
       0.13990542 -0.30829844 0.034059845 0.0065678055
000090 4e d4 83 3d ea a2 60 be 15 e5 69 3d 16 73 83 3e
       0.06436978 -0.21937147 0.057103235 0.2567374
0000a0 13 22 cd bd 8e 5a 18 3e 30 ad 8d be 3b 38 80 bd
       -0.10016265 0.14878294 -0.27671194 -0.06260725
0000b0 75 80 a5 3e 82 36 99 3e cf 7e 6c 3e a0 eb e6 3c
       0.32324567 0.299244 0.23095249 0.028188527
0000c0 3a 42 bf be 2c b5 27 3e 97 e9 8e be 1f 4b 4f 3e
       -0.37355214 0.16377705 -0.2791259 0.202435
0000d0 dd 63 94 be d4 86 59 3d ae 16 85 be fe 63 23 be
       -0.2898244 0.053107098 -0.25993866 -0.15956113
0000e0 e5 c4 30 be 1e e5 42 be bf bf 5c be f6 72 8e be
       -0.1726261 -0.19032714 -0.2155752 -0.27822083
0000f0 04 01 51 be 15 cd 55 3e 3e 8e 34 3e 71 87 ca 3d
       -0.20410544 0.20879014 0.17632386 0.09889115
000100 81 b8 39 be 5a 8e 4e 3e 22 66 53 3e bf 22 b1 3e
       -0.18136789 0.2017149 0.2064443 0.34596822
000110 a8 b5 b8 be dc a6 e9 bd b6 54 25 be 21 36 99 be
       -0.36076093 -0.11408779 -0.16145596 -0.2992411
000120 f5 b1 0f bd 32 00 84 3c 90 5f 0f bd f3 22 bf be
       -0.035081822 0.016113374 -0.035003245 -0.37331352
000130 fc 90 41 3e d5 92 a3 be 3a 53 83 3e fd f7 aa 3e
       0.18902963 -0.3194796 0.25649434 0.33392325
000140 c6 13 93 3e 18 aa a7 3d b0 d0 a2 be ad 4e d2 bc
       0.28726023 0.0818674 -0.3179984 -0.025672281
000150 6a 87 b0 be 34 45 e5 3d f0 0c aa be 0f eb 6e bd
       -0.34478313 0.1119484 -0.33212996 -0.058329638
000160 7b 55 e6 bd 21 d3 5b bc ad ee 7c 3e b3 5a a7 3e
       -0.11246773 -0.013417036 0.24700423 0.32686386
000170 41 a0 1a 3e 94 f7 60 3e 37 10 a1 bd b1 51 74 3e
       0.15100195 0.21969444 -0.07864421 0.23859288
000180 65 84 3e 3d 19 1e 60 be 05 8e 60 be 36 12 9f be
       0.04651298 -0.21886481 -0.21929176 -0.3106858
000190 35 d8 34 be d1 e8 79 3e 99 21 08 3d 57 fd 19 3e
       -0.17660601 0.24405219 0.033235166 0.15038048
0001a0 96 ff 37 3d f5 96 9b bd 9b 80 60 3e 70 21 42 3e
       0.04492148 -0.07597152 0.21924059 0.18958068
0001b0 2d df ae be 2c 97 b9 3d 5e 27 bd 3d 34 86 73 3e
       -0.34154645 0.09062037 0.09236024 0.23781663
0001c0 2e ca a3 3e 98 c1 ab 3e cf 37 37 3e cd 41 63 bc
       0.31990188 0.33546138 0.17892383 -0.013870669
0001d0 36 86 9a 3e 34 69 3e be e6 06 4d be 4a 82 b2 bd
       0.3018052 -0.1859482 -0.20022163 -0.08716257
0001e0 99 2e d8 3c 2c d3 a3 be 2c 60 91 3e 79 0e b4 3e
       0.026389407 -0.3199705 0.28393686 0.35167292
0001f0 f8 28 92 3b 2b cd 94 3e 7d 69 43 3c 80 3a 9c 3c
       0.0044604503 0.2906278 0.011927006 0.019070864
000200 78 bf 80 3e b0 96 38 be c1 df 3a 3e 39 44 43 3e
       0.2514608 -0.18026233 0.18249418 0.19068994
000210 10 13 49 be 66 e3 a5 3e c6 bc 9f 3e 9c 23 9f be
       -0.19636178 0.32400054 0.3119871 -0.31081855
000220 74 41 0c be 26 0d d4 3c b1 70 b6 bd 84 a0 23 be
       -0.13696843 0.025885176 -0.08908213 -0.159792
000230 4e cc f9 bd de a2 4a 3b e6 16 a4 be 8e 12 44 be
       -0.12197171 0.003091983 -0.3204872 -0.19147703
000240 3a 31 93 3e 3f 69 07 3d 3e 16 70 be 6a c3 89 3e
       0.28748494 0.033059355 -0.23445985 0.26906902
000250 0d 06 83 be d9 4c 6b be 9b 21 e7 bd d3 7a 1d be
       -0.25590554 -0.22978534 -0.112857066 -0.15378885
000260 79 68 90 3e 6a ae 0d 3c 05 e4 76 be 51 93 bf be
       0.28204706 0.008647541 -0.2411042 -0.3741708
000270 f9 3a 4f be f6 57 79 3e 93 1c 5b bc f8 ec 8e 3d
       -0.2023734 0.2434996 -0.013373512 0.06978792
000280 77 cc 8f 3d 99 79 58 be d7 15 8e 3e c4 5f a0 be
       0.070214204 -0.21140136 0.27751037 -0.31323063
000290 e4 bd 22 bc 9b 66 39 be 9e 6a a3 ba 34 da 43 3e
       -0.009932969 -0.18105547 -0.0012467687 0.19126207
0002a0 5d 18 ae be 94 9b 14 be b1 cb 7c 3e 8e 71 b3 3e
       -0.34002963 -0.14512473 0.24687077 0.35047573
0002b0 19 ce 48 bd cd 46 92 be ae cc ec 3c 6c 59 aa 3d
       -0.049024675 -0.28569642 0.028906193 0.08317837
0002c0 5b 17 78 bd 92 67 20 bd 58 36 b8 bc 10 73 00 be
       -0.06056915 -0.039161272 -0.02248685 -0.12543893
0002d0 a6 f7 b9 3b 21 1e a6 3e 91 8c 30 be 7a 40 47 3d
       0.005675274 0.32444862 -0.17241122 0.048645474
0002e0 57 94 b6 be da df 81 be ea 8a 4d be ea 2a 88 3e
       -0.3566005 -0.25366098 -0.20072523 0.2659524
0002f0 7e c4 a5 3e ca 0e 42 3e 8c bb b4 3e f1 e2 16 3e
       0.32376474 0.18950954 0.35299337 0.14735009
000300 5f 7b df bd bb cd 28 be 21 30 9f 3d ee 06 2f 3c
       -0.10912203 -0.1648473 0.07772852 0.0106828045
000310 a0 b0 bb be 31 01 12 3e 40 30 db bd c6 a2 58 be
       -0.36658192 0.14258267 -0.10702562 -0.21155843
000320 a9 a3 55 be d7 a8 0c 3e 4a 9a 2c 3e 18 6c 1f 3e
       -0.20863213 0.13736282 0.16855732 0.15568578
000330 eb 8b 84 3e 97 5c be 3d c4 9b 94 be 1b 8f a7 3e
       0.25888 0.09295004 -0.2902509 0.32726368
000340 0f 31 07 3e 24 19 00 3d 37 25 30 be 83 dc af be
       0.13202308 0.031273976 -0.17201696 -0.34347925
000350 51 c1 4d bc 09 b2 5a bd ba f6 38 be 65 d5 9b 3b
       -0.012558297 -0.053392444 -0.18062869 0.004755663
000360 69 6a 68 3d 69 ce b9 be d2 ae 4a 3d cc e7 16 3e
       0.056742106 -0.3629029 0.049483128 0.14736861
000370 6b 7b bb 3e b5 e7 e0 3c 54 29 b0 bd 83 fe ba 3e
       0.36617598 0.027454237 -0.08601633 0.36522302
000380 12 bb a1 3e ae 84 78 3d 6a 54 8f bc 59 bf 8d be
       0.31588036 0.06067341 -0.017496306 -0.2768505
000390 ba ab d8 3d fd 56 16 3c 27 8f 35 be c3 46 31 3d
       0.10579629 0.009176013 -0.1773039 0.043280374
0003a0 ba 2c 31 be 03 fd ba 3d 13 9b 96 3e 09 fa 37 be
       -0.17302218 0.091302894 0.29415187 -0.17966475
0003b0 d8 c9 3f 3e 0c 2c 6c 3e 23 41 8c 3e ce 9c 2a 3e
       0.18729341 0.23063678 0.27393445 0.16661379
0003c0 48 20 ed 3d 14 b1 72 be 6a f5 1e 3e 9f b2 3b 3c
       0.11578423 -0.23700362 0.15523306 0.011456161
0003d0 49 c2 e0 bb 97 3d a8 3e 54 35 c7 3c ef 6f 14 3e
       -0.006859098 0.3285949 0.024317421 0.14495824
0003e0 ee ed 89 3e f9 22 a0 bc 2b a8 0c 3e 2a 26 81 be
       0.26939338 -0.019547926 0.13736026 -0.2522443
0003f0 8f 18 77 3e 8d 88 a8 bd 5d c4 2a bd 32 ce 7a 3d
       0.24130462 -0.0822917 -0.041691173 0.0612318

fc1.bias f4 [128]
000000 18 06 b7 3e eb 8f 04 bc d1 71 64 3e c2 2f 7d bd
       0.35746837 -0.008090953 0.22309043 -0.061813124
000010 ad e7 97 bd 57 3c 06 3c ad 27 55 bd 91 14 e0 3d
       -0.074172355 0.008193097 -0.05203979 0.10941423
000020 0e ef 7f bd c6 75 6b 3b d1 ba 14 3d c8 43 8d 3e
       -0.06248384 0.0035928353 0.036310975 0.27590775
000030 e5 b4 a7 3e ba 73 46 be c4 25 7d 3e ca 55 86 be
       0.327552 -0.19380084 0.24721438 -0.26237327
000040 cf f0 1d be e6 3f a8 be 87 84 71 3e a5 55 85 be
       -0.15423892 -0.3286125 0.23585711 -0.26041904
000050 f0 b4 58 be b5 c0 9f be 76 cc 03 3d 29 06 02 3e
       -0.21162772 -0.3120171 0.03217741 0.12697662
000060 12 be 65 be d2 db cd bd 1e 8c cb bd 3d c4 bc be
       -0.22435787 -0.10051693 -0.099388346 -0.36868468
000070 b9 80 96 3e de 3d 5d be 4b 1f a5 be da d4 d3 3d
       0.29395083 -0.21605632 -0.32250437 0.103433326
000080 da fc 9f be 13 f0 a3 3e 8d 1b 84 bd 8b 27 2b 3e
       -0.31247598 0.320191 -0.064505674 0.16714303
000090 f9 61 1d 3e 82 2e 09 be f7 ce b0 3e d8 6d 93 be
       0.15369405 -0.13396648 0.34532902 -0.28794742
0000a0 5f ea 0d 3e 69 18 a8 3d 74 ba ac 3e b8 73 a9 3e
       0.13858937 0.08207781 0.33736002 0.330961
0000b0 3c da 12 be 38 d6 9c 3d c6 3c f9 3d 30 8c a7 3e
       -0.14341062 0.076580465 0.12169795 0.32724142
0000c0 d4 41 87 3e 08 90 76 3e f6 b0 b1 3e 67 3f b6 be
       0.2641741 0.24078381 0.34705323 -0.35595247
0000d0 fd 0a 6a 3e b5 7a 92 be fb 7c a5 3e 66 8e 3c 3e
       0.22855754 -0.28609243 0.32321915 0.18413696
0000e0 ee 13 93 be 08 d6 32 3d 1e 7f 7d 3e e7 2b 2f be
       -0.28726143 0.043661147 0.24755523 -0.17106591
0000f0 14 eb 9c 3e a9 ed e4 b9 cc a5 5a 3e 5c 51 a9 be
       0.306481 -0.0004366462 0.21352309 -0.33069885
000100 e5 0f 8c be 1e ce 2b 3e aa f5 1a 3e 9a 9d 60 be
       -0.27355877 0.16777846 0.15132776 -0.2193512
000110 32 58 bf 3c f6 d8 91 3d 11 13 7c 3e c0 62 c1 3e
       0.023357484 0.0712146 0.24616648 0.37770653
000120 f2 51 24 be a2 5f 8c 3e 60 86 0b 3e be 9a 94 3e
       -0.16046885 0.27416712 0.13625479 0.2902431
000130 34 68 6b 3e b8 b2 63 3d 9a 3f a2 3d aa da b8 3b
       0.22988969 0.05559036 0.07922287 0.005641301
000140 43 f8 43 3d b5 7d 15 3e f1 9d 48 3e 75 16 b9 be
       0.047844183 0.14598735 0.195915 -0.36149946
000150 2e 87 a3 3d 9d b0 84 3d e2 8c 26 be d4 6a b2 3e
       0.07984768 0.06478999 -0.1626468 0.34847128
000160 53 1b b5 3e 28 2d d1 3c 0a ae 4c be de 1e ab be
       0.3537241 0.025534227 -0.19988266 -0.33421987
000170 a3 65 48 be 76 45 b7 3d f3 d7 53 be e2 0f 28 be
       -0.19570021 0.089487955 -0.20687847 -0.16412309
000180 54 1e 06 3e d4 54 9c 3e 47 2a 98 3e fc ad 65 3e
       0.13097507 0.3053347 0.29719755 0.22429651
000190 2d 33 a7 3e e5 f4 15 be 6f c6 73 3e 85 44 83 be
       0.32656232 -0.14644201 0.23806165 -0.25638214
0001a0 d8 f9 8e 3e f9 43 9f 3d f8 07 05 3d d3 9b 22 3e
       0.2792499 0.07776637 0.032478303 0.15879755
0001b0 71 57 49 3e ba 96 8f be 89 15 93 3e 6f 1d 5e 3e
       0.19662262 -0.28044683 0.28727368 0.21690916
0001c0 3b 44 8e 3d 91 32 54 bb 22 0c 9a be 22 ff 02 3e
       0.06946608 -0.0032378773 -0.30087382 0.12792638
0001d0 43 21 3c 3e 3a 72 94 be ee b5 2b bd 3f 24 b1 be
       0.18372063 -0.28993398 -0.04192155 -0.34597966
0001e0 3b 8f b2 be 02 10 a2 be aa a5 85 be c3 ff 26 be
       -0.348749 -0.31652838 -0.26102954 -0.16308503
0001f0 30 f8 82 bc cb 2d ea 3d e8 76 dc bd 62 07 4c 3d
       -0.015987486 0.114345156 -0.10764867 0.04981173

fc2.weight f4 [128, 128]
000000 dc 29 05 3d 89 fa b2 bd c5 32 af bd 78 17 a2 bd
       0.032510623 -0.08739192 -0.085546054 -0.079146326
000010 61 0a 99 bd d7 e9 6a 3d aa 08 6d 3d 22 e4 97 3c
       -0.07472683 0.057351913 0.05786959 0.0185414
000020 91 00 30 3d da ce 3f 3d 71 c3 83 3d 24 3f af 3d
       0.04296929 0.04682813 0.06433762 0.08556965
000030 07 fc a0 bd 9d a0 48 3d 21 f3 95 3d e3 d9 0f 3d
       -0.078605704 0.048981298 0.07321764 0.035119902
000040 c8 a6 7c 3d 7e ce 0c bd dc 0c 35 3c b4 00 36 3d
       0.061682492 -0.034376614 0.011050429 0.044434264
000050 d8 03 83 bc ed eb 66 3d 97 4b 01 bd cf b7 9f 3d
       -0.015993044 0.05637734 -0.03156623 0.077987306
000060 1d 6a b0 3d 47 17 9f bd 45 86 38 3c 9b 0f 45 bd
       0.086139895 -0.07768112 0.011262481 -0.048110586
000070 43 2d f3 3c af aa 5a 3d 99 15 44 3c 4c 09 06 bd
       0.029684668 0.053385433 0.01196804 -0.03272371
000080 af c9 49 bb 49 b8 f1 bc ca 36 9e bc 78 df 82 3c
       -0.0030790379 -0.02950682 -0.019313235 0.015975699
000090 fa 83 c3 3c b4 6b 06 3d 68 3c 4b 3d 49 57 06 3d
       0.023866642 0.032817557 0.049618155 0.032798085
0000a0 b0 94 ba 3c da e8 0c bd 1a 00 93 3d 4f f1 1c bd
       0.022775978 -0.034401752 0.07177754 -0.038316067
0000b0 e3 53 40 3c c8 c7 a4 3d b7 75 08 bd 25 f8 a1 bd
       0.01173875 0.08045918 -0.033315387 -0.07908658
0000c0 3e a0 dc bc bd 1a a9 bd 23 23 11 3d b0 6b af bc
       -0.026931878 -0.08257053 0.0354339 -0.021413654
0000d0 31 bf 6a 3d 9d 78 9a 3d 76 fd f7 b9 3d 56 91 bd
       0.05731124 0.075425364 -0.00047300354 -0.07096527
0000e0 2b 71 81 3d 21 6f 8a 3c d6 57 76 3d c7 37 25 3d
       0.06320413 0.016898694 0.06014236 0.040336397
0000f0 d3 64 98 bc 92 fa 4a 3d 2f 49 a0 bc aa aa 85 3b
       -0.018602764 0.04955537 -0.019566147 0.0040791826
000100 22 2f b5 bc f6 c3 ab 3d d0 b8 c7 3c 82 28 5e bd
       -0.022117201 0.08386986 0.024380118 -0.05423785
000110 f7 f0 51 3d 7f 20 19 bd 4a c9 7f 3d 7c 44 51 bd
       0.051255193 -0.037384506 0.062447824 -0.051090702
000120 84 2f 92 bc 88 38 40 3c 67 28 c0 3c e0 bf 3e bd
       -0.017844923 0.011732228 0.023456765 -0.046569705
000130 2d e7 cf bc 0e d9 47 bd 65 99 ab bd 1e cd 83 bd
       -0.025378788 -0.048790984 -0.08378867 -0.064356074
000140 e2 93 4a bd 46 5c a5 bd e4 7a bc bc 77 b5 e7 3c
       -0.04945744 -0.080742404 -0.023007818 0.028284771
000150 e2 02 33 bb b5 17 ec bc 0c d9 33 3c e2 ef 85 bd
       -0.002731495 -0.028819898 0.010977041 -0.06539895
000160 61 c7 a7 3d 28 02 aa 3c d3 fb 01 3d 59 84 1c 3d
       0.081923254 0.020752981 0.0317343 0.038212154
000170 db 84 55 bc 67 d1 8f 3d 02 16 a4 3d 60 fb 2f 3d
       -0.0130321635 0.07022362 0.0801201 0.04296434
000180 9c 09 4f bd cc cf 9a 3d f9 50 85 bd 75 dd bd ba
       -0.050546274 0.07559165 -0.06509585 -0.0014485555
000190 bb e6 99 3c f2 90 50 3d d5 54 74 3d 46 c3 9a bd
       0.018786779 0.05091948 0.059651215 -0.07556777
0001a0 47 db 05 bc 4e 67 b5 bc 3f 1d 8d 3d 61 9a 6a bc
       -0.008169956 -0.022143986 0.06890344 -0.014319033
0001b0 50 93 c3 3b 37 ac cc 3c dc 03 9d bd 99 a1 ad 3d
       0.0059684888 0.024984462 -0.07666752 0.08478088
0001c0 1b bb 05 3d 87 8d 75 bd a9 66 ab bd 63 15 cf bb
       0.03264914 -0.059949424 -0.0836919 -0.006319688
0001d0 3f 91 19 3d 52 d4 a9 bd d6 27 60 3c 04 ac 33 3c
       0.037492033 -0.0829245 0.013681373 0.010966305
0001e0 b8 7f 82 3d db 2b b6 3c aa d9 ea bb 8f 6e 2d bd
       0.06372017 0.022237709 -0.007167061 -0.042341765
0001f0 7c 26 08 3c 14 01 8f bd c2 ec 9c 3d 1f 91 6c 3d
       0.008309957 -0.069826275 0.076623455 0.057755586
000200 77 06 ac 3d cf 55 66 bd 2a ce 7f 3d 78 38 b0 bd
       0.083996706 -0.056234177 0.062452473 -0.086045206
000210 32 10 9b bd 80 f0 dc 3b 66 cd f7 bc 6c 5d 3e bd
       -0.075714484 0.006742537 -0.030249309 -0.046475813
000220 53 d0 84 3c 7c e4 96 3d 79 da 05 3d 95 ec 9c 3d
       0.016212618 0.07367799 0.032679055 0.07662312
000230 e0 5c a4 bd 5b 59 16 bd d0 31 6f 3d 4a 8c b4 bd
       -0.08025527 -0.03670631 0.058397114 -0.088158205
000240 65 a0 b2 3d 87 cf fa 3c 3e 23 1c bd 80 f1 a5 3d
       0.08721999 0.030616535 -0.038119547 0.08102703
000250 2e 6e 30 3d 2f e3 98 bd cd 42 82 bd d9 94 d2 3c
       0.043073826 -0.07465207 -0.063603975 0.025705742
000260 57 52 f7 ba a0 02 66 bd 5b 40 9e 3b 98 da 55 3d
       -0.0018869144 -0.056154847 0.004829449 0.05221042
000270 7f 01 1d bd e6 dc f1 bc 07 35 92 3d cd 8b cb bc
       -0.038331505 -0.029524278 0.071390204 -0.024846936
000280 3d 91 60 bd a6 b8 32 bd b9 b9 18 3d c0 47 a1 bd
       -0.05482601 -0.043633126 0.037286494 -0.07875013
000290 98 ba 9f bc 67 6b 11 3c 23 75 5b bc 9c 83 39 bd
       -0.019498155 0.008875704 -0.013394627 -0.045291528
0002a0 f9 bb aa bc 41 fa 4b 3d ab 0e 03 3c 16 59 65 3d
       -0.020841585 0.049799208 0.007999103 0.055993162
0002b0 93 59 cb bc f3 aa 16 bc 69 4a 98 bd 1f 5e 8d 3c
       -0.024822986 -0.009196031 -0.074360676 0.017256794
0002c0 1c f4 32 3d 68 fa 93 bc 51 3c 50 bd e4 7c c2 3b
       0.043689832 -0.018063739 -0.050838772 0.0059352983
0002d0 25 3c 81 3d 90 d1 34 3d 96 96 94 bd 42 c8 aa bd
       0.063103 0.044145167 -0.072552845 -0.083389774
0002e0 84 0b 83 bd f9 68 7c 3d 61 d9 0d bc 24 ef 9f bc
       -0.06398681 0.061623547 -0.008657784 -0.01952321
0002f0 2b 57 3e 3d 21 3b a8 3d f6 e2 56 bc b5 c0 b0 3d
       0.04646985 0.08214403 -0.013115635 0.08630506
000300 a2 51 23 3c 3b b1 11 bb 0e 8e 5e 3d fe a4 08 3d
       0.009968193 -0.0022230882 0.054334693 0.033360474
000310 3f 87 a2 3c 19 67 99 3d 5d c0 1a ba 2f f7 5a 3c
       0.019839881 0.074903674 -0.0005903298 0.013364597
000320 ba a1 a2 3d 34 4f c0 3c 12 fe 2d 39 af 56 ad bd
       0.07941003 0.023475267 0.00016593214 -0.08463799
000330 5e 5d 4d 3d 22 fb 07 3d 16 4c c5 bc 8e 30 80 bd
       0.05013787 0.033198483 -0.024084132 -0.06259261
000340 43 50 e2 bc da 76 7e 3d a3 3a 82 3d 9a 8e 7f 3d
       -0.027626162 0.062125064 0.0635884 0.062391855
000350 68 14 4e bd c6 7c 9a 3d 2f 0e 81 bd a2 65 59 bd
       -0.05031243 0.0754333 -0.063015334 -0.05307544
000360 8c 33 8e 3d cc 7e d6 bc f2 9f ea bb d2 7c b4 3d
       0.069434255 -0.026183508 -0.0071601802 0.0881287
000370 bc 79 a9 bd 06 a7 7e 3d f6 56 dd 3c cb f8 c5 3c
       -0.08275172 0.062171005 0.027019005 0.024166485
000380 85 a3 67 bd 05 d1 45 3d 8d da 5d 3c 1c df e0 bc
       -0.05655243 0.04829504 0.013540876 -0.027450137
000390 5a f7 44 3d ab 44 3b bd e4 b3 07 3c e4 53 b2 3d
       0.048087455 -0.045719784 0.008282635 0.08707407
0003a0 47 76 5a bd 86 b5 a6 bd c8 2c 24 3d 02 64 a7 bd
       -0.053335454 -0.081400916 0.04008177 -0.08173372
0003b0 db d4 8b bd 2f 6c 9c 3c 8c 17 97 bd b6 29 3d bd
       -0.06827708 0.019094555 -0.07377538 -0.046182357
0003c0 f5 d2 64 3d 24 39 b2 3d cd 1d 7e bd 6d 89 8a 3c
       0.055865247 0.08702305 -0.06204014 0.016911233
0003d0 b3 2d 13 bc d2 e6 a8 bd 75 0a 34 bd 09 f7 76 3d
       -0.0089830635 -0.082471505 -0.043955285 0.060294185
0003e0 68 64 64 3c 97 f8 01 3d aa 0c f8 ba ec 05 78 3d
       0.013939954 0.031731214 -0.0018924673 0.060552523
0003f0 21 6c 6c bd 87 b8 a9 bc 4a 03 25 3d 15 4d 90 3d
       -0.057720307 -0.020717872 0.04028634 0.07045952

fc2.bias f4 [128]
000000 0e 19 b1 3d 1b ef 21 3c 35 f5 42 3d 0e 89 b3 3b
       0.08647357 0.009883667 0.04759713 0.0054789847
000010 29 26 8a bd a3 b3 e1 3c 25 82 3f bc 93 d0 00 bd
       -0.0674556 0.027551478 -0.011688744 -0.031448912
000020 69 88 90 3d 1e 25 1b bd 11 7a 45 bc 85 b0 53 3d
       0.07057268 -0.037877195 -0.012053029 0.051682014
000030 c9 3f 06 3d 79 c7 76 bd 38 1f f5 3c 57 0b ac bd
       0.032775674 -0.060248826 0.029922113 -0.084006004
000040 d7 c6 a6 3d b0 eb ce bc 89 64 6f 3d 4b 33 0a 3d
       0.081433944 -0.025258869 0.058445487 0.033740323
000050 8a 55 eb bc 23 6a 69 bd ed 84 7c bd d9 17 c9 3c
       -0.028727312 -0.056985985 -0.061650205 0.024547504
000060 04 e9 86 3c 21 49 dd 3c 05 f6 84 3c 2c 8e 9d 3d
       0.016468532 0.02701241 0.016230593 0.07693133
000070 78 06 80 bd c2 78 ae bd fd b9 87 3c c3 20 80 3d
       -0.06251234 -0.085191265 0.016568178 0.06256249
000080 5b f2 60 3d 79 42 b2 3d 29 34 52 3d e3 77 35 3d
       0.05491863 0.08704085 0.051319275 0.044303786
000090 f3 0e f2 bb d7 29 61 3c 99 fd f2 bb 6c ee 08 bd
       -0.007387036 0.013742886 -0.007415485 -0.0334305
0000a0 0c 8c 18 bd e2 6e 26 3d 83 7f 7a ba 3b b8 a3 3d
       -0.037242934 0.04063309 -0.0009555744 0.079941235
0000b0 e9 87 87 bd a9 fa 76 39 63 e6 82 3d e2 fd 0f bd
       -0.0661772 0.00023553766 0.06391599 -0.03515423
0000c0 58 ea 86 bc 57 dc 59 ba 2a 2b 9e 3d 8e 96 51 bb
       -0.016469166 -0.0008310726 0.07723077 -0.0031980607
0000d0 87 e0 9b 3d 68 2b af bd c7 83 ab bd fb bc 82 3d
       0.076111846 -0.08553201 -0.08374744 0.063837014
0000e0 a2 4d a2 3d cf 02 a9 bd 76 a9 db 3b 7d d4 ab 3d
       0.079249635 -0.08252489 0.006703551 0.08390138
0000f0 bc be 83 3d de a9 9a bd ea 8f 18 3d b6 72 86 3c
       0.06432864 -0.07551931 0.037246622 0.01641212
000100 45 66 21 3d 18 12 53 3b d0 2c 8a 3d e7 92 aa 3d
       0.039404172 0.003220683 0.067468286 0.08328801
000110 9b df 6b bd 69 53 47 3d ef 02 5c 3d 0a b3 9f bd
       -0.057586294 0.04866353 0.053713735 -0.07797821
000120 28 32 6a bd cc 8d ce 3c 3f 7f 7a 3c cb e3 10 bd
       -0.05717674 0.025214098 0.015289127 -0.03537349
000130 3a 58 ed bc 97 53 87 bc 24 c2 75 bd dd f4 5c bd
       -0.028972734 -0.01651935 -0.0599996 -0.053944457
000140 a5 71 f4 3c 0f 4a 39 bd cc 3b d6 bc 88 57 34 3c
       0.029839346 -0.045236643 -0.02615156 0.011007197
000150 65 0a 2b 3d a1 c5 02 3d 2a 5c 44 3d 88 59 08 bc
       0.04175796 0.031926755 0.047939457 -0.008322127
000160 ae 1d 8c 3d 2e e5 91 3d da 9c 77 3d 43 d0 75 3d
       0.068415985 0.07123791 0.06045232 0.060013067
000170 bf bc 85 3d a0 3d 4b bb e0 76 52 bd e7 93 ab bc
       0.06530141 -0.0031012073 -0.0513829 -0.020944549
000180 7a 8f e7 bc f4 d2 95 bd 1b f9 92 bc 12 35 a0 3d
       -0.028266657 -0.07315627 -0.017941048 0.07822622
000190 37 01 46 3c 74 d1 60 bc 9f 5a 78 3b 0d ac 06 bb
       0.012085251 -0.0137218125 0.0037895811 -0.0020549328
0001a0 ca 7b 5f 3c b0 ae 6c 3d 34 33 ad bd b1 83 7e 3c
       0.013640353 0.057783782 -0.08457032 0.015534327
0001b0 6b fd 79 bd e6 90 14 bd 8d 4e a6 3d f2 e0 b1 3d
       -0.061032694 -0.036271 0.08120451 0.08685483
0001c0 ed 7f c9 bc ee 97 bb 3c f6 51 50 3d ef 07 61 bd
       -0.024597133 0.022899594 0.050859414 -0.054939207
0001d0 6b e4 92 bd 43 0a 99 3d a0 3b 97 3d 01 8e 7b bd
       -0.071724735 0.074726604 0.073844194 -0.061414722
0001e0 c5 ff cf bc b8 44 10 3b b3 2d a8 bc c0 88 4e bd
       -0.025390515 0.0022013616 -0.020529604 -0.050423384
0001f0 43 f9 8e ba dc 4a 79 3c 0f e0 77 3d 24 21 94 bd
       -0.0010908026 0.015215602 0.060516413 -0.072328836

fc3.weight f4 [5, 128]
000000 b6 8e 44 3d ea 40 dc 3c 12 35 a1 bd 26 c9 9c bd
       0.047987662 0.026886422 -0.078714505 -0.076555535
000010 12 ba a8 bd 16 04 40 3d fb 4e da 3b 17 23 26 bd
       -0.08238615 0.046878897 0.0066622472 -0.040560808
000020 6c 3d 47 3c 04 15 9a 3d 52 d9 f5 3c f5 9b 5e 3d
       0.01216064 0.0752354 0.030010853 0.05434795
000030 23 44 65 3d 88 74 69 bc f9 db 8e 3d fe 5e 3a 3d
       0.055973183 -0.014248975 0.0697555 0.045500748
000040 4c c2 16 3d 50 7d 0d 3d 88 ac 4f 3b a6 77 86 bd
       0.03680639 0.034543335 0.003168853 -0.0656579
000050 e5 dc 72 bd 3a 7e 7b 3d 25 d5 57 3b 03 6f a1 3c
       -0.059292693 0.061399676 0.003293344 0.019706255
000060 cc f4 d1 3c 91 1f 5d 3d cd bc 02 bd f6 48 af bd
       0.025629424 0.053985182 -0.031918336 -0.08558838
000070 ca 35 47 bd d6 1d 88 bd 5b 8d b9 bc 6f ae a6 3d
       -0.04863528 -0.06646316 -0.022650411 0.08138739
000080 91 66 7a 3d fe 45 9b 3d 64 0e a9 bd e4 fc 8b bd
       0.06113297 0.07581709 -0.08254698 -0.068353444
000090 10 0d 65 bd 70 88 dd ba 8d 4e 64 3d 4f 00 3b 3d
       -0.05592066 -0.0016901623 0.055738974 0.04565459
0000a0 15 58 67 3b 1e d8 a9 3d 87 61 80 3d ff 23 93 3c
       0.0035300304 0.08293174 0.06268602 0.0179615
0000b0 8c f9 73 bd 54 69 39 bd 1e 0d 43 3d 95 f8 20 bd
       -0.05956416 -0.045266464 0.04761993 -0.039299566
0000c0 58 ed 84 bd d8 79 5b bd a9 1b b2 3b d0 71 94 3d
       -0.06490582 -0.053582996 0.0054354263 0.072482705
0000d0 c0 8f bc bc 27 c5 a4 3d 92 4b 03 bd 70 9c 50 3d
       -0.023017764 0.08045416 -0.03205449 0.05093044
0000e0 86 ff 47 bc d3 79 8c 3d 59 00 b1 bd 7a 3c 18 3d
       -0.012206918 0.068591736 -0.086426444 0.03716705
0000f0 cc a6 8a 3d e6 40 20 bd b4 30 63 3d 5b 63 6a 3d
       0.06770095 -0.039124392 0.05546637 0.05722366
000100 fb a2 ab 3d 74 b5 6b 3d b8 4c 57 3d fb 95 a5 bd
       0.083806954 0.057546094 0.0525634 -0.08085247
000110 9e 97 ad bd 54 cf 9d 3c cf 48 8b bc 15 eb 56 bd
       -0.08476184 0.0192639 -0.017002491 -0.052470285
000120 90 c2 46 3d f6 d3 32 3d 1a 69 fb 3c cc 6c 6d bd
       0.048525393 0.043659173 0.030689765 -0.057965085
000130 19 f5 3c 3d a0 c2 a5 3d e2 4e ae 3d cc e2 34 bd
       0.04613218 0.080937624 0.085111395 -0.044161603
000140 f0 29 57 3c da 1e 75 bd b2 0f c0 bb 45 2b 8c 3d
       0.013132557 -0.059843875 -0.005861246 0.068441905
000150 59 5c 32 bd cb ae 10 bd 9b ca 9b 3d 3c f6 e2 3c
       -0.0435451 -0.035322946 0.07607003 0.027705304
000160 6e f2 aa bd 72 19 02 bd ba ad b2 bd 6e 35 20 bc
       -0.08347021 -0.031762548 -0.08724542 -0.009778364
000170 c2 08 44 3d 89 1f 98 3d d8 bf 3c bd d7 a1 ac 3d
       0.047859915 0.0742789 -0.046081394 0.08429306
000180 90 8b 64 bd 8a fa 63 bd e0 f1 8b bd b1 7e 7d bd
       -0.05579716 -0.055658855 -0.06833243 -0.0618884
000190 27 db d8 3c a5 fd ac bd a3 41 96 bc a4 9c 08 bd
       0.026471687 -0.08446816 -0.018341845 -0.03335251
0001a0 ca 22 48 bc ba c1 a2 bd de ff 4f 3d 81 d6 82 3d
       -0.012215326 -0.07947107 0.050781123 0.063885696
0001b0 b4 29 aa 3d 7a 77 20 bd 8d 54 25 bd 40 17 5a 3d
       0.083087355 -0.03917644 -0.040363837 0.05324483
0001c0 8e 86 21 bd db 51 09 bc 79 25 a4 3d 1b 91 25 bd
       -0.039434962 -0.008381332 0.0801496 -0.040421586
0001d0 3e 6c 39 bd 1e 10 b4 3d 9b 8c ac 3b ea ae ad 3d
       -0.045269243 0.087921366 0.005265785 0.08480628
0001e0 46 9b 88 3d 71 b0 ad bc 4d f7 f6 bb 4c 44 71 bd
       0.06670241 -0.021202298 -0.007536805 -0.058903024
0001f0 79 10 bb 3c a5 18 47 bd 09 69 f7 bc d5 20 a5 3d
       0.022835003 -0.048607487 -0.030201452 0.08062903
000200 c9 32 8b 3d ae d7 85 bd d4 72 a4 bd e6 e8 a6 3d
       0.06796796 -0.06535278 -0.08029714 0.081498906
000210 bc 8a a0 3d ea 1f 90 3d 70 e3 89 bd 69 e6 ab 3d
       0.078389615 0.07037337 -0.067328334 0.083935566
000220 a9 da 1a 3c 05 58 a5 bd d3 c5 c8 3c 6d 27 06 bc
       0.009451547 -0.08073429 0.024508392 -0.008188111
000230 f0 f1 a5 3d c9 33 e5 bc 26 28 55 3d b7 d2 6c bc
       0.081027865 -0.027978795 0.05204024 -0.014454535
000240 66 b2 6e 3d ff 98 f9 3c 8b e2 6b bd 4d e6 b0 3a
       0.058275603 0.030468462 -0.057589095 0.0013496369
000250 d3 67 48 3d 72 a7 7e 3d e6 b6 2c 3d eb 62 95 bc
       0.04892714 0.062171407 0.042166613 -0.018235644
000260 96 1b ad bd 1a 50 b4 3d cb 31 59 3d 20 1d 39 3d
       -0.08452527 0.08804341 0.053026002 0.04519379
000270 8d 7e df bc a8 94 a2 3b 5e 3d a2 3d e7 88 a2 bb
       -0.027282024 0.004961569 0.07921861 -0.0049601677
000280 a9 14 f0 3c 34 7d a0 3d bd c9 50 3d 94 a6 9f 3d
       0.029306727 0.078363806 0.050973643 0.07795444
000290 5e ed ca 3a 7f 84 4c 3d 32 32 87 3d 7c 69 86 bd
       0.0015482118 0.049931046 0.06601371 -0.06563088
0002a0 d1 7b 80 3d 95 85 34 bc 2c 49 6c bd 5b 65 16 bd
       0.06273616 -0.011018177 -0.05768697 -0.036717754
0002b0 97 45 9e bd a9 00 64 bb b6 fb 02 bd f1 c6 ad 3d
       -0.07728117 -0.0034790433 -0.03197833 0.08485211
0002c0 7e 43 ff 3c a8 35 ef bb 79 0e ad bd 2a 4a 62 bd
       0.031160112 -0.0073000975 -0.08450026 -0.05524651
0002d0 47 1d 5d bd fd cd 05 3d aa 7e ac 3c 8e 8f 00 3d
       -0.053983 0.03266715 0.021056492 0.031386904
0002e0 70 86 44 bd 42 b2 00 bd 13 3d 33 bd 22 0f 62 3d
       -0.047979772 -0.03142 -0.043759417 0.055190213
0002f0 87 ac 0c 3d f2 9b 25 bd aa c0 a0 bd 64 11 00 3d
       0.034344222 -0.040431924 -0.07849248 0.031266585
000300 a1 74 e7 bb 2c ab 3c 3d 1f c5 9c bd c6 03 f5 bc
       -0.007063464 0.04606168 -0.07654785 -0.029909026
000310 3a d2 9d 3d f7 84 de 3b 03 d0 4c 3d e7 03 56 3d
       0.07706113 0.006790753 0.050003063 0.052249815
000320 c3 c0 5d 3d 29 d1 aa 3c cf d8 3f bd 0d fa 63 bd
       0.05413891 0.020851688 -0.046837624 -0.05565839
000330 bc c1 96 bc 3b 21 64 3d 96 17 a7 3d a5 e9 69 3d
       -0.018402927 0.055695754 0.081587955 0.057107586
000340 2c 91 a0 bd 2e 0f 33 3d 5a 72 ae 3d 83 b8 80 bd
       -0.07840189 0.04371565 0.085179046 -0.06285193
000350 6f 23 8d bd e2 81 10 bc f6 b3 97 bc 08 7e 76 bd
       -0.06891524 -0.008820029 -0.01851843 -0.060178787
000360 92 7b 1b bd 65 89 8c 3d d3 7d c1 bc 5f f8 a7 3d
       -0.037959643 0.068621434 -0.023619568 0.0820167
000370 1f 67 45 bd 7c a7 a2 bc ed b9 a8 bc 63 32 a9 3d
       -0.048194047 -0.019855253 -0.020596469 0.08261564
000380 11 06 69 bd c5 9e 95 bd 10 55 26 bd b2 89 ac bd
       -0.05689055 -0.073056735 -0.040608466 -0.08424701
000390 63 83 96 3d df 13 c9 3c b5 92 5c bd df af 65 3d
       0.07349279 0.024545608 -0.05385085 0.056075927
0003a0 f8 8c 8d 3d 12 7c 10 bd 1e 89 f7 bc fd 19 06 3d
       0.06911653 -0.035274573 -0.03021675 0.032739628
0003b0 ac 91 1c bd 7b 4b ad 3d 1f 9c 87 3d df 95 a7 bd
       -0.03822486 0.084616624 0.066215746 -0.081828825
0003c0 1e f6 a5 bd 64 3b a1 bd bc 24 ea 3a 7e bf 40 3d
       -0.08103584 -0.07872656 0.0017863731 0.04705762
0003d0 58 90 de 3c 8f 36 39 3c a4 bb a8 3d 87 97 31 bd
       0.027168438 0.011304512 0.082389146 -0.0433574
0003e0 0e ed 6a 3d c7 dd e5 bb ac 81 8e 3d 34 38 a4 bd
       0.05735498 -0.0070149633 0.06958327 -0.080185324
0003f0 34 51 d3 3a 3b 28 6b bd 3d d2 8e bc 2b d1 b1 bd
       0.0016122223 -0.057411414 -0.017434234 -0.08682474

fc3.bias f4 [5]
000000 f3 70 6e 3c df 27 97 bd fa fa 70 bd 66 e5 44 3d
       0.014553296 -0.07380652 -0.0588331 0.048070334
000010 ec 93 ad bd
       -0.084754795
