dynamics/src/drl/outputs/RobotOptEnv/20220721-144936/models/dqn_checkpoint.pth (torch, 81735 bytes, 6 tensors)

fc1.weight f4 [128, 9]
0.033747714 0.0946918 -0.24830756 0.084818244 -0.21347003 0.22060463 0.092482135 -0.12672405
0.18485531 -0.18358967 -0.0028142533 -0.024922848 -0.10393878 0.1649017 -0.03905944 0.10990524
-0.21421906 0.1610483 0.022721251 -0.18262145 0.2680497 0.20801458 -0.24490695 0.15440278
-0.23776436 -0.14829004 -0.11204823 0.06547654 -0.012263179 -0.054874342 0.03527367 -0.21271333
0.2567765 0.075128004 -0.3107452 -0.28148586 -0.32915053 0.19071448 -0.070643626 -0.19544244
-0.069773875 -0.011440238 0.3324817 -0.13145027 0.32132384 -0.07371287 0.23718004 -0.24975578
0.19950545 0.23637664 0.20088272 -0.12605564 -0.0533278 0.21447627 0.041113656 0.2768126
0.23479328 0.2934215 0.3240846 -0.0892487 -0.29149902 -0.26270247 -0.33296892 0.040738463
0.1378092 -0.06540787 -0.27518186 0.0075114965 -0.23299381 -0.02513504 -0.27823514 -0.27507803
0.118774496 0.020196915 -0.21996698 -0.104924046 -0.0038450956 0.17431013 -0.25690854 0.24983454
-0.1513389 -0.10811965 0.24175215 -0.3060264 -0.13340728 -0.20588768 0.14133069 0.14615409
-0.0133207245 0.26508376 -0.30220813 -0.057272673 0.011779031 0.31385466 0.17390081 0.19579463
-0.054182015 -0.15744662 -0.19413674 -0.32894537 0.22265244 -0.04609307 -0.23651004 0.15862083
-0.28276905 0.0067121983 0.07691459 -0.030504426 -0.2715469 0.11381575 0.26014864 -0.000645121
-0.110060975 -0.32679567 -0.28078097 -0.3256936 -0.03961162 -0.11311158 -0.25470862 0.11316681
0.09263035 -0.019030571 0.2894072 -0.16195068 -0.20243403 0.3217053 -0.021203559 0.12973294
0.2194345 0.28935513 -0.059739195 0.04793068 -0.06498965 -0.30719286 0.19273564 -0.05543069
0.13533938 -0.15848482 -0.12897734 0.11691682 0.027950883 -0.25026053 -0.22432888 0.021400016
0.3266101 0.10303613 -0.22655809 -0.19952428 0.005062461 0.28512785 -0.18651688 0.21050012
0.22182946 -0.32776344 0.13683626 0.14798114 -0.12293808 0.030310512 -0.2887705 0.33024582
-0.27532035 -0.23950958 -0.06399584 -0.20639837 -0.034656208 -0.20306683 -0.2677606 0.118909284
0.32967734 0.2616408 -0.16630566 0.120382905 -0.015608589 -0.09079945 -0.25447738 0.02684645
-0.007239382 0.14819372 0.2821108 -0.100131154 0.21105349 -0.32226342 -0.1998136 0.09551009
0.25133502 0.09974309 -0.077702284 0.23908743 -0.15360336 -0.08852943 -0.25152278 0.3279462
0.06605928 -0.14551139 0.32030362 -0.24812937 0.063469455 -0.21781993 0.063692495 -0.14916277
-0.263339 0.23996823 0.24810986 0.013233066 -0.19631939 -0.23455307 -0.07805022 -0.23520327
0.043477576 0.13651066 0.22708914 -0.31566375 0.09935753 0.28208596 -0.22151089 -0.20593607
0.14195538 -0.33197063 -0.10300009 -0.01456221 0.1882616 -0.023914933 0.067553364 -0.0683622
0.22843993 0.20151326 0.12334359 -0.11890908 -0.19140677 -0.032075327 -0.29570478 0.26721895
-0.08967428 0.20284402 0.070134364 -0.01581192 -0.19310729 0.24603045 0.042826694 -0.11227286
-0.18342397 -0.12196811 -0.18831441 -0.0486302 -0.25404045 -0.2684234 -0.10905588 -0.07420008
-0.27749133 -0.024613064 -0.16109519 -0.1497988 -0.046941042 -0.30686373 -0.20598285 0.18002324
00000000: 0b3b 0a3d c6ed c13d 5644 7ebe 30b5 ad3d
00000010: e397 5abe 2ee6 613e 4667 bd3d f3c3 01be
00000020: b64a 3d3e eefe 3bbe 566f 38bb 002b ccbc
00000030: dbdd d4bd fedb 283e cbfc 1fbd 0016 e13d
00000040: 3e5c 5bbe d8e9 243e eb21 ba3c 1e01 3bbe
00000050: cf3d 893e c601 553e e3c8 7abe c31b 1e3e
00000060: 8078 73be 58d9 17be 8b79 e5bd 9018 863d
00000070: 80eb 48bc ebc3 60bd 207b 103d 86d1 59be
00000080: 3678 833e b6dc 993d ff19 9fbe ea1e 90be
00000090: 6b86 a8be a84a 433e 9bad 90bd 1022 48be
000000a0: 9be5 8ebd d66f 3bbc 0b3b aa3e e69a 06be
000000b0: 8f84 a43e c6f6 96bd 53df 723e fbbf 7fbe
000000c0: 284b 4c3e b80c 723e 33b4 4d3e bb14 01be
000000d0: 406e 5abd ab9f 5b3e cb66 283d 62ba 8d3e
000000e0: a66d 703e 583b 963e 6bee a53e 06c8 b6bd
000000f0: 5c3f 95be f080 86be e77a aabe 60dd 263d
00000100: db1d 0d3e 90f4 85bd a3e4 8cbe 0023 f63b
00000110: ee95 6ebe 00e8 cdbc d674 8ebe 07d7 8cbe
00000120: 0b40 f33d 0074 a53c 063f 61be 6be2 d6bd
00000130: 00fe 7bbb 5b7e 323e 8489 83be a0d4 7f3e
00000140: 96f8 1abe d66d ddbd e08d 773e 7eaf 9cbe
00000150: eb9b 08be 38d4 52be feb8 103e 6ba9 153e
00000160: 2b3f 5abc 0fb9 873e 06bb 9abe c096 6abd
00000170: d6fc 403c 8fb1 a03e 0e13 323e 637e 483e
00000180: f6ed 5dbd b039 21be c8cb 46be 876b a8be
00000190: 00ff 633e 16cc 3cbd b02f 72be 806d 223e
000001a0: 1bc7 90be 00f2 db3b 6685 9d3d 6be4 f9bc
000001b0: 3208 8bbe 3b18 e93d 3432 853e 561d 29ba
000001c0: a667 e1bd c351 a7be 86c2 8fbe 50c1 a6be
000001d0: cb3f 22bd 0ba7 e7bd 2b69 82be 00c4 e73d
000001e0: fbb4 bd3d 00e6 9bbc 2e2d 943e 66d6 25be
000001f0: de4a 4fbe 8fb6 a43e 16b3 adbc b6d8 043e
00000200: 70b3 603e 5b26 943e 16b1 74bd f652 443d
00000210: 4b19 85bd 6248 9dbe 7e5c 453e 4b0b 63bd
00000220: 6896 0a3e d849 22be a312 04be 1672 ef3d
00000230: 40f9 e43c 2622 80be 78b6 65be 164f af3c
00000240: 7039 a73e 9b04 d33d d8fe 67be 1850 4cbe
00000250: 00e3 a53b 47fc 913e 48fe 3ebe 588d 573e
00000260: 4327 633e 9cd0 a7be ce1e 0c3e 5e88 173e
00000270: f6c6 fbbd c04d f83c bad9 93be fb15 a93e
00000280: caf6 8cbe 0042 75be 4010 83bd 185a 53be
00000290: abf3 0dbd c0f0 4fbe eb17 89be b686 f33d
000002a0: 78cb a83e c8f5 853e 084c 2abe 508b f63d
000002b0: 2bbb 7fbc 10f5 b9bd dc4a 82be 16ed db3c
000002c0: 5638 edbb 18c0 173e d470 903e 9011 cdbd
000002d0: 681e 583e b6ff a4be f09b 4cbe cb9a c33d
000002e0: fcae 803e 1b46 cc3d 6022 9fbd 56d3 743e
000002f0: 334a 1dbe eb4e b5bd 98c7 80be 90e8 a73e
00000300: 164a 873d f000 15be d6fe a33e a015 7ebe
00000310: 46fc 813d 300c 5fbe 3671 823d 20be 18be
00000320: 5fd4 86be 3bba 753e 8310 7e3e 80cf 583c
00000330: f307 49be ae2e 70be cbd8 9fbd 20d9 70be
00000340: 8b15 323d 73c9 0b3e 0e8a 683e ae9e a1be
00000350: f67b cb3d 926d 903e c0d3 62be e8e0 52be
00000360: c05c 113e 0ef8 a9be b6f1 d2bd 5696 6ebc
00000370: a6c7 403e 40e9 c3bc 6b59 8a3d 7b01 8cbd
00000380: 28ec 693e 7e59 4e3e 909b fc3d 9b86 f3bd
00000390: 2300 44be 6b61 03bd 9e66 97be ecd0 883e
000003a0: 26a7 b7bd 58b6 4f3e 9ba2 8f3d 0088 81bc
000003b0: ebbd 45be 68ef 7b3e 0b6b 2f3d 50ef e5bd
000003c0: 7ed3 3bbe 6bca f9bd 7ed5 40be 7630 47bd
000003d0: 9711 82be cb6e 89be b058 dfbd 36f6 97bd
000003e0: 5813 8ebe 56a1 c9bc 23f6 24be db64 19be
000003f0: 4045 40bd 3e1d 9dbe 2bed 52be 0358 383e

fc1.bias f4 [128]
0.3259977 -0.10294604 0.02746427 -0.18018901 -0.2969776 -0.17645347 0.2535283 0.050600212
-0.060912095 0.16540727 -0.30946273 -0.23915486 -0.19770679 -0.10109548 0.18914935 0.09243798
-0.15830967 -0.19619736 -0.2511743 0.06454321 -0.2631664 -0.31170875 -0.24489903 0.0014988582
-0.021592539 -0.22157964 -0.23265211 -0.28217483 -0.2736759 -0.23121977 -0.124119565 -0.15054242
-0.2555617 0.07926357 0.31399676 0.32114184 0.02478095 -0.18140244 -0.29824 -0.2467796
0.08111632 -0.28973597 -0.3099715 0.22772364 -0.004717271 -0.08255947 0.30951878 -0.07203349
-0.23347542 -0.31135714 -0.11511946 0.14555225 0.067856155 -0.1959692 0.092694804 0.14545044
0.26446915 -0.23653595 -0.159515 -0.20866176 -0.14220902 -0.14517312 0.31996572 -0.105853245
0.2956124 -0.12991755 0.25688872 -0.26788217 -0.2863582 0.027704518 -0.16100204 -0.21056592
0.041334152 0.26696286 -0.17186837 0.13218892 -0.19770941 -0.16159086 0.15239637 0.028765958
0.055918932 -0.22958335 -0.13958845 0.03168094 0.20074698 -0.05389929 -0.12853634 -0.080950856
-0.23591249 0.22516792 -0.21758172 0.07901629 0.0037833056 -0.25848103 -0.08910613 -0.19886145
0.13672921 0.13166949 0.03739941 0.19966559 -0.1822133 0.24678048 0.1266993 0.22765443
-0.03440094 0.24529731 -0.3111232 -0.200062 0.23721537 0.10756632 -0.029472273 0.09251499
-0.059368096 -0.121345006 -0.27393183 -0.10418551 -0.07909505 -0.24216986 -0.32199746 -0.25560325
0.1370295 0.26612633 0.031322323 -0.120312534 -0.08602222 -0.1519067 0.27385384 -0.007665992
00000000: 2ce9 a63e 60d5 d2bd c0fc e03c 7883 38be
00000010: 730d 98be 38b0 34be 76ce 813e 2b42 4f3d
00000020: f67e 79bd 8660 293e e671 9ebe 03e5 74be
00000030: a673 4abe 260b cfbd 5eb0 413e 2050 bd3d
00000040: ee1b 22be f6e7 48be eb99 80be 3b2f 843d
00000050: bfbd 86be 4a98 9fbe d0c6 7abe 5675 c43a
00000060: d6e2 b0bc c6e5 62be 5b3c 6ebe 3879 90be
00000070: 3f1f 8cbe e0c4 6cbe 6632 febd cb27 1abe
00000080: fcd8 82be f054 a23d 2fc4 a03e b46c a43e
00000090: 6b01 cb3c 90c1 39be eab2 98be cbb3 7cbe
000000a0: 5020 a63d 4658 94be 96b4 9ebe 6330 693e
000000b0: 5693 9abb f014 a9bd 3f79 9e3e 4b86 93bd
000000c0: 2e14 6fbe 346a 9fbe c0c3 ebbd a60b 153e
000000d0: 2bf8 8a3d 26ac 48be c6d6 bd3d f6f0 143e
000000e0: 8068 873e 7b36 72be e657 23be 6eab 55be
000000f0: 3e9f 11be 43a8 14be 8cd2 a33e 96c9 d8bd
00000100: 825a 973e 1b09 05be eb86 833e da27 89be
00000110: 8b9d 92be 96f4 e23c b8dd 24be 989e 57be
00000120: 004e 293d 5baf 883e 43fe 2fbe 885c 073e
00000130: 5674 4abe 1378 25be cb0d 1c3e 96a6 eb3c
00000140: 400b 653d e617 6bbe 46f0 0ebe e0c3 013d
00000150: 9e90 4d3e 80c5 5cbd 089f 03be 90c9 a5bd
00000160: 0b93 71be 6b92 663e becd 5ebe 4bd3 a13d
00000170: 56f1 773b a057 84be 467d b6bd 56a2 4bbe
00000180: be02 0c3e 5ed4 063e 2030 193d 2375 4c3e
00000190: 2096 3abe 06b4 7c3e 76bd 013e 3e1e 693e
000001a0: 00e8 0cbd 382f 7b3e 8a4b 9fbe 0edd 4cbe
000001b0: 96e8 723e bb4b dc3d d66f f1bc 8078 bd3d
000001c0: f62b 73bd bb83 f8bd cb40 8cbe 365f d5bd
000001d0: 96fc a1bd 60fb 77be dadc a4be 6ede 82be
000001e0: 7651 0c3e b641 883e d64b 003d 6b66 f6bd
000001f0: 6b2c b0bd 6e8d 1bbe 9236 8c3e 0033 fbbb

fc2.weight f4 [128, 128]
-0.021271504 -0.03887674 0.0046691014 0.018048713 -0.07436819 0.07700222 0.037150804 0.04215674
-0.048283104 -0.06099814 0.030220164 -0.07047863 -0.043795202 0.02812789 -0.009446352 0.050031226
-0.07595805 0.08297318 -0.058362048 0.079319976 0.039339025 0.004305332 0.043492816 -0.0029298381
0.00050544605 -0.047694247 0.006673279 0.021180708 -0.025454462 0.088190764 -0.016951526 0.050736554
0.07116784 -0.042522483 -0.08633068 -0.06096372 0.0845097 0.01340039 -0.066937245 0.054359067
-0.051528737 -0.08298412 0.030789295 0.038654234 0.025882611 0.035494525 0.08414243 -0.05587436
-0.05630172 0.054671068 -0.08469599 -0.07859929 0.029206965 -0.054244604 0.019939937 0.0353197
-0.086810455 0.05375254 -0.020664895 -0.0013899187 0.04309222 -0.026884736 0.015906168 0.046255186
0.009638268 -0.052955333 -0.05751973 0.0169742 0.027444268 0.034290716 0.025255287 -0.007743577
-0.07112724 -0.021060737 -0.086334005 0.0784085 0.08104668 0.04155573 0.018531442 -0.06378287
-0.035862226 -0.031794045 -0.03816516 0.0071290866 0.031785466 -0.0042997478 0.07029393 -0.043968424
-0.07713587 -0.026832854 -0.06363941 0.07311672 -0.010632901 -0.05319558 -0.003676343 0.008887706
-0.05025824 -0.015732102 -0.036944937 -0.070533276 0.06570251 0.08201249 0.013945802 0.08098681
0.036366407 -0.0018219028 -0.052579045 -0.02285317 0.05834702 -0.03926789 -0.01742355 0.018011425
-0.03632541 -0.08255171 0.039460104 0.06505271 -0.024508655 -0.008072891 0.03148774 0.058035493
-0.021430787 0.02608188 -0.015039017 -0.044529103 -0.009394838 0.023880308 -0.020527422 -0.030834613
0.040672403 -0.0538595 -0.05664983 -0.073039316 0.05472941 -0.07726359 0.06290219 -0.031014053
0.03784966 -0.016787954 0.07621267 0.06692282 0.021773778 0.08276837 0.060071692 -0.047875512
-0.069149576 -0.05506608 -0.02649669 -0.06488167 -0.05637992 0.039257765 -0.055661645 0.028695913
0.050572455 0.06001236 -0.012452792 0.0769859 0.0015046741 -0.022440447 0.046986096 0.037150256
-0.046316277 -0.006611755 0.08626397 0.044276487 0.043819223 -0.06456725 0.013885216 -0.04169435
0.087980814 -0.06438249 0.024058739 -0.0616868 -0.040144734 0.055556625 0.033319265 0.07113646
-0.0118546225 -0.07855861 -0.075763635 0.086974256 0.011428982 0.06287209 -0.004052177 0.083763
0.056252524 0.051177032 0.016150514 -0.05830381 0.050526496 -0.014910311 0.0073613157 -0.06399437
-0.0856029 0.05981135 0.034934625 0.04965532 0.072261214 -0.06454013 0.031301357 0.01855496
0.07467341 0.047574867 -0.07596672 0.06528081 -0.037921406 -0.015553367 0.01377653 -0.03891925
-0.061467785 0.0345348 -0.07229392 -0.032831173 -0.05515521 -0.021510487 -0.016419863 0.039131936
-0.01682615 -0.01991821 -0.027859299 -0.05619574 -0.073795505 0.05396004 0.06775024 -0.08079374
0.058281653 0.031777523 -0.08259954 0.067682095 -0.065688826 0.056288138 -0.017364206 0.0828232
-0.037181392 -0.06033154 0.013643019 0.06518244 -0.06996642 0.039376535 0.050113603 -0.06391818
0.012314456 0.030301476 -0.04499545 0.07748856 -0.04278086 -0.0008052471 0.032644726 0.08193597
0.07057771 -0.023166236 -0.042471893 -0.019338112 0.06803151 0.055211294 -0.0009277048 -0.032745592
00000000: 9441 aebc 373d 1fbd 43ff 983b e5da 933c
00000010: 594e 98bd 57b3 9d3d 712b 183d 8cac 2c3d
00000020: 81c4 45bd 30d9 79bd 4790 f73c 1a57 90bd
00000030: 9962 33bd 766c e63c dfc4 1abc 8bed 4c3d
00000040: e58f 9bbd d8ed a93d 0b0d 6fbd 8372 a23d
00000050: f521 213d be13 8d3b 8625 323d 8702 40bb
00000060: e97f 043a 0b5b 43bd 86ab da3b 2a83 ad3c
00000070: e085 d0bc 5c9d b43d eddd 8abc 22d1 4f3d
00000080: 72c0 913d 0e2c 2ebd 24ce b0bd 18b5 79bd
00000090: 6c13 ad3d 4f8d 5b3c 6516 89bd 9da7 5e3d
000000a0: cc0f 53bd 94f3 a9bd d539 fc3c e753 1e3d
000000b0: c507 d43c b562 113d de52 ac3d 83dc 64bd
000000c0: a29c 66bd c5ee 5f3d 1775 adbd aaf8 a0bd
000000d0: 7243 ef3c 972f 5ebd 1459 a33c 64ab 103d
000000e0: aec9 b1bd a02b 5c3d 6d49 a9bc ef2d b6ba
000000f0: 7881 303d 613d dcbc a74d 823c 1476 3d3d
00000100: d3e9 1d3c b1e7 58bd cf99 6bbd 7a0d 8b3c
00000110: cdd2 e03c 6c74 0c3d 2de4 ce3c d5bd fdbb
00000120: 29ab 91bd 9187 acbc e2cf b0bd a394 a03d
00000130: cdfb a53d 5736 2a3d 40cf 973c 98a0 82bd
00000140: 45e4 12bd 793a 02bd 1253 1cbd 1d9b e93b
00000150: 7a31 023d e6e4 8cbb 44f6 8f3d 3c18 34bd
00000160: 69f9 9dbd 93d0 dbbc 6155 82bd 38be 953d
00000170: 9f35 2ebc 9ce3 59bd cdee 70bb be9d 113c
00000180: 96db 4dbd 9ce0 80bc 9353 17bd c073 90bd
00000190: 0a8f 863d 2af6 a73d ef7c 643c 6adc a53d
000001a0: f1f4 143d eacc eeba 205d 57bd 9236 bbbc
000001b0: 49fd 6e3d 5ed7 20bd d5bb 8ebc b28c 933c
000001c0: f4c9 14bd df10 a9bd eba0 213d 5b3a 853d
000001d0: 60c6 c8bc 2944 04bc 4af9 003d a0b6 6d3d
000001e0: 9e8f afbc aba9 d53c 3666 76bc 2664 36bd
000001f0: ceec 19bc a3a0 c33c 2029 a8bc df98 fcbc
00000200: 1b98 263d c79b 5cbd a709 68bd a395 95bd
00000210: f22b 603d 603c 9ebd ddd2 803d 2f11 febc
00000220: 3f08 1b3d e486 89bc 6315 9c3d d50e 893d
00000230: ec5e b23c 7782 a93d bc0d 763d 1d19 44bd
00000240: 4b9e 8dbd f88c 61bd 960f d9bc aee0 84bd
00000250: a2ee 66bd c0cc 203d 77fd 63bd b113 eb3c
00000260: 1025 4f3d 85cf 753d cc06 4cbc c9aa 9d3d
00000270: 7c38 c53a 07d5 b7bc 7e74 403d de2a 183d
00000280: 23b6 3dbd 6ca7 d8bb 2aab b03d 435b 353d
00000290: c97b 333d d63b 84bd d17e 633c b2c7 2abd
000002a0: 492f b43d f8da 83bd d516 c53c 4cab 7cbd
000002b0: ce6e 24bd 588f 633d c879 083d feaf 913d
000002c0: e439 42bc 56e3 a0bd f729 9bbd 8f1f b23d
000002d0: a040 3b3c 15c3 803d 20c8 84bb f08b ab3d
000002e0: 0c69 663d 029f 513d 154e 843c facf 6ebd
000002f0: dff4 4e3d 614a 74bc 3137 f13b 7b0f 83bd
00000300: 9350 afbd bffc 743d 9c17 0f3d 6063 4b3d
00000310: b0fd 933d 9e2d 84bd da35 003d 9200 983c
00000320: 5fee 983d dddd 423d 7194 9bbd f2b1 853d
00000330: 7a53 1bbd 8dd3 7ebc f4b6 613c cb69 1fbd
00000340: a5c5 7bbd 5d74 0d3d d60e 94bd fb79 06bd
00000350: 6eea 61bd c336 b0bc f382 86bc cf48 203d
00000360: fed6 89bc 842b a3bc 2f39 e4bc 812d 66bd
00000370: 1922 97bd 3405 5d3d a3c0 8a3d 3077 a5bd
00000380: beb8 6e3d 2629 023d f329 a9bd e99c 8a3d
00000390: dd87 86bd 648e 663d 613f 8ebc 369f a93d
000003a0: 844b 18bd 341e 77bd f886 5f3c 5f7e 853d
000003b0: 8e4a 8fbd 4a49 213d ec43 4d3d 89e7 82bd
000003c0: 92c2 493c cd3a f83c 264d 38bd 52b2 9e3d
000003d0: fc3a 2fbd 3817 53ba 7ab6 053d 0cce a73d
000003e0: 0c8b 903d 1ec7 bdbc 02f7 2dbd f66a 9ebc
000003f0: 1b54 8b3d 3d25 623d 3731 73ba 3e20 06bd

fc2.bias f4 [128]
-0.02166547 0.086940855 0.07609356 -0.0025258816 0.0006133209 0.08699668 -0.029544866 -0.055470068
0.035655558 -0.023013433 -0.06647623 0.07255337 -0.01928861 0.018217037 -0.038855504 0.07365232
0.07217612 -0.07799102 0.07924811 -0.032439385 0.057733025 -0.07291372 -0.0017583243 -0.08032334
-0.0052081705 -0.010847377 0.02493338 0.057890475 -0.047603 -0.010172068 -0.07872224 -0.01657509
-0.06563488 0.0651682 0.00075418624 -0.06295795 0.057090815 -0.05281689 0.04834529 0.010877659
0.013237008 -0.06152833 0.083247 -0.03700411 -0.02825531 -0.08577585 -0.023935247 0.0023129769
0.021130491 -0.008700247 0.012643749 0.052287254 0.055726353 0.0676055 -0.026462393 0.05726784
0.039312925 -0.010853108 -0.040022288 0.043262612 0.028027432 0.029249122 0.013715301 0.08224442
0.045425493 -0.011618611 0.06580031 -0.06083006 -0.03829608 0.042481735 -0.04087356 0.08505108
-0.03506391 0.0018113662 -0.06345996 -0.012936606 -0.046849247 -0.010054299 -0.012744522 0.08770407
-0.0465327 0.017673975 -0.058175515 -0.0035550338 0.039314106 -0.013509877 0.047534857 -0.063576505
0.04817838 -0.027540637 0.04368941 0.014772123 -0.048212 -0.08443201 -0.06462973 0.036741745
0.039385892 -0.054047473 -0.048447244 -0.00659065 -0.005361722 -0.065938175 0.07013366 -0.07873345
0.04255314 0.06546922 -0.07018213 0.031243289 0.06209783 -0.055669326 0.05405313 0.088054135
-0.05390563 -0.08157801 -0.06499187 -0.07658016 0.068777904 -0.03773202 0.029423589 -0.017710464
0.056185383 0.015856413 0.06927952 -0.04498881 -0.067240186 0.05990949 0.02983116 -0.0114385495
00000000: c97b b1bc 0c0e b23d f1d6 9b3d 4389 25bb
00000010: 45c7 203a 512b b23d 1308 f2bc 9534 63bd
00000020: 900b 123d ab86 bcbc b124 88bd dc96 943d
00000030: 2603 9ebc e53b 953c f326 1fbd 07d7 963d
00000040: 13d1 933d c2b9 9fbd d54c a23d 29df 04bd
00000050: 7779 6c3d ca53 95bd 9377 e6ba 9080 a4bd
00000060: 4da9 aabb 32b9 31bc 1641 cc3c 901e 6d3d
00000070: 5dfb 42bd bfa8 26bc 2039 a1bd 7cc8 87bc
00000080: 946b 86bd e876 853d 95b4 453a 19f0 80bd
00000090: 0fd8 693d 8656 58bd b605 463d 3538 323c
000000a0: 09e0 583c 2105 7cbd 677d aa3d 9f91 17bd
000000b0: ae77 e7bc 40ab afbd da13 c4bc 5095 173b
000000c0: da19 ad3c 7b8b 0ebc ba27 4f3c 292b 563d
000000d0: 5141 643d c174 8a3d a9c7 d8bc af91 6a3d
000000e0: 9706 213d 3cd1 31bc 69ee 23bd 2334 313d
000000f0: c999 e53c db9b ef3c 24b6 603c c36f a83d
00000100: 1510 3a3d fd5b 3ebc 50c2 863d f128 79bd
00000110: 5adc 1cbd 5401 2e3d 096b 27bd 432f ae3d
00000120: 2d9f 0fbd 5d6b ed3a 4cf7 81bd 0ff4 53bc
00000130: ffe4 3fbd c9ba 24bc 66ce 50bc 319e b33d
00000140: 1399 3ebd 03c9 903c 7349 6ebd 92fb 68bb
00000150: d407 213d 8858 5dbc e9b3 423d 6634 82bd
00000160: b156 453d e79c e1bc abf3 323d c606 723c
00000170: f279 45bd b1ea acbd 985c 84bd 837e 163d
00000180: 1a53 213d e260 5dbd 9e70 46bd 61f6 d7bb
00000190: 62b1 afbb 980a 87bd 3da2 8f3d 013f a1bd
000001a0: 344c 2e3d ba14 863d a6bb 8fbd edf1 ff3c
000001b0: 4b5a 7e3d 8505 64bd d166 5d3d ba55 b43d
000001c0: 26cc 5cbd 5f12 a7bd 751a 85bd 0fd6 9cbd
000001d0: 6edb 8c3d e48c 1abd bd09 f13c 8915 91bc
000001e0: a522 663d 4fe5 813c 6ce2 8d3d 3046 38bd
000001f0: 39b5 89bd a763 753d 7a60 f43c c168 3bbc

fc3.weight f4 [16, 128]
0.007790244 0.076599665 -0.0027175446 -0.06545369 -0.08599767 -0.08157132 -0.06366725 0.0070425486
0.018606178 0.056976594 0.016977066 0.041569803 0.03577927 -0.01863957 0.043827306 -0.05391826
0.024124097 0.040853456 -0.022809474 0.007255085 0.020644559 0.03530295 0.079394154 -0.028117374
-0.08691325 0.014679578 0.014994963 -0.04558508 -0.019661663 0.06981897 -0.015804278 -0.07804968
-0.042152666 -0.0096092075 0.085019454 0.039580304 0.048647568 0.021672985 0.08231457 -0.0828852
0.046315204 -0.025902167 0.07828786 0.020481713 -0.06617912 0.048814647 0.01272172 -0.07650047
-0.05388956 -0.037943196 0.07094064 0.045019355 0.0051446445 0.019449411 -0.06813023 -0.06969535
0.0018700346 0.054813948 0.08497762 0.015358406 0.047817875 -0.057643265 -0.015491506 -0.017672122
-0.027282424 0.004840365 0.02541477 -0.038205527 -0.02385422 0.016209025 -0.076790206 0.030028796
-0.04185599 -0.036120493 0.0029060356 -0.06343842 -0.06838077 0.059676617 0.005731002 0.052867383
-0.013396987 -0.022581523 0.08639106 -0.07463263 -0.05919547 0.02186569 0.08288436 0.0594609
0.015041841 -0.05696078 0.018355848 0.05606992 -0.0723692 -0.053526107 0.041774247 0.031066304
-0.068381555 -0.0030657724 -0.011403904 -0.029932555 -0.050305422 -0.0022966554 0.08316686 0.0522921
-0.05293703 0.04640209 0.021337831 -0.06957829 -0.017856607 -0.043201678 -0.009031574 -0.035350215
0.05950565 0.050101403 -0.07868018 -0.016362881 0.05289025 -0.0871041 0.031388465 0.019268326
-0.084468216 -0.011422754 0.027810387 -0.06353848 -0.044654522 -0.03173922 -0.012617628 -0.026446968
0.016176667 0.06994446 0.06911124 0.053590056 0.0704328 0.014293956 0.08355398 -0.05138415
-0.043864165 -0.012137987 0.007102007 -0.035823934 0.0532301 0.066200726 0.037385676 -0.061448988
0.08664766 -0.06441043 0.0038626005 0.07361602 -0.0819137 0.04307408 0.081073225 -0.060461845
-0.07894636 0.054401223 -0.014355027 0.032821152 0.034134384 0.054166034 -0.05107274 -0.04948727
-0.041497227 -0.0711405 -0.017225564 -0.036566343 0.062355757 0.006759764 -0.02540296 -0.07533902
0.008076084 0.024743762 -0.07328094 0.06983663 0.036797497 -0.08555147 0.023815835 0.064754404
0.039327204 0.036540505 0.058228884 -0.05878324 -0.04190579 0.054822817 0.015936987 0.021250399
-0.04182376 -0.0017812417 -0.00025430354 0.015522969 -0.03927746 0.041591354 0.068476245 0.045048553
-0.07261905 -0.078267336 0.06703927 -0.05672406 0.023848403 0.042552397 -0.05075159 -0.033782847
-0.03367457 0.00960848 -0.011744988 0.011503003 0.045379143 -0.07018959 -0.051965356 0.08155401
0.018000012 -0.085023984 -0.030053359 -0.028001618 -0.0561767 -0.02735773 0.049146228 -0.07568474
0.042887338 -0.060480695 0.067353964 -0.08328197 0.03361249 0.07718932 0.07844577 0.058372796
-0.054038253 -0.01071021 -0.08005957 0.030505098 -0.044947937 0.011066961 -0.079642124 0.009129471
0.034145154 -0.005096629 -0.046963643 -0.018710714 0.042248264 0.03933127 -0.081440724 0.08811471
-0.053464413 0.07278496 -0.052924544 -0.07814698 -0.0033001509 0.049730837 0.085856356 0.005184115
0.087222606 0.06044272 0.07447857 0.00097294943 -0.039774623 0.003377543 0.02981214 -0.08411274
00000000: 4e45 ff3b 49e0 9c3d d518 32bb 960c 86bd
00000010: 8c1f b0bd dd0e a7bd fa63 82bd 2ec5 e63b
00000020: fc6b 983c 4a60 693d 7d13 8b3c 1945 2a3d
00000030: 498d 123d 03b2 98bc 4384 333d 65d9 5cbd
00000040: e69f c53c f455 273d efda babc 10bc ed3b
00000050: c71e a93c d399 103d 6799 a23d 6856 e6bc
00000060: 93ff b1bd 9d82 703c 6fad 753c 6cb7 3abd
00000070: 7f11 a1bc 40fd 8e3d f977 81bc 83d8 9fbd
00000080: 46a8 2cbd f06f 1dbc ae1e ae3d f51e 223d
00000090: ac42 473d 8b8b b13c 8b94 a83d b7bf a9bd
000000a0: 03b5 3d3d c830 d4bc 6355 a03d 44c9 a73c
000000b0: eb88 87bd def1 473d c36e 503c 47ac 9cbd
000000c0: 4dbb 5cbd 536a 1bbd 5449 913d 3766 383d
000000d0: 6894 a83b 5f54 9f3c dd87 8bbd 70bc 8ebd
000000e0: f31b f53a 9784 603d bf08 ae3d d3a1 7b3c
000000f0: addc 433d 581b 6cbd 16d0 7dbc 20c5 90bc
00000100: 647f dfbc ed9b 9e3b a332 d03c 667d 1cbd
00000110: ed69 c3bc cac8 843c 2f44 9dbd f3fe f53c
00000120: 3071 2bbd 15f3 13bd 3073 3e3b 01ec 81bd
00000130: 380b 8cbd 786f 743d 21cb bb3b 788b 583d
00000140: 097f 5bbc e3fc b8bc cced b03d fed8 98bd
00000150: f376 72bd ad1f b33c 46bf a93d 468d 733d
00000160: 0e72 763c b54f 69bd 015f 963c 93a9 653d
00000170: 4e36 94bd 313e 5bbd 791b 2b3d c37e fe3c
00000180: a10b 8cbd 20eb 48bb 71d7 3abc 1e35 f5bc
00000190: 0f0d 4ebd 7c83 16bb 6353 aa3d 3e30 563d
000001a0: 80d4 58bd 1e10 3e3d adcc ae3c 107f 8ebd
000001b0: 0548 92bc 3ef4 30bd 2bf9 13bc 63cb 10bd
000001c0: 32bc 733d 2137 4d3d 1323 a1bd 730b 86bc
000001d0: 72a3 583d a263 b2bd 3191 003d 9cd8 9d3c
000001e0: acfd acbd 8126 3bbc 9cd2 e33c 7620 82bd
000001f0: a9e7 36bd fc00 02bd 2bba 4ebc 50a7 d8bc
00000200: ee84 843c 0b3f 8f3d 328a 8d3d 3f81 5b3d
00000210: 123f 903d 3231 6a3c 591e ab3d 3078 52bd
00000220: e9aa 33bd 68de 46bc f4b7 e83b 1ebc 12bd
00000230: ce07 5a3d 3f94 873d b921 193d efb1 7bbd
00000240: 5474 b13d 9ee9 83bd af23 7d3b ffc3 963d
00000250: 5fc2 a7bd 726e 303d b809 a63d d7a6 77bd
00000260: a1ae a1bd d1d3 5e3d 5931 6bbc 796f 063d
00000270: 7fd0 0b3d 34dd 5d3d a631 51bd 2ab3 4abd
00000280: fff8 29bd 1cb2 91bd a01c 8dbc 97c6 15bd
00000290: c068 7f3d 0381 dd3b de19 d0bc 584b 9abd
000002a0: 8d51 043c 6eb3 ca3c 5114 96bd 8206 8f3d
000002b0: f9b8 163d 9c35 afbd 6d19 c33c f59d 843d
000002c0: 9015 213d 7fab 153d 6981 6e3d b2c6 70bd
000002d0: 68a5 2bbd e48d 603d 498e 823c 5115 ae3c
000002e0: 644f 2bbd 8e78 e9ba 0b54 85b9 0d54 7e3c
000002f0: 67e1 20bd b25b 2a3d 463d 8c3d d584 383d
00000300: 4cb9 94bd a04a a0bd e34b 893d 7d57 68bd
00000310: ba5d c33c 6c4b 2e3d e6e0 4fbd e25f 0abd
00000320: 59ee 09bd e36c 1d3c 0d6e 40bc 1777 3c3c
00000330: 7bdf 393d 8fbf 8fbd a0d9 54bd ca05 a73d
00000340: c374 933c 0e21 aebd 7632 f6bc a663 e5bc
00000350: 8a19 66bd 511d e0bc 8e4d 493d 9a00 9bbd
00000360: a2aa 2f3d 9bba 77bd e0f0 893d bd8f aabd
00000370: 40ad 093d 6f15 9e3d 2da8 a03d 5018 6f3d
00000380: 3757 5dbd e079 2fbc 46f6 a3bd d4e5 f93c
00000390: 541b 38bd 3352 353c 691b a3bd c793 153c
000003a0: cadb 0b3d 9f01 a7bb f35c 40bd 3647 99bc
000003b0: 840c 2d3d d319 213d 65ca a6bd 7c75 b43d
000003c0: 80fd 5abd 4810 953d 68c7 58bd 860b a0bd
000003d0: 5847 58bb 90b2 4b3d 75d5 af3d 82df a93b
000003e0: c4a1 b23d c992 773d 3888 983d 880d 7f3a
000003f0: b7ea 22bd c559 5d3b 9738 f43c 4d43 acbd

fc3.bias f4 [16]
0.022275694 0.017736658 -0.033888604 0.04382131 0.061378464 0.0017133958 -0.018419005 -0.008057034
0.06296868 0.061279092 -0.086637974 -0.04167201 -0.03303722 -0.054221075 0.013574309 -0.074315935
00000000: 847b b63c 784c 913c c7ce 0abd f97d 333d
00000010: fc67 7b3d 0694 e03a 74e3 96bc a601 04bc
00000020: b9f5 803d c9ff 7a3d 406f b1bd 45b0 2abd
00000030: 0952 07bd eb16 5ebd c766 5e3c f432 98bd
