dynamics/src/drl/outputs/RobotOptEnv/20220721-162751/models/dqn_checkpoint.pth (torch, 81303 bytes, 6 tensors)

fc1.weight f4 [128, 9]
00000000: 8640 1ebe d64c 13bc 53e1 973e 6a65 843e
00000010: 56ba 803b f63d 3cbd d6c6 74bd eede 8ebe
00000020: 16c7 313e 97bd 123e 947c 4c3e 7924 dbbd
00000030: 93f7 823e b4df a8be 6abc 673e 909f cebc
00000040: 31c1 1b3e 1271 e1bd 1059 383e 2f4e 93be
00000050: 96f3 0ebd 8b89 653e 9e16 7dbe 3fda 823e
00000060: c096 c23c 18be 56be 9607 c53d bff3 acbe
00000070: c297 e43c e39e 8b3c 84c2 223e 1082 103e
00000080: f2e0 06be 44e5 a83c b168 803d d568 43be
00000090: 8772 debd 4d8b afbd 271b 473d c5a4 7abe
000000a0: a2fb bbbc cdd1 69be aff5 493e d91f 303d
000000b0: 4fc2 413e 9ba1 40be 96e6 7b3e 2b21 5d3c
000000c0: b6af 08be c00d b6bd ebec a93d b079 233e
000000d0: e677 d8bd 8e7b 8fbe 10d1 eebd 960b 48bd
000000e0: e80d 25be d6c1 64bd b6c9 73bd f0b1 b7bd
000000f0: 487f 1e3e 6ba2 e7bd e012 20be 7adb 903e
00000100: 7fe5 ea3b e571 0e3b 746e 19bd c55b 2b3e
00000110: 826f 653e 5678 80bc 205b 2d3d 062b b7be
00000120: 468e 5bbe 72c5 c83d d183 9f3d a852 d13c
00000130: f49b edbd e9a6 c83d c7bb f6bd d3da 14bb
00000140: baa7 2bbe 47ba 973e 7020 67be d075 c8bd
00000150: a685 e6bd 801a d63d 8b5a 423e 48d1 1bbe
00000160: ab7d 31be 00f8 813a 3ddf a6bd 4122 953d
00000170: 8107 363d c51d b83d 0243 cebd 84c5 da3d
00000180: 029a 1bbe d87a 8a3e ef92 a53e d066 4b3e
00000190: b777 fd3b ecdd 763e b4a6 693e d72f 1d3d
000001a0: 2fcc 8fbe 788a 9b3d c240 783e ef6f 8b3e
000001b0: 0729 2a3e 3cc1 7ebe ccb3 673e bed3 88be
000001c0: 68b5 5fbe b445 61be cb14 523e c37d 393e
000001d0: 55b4 97be 19e9 63bd 7a6b 03be 80e6 8ebe
000001e0: d8da 833d 07eb 933e 3b18 3b3d a9ae 513e
000001f0: e1d5 1c3e 2248 11be ee51 363e ebe1 87be
00000200: c004 abbd b0d0 92be a360 093e a6c9 9c3d
00000210: 6818 4e3e c0b4 e5bc 6695 f8bd 4e8e c0bc
00000220: 837e d53d bc5d 6cbe a188 b13e 4aae 823e
00000230: 837c 11be 4720 f23d 1fdd 1f3e a02a 11be
00000240: 671e e0bd 0d36 673e d3aa ef3d ba55 06be
00000250: 96f1 69be d5c1 813d 203d 6dbe ed69 553e
00000260: feef 50bc 2606 6fbc e323 9cbe 5bac 423e
00000270: 14c4 a1be 395e 20be a123 8f3e 76d4 83be
00000280: 0085 d83d dbf0 75be 56af ac3c 36d3 99bd
00000290: b082 36be 9355 e4bc 2a53 9f3e 4464 5f3e
000002a0: 5ff3 2cbe 93f2 ee3c ca60 9f3e 48ff 243e
000002b0: 7208 a2be 03b3 2bbe 1657 e73c 60ea 73be
000002c0: c62f d43d 1037 fcbd 3b78 70be 3b51 5dbe
000002d0: 476b 48be 6e0d 2abe da6b d5bc 53ef f93d
000002e0: 6273 6fbd 15dd 44be 46bc 233e 6352 4c3e
000002f0: 1581 0cbe ce3d 51be 80e4 1abe ab7d 093c
00000300: 739b 6e3e 667d b93d 8ed1 6f3e 16fa 47bd
00000310: eb37 cbbc 44f3 863e 861f 3abe c61d d4bd
00000320: 86b2 9cbd 2092 823d 8041 1d3c 06e4 d23d
00000330: 065b 033e e00f 31be 1600 ba3d dfab 823e
00000340: cb47 973e c60c 303e 4fc9 833e 2bc6 d43c
00000350: 76de 31be b233 a93e aa7d a1be 77b9 93be
00000360: 1062 81bd 8b3f 5a3d e683 4ebe cef7 9e3e
00000370: e862 943e 58f6 a73e 5e6c 083e 7655 91be
00000380: 0695 683e 261f 80bc adcf 14be f3c3 b63d
00000390: 8934 3ebe fadc a1be c8c0 8ebe 2856 c1bd
000003a0: 9a36 c03d d673 b6bd e461 3a3e 13bb 1abe
000003b0: 1156 35bd d064 f7bd 29a4 493e 5398 843e
000003c0: f11c 6fbe ba55 993d d290 ebbd 8a03 403d
000003d0: c3f5 6cbe 5bfd 8c3e 3028 893e b49b 25be
000003e0: 470c bbbd ac5f 803e 742a ee3d 4b65 913e
000003f0: 9e26 903e 7eba 283e 7b32 a33e 20c3 9f3d
-0.15454301 -0.008990487 0.29664096 0.25858623 0.003928463 -0.045957528 -0.059759937 -0.27904457
0.17361102 0.14330135 0.19969398 -0.10700316 0.2557951 -0.32983172 0.22630468 -0.02522257
0.15210415 -0.110078946 0.18002725 -0.28770587 -0.03490027 0.2241575 -0.24715659 0.25557134
0.023753524 -0.20970953 0.096205875 -0.33779714 0.027904395 0.017043537 0.15894514 0.14112115
-0.13171747 0.020617135 0.06269968 -0.19082959 -0.10861688 -0.085714914 0.04860988 -0.24476917
-0.022947136 -0.22833939 0.19722627 0.042999122 0.18921779 -0.18811648 0.2459968 0.013496677
-0.13348278 -0.08889341 0.08297142 0.15964389 -0.10569744 -0.28023952 -0.11660969 -0.048839174
-0.16118586 -0.05584892 -0.05951854 -0.08969486 0.15478241 -0.11310276 -0.156322 0.28292447
0.0071684713 0.0021735367 -0.037458852 0.16734226 0.22405818 -0.01568238 0.04232323 -0.35775012
-0.21440992 0.09803285 0.07788814 0.025552109 -0.11602011 0.097974606 -0.120475344 -0.0022713437
-0.16763201 0.29634306 -0.22570968 -0.09788096 -0.1125596 0.10454273 0.18979852 -0.15216553
-0.17333095 0.0009915829 -0.08148048 0.07281924 0.04444075 0.08990053 -0.100713745 0.10682204
-0.15195468 0.27046847 0.32338664 0.19863439 0.0077352184 0.24108094 0.22817498 0.0383757
-0.28085467 0.0759477 0.24243453 0.27233836 0.16617213 -0.248784 0.22627181 -0.26724046
-0.21846545 -0.21999246 0.20515744 0.1811438 -0.2962977 -0.05564222 -0.12833968 -0.27910233
0.064382255 0.2889025 0.045677405 0.20476784 0.15315963 -0.14187673 0.17804691 -0.2653955
-0.08350515 -0.2867484 0.1341577 0.07655649 0.20126498 -0.02804029 -0.121378705 -0.023505356
0.10424521 -0.23082632 0.34674552 0.25523597 -0.14207654 0.11822563 0.15611695 -0.14176416
-0.10943299 0.22579212 0.11702504 -0.1311864 -0.22846064 0.06335799 -0.23167849 0.20841189
-0.012752531 -0.014588868 -0.3049613 0.19011061 -0.31594908 -0.15660943 0.2795687 -0.25748032
0.10572243 -0.2401766 0.0210797 -0.075109884 -0.17823291 -0.027872836 0.31118137 0.21815592
-0.16889714 0.029168403 0.31128532 0.16113007 -0.31647068 -0.16767506 0.028239768 -0.23819876
0.103606746 -0.1231519 -0.23483364 -0.21613018 -0.19572173 -0.16606686 -0.026052404 0.122038506
-0.058459647 -0.19224961 0.1598979 0.19953303 -0.13721116 -0.20433733 -0.15126228 0.008391778
0.23301487 0.09057121 0.23419783 -0.048822485 -0.024806937 0.26357472 -0.18176088 -0.10357241
-0.07651238 0.063755274 0.009598136 0.10297398 0.12827691 -0.17291212 0.09082048 0.25521752
0.2954696 0.17192373 0.25739524 0.0259734 -0.17370018 0.33047253 -0.31541187 -0.28852436
-0.06317532 0.053283256 -0.20167503 0.31048435 0.2898171 0.32805133 0.13322589 -0.28385514
0.22713098 -0.015639853 -0.14532347 0.08924093 -0.18574728 -0.31613904 -0.27881455 -0.09440261
0.093854144 -0.08908813 0.18201405 -0.15110426 -0.044271532 -0.12079775 0.19691528 0.25897464
-0.23350884 0.07487054 -0.11502232 0.046878375 -0.23140626 0.27537045 0.26788473 -0.16172677
-0.09133201 0.25072992 0.11629191 0.28397593 0.28154463 0.16477391 0.3187445 0.07800889

fc1.bias f4 [128]
00000000: 3758 8e3e 99f4 d7bd e66a a8be ef6c 13be
00000010: a3e0 12be 8ba3 973e 56e2 22bc f93f 47be
00000020: b5d4 613e 7020 5cbe 3131 523e 99d8 81be
00000030: a699 45be 97af a83d 4814 5ebe 6ff8 d8bd
00000040: c75a a43d b61b 243e b175 5cbe 6cb0 80be
00000050: ce0d b1bd a3d0 95be 5646 113e 6024 343e
00000060: da84 a83e cc08 683e 7531 563e deca ecbc
00000070: 766f 34be 9701 e43d 2d01 c4bd 1640 cdbc
00000080: f63a b43d 5641 56bb c0db a1bd 17b6 1a3e
00000090: cc99 93be 50a0 a53e 788c 87be 7093 26be
000000a0: 327a 10be 4b50 f93d 3f02 913e 1606 3c3e
000000b0: 16b2 d13c 0636 69be 336a 753e f33a 37be
000000c0: a503 943e aef5 723e 936c 62be 2b5f 17bd
000000d0: d030 8f3e ba4d 813e 8018 1bbc 858b 763e
000000e0: 7492 9fbe 5281 89be d637 61be b9a2 523e
000000f0: 7e9b 193e 1286 9abe 00b1 98bd b902 9abe
00000100: 9bd7 47be d61f e0bd 07b5 9dbd 2592 a5be
00000110: b34c 323e 80c1 743d b336 28be 8f5e 5f3e
00000120: 969c 22be 2be9 5e3e 9ba3 e13d 803f 483d
00000130: c828 233e eb0e 65be 0085 8fbc 44e4 febd
00000140: ab85 73bd f612 7e3d d85a a9be f9d1 c1bd
00000150: 10ee a1bd 9130 3bbd 0fb2 273e 0b29 993e
00000160: 9bd7 80bd 31cf 2e3e b360 07be a068 91be
00000170: c3f6 623d 061f 5e3e 71d1 a2be ab46 2fbd
00000180: 59c5 713e 2799 1b3e 55f7 443e 78e3 01be
00000190: 1654 85be df9c 4f3e 06a6 babd 1217 a93d
000001a0: 2f6a 093c 1232 8a3d cee2 56be 3aca 423e
000001b0: 00e7 21bc bcc5 83bc 86f3 ba3d e5f5 8b3e
000001c0: ab59 ecbc 991a f2ba 13f4 3d3e 1d7d 1c3d
000001d0: 8196 b9bd 11f3 0d3e 6679 213e ae59 b0bd
000001e0: 4cc1 8dbe b600 063e dedd 253e 6b82 bc3c
000001f0: 0631 01be 3e9c 3d3e 00dc 75bb d6b9 13be
0.27801678 -0.105447 -0.32894057 -0.14397024 -0.14343505 0.2961696 -0.009941658 -0.19457997
0.22053798 -0.21496749 0.20526578 -0.25360563 -0.19296893 0.08236616 -0.21687424 -0.1059426
0.08025127 0.16026196 -0.2152927 -0.251346 -0.08645211 -0.2926074 0.14186987 0.17592001
0.32913858 0.22659606 0.20917304 -0.028905328 -0.17620644 0.11133116 -0.09570537 -0.025054973
0.088003084 -0.0032692752 -0.07903242 0.15108524 -0.28828275 0.3234887 -0.26474357 -0.1626718
-0.14109114 0.12173518 0.28322026 0.18361697 0.025597613 -0.22774515 0.23966293 -0.17893581
0.2890903 0.23726532 -0.2211173 -0.036955994 0.27966928 0.25254613 -0.0094662905 0.2407666
-0.31166422 -0.26856476 -0.21993956 0.20569886 0.15000722 -0.30180413 -0.07455635 -0.30080202
-0.1951584 -0.10943572 -0.07700544 -0.32338062 0.17412071 0.05975485 -0.16427116 0.21813415
-0.15880045 0.21768634 0.110175334 0.048888683 0.15933526 -0.22368972 -0.017519474 -0.12445882
-0.059453648 0.0620298 -0.3307712 -0.09463877 -0.07906735 -0.045700613 0.16376518 0.29914126
-0.062911235 0.17071225 -0.13220482 -0.28400135 0.05541111 0.21691522 -0.31800416 -0.042792004
0.23610438 0.15195142 0.19234975 -0.12684429 -0.26040715 0.20274685 -0.09113698 0.082563534
0.008387133 0.067478314 -0.20984957 0.19022456 -0.009881735 -0.016085498 0.0912848 0.2733604
-0.02885135 -0.0018471061 0.18550138 0.038205255 -0.090619095 0.13862254 0.15768966 -0.08610855
-0.27686536 0.13086209 0.16197917 0.023011407 -0.12616357 0.18516633 -0.0037515163 -0.1442636

fc2.weight f4 [128, 128]
00000000: 7615 1fbb f82a a7bd e620 90bc 32b2 083d
00000010: ca63 833d 9134 4fbd 0a22 ab3d dbf9 82bc
00000020: 648a 3ebd 43c4 a73d ed05 173d 73e6 98bd
00000030: fabd afbd d2d2 973d 8fa0 c13c 70fd b23d
00000040: a25b 943c ee70 54bd 9cc6 a2bd b5b9 8c3d
00000050: f4c3 a93d b1f0 b1bd 47b5 6dbd 028f 29bd
00000060: 59c6 1bbd 8609 1cbb 1d60 433d bcf5 45bd
00000070: 17d1 4bbd 4fdb a7bd 5995 193d fa02 edbb
00000080: 9874 9b3d f942 823d d11b 3e3c d3f2 78bc
00000090: c617 873c 109b 12bd 029e 54bd b05a 61bd
000000a0: d745 863d b8bb 1fbd 63a7 a4bc ae3c a2bd
000000b0: b08d 19bd e379 74bd 6657 493d 5a91 7f3d
000000c0: 034e 72bd bd14 223d ddee 3a3a 4e9b 903d
000000d0: 54c2 e2bc fa56 98bd 04d1 9fbd 4ada ab3d
000000e0: a415 7bbc db94 863d 2343 013d 9e98 19bd
000000f0: de1f dabc d6f4 33bd 14a9 453d b869 933d
00000100: 1db9 93bd 2042 b2bd 0228 02bd b4ee 74bd
00000110: e5be c63c 6538 7e3d bb4b 963d d684 8ebd
00000120: ecfb ad3d 3169 813b 2847 9dbd c94f 893d
00000130: 5c8d 9bbd 9822 70bd e8e2 113c d48a aebc
00000140: c37d 79bd 93ca 22bc 61a4 a43d e137 f13c
00000150: 5906 3a3d 59a6 4a3d ae3f 98bc 9b68 1ebd
00000160: 9ab4 ce3b ad1b ffbb 6510 abbd 68bf 3d39
00000170: c9ef 05bd 6e21 6c3d 6012 693b e629 933c
00000180: f6f1 9c3c 5cc1 f2bc cf67 ba3b b75f 28bd
00000190: 5951 463d 02ee 91bd 5882 8bbd 040d 8abd
000001a0: d8c3 adbc 4bac 96bd e21e 783d a8ff 69bd
000001b0: 3eb7 06bd 7f1c 173d e64b a1bc 226f 363d
000001c0: 2fab 143c 9c83 07bd a90a 0bbd 526c b43d
000001d0: 9b84 3b3d 89c6 38bd 806a 08bc 43ad 9b3d
000001e0: 9a6a 10bd f824 a23d d4e1 9a3d a0a5 aebd
000001f0: 9c83 9abd ce28 a7bd 0250 a13b 24a5 8dba
00000200: ea7d 863c f2f0 933d f7fb 9c3d cfc6 6cbd
00000210: 93e1 15bc a907 2c3d 1333 923d d7a0 cf3c
00000220: 501c 4ebc 7ec2 f5bc e671 5f3c e50b a1bd
00000230: 0309 0fbd 565e 8dbd 0228 e13c 5af1 a43d
00000240: 88a1 7cbc b8dc a3bd 8616 c7bc a29c ff3b
00000250: 2712 8e3d 974e 583b ecc2 b4bc 2e2b 113d
00000260: c589 edba e9f4 663d 6183 94bd a87c 3d3d
00000270: bdb4 01bd 44b0 883d bd1c 323c aba4 46bd
00000280: e561 2e3d 9868 533d 213c 9dbd d99c a43d
00000290: f83f 57bd e046 44bc 95b3 9fbd 393b 91bd
000002a0: 2633 663d 5960 23bc 3a09 8d3a ec49 cdbc
000002b0: ea0e 31bd 63e1 a9bd 78e1 e5bc 8c4b 29bc
000002c0: 49f3 8d3d 1f59 ab3d a5ed 193d c39f 483d
000002d0: c7a7 303c 68bd a63d 8568 65bd ff16 353d
000002e0: 48a9 913d b9b3 913d f06f 473d 2fc4 a3bd
000002f0: 269d 1dbc 6450 a13d aa72 133d 5ab5 05bc
00000300: 590b fabc 6446 023d 56c6 99bd 8374 5b3d
00000310: 75bf c4bc a40a 653d 032b 7abd 19b1 0cbd
00000320: edda 4ebd 183d a5bc 30c9 303d de33 9ebd
00000330: d9d2 6fbd 5d27 663c 97a6 48bd aa47 ab3d
00000340: 9642 f43b dd85 ad3b f0e1 733d e09d bbbd
00000350: 559d 653d 4105 43bd e155 e3bc e39d ad3d
00000360: 8f3a 63bd f914 893d d6cf a2bc a95e 983d
00000370: ef0c 89bd 275c b9bd ef10 1c3d 35ef 47bd
00000380: 29e5 2e3d 06fc 16bd d2de 84bd 8d2e 87bd
00000390: 67e5 76bc f28d 863d 0905 a03d e689 203d
000003a0: b10e 28bc 1d0e 7bbd 971e 97bd 814c 663d
000003b0: 76fd c4bc 6c04 aabd 8856 91bd 3a39 8fbc
000003c0: c058 ab3d 22c5 97bd e4aa 963d eed3 22bc
000003d0: e71f 7a3c f0e7 b4bd 2d9e 323d c42c 21bd
000003e0: 1d18 dabc ff79 3b3d 4697 acbb bf41 05bd
000003f0: 6612 913c 38c0 c13d 54d9 17bd 3442 933c
-0.0024274266 -0.081624925 -0.017593812 0.033373065 0.06415518 -0.05058724 0.08356102 -0.015988281
-0.0465187 0.08191731 0.036870886 -0.0746583 -0.08581157 0.07413258 0.02363613 0.087397456
0.0181101 -0.05186551 -0.07948038 0.06871358 0.08289328 -0.08688486 -0.058034208 -0.04139615
-0.038030956 -0.0023809387 0.047699083 -0.048330054 -0.04975995 -0.08196127 0.037495945 -0.007233021
0.07590598 0.0636043 0.011603312 -0.015194613 0.016490828 -0.03579241 -0.0519085 -0.055018127
0.0655629 -0.038997382 -0.020099347 -0.0792173 -0.03748864 -0.059686553 0.049155615 0.062394477
-0.05915643 0.03957056 0.00071309303 0.07060872 -0.027680553 -0.074384645 -0.078035384 0.08391245
-0.015324984 0.06571361 0.031558167 -0.037499063 -0.026626524 -0.043934666 0.04825695 0.071978986
-0.07213042 -0.087040186 -0.031776436 -0.059797958 0.024260947 0.0620655 0.07338663 -0.0695893
0.08495316 0.0039493074 -0.076795876 0.06704671 -0.075953215 -0.05862674 0.008904196 -0.021306433
-0.06091095 -0.009935993 0.08039165 0.02944559 0.04541621 0.049475048 -0.018585052 -0.03867398
0.0063081505 -0.0077852816 -0.083527364 0.00018095749 -0.03269938 0.05764907 0.003556393 0.017964315
0.019158345 -0.029633217 0.0056886445 -0.041106906 0.048417423 -0.071254745 -0.068119705 -0.06740764
-0.02121155 -0.07357081 0.060576327 -0.05712858 -0.032889597 0.03689241 -0.019689512 0.04453958
0.0090740165 -0.033084497 -0.033945713 0.08809723 0.04578076 -0.045111213 -0.008326173 0.076014064
-0.035257913 0.079172075 0.075626045 -0.08527684 -0.07544634 -0.0816208 0.0049228678 -0.0010806662
0.016417462 0.07223691 0.07665246 -0.057806786 -0.009148019 0.041999493 0.07138648 0.02534525
-0.012579992 -0.029999968 0.013637995 -0.07863597 -0.034920704 -0.06902759 0.027484898 0.08053847
-0.015419371 -0.08001083 -0.024302732 0.0078006545 0.06937056 0.0033005828 -0.022065602 0.03544157
-0.0018122724 0.05638591 -0.07251621 0.04626146 -0.031666506 0.06674245 0.01087111 -0.048496883
0.04257383 0.05161342 -0.07677484 0.08037729 -0.05255124 -0.011979789 -0.077979244 -0.07091374
0.056201123 -0.009971702 0.0010760196 -0.025059663 -0.043227114 -0.08294942 -0.028061613 -0.010332953
0.069311686 0.08366608 0.03758015 0.048980486 0.010782189 0.08141595 -0.05600788 0.044211384
0.07112366 0.071143575 0.048690736 -0.079964034 -0.009619987 0.078766614 0.035998024 -0.008160913
-0.03052299 0.03180541 -0.07508533 0.05357791 -0.024017075 0.05591835 -0.061076175 -0.03434858
-0.050501753 -0.020170733 0.043160617 -0.07724737 -0.05855069 0.014047471 -0.048986997 0.08363278
0.0074542267 0.0052954988 0.059541643 -0.09160972 0.056058247 -0.047612432 -0.027750911 0.0847738
-0.055475768 0.06693453 -0.019874495 0.0743993 -0.0669192 -0.0905078 0.038102087 -0.04881211
0.042699013 -0.036861442 -0.06487812 -0.06600676 -0.015069342 0.06570043 0.078134604 0.03919401
-0.010257409 -0.061292756 -0.073788814 0.056225304 -0.02404664 -0.08301625 -0.07096583 -0.017483342
0.08366537 -0.07410647 0.073568135 -0.009938223 0.015266395 -0.08833301 0.04360788 -0.039349332
-0.026622826 0.04577064 -0.0052670566 -0.032533403 0.017708968 0.09460491 -0.037072495 0.017975904

fc2.bias f4 [128]
00000000: 23bf c23c ce29 88bd cf6f aebd aabc a0bc
00000010: c49a ecb9 a134 b63c f230 b3bd 994e 2fbd
00000020: 687d 273d dbb9 83bc d1d3 25bd 98ea 89bd
00000030: ae0e 6abc 5dee 7d3d 6c81 2f3d af2d e7bc
00000040: b7d5 1dbd def6 6c3b 048c 6cbd 0e78 bdbc
00000050: f686 5ebb 2185 433c 6b2b 1ebd 3127 023d
00000060: 5ade b7bc 7ba6 a4bd 3461 853d 0050 3ebd
00000070: 84b8 f7bc fedd 8a3c 097e 3f3d 2932 593d
00000080: 25fe 34bc 36cd 6d3d c8c7 41bb ea08 fe3c
00000090: 6e8d 9e3c b3a3 7cbb e871 2ebd 8b9a a5bc
000000a0: c40d 4e3d 7616 ee3c f2cb 9fbd bddf 273c
000000b0: 6ebc dabd 5340 663d 6726 2bbd 9b9c ab3d
000000c0: c6d6 e53c 8baa 2d3d b0fd 603d 4e8e 9f3d
000000d0: 06e9 6e3b a329 97bd c148 303d 8b4d 43bd
000000e0: 96af eabc 1ed7 973c 0fbb 393c 522a bbbd
000000f0: bd93 0339 e055 6f3c 2f89 a73d 63b1 063d
00000100: 3074 9a3b 85b6 76bd e504 65bd c7e9 e1bc
00000110: c718 b8bc 40da 51bd 576b aa3d 801f 72bd
00000120: 93a6 a3bc 3f2e 90bc 0721 30bd f524 73bd
00000130: 74cb 533d c676 523d 39df 833c 57ed f53b
00000140: c7d9 3abd 5be8 383c 0c97 d3bd b3a5 583d
00000150: 05f5 27bd 8d43 69bc 79f7 a9bd 0135 a43d
00000160: 81e1 91bd 5f6b 8b3d b47c 26bd a9e8 143c
00000170: 452c 68bd 64a7 0bbd bdc1 693b 7d0c acbd
00000180: f67b e4bb 5534 683d 746a c8bd a652 1d3d
00000190: 43c3 f63c 9692 0abe 53e3 27bd 8bda 9bbc
000001a0: b182 f6bc aba8 3bbd d7e4 45bc 62b7 833b
000001b0: e848 063d 9fa7 953c 08f5 42bd 5805 fd3c
000001c0: 2bd6 6d3b 1514 91bd 12a4 56bd e130 223d
000001d0: 789b 85bd 9de3 a73d b801 e4bb 99b1 9abd
000001e0: 03a6 3ebc 2bd5 b8bd 8ebd 2b3c 1253 afbd
000001f0: bbe5 2d3d 3009 6fbb 6543 9e3d 3e4c 6d3d
0.023772782 -0.066485986 -0.085174195 -0.019621212 -0.00045128737 0.022241892 -0.0874957 -0.042799566
0.04089108 -0.016079834 -0.040485207 -0.06734198 -0.0142857265 0.0619949 0.042848036 -0.028220026
-0.038533892 0.0036157886 -0.057750717 -0.023128536 -0.0033954955 0.011933596 -0.038615625 0.031775657
-0.022444893 -0.08039566 0.06512681 -0.046463013 -0.030239351 0.016951557 0.046751056 0.053026352
-0.011046921 0.058057033 -0.0029568542 0.03101011 0.019354548 -0.003854972 -0.0425891 -0.020215293
0.050306097 0.029063445 -0.07802571 0.010246214 -0.10680471 0.056213688 -0.04178467 0.083794795
0.028056514 0.04239897 0.054929435 0.07790814 0.003645481 -0.073809884 0.043038134 -0.047681373
-0.028648179 0.018535193 0.011336102 -0.09138931 0.0001254817 0.014607877 0.081804626 0.032884013
0.0047135577 -0.060232658 -0.05591287 -0.027577294 -0.022472752 -0.05123353 0.08321255 -0.059112072
-0.01997689 -0.017600177 -0.043000247 -0.059361417 0.0517077 0.051382802 0.016097652 0.0075050998
-0.045617845 0.011285867 -0.10331544 0.052892398 -0.041005153 -0.014237297 -0.08299155 0.08017922
-0.071230896 0.06807589 -0.04064627 0.009088674 -0.056682844 -0.034095183 0.0035668456 -0.084008195
-0.006972785 0.056690533 -0.09785929 0.038408898 0.030122405 -0.1353248 -0.040988278 -0.019025108
-0.030091615 -0.04581515 -0.012078485 0.0040196637 0.032784373 0.018268405 -0.04759696 0.030886337
0.0036290984 -0.070839085 -0.052402563 0.039597396 -0.06523794 0.08197711 -0.0069582127 -0.07553405
-0.01163626 -0.090250336 0.010482205 -0.08560766 0.042455416 -0.0036473982 0.07727698 0.05793404

fc3.weight f4 [16, 128]
00000000: 3845 24bd 2fe1 073e 69bd b0bd d540 5c3e
00000010: 9584 0f3d 051d 3abd c9b3 5e3d 8a7a 59bd
00000020: c03b ec3b f2b9 8f3d 4e92 9c3c bf12 bd3c
00000030: 62c3 a7bd 0d5e 073e 2af4 8e3d eb78 aebd
00000040: 74bd 4a3d e002 bd3b 9243 70bd 0e70 82ba
00000050: 889b fa3d fb1f c9ba f12f 7ebd 57bf dd3d
00000060: 895a 8c3d ecd2 fe3c ae10 793d c57c b7bc
00000070: 600b 0cbc 0a5e 863d a0e4 0c3e f5a4 883d
00000080: f9b1 6fbc d752 863d 3849 9ebd 3a39 093e
00000090: 15de b4bd fd9b 0abd 7f15 38bd 9af5 b6bb
000000a0: be6c 8e3d ab12 f53b faeb 37bd 9714 733d
000000b0: 2e59 883d b70b f83d 3d49 b3bc 795b 02bd
000000c0: e9c5 723d a79c a8bd 5ffb 173e eac1 81bd
000000d0: 24f4 113c b51a 023e af38 043c 98a1 d73c
000000e0: 983a bf3d 809d 993d b1a1 4fb9 3960 d13d
000000f0: a146 403c a9d4 9abd ff91 b53c d1cd 713d
00000100: 9adc af3d a8c4 563d f665 6b3d b783 623d
00000110: e605 8bbc 9797 af3d 7a9c cd3c 7da5 d03d
00000120: 34cd 48bc e872 a23d 841d 11bd a33b 073e
00000130: 5772 90bd bf4a b2bd 8836 25bb 4911 08bd
00000140: 8088 333d b562 ad3d e202 173e 0fa9 b13d
00000150: 211f 9cbd 3881 963d 816b 413c b3c2 06bd
00000160: 2b3c bd3d 9217 003e 1a1c 873d 9d76 3d3d
00000170: 78c3 6cbc 24a8 b43d 79a8 043d 848b 23bd
00000180: f74e b73b 4a2d 003a 74e3 bf3d 1850 823d
00000190: 40a7 c9bc 25fc 5c3e 0178 28bd 71d0 b2bd
000001a0: c079 da3d d39c 823c d6b8 9ebd e56a af3d
000001b0: e608 133e a8c2 b43d b860 cb3c 8ac2 813d
000001c0: a112 a43d b4d1 6bbd 8a5a 4e3d 4d33 803b
000001d0: ce83 b93d 9d88 073d a4be 85bb aa74 88bd
000001e0: 98f3 40bd cbb8 813d cb5a 60bd 42af edbc
000001f0: 76e9 a83c 211c e73d 3377 97bd a163 ed3c
00000200: e34d 10bd e4d6 663c 773f a73d b0a7 ca3c
00000210: 2a94 833d 6a21 45bc 1048 603d fb48 1bbd
00000220: 6578 1a3d a26d 2fbc cf1c 913d 54a2 353d
00000230: 3106 41bd 8cf8 493d b0e0 3fbd abb0 55bd
00000240: 3129 a83d f42a aa3d 0075 d3bc 8f0e 833d
00000250: fe8b 843b 366a 993c f169 09bc 2875 e93d
00000260: ee93 9f3d 0fac 6b3d 694f a4bd 1678 883d
00000270: 2397 9dbd facd 0d3c b871 de3d 2803 d3bb
00000280: fd87 1f3d 27c7 a73d 6453 6cbc 82f3 e83c
00000290: 91bf 813c 093e a9bd 2eef 68bd d363 e13b
000002a0: f846 9a3d 2dfc 9f3c ef7d 2c3b 01ed 8f3d
000002b0: 372f f0bc 6eee 63bd 1bc4 cbbc 2ab2 b63a
000002c0: d175 a1bc 8767 ab3d c577 a63c c7a2 a43d
000002d0: 1855 66bd a571 843d b79c dd3d 3d6b e7bc
000002e0: 75c6 bd3d bf2e cc3c 663b dbbc d74e 3bbc
000002f0: 7599 a1bc 1a6c 263d 0376 febc 06e0 5ebd
00000300: fb89 2ebd 695d f73c b521 953d 8846 6a3d
00000310: 8a16 df3c 08cd 43bc e475 7ebd 413e 8a3d
00000320: ecb5 4dbd b4b4 d83c f9f5 943d e8d7 d53d
00000330: 81c3 9abd c358 07bb d56d 6cbd 0a08 a63d
00000340: c9c7 5ebd 75b4 12bd 84d1 8f3d d4dd 98bd
00000350: 9c24 773d a6db 573c 9e1b a23d 8167 523c
00000360: 0770 1d3d 1530 c33d 432e 6d3d 6033 653d
00000370: 18f8 55bd bbe2 24bd 800b 99bd 211a 7abd
00000380: ce1d 8cbd 3b8f a9bc 0987 7b3c 5dee 87bd
00000390: 861b 2ebd cffb c53d b705 a43d 066a 00bd
000003a0: 7893 033e 0e3c 23bd 73dc 68bd ad05 5d3d
000003b0: cd1e b5bc 5e55 2d3d 3e72 fd3c 17f2 e93c
000003c0: 69e1 023e 5e55 123d 0def 353c 5460 773d
000003d0: 0e4b 1bbd d6a9 adbd 2143 8dbd e9cb 053d
000003e0: 7f00 59bd 527b e03d 5ade a33d 7e21 ea3b
000003f0: a825 9f3d edf0 783c fdf6 093d f005 803d
-0.040105075 0.13269494 -0.08629877 0.21509106 0.03503855 -0.04543783 0.054370675 -0.053095378
0.007209271 0.07017888 0.019112732 0.023080228 -0.08191563 0.13219471 0.06980164 -0.08519157
0.049497083 0.005768165 -0.05865819 -0.0009951608 0.122366965 -0.0015344614 -0.06205744 0.10827511
0.06853206 0.031106435 0.060806923 -0.022398362 -0.008547634 0.06560905 0.13759089 0.06672088
-0.014629834 0.06558769 -0.07728809 0.13400736 -0.08831421 -0.03384017 -0.044942375 -0.005583477
0.06954335 0.007479032 -0.04490278 0.059345808 0.06657635 0.121116094 -0.021885509 -0.031825516
0.059270773 -0.08233004 0.14841984 -0.06335814 0.008908305 0.127055 0.008070155 0.026322171
0.09337348 0.07500744 -0.00019801293 0.10223431 0.011735589 -0.07560093 0.022164343 0.059034172
0.08586998 0.05243364 0.057470284 0.055301394 -0.016970586 0.08573835 0.025099028 0.101878144
-0.0122559555 0.07932073 -0.03542854 0.13206343 -0.070530586 -0.08705663 -0.0025209505 -0.03321961
0.04383135 0.084660925 0.14747193 0.086748235 -0.07623125 0.07348865 0.011805416 -0.032900523
0.09239992 0.12508991 0.06597157 0.046255697 -0.0144509 0.08821133 0.03238723 -0.039927974
0.00559413 0.0004889561 0.09369555 0.06362933 -0.024615884 0.2158056 -0.04113007 -0.08731163
0.10667753 0.01594392 -0.077500984 0.085653104 0.14358863 0.0882619 0.024826393 0.063359335
0.08011366 -0.057573035 0.050379314 0.0039123655 0.09058343 0.03308927 -0.004081564 -0.06662877
-0.04710731 0.063340746 -0.054774087 -0.029014233 0.020619135 0.11284662 -0.07395782 0.02897817
-0.03523053 0.01408932 0.08166402 0.024738163 0.064247444 -0.012031892 0.054756224 -0.037911396
0.037712473 -0.010707291 0.07085573 0.04434426 -0.047125045 0.0493093 -0.046845138 -0.052170437
0.08210982 0.08308974 -0.025812626 0.06399261 0.0040450087 0.018727403 -0.008387075 0.11399299
0.07791887 0.057537135 -0.08022959 0.066635296 -0.07694843 0.008655066 0.10861534 -0.0064395852
0.038948048 0.08192282 -0.014424179 0.028436426 0.015838416 -0.082637854 -0.056868725 0.006878355
0.075330675 0.019529426 0.002632018 0.07027627 -0.029319389 -0.055647306 -0.024873784 0.0013938595
-0.0197095 0.08369356 0.020320782 0.0803886 -0.056233495 0.064669885 0.108209066 -0.028249377
0.09266368 0.024924634 -0.026761722 -0.011432371 -0.019726494 0.040630437 -0.031062132 -0.054412864
-0.042612057 0.030195909 0.0728182 0.05719617 0.027232427 -0.011950739 -0.062124148 0.06750155
-0.050222322 0.026453353 0.07273478 0.104415715 -0.07556821 -0.0020652271 -0.05772193 0.08107002
-0.05438975 -0.03581663 0.07022384 -0.07464185 0.060337648 0.013174927 0.07915424 0.01284206
0.038436916 0.09530655 0.057905447 0.0559572 -0.052238554 -0.04025529 -0.074728966 -0.061060075
-0.06841622 -0.02069818 0.015352019 -0.06637261 -0.042506717 0.09667169 0.080089025 -0.03135111
0.12849224 -0.039852194 -0.05685086 0.05396049 -0.022109414 0.04231774 0.030938264 0.02855782
0.127813 0.035725944 0.011104357 0.0603946 -0.037913375 -0.08479659 -0.068975694 0.032665167
-0.05297899 0.109610215 0.080013946 0.007145106 0.07770854 0.01519416 0.033682812 0.062511325

fc3.bias f4 [16]
00000000: 41a8 693d 1669 5c3e 296c 913c 124d b43d
00000010: 9343 483e 31ed 2b3e a55f 423e 067f e33c
00000020: 1ec6 433d aa20 c23d 269d a83d 7caf f43d
00000030: 8457 2e3e d057 aa3c 9efd 283d f0fc ed3d
0.057045225 0.21524462 0.01775177 0.088037625 0.19557028 0.167897 0.18981798 0.02777053
0.04779636 0.094788864 0.08233099 0.119475335 0.17025572 0.020793825 0.041257493 0.116205096
