dynamics/src/dynamics/outputs/DDQN_RobotOptEnv/20230129-115613/models/model_max_eps.pkl (torch, 80199 bytes, 6 tensors)

nn.0.weight f4 [128, 10]
-0.2074093 0.0285518 0.16546488 0.099421784 -0.19033955 -0.12364019 -0.0024696954 -0.23737743
-0.26076454 -0.14829388 -0.15803562 -0.21965308 -0.12211045 -0.038440563 0.023792718 -0.22544734
0.09751655 -0.24756385 -0.17019364 0.012735199 0.31127053 -0.23360507 0.19646917 -0.11191665
-0.2711963 -0.009051383 0.23298416 0.2037726 -0.14360914 -0.21817496 -0.016621063 -0.2722987
0.027198156 -0.31784576 -0.24972367 -0.21410285 -0.20495221 -0.031079456 0.1652057 -0.09114938
-0.43117824 -0.0270766 -0.067990154 0.5036449 0.35144925 0.7005831 -0.36321574 -0.54917526
0.12413822 -0.05348376 -0.13377641 0.15488485 0.077081725 0.6409392 0.220958 0.822204
-0.063801125 -0.41141295 0.18785635 -0.1428976 -0.22508521 0.26826283 -0.114744335 0.34949434
0.4805358 1.2947786 -0.26612857 -0.2810851 0.09346663 0.11377348 -0.2687512 -0.0072745783
-0.11189109 0.2535246 0.2743584 -0.06660313 -0.08003371 -0.23892593 -0.4885501 0.0178283
-0.13036975 -0.38749424 0.07192298 -0.06913946 -0.29493842 0.063557275 0.21989803 -0.04498409
0.23382948 -0.060604766 -0.01826173 -0.07088661 -0.1255236 -0.014803509 -0.1826147 0.17301124
-0.1388024 0.2807773 -0.029219715 0.0397948 -0.10282496 -0.04665954 0.11576192 0.58100504
0.14796846 0.5314932 -0.1425168 -0.2792145 -0.39834985 0.33650118 -0.11663405 0.329724
0.117664725 0.6458135 0.32318297 1.0452673 -0.057019167 -0.13400918 -0.023778513 -0.090721965
0.02639611 -0.26583254 0.1377333 -0.14037003 0.08070351 -0.043104876 -0.10868834 -0.2991182
-0.33013085 -0.0035947955 0.2462283 -0.023451617 -0.18233219 -0.35313416 0.010349308 0.04226348
0.34252852 0.17203838 -0.051261943 0.06345406 -0.07744744 0.2448322 -0.1520074 0.5930593
0.56607497 1.2786713 0.30311993 -0.31259832 0.30651125 0.1606687 -0.19967075 0.2828147
-0.17068549 0.4908617 0.70047235 0.8453778 0.2103554 -0.24206015 0.18142089 0.10157997
-0.2019055 0.14145508 0.3714307 0.083963536 0.70204693 1.3863893 -0.13028786 -0.5634158
0.22021794 0.406129 -0.6270291 -0.0107491715 0.06836031 0.09724812 0.20028591 0.70000076
-0.07298428 -0.5322723 0.12809181 -0.01753449 0.1559822 0.11689381 0.001425546 0.42891833
0.24904963 0.9834812 0.27364886 -0.33906886 -0.17303345 -0.26470035 -0.25999463 -0.15295424
0.19168866 -0.061931238 0.016620247 0.45019487 -0.08135343 -0.1484209 -0.38272274 -0.11002954
0.012868257 0.22230007 0.37863997 0.49609575 0.35487723 1.3978367 -0.15835084 -0.32057154
0.3484163 0.09865478 0.26491976 -0.26154965 0.23631014 -0.2202961 0.077604726 0.28385913
-0.17858402 -0.23738025 -0.35992998 0.045452822 -0.09080942 -0.064294994 -0.09582867 0.19508122
-0.23498593 -0.32227936 0.14808294 0.3890831 -0.0611814 0.042519424 0.057405505 -0.258121
-0.30108318 -0.14719713 -0.06367158 -0.1188738 -0.29243675 -0.1897859 0.1631717 -0.010788738
-0.2944873 -0.24508843 -0.044065338 -0.2106023 -0.27676937 0.16160035 0.24104731 -0.05521024
-0.06203198 0.09152083 -0.11425516 -0.25160447 0.027055344 -0.24364507 0.12608314 -0.28752849
00000000: 1b63 54be 77e5 e93c a06f 293e a69d cb3d
00000010: 5fe8 42be 1137 fdbd 9dda 21bb 1213 73be
00000020: ee82 85be 5ada 17be 17d4 21be bdec 60be
00000030: 0b15 fabd da73 1dbd f2e8 c23c abdb 66be
00000040: c2b6 c73d 6181 7dbe 3e47 2ebe 4ca7 503c
00000050: da5e 9f3e 2b36 6fbe 372f 493e 8e34 e5bd
00000060: 3eda 8abe 404c 14bc 6693 6e3e c4a9 503e
00000070: 460e 13be 4269 5fbe e528 88bc bc6a 8bbe
00000080: abce de3c aebc a2be 90b7 7fbe c73d 5bbe
00000090: fede 51be 589a febc af2b 293e 87ac babd
000000a0: 65c3 dcbe bfcf ddbc 6c3e 8bbd dfee 003f
000000b0: 28f1 b33e 6a59 333f 6af7 b9be c096 0cbf
000000c0: 2e3c fe3d ca11 5bbd affc 08be 229a 1e3e
000000d0: 06dd 9d3d 9714 243f d042 623e f67b 523f
000000e0: 2aaa 82bd b8a4 d2be 6a5d 403e c053 12be
000000f0: bd7c 66be bf59 893e 14ff eabd ecf0 b23e
00000100: ca08 f63e 4ebb a53f 0142 88be 63ea 8fbe
00000110: 6f6b bf3d 1202 e93d c299 89be 965f eebb
00000120: 2827 e5bd facd 813e b478 8c3e 3967 88bd
00000130: b7e8 a3bd 00a9 74be 3d23 fabe a80c 923c
00000140: a67f 05be a565 c6be 5b4c 933d fd98 8dbd
00000150: 2b02 97be 512a 823d f32c 613e 3d41 38bd
00000160: ff70 6f3e b43c 78bd a099 95bc 002d 91bd
00000170: 4289 00be 6b8a 72bc 59ff 3abe dc29 313e
00000180: 3722 0ebe 0bc2 8f3e 2f5e efbc dfff 223d
00000190: e595 d2bd 131e 3fbd 9614 ed3d bfbc 143f
000001a0: 0b85 173e f00f 083f edef 11be 34f5 8ebe
000001b0: 83f4 cbbe e249 ac3e d5dd eebd 96d1 a83e
000001c0: 34fa f03d 0954 253f 3d78 a53e 52cb 853f
000001d0: ee8c 69bd b439 09be 28cb c2bc 70cc b9bd
000001e0: a83c d83c 341b 88be f509 0d3e 29bd 0fbe
000001f0: e247 a53d bd8e 30bd fe97 debd 0526 99be
00000200: e906 a9be a996 6bbb 4523 7c3e 9b1d c0bc
00000210: 4ab5 3abe 00ce b4be 2590 293c 791c 2d3d
00000220: e65f af3e d42a 303e 0bf8 51bd 34f4 813d
00000230: c39c 9ebd 4bb5 7a3e d4a7 1bbe bcd2 173f
00000240: 4aea 103f 80ab a33f 8932 9b3e e30c a0be
00000250: 0bef 9c3e 5686 243e 7d76 4cbe 17cd 903e
00000260: 2dc8 2ebe 3a52 fb3e 2852 333f ae6a 583f
00000270: 6867 573e 9ede 77be 66c6 393e 2909 d03d
00000280: 51c0 4ebe 9ad9 103e 2a2c be3e 13f5 ab3d
00000290: 59b9 333f 3475 b13f 2e6a 05be 053c 10bf
000002a0: d080 613e 24f0 cf3e fb84 20bf 4b1d 30bc
000002b0: 7d00 8c3d 062a c73d c017 4d3e 4033 333f
000002c0: c878 95bd ff42 08bf 802a 033e 7ea4 8fbc
000002d0: ccb9 1f3e 0666 ef3d 63d9 ba3a 2f9b db3e
000002e0: de06 7f3e 6dc5 7b3f b41b 8c3e 6f9a adbe
000002f0: ae2f 31be ce86 87be 041e 85be 09a0 1cbe
00000300: 084a 443e 9cab 7dbd 2f27 883c f17f e63e
00000310: a19c a6bd a6fb 17be 3cf4 c3be 2b57 e1bd
00000320: 62d5 523c a1a2 633e 19dd c13e 4300 fe3e
00000330: 78b2 b53e 50ec b23f b926 22be f421 a4be
00000340: 9f63 b23e 840b ca3d 90a3 873e d6e9 85be
00000350: 49fb 713e 4d95 61be 3aef 9e3d fc55 913e
00000360: bbde 36be cf13 73be be48 b8be bd2c 3a3d
00000370: 4afa b9bd 18ad 83bd d241 c4bd 5fc3 473e
00000380: 27a0 70be cd01 a5be 0ea3 173e e635 c73e
00000390: 5999 7abd d928 2e3d 0922 6b3d 7028 84be
000003a0: 9327 9abe d8ba 16be 3f66 82bd 1b74 f3bd
000003b0: 45ba 95be 3c57 42be 7b16 273e 3fc3 30bc
000003c0: 0ac7 96be 76f8 7abe db7d 34bd 21a8 57be
000003d0: b7b4 8dbe 907a 253e 1bd5 763e 2224 62bd
000003e0: 3f15 7ebd 466f bb3d 9cfe e9bd 4dd2 80be
000003f0: 2ba3 dd3c 187e 79be f01b 013e ef36 93be

nn.0.bias f4 [128]
-0.14129624 -0.18064193 0.20877115 0.16972484 0.69139147 0.90366614 0.89048886 0.07754508
0.114910625 0.07387444 0.37942687 1.2599727 -0.025965974 -0.090444095 1.2497379 0.8503869
1.4350185 0.8278414 1.144179 0.32747698 1.0709009 0.3696073 -0.12740247 0.3036053
-0.19258945 -0.28191295 -0.13658987 -0.082602985 0.2406948 0.77549094 -0.0929576 0.15421824
0.10414189 -0.23600538 0.20364565 0.89190996 0.38011837 1.2955306 0.29841244 0.8410476
1.2196776 0.1656312 0.79640245 0.59887385 -0.11831723 -0.06715964 -0.11844703 0.97929823
0.35033095 1.2333314 0.20104773 -0.14267462 0.04835567 1.4152154 0.23166382 1.0561706
1.0667353 -0.13184252 1.0630946 -0.12824474 -0.11063882 0.069101796 0.83823043 0.42475146
1.1273438 0.86902195 0.85809916 0.40616617 0.248689 0.71258307 0.10393855 1.0453919
-0.019330634 0.59576374 0.8706391 0.8094176 0.75237864 -0.29877868 -0.23618168 1.3006296
0.9146251 1.2586938 0.43784785 1.000483 -0.07317059 -0.2213935 0.18152328 0.21223733
0.8032231 -0.06555366 0.95411074 0.5120606 0.3050984 1.2297454 1.0549455 0.8909872
-0.304687 0.36613467 0.83508414 -0.120297685 1.0221152 0.06009087 1.210746 0.941387
0.21359918 1.0581919 -0.2669904 0.61303115 -0.14085788 -0.0011069982 1.2861488 -0.24977413
0.32501188 -0.093764335 0.397015 0.7915857 -0.13649896 1.1494708 -0.21829142 -0.032553907
-0.0759409 1.1524106 -0.101191744 0.38747245 0.15412757 0.40598932 0.24025814 0.12671109
00000000: f6af 10be 33fa 38be 1bc8 553e 59cc 2d3e
00000010: 08ff 303f aa56 673f 14f7 633f f4cf 9e3d
00000020: 4356 eb3d 7b4b 973d 3d44 c23e c946 a13f
00000030: 98b6 d4bc c13a b9bd 69f7 9f3f f5b2 593f
00000040: b0ae b73f 6aed 533f 7574 923f 10ab a73e
00000050: 4813 893f 2b3d bd3e cb75 02be 2772 9b3e
00000060: 2b36 45be e556 90be 37de 0bbe c12b a9bd
00000070: b378 763e 9386 463f 8e60 bebd 63eb 1d3e
00000080: 5848 d53d 65ab 71be 7c88 503e 3654 643f
00000090: e09e c23e f2d3 a53f 84c9 983e e54e 573f
000000a0: 651e 9c3f 3a9b 293e 08e1 4b3f cc4f 193f
000000b0: 4e50 f2bd fe8a 89bd 5b94 f2bd 4ab3 7a3f
000000c0: 945e b33e cedd 9d3f 75df 4d3e 4c19 12be
000000d0: 9810 463d c725 b53f 4839 6d3e 9930 873f
000000e0: c88a 883f ba01 07be 7c13 883f 9752 03be
000000f0: 9b96 e2bd 3e85 8d3d 4596 563f 0679 d93e
00000100: cd4c 903f 3978 5e3f 63ac 5b3f 03f5 cf3e
00000110: 54a8 7e3e d86b 363f bcdd d43d 67cf 853f
00000120: 475b 9ebc f983 183f 34e2 5e3f fe35 4f3f
00000130: e39b 403f 85f9 98be 9cd9 71be 087b a63f
00000140: df24 6a3f e11c a13f 982d e03e d40f 803f
00000150: 76da 95bd fab4 62be 3de1 393e be54 593e
00000160: 07a0 4d3f ff40 86bd 9a40 743f 6716 033f
00000170: dc35 9c3e 4c68 9d3f 7408 873f bd17 643f
00000180: efff 9bbe 0176 bb3e 13c8 553f a25e f6bd
00000190: acd4 823f d821 763d baf9 9a3f bdfe 703f
000001a0: beb9 5a3e d572 873f f7b2 88be 9cef 1c3f
000001b0: 0c3d 10be b218 91ba 86a0 a43f cac4 7fbe
000001c0: f567 a63e 8407 c0bd 8d45 cb3e 5ca5 4a3f
000001d0: 62c6 0bbe dc21 933f c987 5fbe 3f57 05bd
000001e0: e786 9bbd 3182 933f 9e3d cfbd ca62 c63e
000001f0: 9ed3 1d3e d5dd cf3e 3b06 763e 8dc0 013e

nn.2.weight f4 [128, 128]
0.036385585 -0.047154978 0.019831903 -0.015994687 -0.1021 -0.033715308 0.042444114 0.0034674949
0.07627582 0.008415155 -0.015969599 0.0044104247 0.040608708 0.04902316 -0.0735948 -0.09662935
-0.013184891 -0.006691817 -0.05509056 0.08712907 -0.045505278 -0.03192313 -0.061071258 -0.009994703
0.00950305 -0.02906944 0.06129907 -0.065491036 0.0524146 -0.025675891 0.026718142 -0.07067705
-0.06669454 -0.00021277837 0.015185383 -0.113394774 -0.085746236 -0.028671468 0.05549607 -0.0590312
-0.004571701 -0.0529137 -0.08193851 0.03718425 -0.046592128 0.033186406 -0.06402857 0.036197405
-0.023253154 0.05367934 0.009475149 -0.0012142822 0.028615128 -0.069249064 -0.0045104846 -0.11676848
-0.08390858 -0.08186846 0.022797305 0.014910522 0.085899785 -0.054509617 -0.028994165 0.07594696
0.014258694 -0.07493552 -0.08042453 -0.05327508 -0.01578628 -0.010122862 -0.11474 -0.011452327
-0.08887436 0.028947597 0.015429522 -0.114295006 -0.10811587 0.040749848 -0.083706506 -0.0015013161
-0.01788749 0.04049341 -0.05477417 0.023584515 0.015713468 -0.018717837 -0.012305826 -0.086317144
0.034757037 0.032817673 -0.08214502 -0.031480554 -0.064368345 -0.08235896 -0.10459264 0.0440126
-0.038513873 -0.0063913167 -0.010597591 -0.033253 -0.03558791 0.025554424 -0.044558827 -0.040945724
-0.07894566 0.05352836 -0.040590335 -0.057530053 0.059564706 0.0005886334 -0.030979566 0.06404606
-0.06761012 -0.06924211 0.0023960306 -0.07913726 -0.080088735 0.01910973 -0.07568543 -0.051390547
-0.06633106 -0.08005167 0.025898142 -0.087936155 0.046439074 0.028739072 -0.021626085 -0.011735175
-0.029166693 0.07140529 0.04679667 0.022083515 0.05362216 0.08337505 0.021878798 -0.013494178
-0.070501626 -0.051689517 -0.01770628 -0.0641268 0.021701718 -0.037644446 -3.8543294e-05 -0.03881808
-0.06382541 -0.00897417 0.05098816 0.04306116 -0.08191103 0.004678005 -0.080939494 -0.025777044
-0.024387946 -0.061568484 -0.07968562 0.060734093 -0.083560266 0.056467514 -0.005078221 -0.0399577
0.028503155 -0.06647858 0.00034608884 -0.01687034 -0.028457498 -0.03385944 0.06510499 0.08688425
-0.07575308 0.08299765 -0.045656774 -0.05971007 0.08619471 0.041974984 -0.072199024 0.08559527
0.028127689 -0.07968961 -0.047953673 0.058858022 -0.08422134 -0.017337885 0.009756089 -0.045275766
0.029728027 0.014925253 -0.08471306 -0.015025498 0.024694111 -0.015445893 -0.07356939 0.04386863
0.0013391634 0.033911858 -0.028735584 -0.0058160014 -0.0032307245 -0.08292961 0.08656982 -0.045245685
0.015968386 0.08197971 -0.055474956 0.088158384 0.025117803 -0.07321278 -0.08799063 -0.03491922
-0.07581311 -0.076164246 -0.04244924 0.069162376 -0.013607731 -0.06209862 0.02615745 -0.0021496157
-0.045150887 -0.05281606 -0.060252566 -0.08712927 0.06643609 0.04269424 0.02883193 -0.029266171
-0.022511527 0.07700642 0.033352297 -0.0871871 -0.035074405 0.061625004 0.021645958 0.087794475
-0.044986438 -0.08124908 0.021015693 0.030503877 -0.04260821 -0.005875671 0.08511561 -0.052515298
-0.066109754 -0.04053864 -0.006716859 0.055041783 -0.03386969 0.05599408 0.08696252 0.080003366
0.05584843 -0.06053638 -0.059541337 -0.026868952 -0.08421757 -0.032817654 0.05528638 -0.0068105934
00000000: 0d09 153d 9425 41bd 8476 a23c 4a07 83bc
00000010: ce19 d1bd 1019 0abd e1d9 2d3d e93e 633b
00000020: 7f36 9c3d b8df 093c add2 82bc 5385 903b
00000030: 5155 263d 82cc 483d dfb8 96bd 9ce5 c5bd
00000040: 7105 58bc 0847 dbbb a4a6 61bd ba70 b23d
00000050: be63 3abd d4c1 02bd db25 7abd d3c0 23bc
00000060: aeb2 1b3c 0923 eebc bc14 7b3d 2a20 86bd
00000070: b1b0 563d 3f56 d2bc 01e0 da3c 21bf 90bd
00000080: 2697 88bd 421d 5fb9 1dcc 783c 853b e8bd
00000090: b99b afbd 6de0 eabc d94f 633d b3ca 71bd
000000a0: 35ce 95bb 09bc 58bd 61cf a7bd 834e 183d
000000b0: 63d7 3ebd 78ee 073d 6921 83bd bb43 143d
000000c0: 667d bebc dede 5b3d a83d 1b3c 8d28 9fba
000000d0: 466a ea3c 74d2 8dbd b0cc 93bb 5024 efbd
000000e0: 43d8 abbd a7aa a7bd 6ac1 ba3c 434b 743c
000000f0: 3aec af3d 7a45 5fbd 2c85 edbc 148a 9b3d
00000100: 4c9d 693c cb77 99bd 9eb5 a4bd f836 5abd
00000110: 3b52 81bc 5cda 25bc cefc eabd 8aa2 3bbc
00000120: c303 b6bd 8323 ed3c 1bcc 7c3c 8013 eabd
00000130: da6b ddbd 50e9 263d 516e abbd cfc7 c4ba
00000140: c988 92bc 6bdc 253d e15a 60bd 5034 c13c
00000150: 88b9 803c 2656 99bc 609e 49bc 0bc7 b0bd
00000160: 655d 0e3d d36b 063d a63b a8bd c1f1 00bd
00000170: 8dd3 83bd d0ab a8bd ab34 d6bd 8e46 343d
00000180: b9c0 1dbd 406e d1bb 85a1 2dbc 4c34 08bd
00000190: a1c4 11bd 8357 d13c 5183 36bd b4b6 27bd
000001a0: 43ae a1bd 8e40 5b3d 0d42 26bd a2a4 6bbd
000001b0: 1ffa 733d 854e 1a3a dcc8 fdbc 952a 833d
000001c0: 2d77 8abd cfce 8dbd b906 1d3b b712 a2bd
000001d0: 9005 a4bd 028c 9c3c f600 9bbd e57e 52bd
000001e0: 94d8 87bd 21f2 a3bd 5728 d43c df17 b4bd
000001f0: e636 3e3d 346e eb3c 3029 b1bc e444 40bc
00000200: fdee eebc f03c 923d ddad 3f3d 7de8 b43c
00000210: e9a2 5b3d 8ac0 aa3d 2a3b b33c af16 5dbc
00000220: 2863 90bd 63b8 53bd c30c 91bc e954 83bd
00000230: cdc7 b13c 1031 1abd 8ca9 21b8 b5ff 1ebd
00000240: e6b6 82bd 6608 13bc f6d8 503d e660 303d
00000250: f8c0 a7bd f349 993b 9bc3 a5bd 612a d3bc
00000260: 3bc9 c7bc 3c2f 7cbd 3732 a3bd 50c4 783d
00000270: a521 abbd 7b4a 673d 3567 a6bb afaa 23bd
00000280: 737f e93c ec25 88bd 4273 b539 ab33 8abc
00000290: b31f e9bc 32b0 0abd c455 853d 5ff0 b13d
000002a0: 6e24 9bbd acfa a93d 9902 3bbd 8c92 74bd
000002b0: da86 b03d f6ed 2b3d 15dd 93bd 934c af3d
000002c0: 0a6c e63c 4e34 a3bd 126b 44bd 1c15 713d
000002d0: 3d7c acbd 2e08 8ebc 01d8 1f3c 1573 39bd
000002e0: 3188 f33c 0c89 743c 0a7e adbd 822d 76bc
000002f0: 4e4b ca3c c510 7dbc 8cab 96bd 98af 333d
00000300: de86 af3a 29e7 0a3d e366 ebbc 2894 bebb
00000310: 90ba 53bb 00d7 a9bd 854b b13d 8a53 39bd
00000320: 22d0 823c fae4 a73d b539 63bd 628c b43d
00000330: dac3 cd3c 95f0 95bd 6e34 b4bd 7507 0fbd
00000340: e743 9bbd 00fc 9bbd 41df 2dbd 01a5 8d3d
00000350: f6f2 5ebc 1f5b 7ebd 2648 d63c 91e0 0cbb
00000360: 23f0 38bd a755 58bd 65cb 76bd d570 b2bd
00000370: a50f 883d 28e0 2e3d f130 ec3c 9cbf efbc
00000380: 186a b8bc 8bb5 9d3d 6b9c 083d 268f b2bd
00000390: 2eaa 0fbd 806a 7c3d dd52 b13c 97cd b33d
000003a0: b343 38bd eb65 a6bd 1a29 ac3c 44e3 f93c
000003b0: f285 2ebd b388 c0bb 1851 ae3d 481a 57bd
000003c0: 8d64 87bd d80b 26bd 1919 dcbb 7e73 613d
000003d0: f2ba 0abd 0c5a 653d 6819 b23d ced8 a33d
000003e0: 53c1 643d fff4 77bd 9ee1 73bd 471c dcbc
000003f0: 437a acbd ce6b 06bd f973 623d 662b dfbb

nn.2.bias f4 [128]
0.042513456 -0.0028172533 -0.08493348 0.042768493 -0.08781576 -0.07443847 0.030633358 -0.039006677
0.009584635 0.04039125 0.064582236 1.2350389 -0.0034302582 -0.0050935443 -0.019979311 0.05094532
1.2307162 0.023844702 -0.09345235 -0.09912138 1.2038149 -0.0020777343 0.18962681 -0.053020004
0.01983181 0.07871216 -0.0830755 -0.084948756 0.059356313 0.03165452 -0.08713308 -0.012220709
-0.013023349 1.3069922 -0.16505124 -0.019617928 0.03644287 1.2482388 0.00999681 0.047266964
-0.0058053904 0.0054800194 -0.06059243 -0.08035075 0.044811845 0.0047987117 1.1707777 -0.07706552
-0.023027167 -0.069445275 1.3026989 -0.045697287 -0.013958323 -0.067805454 0.13918306 -0.037052218
0.050059292 0.017974352 -0.030138927 -0.0018659779 -0.10717048 -0.050124664 -0.06584299 0.07498615
0.034751486 -0.07865078 -0.06558933 -0.0026774015 0.06656254 -0.05191847 0.019039582 -0.08262786
0.018273734 -0.02112714 -0.042810444 -0.08678682 1.3481431 0.032022282 -0.10509775 -0.06738713
-0.022566665 -0.10498581 0.07822945 -0.023981193 0.07399077 0.03436021 1.1934369 0.054161772
-0.0774472 0.06899393 0.4785797 -0.020741684 0.018883958 -0.11166401 -0.09361969 -0.038631793
-0.012933843 0.035790876 -0.03257893 -0.056878034 0.67196786 0.013792792 0.53872466 0.8462184
0.06840547 -0.04668038 0.043805443 0.025241045 -0.012229245 -0.024941564 -0.069401115 0.008037898
0.062335677 0.05420793 0.03863847 -0.0646141 -0.020127196 0.014489957 -0.06482119 -0.007661648
-0.054516315 0.028823702 -0.079264954 -0.07545231 -0.09641046 0.32144094 -0.09537142 -0.122873984
00000000: 9722 2e3d aba1 38bb 9bf1 adbd 042e 2f3d
00000010: c0d8 b3bd 3273 98bd cff2 fa3c 77c5 1fbd
00000020: df08 1d3c 4c71 253d b143 843d c115 9e3f
00000030: 2fce 60bb bfe7 a6bb a7ab a3bc 0aac 503d
00000040: 1c88 9d3f f755 c33c f263 bfbd 2600 cbbd
00000050: 9b16 9a3f 992a 08bb 882d 423e 812b 59bd
00000060: 5276 a23c d733 a13d 7d23 aabd 9df9 adbd
00000070: 9b1f 733d 2ca8 013d d472 b2bd 5e39 48bc
00000080: e35f 55bc 854b a73f 3103 29be c7b5 a0bc
00000090: 1e45 153d 4ac6 9f3f a9c9 233c 019b 413d
000000a0: 253b bebb bc91 b33b c52f 78bd ef8e a4bd
000000b0: a08c 373d 833e 9d3b 0bdc 953f 87d4 9dbd
000000c0: 78a3 bcbc 5339 8ebd d6be a63f 142d 3bbd
000000d0: 73b1 64bc 96dd 8abd 0186 0e3e 11c4 17bd
000000e0: f90a 4d3d f33e 933c e9e5 f6bc d493 f4ba
000000f0: 327c dbbd 854f 4dbd b1d8 86bd 5792 993d
00000100: 9357 0e3d a913 a1bd b353 86bd 5877 2fbb
00000110: f151 883d 76a8 54bd e6f8 9b3c cc38 a9bd
00000120: ccb2 953c d312 adbc 015a 2fbd 4abd b1bd
00000130: f48f ac3f cc29 033d 7d3d d7bd 4302 8abd
00000140: badd b8bc cd02 d7bd c336 a03d 3574 c4bc
00000150: 7988 973d 4bbd 0c3d 8ac2 983f bcd8 5d3d
00000160: a39c 9ebd b14c 8d3d 6608 f53e 77ea a9bc
00000170: 88b2 9a3c 1ab0 e4bd aebb bfbd 5f3c 1ebd
00000180: 78e8 53bc 7499 123d 7c71 05bd f1f8 68bd
00000190: 1606 2c3f 2afb 613c dce9 093f c5a1 583f
000001a0: 2b18 8c3d ed33 3fbd 566d 333d 4fc6 ce3c
000001b0: 2c5d 48bc 4052 ccbc 2c22 8ebd 63b1 033c
000001c0: b253 7f3d 2209 5e3d 5f43 1e3d 6654 84bd
000001d0: cae1 a4bc 4967 6d3c f9c0 84bd 900e fbbb
000001e0: 804c 5fbd af1f ec3c aa55 a2bd be86 9abd
000001f0: d972 c5bd e893 a43e 1752 c3bd 5ba5 fbbd

nn.4.weight f4 [12, 128]
0.04535846 0.07867736 0.046679292 -0.086380504 -0.05621163 0.011908051 0.08704084 -0.06795177
0.02793381 0.07472025 -0.012945641 -0.16410096 0.05009982 -0.010167726 -0.04194908 0.018610278
-0.14850016 -0.044172585 0.038490452 0.08270867 -0.23994237 0.016139809 -0.04806217 -0.046398122
0.031715672 -0.050014235 0.08032212 -0.024484146 0.040624704 0.06904005 0.027894244 -0.04186628
0.022107173 -0.1628669 -0.07021342 -0.009396809 0.01981795 -0.17597525 -0.04874266 0.08495143
0.077627614 0.025455382 -0.06642471 0.09390765 -0.03214717 0.04517817 -0.08607446 -0.0129991565
0.05576765 0.06333012 -0.17124133 -0.036554318 0.0077327117 -0.014687025 0.27905202 0.011822781
-0.06005847 -0.017272504 -0.022439372 0.0062353625 -0.079553254 -0.048459947 0.029662741 0.021444779
0.08693237 -0.04848646 0.077942684 0.03812673 -0.06386662 -0.06918909 -0.078145176 -0.013628383
0.015399383 0.06237119 0.009299428 -0.05522089 -0.14410225 -0.13960361 0.025865946 -0.07220598
-0.04990716 0.057175398 0.0069862115 0.024406495 -0.07374601 -0.017070057 -0.10376333 -0.031285126
0.05166704 0.26810127 -0.07622952 -0.033164904 0.028257733 0.09535611 -0.09522467 0.06563217
-0.10266652 -0.09284141 -0.08252645 -0.027557906 0.3116717 2.2710823e-05 -0.1385013 -0.1328282
0.006041161 0.028594013 -0.085040264 0.05427348 0.05507282 -0.08346294 -0.028542878 0.03811368
0.080814674 -0.02796712 0.030687405 -0.047034282 0.04753008 -0.02573729 0.23773895 0.06353231
-0.0011753321 -0.004050449 -0.07870585 -0.017638681 -0.009222582 -0.122935236 -0.044189636 -0.057570707
-0.054097924 -0.0059713023 -0.013044756 -0.033968914 -0.028951125 -0.073751375 -0.06665162 0.06744975
-0.08830408 -0.0070228553 -0.08021249 -0.23446022 -0.04970207 0.22665724 0.035636265 -0.06117278
-0.10671084 0.06795906 0.022855472 0.03388283 -0.11265341 0.057030365 0.04931833 -0.054699156
0.073083416 -0.057170063 -0.080248915 -0.07598074 0.023233755 0.04441463 -0.047283422 0.024902599
0.22989069 -0.19358806 -0.046860334 0.05659557 0.05855404 -0.13372144 -0.08473653 -0.019357985
-0.036824647 0.045945223 0.049500678 0.02856281 -0.052434392 -0.06391233 -0.18182793 -0.07618874
-0.03665158 0.058965012 -0.1804852 0.007144636 0.024267789 -0.040144224 -0.100712895 0.031107841
-0.021424498 -0.0249232 -0.07849259 0.017285697 0.04444808 -0.0065144883 -0.030361282 -0.08254268
-0.037443977 0.03871455 -0.029729337 -0.03802516 0.03850405 -0.034030072 0.06212507 -0.04120784
-0.0031016625 0.060995918 -0.10233737 0.05073956 -0.22403236 -0.007164452 0.011102615 -0.015191556
-0.06846351 -0.015374713 -0.017572155 -0.012249288 0.013783909 -0.021262027 -0.19115682 0.012490229
-0.074111335 -0.014250853 -0.031791896 0.068272665 -0.015619053 0.022869445 -0.039389063 0.05593302
-0.06409222 -0.056120068 -0.0004783034 0.01683439 0.030035261 -0.08210123 0.040145937 -0.067636035
-0.05318616 -0.02522644 0.01964059 0.010134954 0.041885894 -0.069570124 -0.0333598 0.08087243
-0.024064193 -0.052305188 0.0584747 -0.10087626 0.014219932 -0.05827181 -0.026031896 0.015867347
0.022190701 -0.03278642 -0.019122161 0.08740769 0.09376539 -0.044532105 -0.07364661 -0.07231865
00000000: cbc9 393d 9921 a13d c932 3f3d 43e8 b0bd
00000010: 2b3e 66bd fc19 433c 7842 b23d 4c2a 8bbd
00000020: 72d5 e43c ee06 993d f419 54bc 150a 28be
00000030: 7835 4d3d 8996 26bc ccd2 2bbd 9574 983c
00000040: 6d10 18be 50ee 34bd 2aa8 1d3d 2a63 a93d
00000050: 74b3 75be a237 843c d7dc 44bd f50b 3ebd
00000060: 4be8 013d badb 4cbd ec7f a43d fa92 c8bc
00000070: 1766 263d df64 8d3d 7882 e43c fa7b 2bbd
00000080: 1a1a b53c 95c6 26be 0ecc 8fbd 13f5 19bc
00000090: 4159 a23c db32 34be 62a6 47bd 04fb ad3d
000000a0: 3afb 9e3d ce87 d03c ae09 88bd a752 c03d
000000b0: c0ac 03bd bf0c 393d ce47 b0bd 6afa 54bc
000000c0: 9f6c 643d 39b3 813d e359 2fbe fbb9 15bd
000000d0: b062 fd3b d9a1 70bc e8df 8e3e 56b4 413c
000000e0: dfff 75bd 117f 8dbc c6d2 b7bc 0352 cc3b
000000f0: d1ec a2bd f07d 46bd 47ff f23c f6ac af3c
00000100: 9909 b23d bd99 46bd 6aa0 9f3d c62a 1c3d
00000110: 81cc 82bd 02b3 8dbd 940a a0bd 9549 5fbc
00000120: b24d 7c3c ef78 7f3d a15c 183c 4d2f 62bd
00000130: 8a8f 13be 40f4 0ebe d2e4 d33c bbe0 93bd
00000140: 736b 4cbd c030 6a3d 97ec e43b 21f0 c73c
00000150: 2608 97bd 81d6 8bbc de81 d4bd d524 00bd
00000160: d1a0 533d 9244 893e 391e 9cbd ecd7 07bd
00000170: c37c e73c 104a c33d 2705 c3bd 296a 863d
00000180: d342 d2bd a323 bebd a103 a9bd 1ec1 e1bc
00000190: 6f93 9f3e 1f83 be37 49d3 0dbe 1e04 08be
000001a0: eef4 c53b fe3d ea3c 9729 aebd de4d 5e3d
000001b0: 0a94 613d 9eee aabd c1d2 e9bc 171d 1c3d
000001c0: 2a82 a53d 4d1b e5bc 2764 fb3c 05a7 40bd
000001d0: e7ae 423d 02d7 d2bc d771 733e 3a1d 823d
000001e0: 9a0d 9aba a1b9 84bb 8830 a1bd ff7e 90bc
000001f0: 501a 17bc 78c5 fbbd 3100 35bd 43cf 6bbd
00000200: c995 5dbd eaaa c3bb acb9 55bc fd22 0bbd
00000210: e92a edbc f60a 97bd a580 88bd 1823 8a3d
00000220: c5d8 b4bd fb1f e6bb 7246 a4bd 5716 70be
00000230: 6694 4bbd d618 683e 55f7 113d 4f90 7abd
00000240: 368b dabd 1f2e 8b3d 663b bb3c b9c8 0a3d
00000250: d5b6 e6bd ac98 693d 0402 4a3d 390c 60bd
00000260: c2ac 953d 282b 6abd 8b59 a4bd ca9b 9bbd
00000270: b754 be3c 1dec 353d 43ac 41bd 8900 cc3c
00000280: 7768 6b3e f33b 46be 9ff0 3fbd c2d0 673d
00000290: 5cd6 6f3d 46ee 08be 598a adbd a394 9ebc
000002a0: 71d5 16bd 0f31 3c3d 39c1 4a3d 8efc e93c
000002b0: 72c5 56bd 78e4 82bd 1a31 3abe d808 9cbd
000002c0: f81f 16bd 4c85 713d 1dd1 38be 8d1d ea3b
000002d0: 3ecd c63c 456e 24bd 9042 cebd dfd5 fe3c
000002e0: 6e82 afbc bd2b ccbc b9c0 a0bd bc9a 8d3c
000002f0: 310f 363d 7d77 d5bb 39b8 f8bc 230c a9bd
00000300: db5e 19bd 2693 1e3d f08a f3bc 45c0 1bbd
00000310: 6cb6 1d3d 1e63 0bbd db76 7e3d 8dc9 28bd
00000320: 4345 4bbb dbd6 793d 4196 d1bd 49d4 4f3d
00000330: bd68 65be c8c3 eabb bee7 353c 01e6 78bc
00000340: 9936 8cbd 38e6 7bbc 7bf3 8fbc 3db1 48bc
00000350: e8d5 613c b42d aebc 9dbe 43be d1a3 4c3c
00000360: afc7 97bd 697c 69bc 3838 02bd 8ad2 8b3d
00000370: 0ee7 7fbc b458 bb3c 6d56 21bd 061a 653d
00000380: c842 83bd 28de 65bd ccc4 fab9 46e8 893c
00000390: 820c f63c b124 a8bd 1170 243d c384 8abd
000003a0: bbd9 59bd aea7 cebc 4de5 a03c 140d 263c
000003b0: 8b90 2b3d c87a 8ebd 49a4 08bd 72a0 a53d
000003c0: 4522 c5bc f73d 56bd 2b83 6f3d 3698 cebd
000003d0: b8fa 683c 6cae 6ebd d840 d5bc 3dfc 813c
000003e0: 46c9 b53c 0e4b 06bd 14a6 9cbc ce02 b33d
000003f0: 1208 c03d 4c67 36bd 09d4 96bd cd1b 94bd

nn.4.bias f4 [12]
-0.8127741 -0.4756839 -0.82663035 -0.45941347 -0.62001866 -0.2659226 -0.75967836 -0.60543525
-0.5640146 -0.41459894 -1.000851 -0.45630127
00000000: f711 50bf d78c f3be 0c9e 53bf 3e38 ebbe
00000010: 8bb9 1ebf 0227 88be 487a 42bf cefd 1abf
00000020: 4363 10bf 5046 d4be e31b 80bf 52a0 e9be
