dynamics/src/drl/outputs/RobotOptEnv/20220718-111600/models/dqn_checkpoint.pth (torch, 74071 bytes, 6 tensors)

fc1.weight f4 [128, 6]
0	0x3e84cbc0	0.259367
1	0x3e0e1c59	0.13878001
2	0xbca14675	-0.019686917
3	0xbea9253f	-0.3303623
4	0xbdebc748	-0.11512619
5	0x3d4b4616	0.049627386
6	0x3d59984f	0.05312377
7	0xbced4005	-0.028961191
8	0xbe399db1	-0.18126561
9	0x3e2762b3	0.16346245
10	0x3c263e75	0.010146727
11	0xbea66b55	-0.32503763
12	0xbebd5eb0	-0.36986303
13	0xbec95c95	-0.39328447
14	0x3ebd0741	0.36919597
15	0x3e5b80eb	0.21435897
16	0xbe88815a	-0.26661187
17	0xbe8dc5cf	-0.27689978
18	0xbeb5367b	-0.35393128
19	0xbe8e9393	-0.27846965
20	0x3ecc3397	0.3988311
21	0xbe12c863	-0.14334254
22	0x3e3b9bd3	0.18321161
23	0xbdb4a059	-0.088196464
24	0x3ebd9766	0.3702957
25	0xbe8a1419	-0.26968458
26	0xbec05b05	-0.37569442
27	0xbeb427ce	-0.3518662
28	0xbec146a4	-0.37749207
29	0xbeb2c49e	-0.34915632
30	0x3d9658e9	0.07341177
31	0x3da27f06	0.07934384
32	0x3dfff500	0.12497902
33	0x3eaeafda	0.3411854
34	0x3d0a8585	0.03381874
35	0x3ecb49ee	0.3970484
36	0x3e387ba2	0.18015912
37	0x3ec7d415	0.39028993
38	0x3e57c498	0.21071088
39	0xbe007ed6	-0.12548384
40	0xbea8f6cb	-0.33000788
41	0xbecf5d58	-0.40500903
42	0xbc764285	-0.015030508
43	0xbe2e7568	-0.17036974
44	0x3e9e3e1c	0.3090676
45	0xbeac4233	-0.33644256
46	0x3e60e855	0.21963628
47	0xbe9a6267	-0.301532
48	0x3ec4db26	0.38448447
49	0x3e2bf41a	0.16792336
50	0x3e25c2c2	0.16187575
51	0xbe0b7462	-0.13618615
52	0x3e429110	0.1900065
53	0xbe70458f	-0.23464034
54	0xbe112c28	-0.14177
55	0xbcedde6b	-0.029036721
56	0xbec2a4d9	-0.38016394
57	0x3eaefd3a	0.34177572
58	0xbe60c482	-0.21949962
59	0xbe0eec94	-0.13957435
60	0x3e188081	0.1489277
61	0xbcc42c0e	-0.023946788
62	0x3e12ed34	0.14348298
63	0xbea3bdcd	-0.31980744
64	0x3e624514	0.22096664
65	0x3d1b80db	0.037964683
66	0xbe8e38e9	-0.27777794
67	0xbe9b9743	-0.3038884
68	0x3e375175	0.17902167
69	0x3da193c5	0.07889513
70	0xbd1dca6f	-0.038523134
71	0xbe1becc9	-0.15227045
72	0xbed087ce	-0.4072861
73	0xbeb8834c	-0.36037672
74	0x3dfaf5c8	0.1225391
75	0xbe519f28	-0.2047087
76	0xbe6d1d5e	-0.23155734
77	0x3d56a758	0.052405685
78	0x3ded8ace	0.115987405
79	0xbe9e1a34	-0.30879366
80	0xbeb4e6f4	-0.35332453
81	0x3ebb8880	0.3662758
82	0xbd610424	-0.05493559
83	0xbec3c67f	-0.38237378
84	0xbeb5d99a	-0.3551758
85	0xbd0d39b4	-0.034478858
86	0x3e83aa33	0.2571579
87	0x3e93e773	0.2888752
88	0x3da466b3	0.08027401
89	0xbdd51045	-0.10403494
90	0xbe063563	-0.13106303
91	0x3e3324e8	0.17494547
92	0xbc97591d	-0.01847511
93	0x3ea28428	0.31741452
94	0xbdbce11c	-0.09222624
95	0xbed0b9b5	-0.40766683
96	0xbe9997cf	-0.29998633
97	0xbeae4c25	-0.3404247
98	0x3e803580	0.25040817
99	0x3e1f72a8	0.15571082
100	0xbebf8abb	-0.3741053
101	0x3e87d2a9	0.26527908
102	0x3e863805	0.26214615
103	0x3de55890	0.111985326
104	0x3e64e9f0	0.22354865
105	0x3dd84a2f	0.105610244
106	0xbe004804	-0.12527472
107	0xbeba6ac1	-0.36409572
108	0x3ce6820c	0.028138183
109	0xbda05f9e	-0.078307375
110	0x3e0f67be	0.14004418
111	0xbe9d2241	-0.30690196
112	0xbd736725	-0.05942454
113	0xbecbd970	-0.3981433
114	0xbe0ad583	-0.13558011
115	0xbe3f38b9	-0.18673982
116	0x3eb6686b	0.3562654
117	0xbea1b4be	-0.31583208
118	0x3eb7287e	0.3577308
119	0x3ebc2e55	0.367541
120	0xbeb559bb	-0.3542002
121	0xbec997d3	-0.39373645
122	0x3eb5f2e8	0.35536885
123	0x3d7c0290	0.06152588
124	0xbda7b963	-0.081896566
125	0x3e052b59	0.13004817
126	0x3d417622	0.0472318
127	0xbe80f0b5	-0.25183645
128	0x3ea83fd8	0.3286121
129	0x3dd29ee2	0.10284211
130	0xbe109647	-0.14119826
131	0x3e9f848e	0.3115582
132	0x3e98b6cf	0.29826972
133	0x3e51116b	0.204168
134	0xbe2896ac	-0.16463727
135	0x3caf6f31	0.021415325
136	0x3e444c58	0.19169748
137	0x3dfbc5cf	0.12293588
138	0x3eb6da77	0.3571355
139	0x3ec30e81	0.38097003
140	0x3eab6c1a	0.33480912
141	0x3e992b31	0.29915765
142	0x3e30f42a	0.17280641
143	0x3ec71689	0.3888438
144	0x3d23040f	0.039798792
145	0x3e4d26dc	0.20034355
146	0x3eae3eef	0.3403239
147	0xbe99cb31	-0.30037835
148	0xbec7fa6a	-0.39058238
149	0xbe3b4b97	-0.18290554
150	0x3ec5dea4	0.38646424
151	0x3d8f5787	0.069991164
152	0xbec8494c	-0.3911842
153	0x3ea5909a	0.32336885
154	0x3decd100	0.11563301
155	0xbec33b3e	-0.38131136
156	0x3e15461f	0.1457753
157	0x3ebcfd90	0.36912203
158	0x3c4611aa	0.012089172
159	0x3e91e014	0.2849127
160	0x3d9742af	0.07385766
161	0xbe65447b	-0.22389404
162	0x3e7399d1	0.23789145
163	0x3ec80672	0.39067417
164	0x3ecba0aa	0.39771014
165	0x3b87e61b	0.0041473038
166	0x3eae7d6d	0.34080067
167	0xbea4476a	-0.32085735
168	0xbe31a4e2	-0.17348054
169	0x3ea18e7e	0.31554025
170	0x3d8d7e3d	0.06908844
171	0x3da7a47e	0.08185671
172	0xbe48ca85	-0.19608505
173	0xbda5b4fb	-0.0809116
174	0x3e7de684	0.24794966
175	0xbcead25c	-0.02866476
176	0xbe9e9f56	-0.3098094
177	0x3ec5bb89	0.3861964
178	0xbebcb94e	-0.36860126
179	0xbdc756c8	-0.09733349
180	0x3e1f6243	0.15564828
181	0x3e90461e	0.28178495
182	0x3e88f933	0.26752624
183	0xbdf3bcbf	-0.11901235
184	0x3b90a905	0.00441468
185	0x3e156022	0.14587453
186	0x3e2641d0	0.16236043
187	0xbeb392ae	-0.35072845
188	0xbe7d9ae9	-0.24766125
189	0xbeb28568	-0.34867406
190	0xbe6936fc	-0.22774881
191	0x3eb7226f	0.35768458
192	0xbe725a1f	-0.23667191
193	0x3ec6cd24	0.38828385
194	0xbec8d934	-0.39228213
195	0x3e3771b5	0.1791447
196	0x3ecd6f17	0.40123817
197	0xbeab7f5c	-0.33495605
198	0xbd6ff370	-0.05858177
199	0xbe379ac3	-0.1793013
200	0x3eac0d16	0.33603734
201	0xbe26decc	-0.16295928
202	0xbe811919	-0.2521446
203	0x3eb03986	0.34418887
204	0xbe1ddee3	-0.15417056
205	0x3e038a94	0.12845832
206	0x3dc0e612	0.094188824
207	0x3ed0f3fe	0.4081115
208	0x3d876eec	0.066129535
209	0xbcac9cb2	-0.021070812
210	0xbcec2cc2	-0.028829936
211	0x3e1d8f95	0.15386803
212	0x3e42afbe	0.19012353
213	0x3d86d3d6	0.06583373
214	0x3e68e0bb	0.22741978
215	0x3d7eeddc	0.06223856
216	0xbebdde16	-0.370835
217	0xbdac93a3	-0.08426597
218	0x3e14b902	0.145237
219	0x3e54bd17	0.20775257
220	0x3caf39b6	0.021389823
221	0x3ec232cb	0.37929377
222	0x3dd46e18	0.10372561
223	0xbeb275b7	-0.34855434
224	0x3e950dfe	0.29112238
225	0x3ceacbee	0.028661694
226	0x3e099b12	0.13438061
227	0xbdf6b60e	-0.12046443
228	0x3e92d32b	0.28676733
229	0x3e442a4e	0.19156763
230	0x3ebb3203	0.36561593
231	0x3d0d0bee	0.034435205
232	0xbe2b3cd3	-0.16722421
233	0x3e21967d	0.15780063
234	0xbeaf50d9	-0.3424137
235	0x3eaa5e29	0.33274963
236	0x3eb85ee2	0.3600989
237	0x3ecd99b2	0.40156323
238	0xbe3037c5	-0.17208774
239	0xbebf1a23	-0.37324628
240	0xbd3735b5	-0.044728953
241	0x3e41dfa4	0.18932968
242	0xbe1c2815	-0.15249665
243	0x3b579b2c	0.0032898886
244	0x3e9aa04c	0.30200422
245	0xbe6dd693	-0.23226385
246	0x3e840163	0.25782308
247	0xbda1076f	-0.07862746
248	0x3e8a711f	0.2703943
249	0x3e38bd04	0.18040854
250	0xbeaee15a	-0.34156305
251	0xbe26e6dc	-0.16299003
252	0x3d2b52ba	0.04182694
253	0xbdeb796f	-0.11497771
254	0x3eb6df36	0.3571717
255	0x3ebb525c	0.36586273

fc1.bias f4 [128]
0	0x3d308311	0.043093745
1	0x3e98bee2	0.29833132
2	0xbe6d178d	-0.23153515
3	0xbeb5c864	-0.35504448
4	0x3e666078	0.22497737
5	0xbe49d3fb	-0.1970977
6	0x3d7e3f70	0.062072217
7	0x3e1680f2	0.14697626
8	0xbe400be7	-0.1875454
9	0xbc8c0672	-0.017092917
10	0x3ecd49ea	0.40095454
11	0xbddd3ed7	-0.108030014
12	0x3e55f4c9	0.2089416
13	0x3d7bf136	0.061509334
14	0x3e9c2299	0.30495146
15	0xbe7f1150	-0.24908948
16	0x3d31afe5	0.043380637
17	0x3e6e653b	0.23280804
18	0xbe8889e7	-0.2666771
19	0x3ea454e9	0.3209603
20	0xbe2e12a3	-0.16999297
21	0x3ea9bdc2	0.33152586
22	0x3ec2745a	0.37979394
23	0xbe0bd5f4	-0.13655835
24	0xbe98ee6a	-0.29869395
25	0xbe87e012	-0.2653814
26	0x3e723ae7	0.23655282
27	0xbe0b1ea3	-0.13585906
28	0xbe11de2b	-0.14244907
29	0xbecd0cb3	-0.4004875
30	0x3e49c961	0.19705726
31	0xbc25bda8	-0.010116018
32	0xbe098d78	-0.13432872
33	0xbe435840	-0.19076633
34	0xbe839cc7	-0.2570555
35	0x3d9bafee	0.07601915
36	0xbe0f0f1a	-0.13970605
37	0x3ecb1de6	0.39671248
38	0xbdb602b5	-0.08887235
39	0xbc827b49	-0.015927928
40	0x3da5ffaa	0.08105405
41	0xbe4aeb98	-0.19816434
42	0xbe356e28	-0.17717803
43	0x3e91ddd1	0.28489545
44	0x3ea342e3	0.31886968
45	0xbe0675f1	-0.13130929
46	0xbeaef25f	-0.3416929
47	0xbd10055d	-0.035161365
48	0xbe03dde9	-0.12877621
49	0xbe7271fd	-0.23676296
50	0xbe8279ea	-0.25483638
51	0xbda1a059	-0.07891912
52	0x3e9025d3	0.28153858
53	0x3e72ca2c	0.23709935
54	0xbea3a688	-0.3196299
55	0xbe924b83	-0.28573236
56	0x3ea733b3	0.3265663
57	0xbe76547c	-0.24055666
58	0xbd9df6a1	-0.07713056
59	0x3e703817	0.23458897
60	0x3c01698e	0.007898701
61	0x3dace478	0.084420145
62	0x3d3db4cf	0.04631501
63	0x3e1703b0	0.147475
64	0x3e995608	0.2994845
65	0x3e47820b	0.19483201
66	0xbcf40403	-0.02978707
67	0xbe4a4600	-0.19753265
68	0xbe910edc	-0.2833165
69	0xbec4f2a6	-0.38466376
70	0xbdfa1edd	-0.12212918
71	0xbde22429	-0.11042053
72	0x3d086087	0.03329518
73	0xbca9f149	-0.020744937
74	0xbe9801b0	-0.29688787
75	0xbe851639	-0.25993517
76	0x3dee79bb	0.11644312
77	0xbd87fef5	-0.06640426
78	0x3c4b71df	0.012417286
79	0x3d8c9e36	0.06866114
80	0x3e25c192	0.16187122
81	0xbdbb36a4	-0.09141281
82	0xbe0f8772	-0.14016512
83	0x3de86b07	0.11348539
84	0x3d8e5205	0.06949238
85	0x3e149686	0.14510545
86	0x3d2dc10d	0.042420436
87	0xbd1620da	-0.036652423
88	0xbdf5129b	-0.11966439
89	0xbeb7d938	-0.35907912
90	0xbe861d08	-0.26194024
91	0xbea6828a	-0.32521468
92	0xbea99110	-0.33118486
93	0xbeb523b7	-0.3537881
94	0xbea7f3c9	-0.3280318
95	0x3ebeccd5	0.3726565
96	0x3e516a74	0.20450765
97	0x3cc85c37	0.024458034
98	0xbecbac24	-0.3977977
99	0xbe535b3d	-0.20640273
100	0x3df38fe4	0.11892679
101	0x3eb81eb1	0.35960916
102	0xbd6d129a	-0.057879068
103	0xbdcec61d	-0.10096381
104	0xbd66bc39	-0.056331847
105	0x3e9bf49e	0.30460066
106	0xbd9814b4	-0.07425824
107	0x3ec78f83	0.38976678
108	0x3a97a526	0.0011569604
109	0xbe7293d9	-0.23689212
110	0xbe946130	-0.28980398
111	0x3b618407	0.003441097
112	0x3eab44c9	0.33450916
113	0x3e4522c3	0.19251542
114	0x3d694c20	0.056957364
115	0x3e9fa42a	0.31179935
116	0x3bdbb183	0.0067045107
117	0xbd089b6b	-0.033351343
118	0xbd83eaa2	-0.06441237
119	0x3d907a2c	0.070545524
120	0xbe6eee8b	-0.23333184
121	0xbe9b6d61	-0.30356887
122	0x3e920e48	0.2852652
123	0xbc620f71	-0.013797627
124	0x3ebdc481	0.37063983
125	0xbe529a55	-0.20566685
126	0x3d7e4f76	0.0620875
127	0x3e50385e	0.20334002

fc2.weight f4 [128, 128]
0	0x3d2befd7	0.041976776
1	0xbc9075c6	-0.017634284
2	0xbcbb8ffa	-0.022895802
3	0xbd21fd6a	-0.039548315
4	0x3d066c2b	0.032818
5	0xbda88357	-0.08228176
6	0x3c38c320	0.01127699
7	0x3ca537e7	0.020168258
8	0x3d891cec	0.066949695
9	0xbc5527a6	-0.013009941
10	0x3c453db3	0.012038636
11	0xbda74612	-0.08167662
12	0xbcdc31f4	-0.026879288
13	0x3c873e23	0.016509121
14	0xbcb2ca78	-0.02182506
15	0xbc99bef4	-0.018767811
16	0x3daa94e3	0.08329179
17	0x3d766236	0.060152255
18	0xbd5034d6	-0.05083164
19	0x3d9dea3d	0.07710693
20	0x3d0bf9df	0.034173843
21	0xbd135d87	-0.035977867
22	0x3d829aed	0.06377206
23	0xbd11ca7d	-0.0355935
24	0xbc58a301	-0.013222457
25	0x3cf0ceb8	0.029395446
26	0x3d6419df	0.055688735
27	0x3d085ade	0.033289783
28	0xbd5899d8	-0.05288109
29	0xbca72b3b	-0.020406356
30	0x3c455d2a	0.012046138
31	0x3d040d9d	0.032239545
32	0x3bf7574a	0.0075482475
33	0x3d845659	0.06461782
34	0xbc427a6a	-0.011870006
35	0xbda40c46	-0.080101535
36	0x3c8dd00e	0.017311122
37	0xbd56e3fd	-0.05246352
38	0xbd67bd16	-0.05657681
39	0xbcf7ebd4	-0.030263819
40	0xbd3f4c56	-0.04670366
41	0xbcb81d38	-0.02247487
42	0xbd6f3775	-0.058402497
43	0xbaee7049	-0.0018191423
44	0x3c028353	0.00796588
45	0x3d7a503f	0.061111685
46	0x3d835827	0.06413298
47	0x3d054ecf	0.03254586
48	0xb7b84a2a	-2.1969045e-05
49	0x3cf72455	0.030168692
50	0x3afbb156	0.001920263
51	0xbd7150e1	-0.058915023
52	0xbd1ce380	-0.0383029
53	0xbd6aa2d7	-0.057284202
54	0xbc504cd2	-0.012713628
55	0xbd3e86e3	-0.046515357
56	0xbd2f414e	-0.04278689
57	0x3c41ba70	0.011824235
58	0x3db36b41	0.087606914
59	0xbc3c7788	-0.011503108
60	0x3d5c627e	0.053804867
61	0xbd7abfea	-0.06121818
62	0xbbfbbf7b	-0.0076827384
63	0xbd8f3c3e	-0.06993912
64	0x3d12a11b	0.035798173
65	0xbd42d6dc	-0.047568187
66	0xbd598470	-0.053104818
67	0x3c92a0fc	0.017899029
68	0x3d3966ff	0.04526424
69	0xbd80608e	-0.06268416
70	0x3d7d4f2c	0.061843082
71	0xbc679638	-0.014134936
72	0x3a2845a7	0.00064190704
73	0xbc61d074	-0.013782609
74	0x3d7b6d5b	0.061383586
75	0xbd58367f	-0.052786347
76	0x3d491e3c	0.0491011
77	0xbcca7aba	-0.024716724
78	0xbd453ae4	-0.048151866
79	0xbc7117ba	-0.0147151295
80	0x3d9605f9	0.07325358
81	0xbd67e515	-0.056614954
82	0x3d819e07	0.063289694
83	0x3d46d742	0.04854513
84	0x3cf3cfd4	0.029762186
85	0xbc8c1ae8	-0.017102674
86	0xbd66a1cd	-0.05630665
87	0x3d2eed7e	0.04270696
88	0x3d873bfc	0.06603238
89	0xbd9ffc38	-0.07811779
90	0x3dafc5c6	0.08582644
91	0xbd8f016e	-0.069826946
92	0x3d434698	0.047674745
93	0xbd85f1fa	-0.06540294
94	0xbc843beb	-0.016141852
95	0xbc6f1242	-0.014591755
96	0x3db2fd6e	0.08739744
97	0xbdab821e	-0.08374427
98	0x3da2417d	0.07922647
99	0xbcf954d4	-0.030435957
100	0xbd2daceb	-0.042401236
101	0x3d04042e	0.03223055
102	0x3ba1c169	0.0049363864
103	0xbc45d56b	-0.012074809
104	0x3d6fc89a	0.058540918
105	0xbd7ec094	-0.062195376
106	0x3d6c76e1	0.05773056
107	0x3d789e46	0.060697816
108	0xbd44bea4	-0.04803337
109	0x3d3dc7a3	0.046332967
110	0xbd126c21	-0.03574765
111	0x3cc2ec86	0.023794424
112	0x3da06653	0.07832017
113	0x3d9a41e3	0.07532098
114	0xbd3500dc	-0.044190273
115	0xbda67e37	-0.08129542
116	0x3d454585	0.048162002
117	0xbd3d4cc7	-0.0462158
118	0x3d1ed01f	0.0387727
119	0xbd046a3c	-0.032327875
120	0xbd7b5e8d	-0.061369468
121	0x3d838fe5	0.0642393
122	0x3da315fb	0.07963177
123	0xbd0aba65	-0.033869166
124	0x3cf55698	0.029948518
125	0x3cd952e5	0.026528785
126	0xbd96a709	-0.07356078
127	0xbcd71fb5	-0.026260236
128	0x3d53d172	0.051713414
129	0x3d2129c8	0.039346486
130	0xbca40b18	-0.020024821
131	0xbd87ee1e	-0.06637214
132	0x3daf800c	0.08569345
133	0x3da7081a	0.08155842
134	0xbc064240	-0.008194506
135	0xbc939539	-0.01801549
136	0x3dabb5ce	0.08384286
137	0x3db209e5	0.086932935
138	0xbdb00316	-0.085943386
139	0x3b585604	0.0033010254
140	0x3d2b1188	0.041764766
141	0xbd61def3	-0.05514426
142	0xbd5faf3e	-0.054610483
143	0xbd642883	-0.055702697
144	0xbd0a1795	-0.033713896
145	0xbc86286b	-0.016376695
146	0xbd88e0c5	-0.066834964
147	0xbd350172	-0.04419083
148	0x3d5c7c8b	0.05382971
149	0xbd06d727	-0.03292003
150	0xbd688e01	-0.05677605
151	0xbceeff96	-0.029174607
152	0x3cb1b5f8	0.021693215
153	0xbd96df7d	-0.07366846
154	0x3d374c01	0.044750217
155	0xbd9c95f7	-0.07645791
156	0xbdadf7bf	-0.084945194
157	0xbd245fe4	-0.04013051
158	0xbaf43cdb	-0.0018633859
159	0x3d8a21cf	0.0674473
160	0x3d0b6844	0.034034982
161	0x3d39c743	0.045356046
162	0x3cc85c66	0.024458122
163	0xbd83283f	-0.06404161
164	0xbbdfba3c	-0.006827621
165	0x3da5f5ac	0.08103499
166	0xbd03fbb4	-0.032222465
167	0xbd5b8763	-0.05359591
168	0x3b4dceb4	0.0031403722
169	0x3d4ce493	0.050022673
170	0xbd91a2a3	-0.071110986
171	0xbdac47b9	-0.084121175
172	0xba5c306e	-0.00083995506
173	0x3ce3c07d	0.027801747
174	0x3d9b7514	0.0759069
175	0xbd81d381	-0.06339169
176	0x3d53d180	0.051713467
177	0xbd62200c	-0.055206344
178	0xbbe2e62b	-0.006924411
179	0x3d14f07d	0.03636216
180	0x3d29b4d7	0.041432228
181	0xbcc467ef	-0.02397534
182	0x3cc095df	0.023508964
183	0x3d97088e	0.073746786
184	0x3c04cb2d	0.0081050815
185	0xbd25f6b8	-0.040518492
186	0xbd1ebbd6	-0.038753353
187	0x3da82846	0.082108065
188	0xbd6bb3aa	-0.057544388
189	0x3da60688	0.081067145
190	0x3d809414	0.06278244
191	0x3c0950c1	0.00838107
192	0xbd59e52e	-0.05319708
193	0x3d3c7ec7	0.04601934
194	0x3ce60665	0.028079221
195	0x3d72b505	0.059254665
196	0xbc6d6149	-0.014488527
197	0x3ad4d568	0.0016237916
198	0x3d3f6bb1	0.046733562
199	0xbc8d2555	-0.017229715
200	0xbd7bde7b	-0.06149147
201	0xbd383f04	-0.04498197
202	0xbc90aca4	-0.017660446
203	0xbd62ea06	-0.055398963
204	0x3c8ce420	0.017198622
205	0x3d9533a5	0.07285241
206	0x3d651a63	0.055933367
207	0x3d9b9a26	0.07597761
208	0x3cf4f585	0.02990223
209	0xbd4ab392	-0.049487658
210	0xbc8f4080	-0.01748681
211	0x3d8d4c8e	0.06899367
212	0x3c1b002e	0.009460492
213	0x3d97b0b6	0.07406752
214	0x3dae99a6	0.085254
215	0x3d891f7b	0.066954575
216	0xbcddac6f	-0.027059762
217	0x3c42fc59	0.011900985
218	0xbc811374	-0.015756346
219	0x3d855cfa	0.065118745
220	0xbcf59795	-0.029979507
221	0x3d3584bf	0.04431605
222	0xbdb22bb1	-0.0869974
223	0x3d511fd9	0.051055763
224	0xbdaa6e40	-0.0832181
225	0x3d522c5d	0.05131184
226	0xbda3ee69	-0.080044575
227	0xbcd44643	-0.02591241
228	0x3da500fd	0.08056829
229	0xbc73462a	-0.014848271
230	0x3d34a216	0.04409989
231	0xbda8882e	-0.08229099
232	0xbd4b1154	-0.049577072
233	0xbd4c6767	-0.0499033
234	0x3da59673	0.080853365
235	0x3c86a97d	0.01643824
236	0xbdb19935	-0.086718
237	0x3d51598e	0.051110797
238	0xbcea5625	-0.02860553
239	0xbb85cd7d	-0.004083334
240	0xbdaaab3d	-0.08333442
241	0xbda3f9b0	-0.080066085
242	0xbcde85ef	-0.027163474
243	0x3dab09f6	0.08351509
244	0x3daefa76	0.085438654
245	0x3ccacc66	0.024755668
246	0x3d950a15	0.072773136
247	0xbc1fa589	-0.0097440565
248	0x3d866542	0.06562282
249	0xbda575a0	-0.08079076
250	0xbd80ebb5	-0.062949575
251	0x3c31300f	0.010814681
252	0x3c6efda9	0.0145868445
253	0xbd979e47	-0.07403236
254	0xbda64155	-0.0811793
255	0xbbfbd906	-0.0076857833

fc2.bias f4 [128]
0	0x3ca6a08c	0.020340227
1	0xbd1470f2	-0.036240526
2	0xbd1256f8	-0.03572747
3	0x3d616795	0.055030424
4	0x3da7247f	0.08161258
5	0xbd8e2cbf	-0.069421284
6	0xbd6fc478	-0.058536977
7	0x3dacdf09	0.08440978
8	0x3d7c8c7f	0.061657425
9	0x3d0ea01c	0.03482066
10	0x3d85a711	0.06526006
11	0x3cce8835	0.025211433
12	0x3d792316	0.060824476
13	0xbd9bc194	-0.076052815
14	0x3da2a08a	0.07940777
15	0xbbe0d6c2	-0.0068615386
16	0xbcc80dd8	-0.024420664
17	0x3d8aeb1e	0.06783126
18	0x3d17383a	0.036918856
19	0x3dacb58b	0.08433064
20	0xbd24f1f9	-0.040269826
21	0xbcdfd137	-0.027321441
22	0xbb4b7932	-0.003104758
23	0xbd805e50	-0.06267989
24	0x3dabc623	0.08387401
25	0x3d4ee1db	0.05050836
26	0xbd02d729	-0.031943474
27	0xbd0f2040	-0.034942865
28	0x3caadaee	0.020856347
29	0x3d118068	0.03552285
30	0xbc35656d	-0.011071545
31	0xbd8fc3f1	-0.07019795
32	0x3cabbfca	0.020965476
33	0x3d5655af	0.052327808
34	0x3d0efd1b	0.03490935
35	0xbda4ad74	-0.08040896
36	0xbd9db3cf	-0.077003114
37	0x3da860e6	0.08221607
38	0xbd83e8e5	-0.064409055
39	0xbda08ba0	-0.07839131
40	0xbbfb3fab	-0.007667502
41	0x3becb833	0.0072241067
42	0x3d65ac3a	0.05607245
43	0x3ce50217	0.027955098
44	0x3c8fc439	0.017549621
45	0x3d8c3f26	0.06847982
46	0xbd1af90e	-0.037835173
47	0x3d878fe1	0.066192396
48	0x3d499b9a	0.04922066
49	0x3d89db53	0.06731286
50	0x3d7ebec4	0.062193647
51	0x3ccb9d75	0.024855355
52	0x3d8a89d9	0.067645736
53	0x3d03ed57	0.032208767
54	0xbd1e55d6	-0.03865608
55	0xbd1e389a	-0.0386282
56	0x3caf73dd	0.021417553
57	0x3d79a8e5	0.060952086
58	0x3d9c4f58	0.07632321
59	0xbd9560c1	-0.07293845
60	0x3d75707b	0.059921723
61	0x3cce89cc	0.025212191
62	0xbda59c70	-0.08086479
63	0xbc8ac37a	-0.016938914
64	0x3d4807bc	0.0488355
65	0xbd438f18	-0.047743887
66	0xbd4eb2fd	-0.050463665
67	0x3ca8320d	0.020531679
68	0x3db2e78b	0.087355696
69	0x3db3485b	0.08754035
70	0xbd60e83f	-0.054908987
71	0x3da836f2	0.08213605
72	0x3db49815	0.0881807
73	0xbd2e2aa4	-0.042521134
74	0xbc0d970b	-0.0086419685
75	0x3bce8019	0.0063018915
76	0x3cd93867	0.026516153
77	0xbc5aa3ec	-0.013344746
78	0xbdb30f90	-0.08743203
79	0x3d459c8d	0.048245
80	0x3db24669	0.08704836
81	0x3d1c5bd5	0.038173515
82	0x3d5c9f64	0.053862944
83	0xbd8d55a2	-0.06901099
84	0x3d94f3a9	0.07273037
85	0x3da0a3f4	0.078437716
86	0x3da61909	0.08110244
87	0x3c83eaa0	0.016103089
88	0x3d2a8668	0.041632086
89	0xbd35d131	-0.044388954
90	0x3dae296e	0.08503996
91	0x3c2d33e2	0.010571452
92	0x3da2941a	0.079384044
93	0xbcabe02f	-0.020980923
94	0xbda7196d	-0.081591465
95	0x3d67e26b	0.056612413
96	0xbcb00637	-0.021487338
97	0x3cb4fd0a	0.022093315
98	0xbdb2e7c4	-0.08735612
99	0x3dae27dc	0.08503696
100	0x3d4e5b87	0.050380256
101	0xbd6afbf6	-0.057369195
102	0xbd14a3ca	-0.036289014
103	0xbbb9d3ab	-0.0056709847
104	0xbc3f22e8	-0.011666037
105	0x3d5a5f16	0.053313337
106	0xbca97de2	-0.020689908
107	0xbda8bbef	-0.082389705
108	0xbdb41546	-0.0879312
109	0x3d377fe6	0.044799708
110	0x3db05181	0.08609296
111	0xbccf275a	-0.025287319
112	0xbd013c63	-0.03155173
113	0x3ceb85bc	0.028750293
114	0x3b8e3ca4	0.004340725
115	0x3d888cd7	0.06667488
116	0xbd19dc2e	-0.037563495
117	0x3da5fb14	0.0810453
118	0xbb060669	-0.0020450598
119	0xbd3f90af	-0.04676884
120	0x3ca13742	0.01967967
121	0x3daade7e	0.08343218
122	0xbdae441d	-0.08509085
123	0xbcaac1ce	-0.020844366
124	0x3d6a572e	0.057212047
125	0x3c62e6ec	0.013849001
126	0xbda49e4c	-0.08038005
127	0xbc6598a9	-0.014013448

fc3.weight f4 [5, 128]
0	0x3aed3aed	0.0018099226
1	0xbd1c9188	-0.038224727
2	0xbdb245fb	-0.08704754
3	0xbdabaf97	-0.083831005
4	0x3d2e1721	0.042502526
5	0x3b92e7a6	0.004483181
6	0xbd1a91a1	-0.03773654
7	0xbce396ed	-0.027781928
8	0x3b9a9360	0.0047172755
9	0xbd529eb1	-0.05142087
10	0x3b6c3f8d	0.0036048621
11	0x3bce6a44	0.006299289
12	0xbda7eb71	-0.08199204
13	0x3d98314c	0.07431278
14	0xbd873ed9	-0.06603784
15	0x3d3950be	0.045243017
16	0x3cb1f431	0.021722885
17	0x3d099e9f	0.03359854
18	0xbd928bee	-0.07155596
19	0xbcddee92	-0.027091298
20	0x3d16a3bc	0.036777243
21	0x3b823f2e	0.0039748168
22	0xbd2322c7	-0.039828088
23	0xbd76c439	-0.060245726
24	0xbcfdc318	-0.030976817
25	0xbb7c6902	-0.0038514738
26	0x3d1a14b1	0.03761739
27	0x3c8f43c6	0.017488372
28	0xbbf5fa28	-0.0075066276
29	0xbd977cb6	-0.073968336
30	0x3d44dd17	0.04806241
31	0xbd64d8e7	-0.055870917
32	0x3d80bc64	0.06285933
33	0xbd5cd1bd	-0.05391096
34	0xbd01670f	-0.031592425
35	0xbda5ac05	-0.08089451
36	0xbd121960	-0.03566873
37	0x3d710f3b	0.058852416
38	0x3d742c46	0.059612535
39	0xbd29585a	-0.041344024
40	0x3cc9184a	0.024547715
41	0x3db4b15e	0.088228926
42	0xbda94a8f	-0.08266174
43	0x3b45132f	0.0030071249
44	0xbd1d46bf	-0.038397547
45	0xbc10d5b8	-0.008840017
46	0xbd9e7426	-0.07736997
47	0xbd9b7969	-0.075915165
48	0xbc7789fb	-0.015108581
49	0xbd86bc81	-0.06578923
50	0xbd2b11ee	-0.041765146
51	0xbdad9372	-0.084753886
52	0xbd211280	-0.039324284
53	0x3dad97c3	0.08476212
54	0x3d82803e	0.063721165
55	0xbd220986	-0.039559864
56	0x3d08fc57	0.033443775
57	0x3d9af3d7	0.0756604
58	0x3d3e7bee	0.046504907
59	0xbc91b6bc	-0.01778733
60	0xbd1c04a9	-0.03809038
61	0xbc2af00e	-0.01043321
62	0xbd76fcfd	-0.060299862
63	0x3d6c1d77	0.057645287
64	0xbd857980	-0.06517315
65	0xbd691490	-0.056904376
66	0xbd81b72c	-0.063337654
67	0xbcf896dc	-0.030345373
68	0x3d98f3d9	0.07468385
69	0x3da5afcb	0.080901705
70	0xbd213723	-0.039359223
71	0x3d2fe4ab	0.042942684
72	0xbd161599	-0.03664169
73	0x3c57e2fb	0.013176675
74	0xbd0c1cbb	-0.034207087
75	0x3d9560f0	0.0729388
76	0xbc60ae95	-0.013713499
77	0x3d838680	0.06422138
78	0xbd7ca605	-0.061681766
79	0x3d493c4c	0.04912977
80	0x3d270b11	0.040782038
81	0xbcbbb02c	-0.022911154
82	0xbd21f9ec	-0.039544985
83	0xbd398bc7	-0.045299318
84	0x3ce245f2	0.027621243
85	0x3d9ef38e	0.07761298
86	0x3c49e6ad	0.012323064
87	0xbd7755d8	-0.0603846
88	0x3d2f1e7b	0.042753678
89	0xbbe7d1f8	-0.007074591
90	0xbc3a977e	-0.011388658
91	0xbd3ba1eb	-0.045808714
92	0x3c7d1766	0.015447473
93	0xbc943a71	-0.018094273
94	0xbca3def7	-0.020003779
95	0xbd1ab56d	-0.037770677
96	0x3d5dc76d	0.054145265
97	0x3ce542fd	0.027986044
98	0xbc8b3519	-0.016993092
99	0x3d07819c	0.03308259
100	0xbd1930e5	-0.037400145
101	0x3d220967	0.039559748
102	0x3ca192cf	0.019723324
103	0x3d66c6b4	0.05634184
104	0xbb312b3e	-0.002703383
105	0x3ce54b52	0.027990017
106	0xbd0f3f46	-0.03497245
107	0xbcf16166	-0.029465389
108	0xba66e697	-0.0008808164
109	0x3d77723d	0.06041168
110	0x3d13bfdc	0.036071643
111	0xbd892807	-0.06697088
112	0x3da6f149	0.0815149
113	0x3c331f41	0.0109327445
114	0xbd48b1cb	-0.04899768
115	0xbdab0fca	-0.08352621
116	0xbd65a645	-0.05606677
117	0x3d95987d	0.073044755
118	0x3c7c854b	0.015412639
119	0x3d92c96f	0.07167327
120	0x3d72fdda	0.059324123
121	0x3d11bd16	0.035580717
122	0x3d7cc234	0.061708644
123	0x3d9a3a3f	0.07530641
124	0x3d1268f2	0.035744615
125	0x3d18525d	0.037187923
126	0xbd721bd2	-0.059108563
127	0x3d227b86	0.039668582
128	0x398b1169	0.00026525118
129	0x3d7e1d56	0.062039696
130	0xbcddfa10	-0.027096778
131	0x3dad7fe2	0.08471657
132	0x3cdffa1e	0.027340945
133	0xbd95eb08	-0.07320219
134	0x3cd7c4a9	0.026338892
135	0xbdaea647	-0.08527809
136	0x3d79a102	0.060944565
137	0xbdae4cbc	-0.0851073
138	0xbd458f89	-0.04823259
139	0xbd9e9945	-0.077440776
140	0xbcede11e	-0.029038008
141	0xbd933e10	-0.07189572
142	0xbc84aa6d	-0.016194547
143	0x3d1c0f1d	0.03810035
144	0x3cb5c44a	0.022188324
145	0x3d6c810e	0.057740264
146	0x3c70396e	0.01466213
147	0x3d1a7016	0.03770455
148	0x3ae88cbc	0.0017742137
149	0x3dabf8ec	0.083970875
150	0x3d2e92bd	0.04262041
151	0xbd903dc4	-0.07043031
152	0x3dab176e	0.08354078
153	0xbc6229a3	-0.013803872
154	0x3cdf033a	0.027223218
155	0x3d809702	0.062788025
156	0x3d84cfe0	0.064849615
157	0xbdade1e2	-0.08490349
158	0x3cd46143	0.025925284
159	0xbdb37928	-0.08763343
160	0x3d9b066b	0.075695835
161	0x3d042115	0.032258112
162	0xbdadca27	-0.08485823
163	0xbb96cbe0	-0.0046019405
164	0x3d3402b9	0.04394791
165	0x3b583b53	0.0032994344
166	0x3db3277e	0.08747767
167	0xbd206496	-0.039158426
168	0x3d54449a	0.051823236
169	0xbdabfbf1	-0.083976634
170	0x3c9afcde	0.018919405
171	0x3daf4fec	0.08560166
172	0xbce13c3a	-0.027494539
173	0xbca83f5b	-0.020538023
174	0x3ccdb27c	0.025109522
175	0x3d5d4795	0.054023344
176	0xbd8092c1	-0.06277991
177	0xbce47cc7	-0.02789153
178	0xbced084d	-0.028934622
179	0xbc2ebcfd	-0.0106651755
180	0xbd613974	-0.054986432
181	0xbd287bec	-0.041133806
182	0xbcc0557b	-0.02347826
183	0x3d275cd3	0.04086001
184	0xbdb462d7	-0.08807915
185	0x3d1399ff	0.036035534
186	0xbd326cbc	-0.04356073
187	0x3d1f8a5b	0.038950305
188	0x3d436680	0.047705173
189	0x3c992047	0.018692149
190	0x3c93d41c	0.018045478
191	0x3caed6d2	0.021342669
192	0xbce495ed	-0.027903521
193	0xbd2f3b6b	-0.042781275
194	0xbdb127eb	-0.08650192
195	0x3cb1d8d1	0.021709831
196	0xbc9481a4	-0.018128224
197	0x3c0e4e2f	0.008685633
198	0xbdb498b5	-0.08818189
199	0x38e0aee5	0.00010713729
200	0xbd70bea7	-0.05877557
201	0xbd24c332	-0.040225215
202	0xbc93779d	-0.018001372
203	0x3ba0fbf3	0.004912847
204	0x3da36343	0.07977917
205	0xbda334ee	-0.0796908
206	0xbbcfe5b8	-0.0063445233
207	0x3cb38454	0.021913685
208	0xbd3b00eb	-0.045655172
209	0xbd6f798f	-0.058465537
210	0xbd159ef8	-0.036528558
211	0x3da96e74	0.082730204
212	0xbd7c635d	-0.061618198
213	0xbd0995b5	-0.033590037
214	0xbb4cf681	-0.0031274857
215	0x3cc0589e	0.023479756
216	0x3db3289e	0.087479815
217	0xbd78a13c	-0.06070064
218	0xbd838505	-0.06421856
219	0x3cd40852	0.025882874
220	0xbbf2a9e5	-0.007405507
221	0xbda30756	-0.079603836
222	0x3d9ed001	0.07754517
223	0xbd81eb74	-0.06343737
224	0x3c84da61	0.016217412
225	0x3d5f5fc2	0.05453468
226	0xbd40230b	-0.04690842
227	0xbda0053b	-0.07813498
228	0xbc9752f4	-0.018472172
229	0x3cce41e5	0.025177905
230	0x3c15a3ff	0.009133338
231	0xbd74f1ad	-0.059800792
232	0x3d3d6376	0.04623743
233	0x3d8e20aa	0.06939824
234	0xbda0a061	-0.0784309
235	0x3d9f1a72	0.07768716
236	0xbc0b52ff	-0.0085036745
237	0xbdaaf54d	-0.08347569
238	0x398a9d72	0.00026438717
239	0xbc6ef5c0	-0.014584959
240	0x3d49b342	0.04924322
241	0x3d9f447c	0.07776734
242	0x3cee7547	0.029108657
243	0xbbf1e6bb	-0.0073822415
244	0xbd8af89c	-0.067857
245	0xbd9111b2	-0.07083453
246	0xbd7e83d3	-0.062137436
247	0xbda73790	-0.081648946
248	0xba3c92e3	-0.00071935187
249	0xbd3321ad	-0.043733288
250	0xbd0f0ca9	-0.034924183
251	0x3d6adcd6	0.05733951
252	0x3c22fabf	0.009947478
253	0xbcdb67e6	-0.026782941
254	0xbd9c5900	-0.07634163
255	0x3cabd265	0.020974347

fc3.bias f4 [5]
0	0x3d2db871	0.042412225
1	0xbd83206b	-0.064026676
2	0x3d1184d9	0.035527084
3	0xbd2558ac	-0.040367767
4	0xbcdf25da	-0.027239729
