dynamics/src/dynamics/old/outputs/DDQN_RobotOptEnv/20230116-200347/models/model_max_eps.pkl (torch, 79767 bytes, 6 tensors)

nn.0.weight f4 [128, 10]
00000000: 215b 27bd e944 3dbe ac13 fc3d bef7 93be
00000010: fdec c7bd 6fe8 353e 6cae 40be f11e f3bd
00000020: db3e a5bd 77f9 6b3c 2883 263e 2d9b 003e
00000030: cb26 2dbe d163 17be 1477 313e 88e5 893c
00000040: ff0c d63d 47d4 02bd 44af 34bc 19f9 413e
00000050: 0c49 28bf 9e20 24bf c9f9 a4be 88a4 32bf
00000060: b22a 06bf 17ee dfbe 7ef3 4cbe 645c abbe
00000070: cf05 38be c69c fbbe fc91 44be 9243 64bc
00000080: 287c 87be 37a4 98be 0047 59be b702 fcbd
00000090: 10ff 25be 7733 a7bd 851d 063d b146 9fbe
000000a0: b20e 7dbd 47b4 8f3d 41de 55be 5c75 febd
000000b0: e9ec 323e 4ae1 37be f661 5b3e c95d 6dbe
000000c0: c0d6 9fbe 6f45 753e a013 2ebe 4dab a4be
000000d0: 01cf e6be 9abf 8ebe d0e5 b5be c11a 99be
000000e0: 7717 24bf 4e6c d4be 1e9c 25bf c349 70be
000000f0: d200 28bf 9c9c 31bf 1e40 27bf d22b 29bf
00000100: f48c 00bf 7a64 01bf cd8b 03bf b321 06bf
00000110: d01c a8be 535c 0dbf d4ba 53bf 0388 68bf
00000120: 8d12 5cbf adf2 43bf fa01 3cbf 2d90 41bf
00000130: 59a1 2fbf 62d7 01bf 3149 03bf 0d39 41bf
00000140: d64b 42bf e9b1 59be e36c 2cbf 5e88 40be
00000150: a31d 41bf 6775 00bf fa11 c6be b63a e1be
00000160: a1dc 38be 9bf4 17bf a8c9 2bbf 7b64 1fbf
00000170: 993b 68bf 4b87 0cbf 4e3f 21bf ae67 16bf
00000180: 0b4e e2be cb32 d1be 9bae e3be 631a 78bf
00000190: e88d 983e 05f4 84be 01c4 6d3e 0548 9b3e
000001a0: a213 b23c af90 6e3e d7e4 d9bd 45c7 54be
000001b0: 8739 9dbd 38ba bebd 8525 df3d d93e 323e
000001c0: 20ac 273b 3eff b2bd cc3c 9bbd 5458 01be
000001d0: 394c 6dbe e6b1 39be 2c97 903e 997d e4bc
000001e0: 595d 9ebd 17a3 903e 18d4 62be b71a 13be
000001f0: 5c12 82be 3c7c 0abe ebff f3bd b471 84bd
00000200: 60f5 813b 7f81 6bbd 5ff5 b7bd 9a03 a53d
00000210: b2af 95be 62e5 663e 65fd 95be 31f8 23be
00000220: 3f58 87bd 713c 40be c3c4 0a3e 9b38 f53d
00000230: 4728 313e b1e2 9cbe 8914 24be 74ea d9bc
00000240: 9898 153e a8fc 333e c15f 8cbe f34c 42be
00000250: 47c9 173c e34a 78bd 3fa7 963e 5cb3 99be
00000260: 8674 65be adde b0bc 7118 4dbe bea9 8fbe
00000270: 52a5 433e 4114 47bd 5b79 7abe 7596 653e
00000280: f7b3 46bd f298 7b3e 19cd 2b3e 9cdb 3cbe
00000290: fba7 72be 77c5 0cbe b4db 423e e017 46be
000002a0: 8b08 98be 1f98 9c3e b5e6 29bf 3d2f b7be
000002b0: 4e68 6abf 7420 39bf 7ecc 94be c764 97be
000002c0: a005 f9be e678 04bf cda8 03bf 7bf6 39bf
000002d0: e177 693d e4d4 993e 5148 9cbe a81a 8bbe
000002e0: 3cf5 ebbd 20e8 83be 1b58 6cbe f977 00be
000002f0: ac9d 6dbe fcbf 1d3d 260e 51be 2278 083d
00000300: 2055 333e 9b3d d1bd 3fd7 3abe 20cb 3c3e
00000310: d0cf a6bd 5e76 19be 9b2f 163d ee2e f63a
00000320: 0c3b 14bf 17cb babe ef10 2abf a26b cdbe
00000330: 45ea 68bf dd7a 00bf ee9b 50bf 8108 1bbf
00000340: 89ec 33bf c734 26bf e79b 31bf 77a2 e3be
00000350: 4ffe 68bf 257d 70bf 4670 2dbf 8a6f 58bf
00000360: 2d07 cabe 5b91 d0be 7f21 4dbf b5c9 77bf
00000370: 0d81 08bf 4f2d 1ebf e6b1 20bf fea6 4dbf
00000380: cef9 48bf e13d d8be dee0 53bf d4f7 12bf
00000390: 1411 ffbe 6799 11bf 2ca0 58be ab7c e4bd
000003a0: 1432 373e a836 0fbe 3445 143e 75d0 67be
000003b0: 6ae5 4ebe 6b06 cdbd df9e d9bc 0109 233c
000003c0: 078f edbc 67f8 813e 1665 dd3d 777d 33be
000003d0: aa3c ec3b 4cf7 6e3e 5788 3f3d c845 94be
000003e0: f57f 183e 0f7f f7bd 6e1d 193e b2f6 ce3c
000003f0: 16dd 7dbe 01fb 9bbe 7dcb 7cbe 1920 683e
-0.04085839 -0.18483318 0.123084396 -0.2889995 -0.09761999 0.17764448 -0.18816537 -0.11871136
-0.08068629 0.014402739 0.1626097 0.12559195 -0.1690933 -0.1478417 0.17330581 0.016833082
0.104516976 -0.031940725 -0.011028115 0.1894268 -0.6573646 -0.6411227 -0.3222182 -0.69782305
-0.524089 -0.43736336 -0.2001476 -0.33468926 -0.17970966 -0.49143046 -0.19196314 -0.013932126
-0.2646191 -0.29812786 -0.2121849 -0.12305205 -0.1621058 -0.08164113 0.032742996 -0.3110862
-0.061781593 0.07016807 -0.20885564 -0.12424728 0.17473187 -0.17957035 0.21424088 -0.23180307
-0.3121853 0.23952268 -0.16999674 -0.32161942 -0.45079806 -0.27880555 -0.35526896 -0.29903224
-0.64098305 -0.4148888 -0.6469134 -0.23465638 -0.6562625 -0.6937959 -0.6533221 -0.6608249
-0.5021508 -0.5054394 -0.51385194 -0.5239517 -0.32834482 -0.55219 -0.8270695 -0.9083254
-0.85965806 -0.7654217 -0.73440516 -0.7561062 -0.6860557 -0.50719273 -0.51283556 -0.7547768
-0.75896966 -0.21259274 -0.6735365 -0.1880202 -0.7543585 -0.5017914 -0.3868559 -0.43990105
-0.18052913 -0.59357613 -0.6710458 -0.62262696 -0.9071594 -0.5489394 -0.6298722 -0.5875195
-0.44200167 -0.40859064 -0.4446915 -0.9691526 0.29795766 -0.25967422 0.23219301 0.30328384
0.021737877 0.2329738 -0.10639351 -0.2077914 -0.07676988 -0.09312862 0.10895828 0.17406787
0.0025584772 -0.0874009 -0.075799555 -0.12631351 -0.23173608 -0.18134269 0.28240335 -0.02789192
-0.077326484 0.28249428 -0.2215122 -0.1436566 -0.25404632 -0.13523954 -0.11914047 -0.06467
0.0039660186 -0.057496544 -0.08982348 0.080573276 -0.29235607 0.2254844 -0.29294887 -0.16012646
-0.066086285 -0.18773057 0.13551621 0.11973687 0.17300521 -0.30641702 -0.16023459 -0.026601054
0.14608991 0.1757685 -0.27416804 -0.18974666 0.009264297 -0.060618293 0.29424474 -0.30019653
-0.22407731 -0.021590555 -0.20028855 -0.2805919 0.19106033 -0.0486033 -0.24460356 0.22420676
-0.04851147 0.24570063 0.16777457 -0.1844315 -0.23696892 -0.13747202 0.19029123 -0.19345045
-0.29694018 0.3058481 -0.66367656 -0.35778227 -0.91565406 -0.72315145 -0.29062265 -0.29569075
-0.48637104 -0.51746976 -0.51429445 -0.72641724 0.05699909 0.30045235 -0.30523923 -0.27168775
-0.11521384 -0.25763035 -0.23080485 -0.12545766 -0.23204678 0.03851317 -0.20415553 0.033317693
0.17512941 -0.102168284 -0.18246172 0.18436861 -0.08145106 -0.1498656 0.036666494 0.0018782297
-0.579026 -0.3648307 -0.6643209 -0.4012118 -0.90982467 -0.50187474 -0.8148793 -0.6055985
-0.702828 -0.6492428 -0.69378513 -0.44459888 -0.91013044 -0.93940955 -0.6774944 -0.84545195
-0.394586 -0.40735897 -0.80129236 -0.96792156 -0.53321916 -0.61787885 -0.6277145 -0.80332935
-0.7850617 -0.4223471 -0.82764995 -0.57409406 -0.49817717 -0.568747 -0.2115485 -0.11156591
0.17890197 -0.13985693 0.14479524 -0.22638114 -0.20204702 -0.1001099 -0.026565013 0.009950877
-0.028998865 0.25384828 0.10810296 -0.1752833 0.00720938 0.23336524 0.046760883 -0.2895949
0.14892562 -0.120847814 0.14952633 0.025264118 -0.24791369 -0.30464938 -0.24687 0.22668494

nn.0.bias f4 [128]
00000000: 3b1b f7bc b57e 76be 37be c5be c139 753e
00000010: 33de 8c3d d9bd 2abf 05e0 3cbf 8ced 93be
00000020: d5a8 b2be 9299 36bf 5958 c83a 2171 14be
00000030: a3af f03d c39a 9f3c 9ed7 63bd c0ba 373e
00000040: 9fb5 c93d bc1a eabe 899a 49be 5762 b33d
00000050: 9cef 0fbf 2bd0 54bf ffc6 43bf 116b 9b3c
00000060: 1e8f 85be 6943 7cbe 05b7 e2be fc18 5fbf
00000070: 2f3a c6be 2efc 243e 317b 413d 5ae9 c73c
00000080: 2740 44bf a796 c9be 8f34 61bf 450b 08bf
00000090: e637 e7be e96e 6d3e 4ddb 05bf 4f04 eabe
000000a0: 1396 72b9 295b 8d3e 5a93 8f3e 7401 4b3e
000000b0: bf60 c1bd 5499 fabe cd14 cabe cafa fabe
000000c0: a453 593e 176b 543e 98fa 6cbf 84a0 76bf
000000d0: a8db 82be 6171 9abe 110a 31bf 0ec5 49bf
000000e0: 00dc 673e e0f4 24c0 3bf6 37bf f9b6 b73c
000000f0: 4dc9 91bd e395 62bf 29a9 c4bf 1a0a 823e
00000100: 28dc 53be bc5b 1fbf 1dbc c43d c539 2f3e
00000110: 7f49 16be cf31 5d3e 56c1 c8bb 10ff 91be
00000120: 20e3 b03d 5318 6f3e 8eeb a1be 7555 f6be
00000130: b118 9fbd e597 6fbd 0f9a aabc 8faf 553e
00000140: 97c7 d03d 0c48 9a3e 9365 31bf a01a 9a3e
00000150: f3ee c6be 4a24 a8bc 9d04 babe d72f 82be
00000160: da85 173e b6c8 3dbe 12c9 e63c b49f 31bf
00000170: 6eb2 073e 46ae 093c ee6c 873e 625c 47bf
00000180: f0eb 483e def4 27bf a71d df3d 4caa 823e
00000190: aa29 0fbf 6b8d 4d3e e64e 7ebe 19e9 a6be
000001a0: 7bbe f9be c489 e33d 7472 27bf 5103 3a3e
000001b0: d16f cfbf 065d 1b3e 12a8 ea3d 18da 5c3e
000001c0: 6c1d f7be 656e 383e 9c18 34bf 9b20 a6be
000001d0: d0eb 053e e98c 65be 5da1 0dbf 09db afbe
000001e0: 47e3 4cbe 122a 953e f391 71bf 2fcb a2be
000001f0: 575e 09bf 8d98 f0bc 0a98 3bbe 2095 47bf
-0.030164352 -0.24071772 -0.38621685 0.23947813 0.06878319 -0.66695935 -0.73779327 -0.2889217
-0.34894434 -0.7132808 0.0015285119 -0.1449628 0.1175225 0.019482976 -0.05562555 0.17942333
0.098490946 -0.45723522 -0.19687857 0.08758991 -0.5622499 -0.8313014 -0.7647552 0.018971952
-0.26085752 -0.2463509 -0.44280258 -0.871475 -0.38716266 0.16111824 0.047236625 0.024403263
-0.7666039 -0.3937275 -0.87970823 -0.53142196 -0.45159835 0.2318684 -0.5228775 -0.45706412
-0.00023134825 0.27608612 0.28042108 0.19824773 -0.09442281 -0.48945105 -0.39468995 -0.49019462
0.21223313 0.20743977 -0.92569876 -0.9633868 -0.2555821 -0.30164626 -0.69155985 -0.78816307
0.22642517 -2.577446 -0.7186009 0.022426115 -0.07118473 -0.8850996 -1.5364124 0.25398332
-0.20689452 -0.6224935 0.09606192 0.17111881 -0.14676474 0.21601032 -0.006126563 -0.2851491
0.08637071 0.23349123 -0.31625026 -0.48112074 -0.077683814 -0.058494467 -0.020825414 0.20867752
0.10194319 0.30133092 -0.69295615 0.30098438 -0.3885418 -0.020525116 -0.36331645 -0.25427124
0.14797154 -0.18533596 0.02817205 -0.6938431 0.1325166 0.008403366 0.26450294 -0.7787534
0.19621253 -0.6560801 0.108943276 0.2552055 -0.5592295 0.20073478 -0.24834785 -0.32599714
-0.48778138 0.11110261 -0.65409017 0.18165328 -1.6205999 0.15172204 0.11457838 0.21567571
-0.48264635 0.18010862 -0.7035005 -0.3244675 0.13078237 -0.22417034 -0.55324346 -0.34346798
-0.20008574 0.2913366 -0.94363326 -0.31795642 -0.53659576 -0.029369617 -0.18319717 -0.7796192

nn.2.weight f4 [128, 128]
00000000: d61c 923d 0bc0 853d 02f3 e83e b8e7 333d
00000010: 052f f9bc 77d6 adbd 66d2 78bd 2301 593a
00000020: 4e02 aabd 4c9e 9d3d ba9d 703d b197 a2bd
00000030: 6794 ad3d 613e 703c d995 923c 9f26 a9bd
00000040: 515a c53c a5bf 03bd 201a 55bd 1a4f 873d
00000050: 067e 41bd 2a1e 67bd 14b2 80bd b836 5c3d
00000060: fd49 0ebd d551 8c3d d1fe 0d3f d2ea 083d
00000070: 9bfe ad3e 8e43 c13c bc6b b43d 0812 b23d
00000080: 7b59 e93e 4884 f7bc 79e5 a0bd 0f82 df3e
00000090: 7580 f7bc 8b91 50bc 66e1 ea3e 13d9 ac3d
000000a0: df83 383d a358 a3bc 7e80 5bbc dbc9 ec3c
000000b0: 0158 613d d51f a0bd 79ea 9fbd ad46 b03d
000000c0: f067 173d 9122 29bd 4fd5 8d3d 278f 25bd
000000d0: 4cae 963d 6e57 013f e7c4 013f 5605 013f
000000e0: 8123 a13c 777d 3440 c79c 68bd a533 a03d
000000f0: 34c9 993d 9cd5 c6bc ed2b d73f 634b 9a3d
00000100: 7a43 8a3d baeb 0a3d 3714 e8bc 5aaa 27bc
00000110: ef5b c4bc c718 53bd 4db3 3cbd 8574 cabc
00000120: a944 5abd b243 a2ba 9e77 15bf 120c 833e
00000130: b3bc 61bc f2fb 8cbc 47bb 6bbd d8e4 14bd
00000140: a110 3d3d 747f 98bd 7acc 063f 1bd9 ebbb
00000150: 40d7 9b3c 986a aa3d bedc 103f 2891 b93e
00000160: d8a0 e33c 29e2 903d 8296 86bd a486 eb3a
00000170: 732f 7d3d 75e3 54bd 9185 26bc 9108 263f
00000180: 49f7 3ebc 8680 c63e 85ff cc3b adb1 c7bc
00000190: bfc7 a7bd 488e c2bc 5c3b a83d 99b1 173b
000001a0: 7430 bb3e 9c93 8f3d 2d30 de3c 70c0 91bd
000001b0: 8f8a e33f d109 3abd 812c a03c 4b08 803d
000001c0: b6a6 d9bc 3533 64bd eca3 173f 59c3 89bd
000001d0: 2956 a1bd 35ac 343d a577 9dbd f1e3 f6bb
000001e0: 3ab6 d0bc c5c5 37bd 291b acbd f1f9 193d
000001f0: fe2f e73e 51cc 2b3c b878 bd3c 6a33 4b3d
00000200: 17bb 193c 2e45 88bd be37 e9be b5c7 5ebd
00000210: 144b 5e3d 3fe7 f9be 8b37 033f b487 053f
00000220: 0a47 eabe d8df bbbe 175a 593d 00ec ab3d
00000230: 49cd 583d 6409 a33d ac7d b3bd 84e3 82bc
00000240: 1b7c 93bd 2e98 073f 5649 a53d ce33 9abd
00000250: 257d 0e3f 10a7 09bf 0cb9 1e3f a1e3 a5bd
00000260: 3883 663d 43f1 453d 0b2c 09bf ccc2 2b3f
00000270: d5ac fbbe 71c5 acbb 8397 653c 37a4 a6bd
00000280: 6c29 bebe 28ce ddbe d326 273f ae0e 0abf
00000290: 7018 03bf 357d 6d3d 616d d7be 640a bebe
000002a0: ac8e 99bd 000e 78bd aaf3 b03d bee5 463d
000002b0: bf52 c3bc 7be4 00bf 20d6 f8be a2bf 233f
000002c0: e793 493c 9cc3 f3bc 0069 cbbe c3ba 04bf
000002d0: 4ed0 983c b0c9 e2be ec2a 03bf 6fa0 dcbe
000002e0: 551d 40bd 690c 543d bad7 cbbe 8e6f e63c
000002f0: d788 8c3c 3e59 d2be c551 7fbd aac9 343d
00000300: cfda 5ebd b7f9 fbbe fbdd 1b3d 5568 0dba
00000310: 5b53 8ebc 7892 40bd e646 873d 9171 253f
00000320: c367 4bbd e5c1 8c3c 3e78 a63d 9268 d7be
00000330: 20c9 d7bb 1c96 86bc 9e0d efba 06f4 253d
00000340: 60d5 5c3d 67f0 1a3d 637f c2be 13de 0b3d
00000350: 3ba4 1d3f 0660 c8bc c4e7 d5be 9637 d5be
00000360: 7e8f b63c 23ad a3bd d3fd 013d fe88 cdbe
00000370: 3e7f ab3c e68c 973d 8c65 8dbc a4cd d9be
00000380: 11ce 4cbd 23d7 c9be 9af6 1e3d 8840 55bc
00000390: 09cc c7be 7f14 c8bc aced 833c 6f9f f7be
000003a0: 88aa f0be 283a 05bd 218a 133f 1957 82bd
000003b0: 305b 6fbd c94a 6cbd 4ded 9ebd 7b48 9b3d
000003c0: 0c94 e4be 5323 803c 1632 f2be 9ce0 f6be
000003d0: 49b0 47bc 4c63 86bd 9091 223f b312 073f
000003e0: 250a 3d3d 0939 133d 0a98 ebbe 556b 233f
000003f0: e391 e5be 8d97 e63c 5d7a 8d3a 70ca e1be
0.07134406 0.0653077 0.454979 0.043922156 -0.030417928 -0.084881715 -0.060747527 0.00082780625
-0.08301221 0.07696208 0.05874417 -0.07939089 0.08475571 0.01466331 0.017893719 -0.082593195
0.024090918 -0.03216519 -0.052026868 0.06606884 -0.047239326 -0.05642525 -0.06283966 0.05376312
-0.03473853 0.06851546 0.55466944 0.033427067 0.3398331 0.023591783 0.08809611 0.086948454
0.4557608 -0.030214444 -0.078562684 0.43653914 -0.03021262 -0.012730013 0.4587509 0.08439841
0.045047637 -0.019939726 -0.013397334 0.028904846 0.055015568 -0.078185715 -0.07808394 0.0860723
0.036964357 -0.04129273 0.06925451 -0.040419724 0.07357463 0.5052403 0.50691074 0.50398767
0.01967025 2.8201578 -0.05679014 0.078223504 0.075090796 -0.024271779 1.681028 0.0753391
0.067511514 0.033916213 -0.028329952 -0.010233486 -0.023969619 -0.0515373 -0.046069432 -0.024713764
-0.053288136 -0.0012379794 -0.58385646 0.25595146 -0.0137779 -0.01720998 -0.05755165 -0.036351055
0.046158437 -0.07446185 0.52655756 -0.007197512 0.019023538 0.083211124 0.56586826 0.36243558
0.027786657 0.070743866 -0.06571676 0.0017969203 0.06181283 -0.051974732 -0.010163681 0.6485682
-0.011655637 0.3876993 0.0062560462 -0.024376715 -0.081923954 -0.023749486 0.08214447 0.0023146628
0.36560404 0.07010576 0.027122581 -0.07116783 1.777666 -0.045419518 0.019552471 0.06251582
-0.026568752 -0.055712897 0.592345 -0.06726713 -0.07877762 0.044109542 -0.07688836 -0.007534497
-0.025477517 -0.044866342 -0.08403618 0.03759188 0.45153803 0.010485725 0.023128852 0.04960958
0.009382985 -0.0665382 -0.4555034 -0.054389674 0.05427082 -0.4880924 0.51256627 0.5216019
-0.45757324 -0.36694217 0.053064432 0.08394623 0.05293015 0.079607755 -0.087642044 -0.015977629
-0.072014056 0.5296658 0.08070628 -0.07529412 0.55659705 -0.5377054 0.6200111 -0.081000574
0.056277484 0.04832579 -0.5358283 0.6709411 -0.49155298 -0.0052725603 0.014013174 -0.0813679
-0.37140977 -0.43321347 0.65293616 -0.5392865 -0.51209164 0.057980735 -0.42075637 -0.37117302
-0.074979156 -0.060560226 0.08640225 0.048558943 -0.023843167 -0.50348634 -0.48600864 0.63964283
0.012303329 -0.02975636 -0.39728546 -0.51847476 0.018654015 -0.442945 -0.5123737 -0.4309115
-0.046902973 0.051769648 -0.39813024 0.028129365 0.017155094 -0.4108371 -0.06233384 0.044137634
-0.05440789 -0.49213955 0.038053494 -0.000539427 -0.017373731 -0.047014683 0.0660532 0.64626414
-0.0496595 0.0171823 0.08128403 -0.42071968 -0.0065852553 -0.016429 -0.0018238311 0.040515922
0.053914428 0.03782692 -0.37987813 0.034147333 0.6157872 -0.02445985 -0.41778386 -0.4164397
0.02228522 -0.079920076 0.031736206 -0.4014358 0.020934697 0.07399921 -0.017260335 -0.42539704
-0.050001208 -0.3942195 0.038809396 -0.013015874 -0.39022854 -0.024423836 0.016104542 -0.48363826
-0.47005105 -0.032526165 0.57632643 -0.06364269 -0.058436573 -0.05768851 -0.07760105 0.07582184
-0.446442 0.015641844 -0.47303838 -0.48218238 -0.012188026 -0.06561908 0.6350336 0.5276291
0.046152253 0.035943065 -0.46014434 0.6383565 -0.44837865 0.028148437 0.0010793913 -0.4409976

nn.2.bias f4 [128]
00000000: 4ee4 ad40 9deb 09bf a727 20bf 7e3e 87bd
00000010: bf09 09bf 4fe3 01bf 7a89 09bf a274 f0be
00000020: 878c 1abc 2cd9 20bf f02b 05bf ba28 1bbf
00000030: 0abb 18bf e360 fdbe 1f57 dabe 5b24 c0be
00000040: 2c05 3bbd e8a9 21bf f51a d7be 919b fbbe
00000050: 77fb d8be b947 efbe 0f14 ffbe 598c 25bf
00000060: 7703 d5be 17c0 b2bd 3d2b 11bf e0a2 72be
00000070: f867 153f 86bb 22bf 0fec 19be 8f4b fbbc
00000080: 514f 0abf 636c 0abf ce69 5c40 dab6 26bf
00000090: 7f0f 0dbf f608 8dbe ebce 02bf 130e 20bf
000000a0: 80e5 0740 09b4 4abd 9745 e2be aef9 92bb
000000b0: c777 85be 127b e2be 9b2f 1cbf db24 6cbb
000000c0: 35cb f8be 2e91 14bf e041 15bf 4542 5dbd
000000d0: 9892 5fbd d66a 90bd 6379 f5bd cc00 35bd
000000e0: 1a67 ebbe 6497 30bd 5661 8cbd a69c 52bd
000000f0: 6a71 efbe c4c5 0ebf 26cb 00bf 899e 01bf
00000100: c0e5 0ebe 0eac 38bc 9936 1ebf 5c4e 17bf
00000110: 786d 05bf 6110 17bf 50ea 09bf c603 13be
00000120: 6fb3 1fbf 987b 1fbc c3f0 07bf 5d7f 04bf
00000130: 1e24 20bf c4c9 20bf 3842 d0be 09dd 04bf
00000140: 5980 fdbe a6be 1ebf 4ddf 01bf deb7 c4be
00000150: a5f9 dbbe 78b2 d4bc e38e 0cbf 5ee9 0fbf
00000160: 23e7 24bf 676c f1be ae28 2abf f6f2 0ebd
00000170: 06ce 09bf 5db0 e5be 0f87 c3be 61d8 00bf
00000180: e62b dabe 2680 7bbd a61c dbbe 7d94 23bd
00000190: ed7b f7bc b4ac 5cbd b90d e1be 5536 9fbe
000001a0: 679b 76bd d530 0ebe 7c70 85bd d35f 03bf
000001b0: cf53 00bf 5565 23bf 381e dabe dc12 40bf
000001c0: 0fe9 1fbf 1b32 e5be 2bc0 b8be 93e3 17bf
000001d0: 79e8 12bf 29da 18bf 4eb9 eabe da38 21bf
000001e0: 7774 2abf 37f5 22bf 8646 80bd 2739 1cbf
000001f0: 3768 29bf ec9e e1be ef55 0cbf b63c ffbe
5.434119 -0.5387514 -0.62560505 -0.06603716 -0.53530496 -0.5073747 -0.537254 -0.46963984
-0.009432918 -0.6283138 -0.5202017 -0.6060902 -0.596604 -0.4948798 -0.42644593 -0.37527737
-0.04565923 -0.6314988 -0.42012754 -0.49142125 -0.42379352 -0.46734408 -0.4981999 -0.6466728
-0.41604206 -0.087280445 -0.567066 -0.23694944 0.5836177 -0.6356739 -0.15031455 -0.030675678
-0.5402728 -0.54071635 3.4439578 -0.6512276 -0.5510177 -0.275459 -0.5109698 -0.62521476
2.1233826 -0.0494881 -0.44193718 -0.0044853305 -0.26067945 -0.4423452 -0.6101014 -0.003603271
-0.48592535 -0.58034027 -0.5830364 -0.054018278 -0.054583162 -0.07051627 -0.11986043 -0.044190213
-0.45977098 -0.043113127 -0.06854503 -0.051418923 -0.46766216 -0.55770516 -0.5030998 -0.5063253
-0.1395483 -0.01127149 -0.6180206 -0.5910394 -0.5212016 -0.5900937 -0.5387316 -0.14356908
-0.6238317 -0.009734057 -0.5310175 -0.5175684 -0.6255511 -0.6280787 -0.4067552 -0.5189977
-0.49511984 -0.62009656 -0.50731355 -0.3842153 -0.429639 -0.025964007 -0.5490553 -0.56215465
-0.64415187 -0.47153017 -0.6646832 -0.034899674 -0.5382999 -0.44861117 -0.3818898 -0.5033017
-0.42611617 -0.06140151 -0.42795295 -0.03993653 -0.03021046 -0.05387564 -0.43955782 -0.3109614
-0.060206797 -0.13885815 -0.06515595 -0.5131809 -0.5012788 -0.63826495 -0.4260118 -0.7502878
-0.62464994 -0.4476479 -0.36084113 -0.59331626 -0.57385975 -0.59707886 -0.458445 -0.62977374
-0.6658396 -0.6365542 -0.06263451 -0.6102471 -0.66174644 -0.4406656 -0.54818624 -0.49851006

nn.4.weight f4 [12, 128]
00000000: 4791 a4c0 67ba c0be 678e 01bf 96e5 05bd
00000010: e7d1 ccbe 5d78 ff3e 98e5 283f 1de7 c8be
00000020: 3dd3 1b3e 2a2b 073f 1d53 e73e f79e 14bf
00000030: a21c 1d3f e494 02bf 2422 bdbe 8a93 d0be
00000040: e27d 21bc a0a6 2e3f e0c7 c43e 0d76 1ebf
00000050: 6d25 fbbe a7c6 05bf 4b4e f3be 532c 093f
00000060: 32f7 e9be cb40 8a3d 474b 093f 7cc2 e13e
00000070: 30d8 f4bf 1384 223f 61ea 1a3e 59b0 af3d
00000080: fbe0 d9be 29fa d2be c17d 87c0 ca04 0f3f
00000090: 3db7 94be d19e 9dbf b574 033f 09e1 1e3f
000000a0: 0ae1 48c0 cf01 4fbc 8a3f d4be 593b 0ebd
000000b0: 3bee b53e 998b 123f ea78 923e f804 183d
000000c0: 7daf cbbe 2075 de3d 86da f83e 0724 e6bc
000000d0: a234 6cbd ca6b 503d ac29 a13c e6b9 a1bd
000000e0: 931e 01bf 4e7b 9f3d 587f 8cbd 5268 4ebd
000000f0: 4844 e43e efb9 d8be d297 04bf 562a 19bf
00000100: ab4f 3abe ffb0 83bc 9a22 1dbf 9c55 113f
00000110: 8e55 e53e 91be c33d 14c8 0b3f 3c1a 1cbf
00000120: 8ed6 233f d3e7 82bb dd9d 08bf 488a 053f
00000130: e48c 08bf 7961 153f 99e1 a93d 3e09 053f
00000140: df78 fc3e f617 243f a911 bfbe 94ce c8be
00000150: ef1a a33e 5c01 0d3d 3288 153f aff5 bc3f
00000160: 47cf 0b3f c223 c1be cdd1 1a3f b775 043e
00000170: 3b8f d5be 1660 f0be 34e8 853e e390 d5be
00000180: 275d 9c3e 8cce d63d b3be 0ebf f8e4 74bc
00000190: 0056 8c3d f459 913d 4dfa d9be 7ece 613f
000001a0: ee84 2d3d 2906 37be 5886 903c 3f9d 2e3f
000001b0: 8b23 0abf 99e9 143f a71e c2be b1db 8dbe
000001c0: 0343 0d3f 0ae6 d7be e81d d23e ce30 18bf
000001d0: 00ed 273f a285 033f 9a93 e73e 9a34 0f3f
000001e0: 2d1f 0a3f 8756 203f 7de5 163e 8333 163f
000001f0: c66e 2d3f c899 07bf c5aa 723e 9f28 c8be
00000200: 9be2 a4c0 2e80 03bf 63f2 00bf ce06 8bbd
00000210: 336b f9be 4c09 e2be 354b 2d3f 7d37 f9be
00000220: b82c d6bf fa8f 163f dac7 123f a1a4 0bbf
00000230: 02a4 2a3f 2398 c5be 71f2 09bf 0aac c2be
00000240: b774 0b3c 7875 0f3f b63e dc3e 736e 0ebf
00000250: 9b81 00bf 87ba efbe 6095 cdbe 80b1 283f
00000260: 7b8b cdbe 3da9 143d ff6c 073f 95d5 f93d
00000270: c063 5ec0 14c9 193f e067 b0bf 04c6 99bd
00000280: 36c5 08bf b71e e3be 84d6 93c0 fab6 113f
00000290: 7761 33bf 2307 62bf b179 093f ebb8 0d3f
000002a0: 29bd 78c0 fa5c acbd 040f 06bf af55 80bd
000002b0: 6cd0 543e 0959 113f 684f ce3e e9d5 ffbb
000002c0: 2c56 cfbe b0fb 8a3e f86b ecbe 15ef 67bd
000002d0: 12c0 833d 50eb 97bc 2f27 c6bd 8b0d 51bd
000002e0: 2a9c d8be 8601 b5bd f36d f1bc 176c c3bc
000002f0: b51c 143f cabb 04bf 06dd f3be 8098 1fbf
00000300: c023 23bf 8a4e 0a3d 4e64 18bf c5e3 2a3f
00000310: 1b4f f43e 90bd 0f3e fa8d 2b3f 5fda 3fbf
00000320: 70a2 1e3f 3cf7 0dbd f2ad f7be 1025 093f
00000330: d875 0ebf 351d 053f 3757 483f 471c 073f
00000340: 83ec 01bf fca9 1a3f 7b3a c8be 7a08 e1be
00000350: d517 8fbe b8c9 6f3d f404 2a3f 7f6c a63f
00000360: df21 223f 40ff d2be e77d 073f e94a b0bc
00000370: 3d60 08bf 386f 02bf 275d 7c3e 62e8 ccbe
00000380: 17e0 90be bd20 89bf 60e6 e1be 0106 b33d
00000390: 5390 923d 5c3f 51bc 17f9 dfbe 7eb5 d53f
000003a0: cbd9 c9be 1133 05bf bdaf ceba 5477 093f
000003b0: 3464 d4be ad9e 103f a0d9 05bf 55ab 3dbf
000003c0: 2d20 293f 3c44 0abf 6efa 3b3f b32b 1ebf
000003d0: 626c 0a3f 663a 213f e413 093f 7300 1e3f
000003e0: 94d1 053f 3108 303f cfb2 873e 57e2 173f
000003f0: 2a07 103f afdd d0be f50c 3f3f 5b64 e9be
-5.142734 -0.37642214 -0.50607914 -0.032689653 -0.40003893 0.49896517 0.6597533 -0.39238825
0.152173 0.5280024 0.45180598 -0.5805506 0.61371815 -0.5100844 -0.3694011 -0.40737563
-0.009856673 0.68223 0.38433743 -0.6189888 -0.4905199 -0.52256244 -0.4752067 0.5358326
-0.45696408 0.067506395 0.5363049 0.44093692 -1.9128475 0.6348278 0.15128471 0.085785575
-0.4255446 -0.41206482 -4.234101 0.5586668 -0.2904605 -1.2314092 0.51349956 0.62062126
-3.1387353 -0.012634709 -0.41454726 -0.034724567 0.35533318 0.5724426 0.28607875 0.037114114
-0.39782324 0.108621836 0.4860422 -0.028093351 -0.057667382 0.050884046 0.019673191 -0.078967854
-0.5043728 0.077871904 -0.068602264 -0.050392456 0.44583344 -0.42329356 -0.5179416 -0.59830225
-0.18194453 -0.01607561 -0.6138092 0.56771255 0.44791836 0.09557832 0.5460217 -0.6097753
0.6399926 -0.0039949208 -0.5336588 0.52164125 -0.5333998 0.58351856 0.082949825 0.5196723
0.49310967 0.6409906 -0.3731816 -0.39220107 0.31856486 0.034425125 0.5841094 1.4762477
0.54613155 -0.37722594 0.6047638 0.1293553 -0.4171084 -0.46948308 0.2615372 -0.41712102
0.3053982 0.104886144 -0.55759734 -0.0149471685 0.06852341 0.07097235 -0.42573777 0.8820571
0.0423631 -0.17873444 0.017642185 0.6820869 -0.53960484 0.5816894 -0.3791401 -0.27706674
0.55180377 -0.42167693 0.41038442 -0.5944947 0.6559601 0.5137578 0.452298 0.5593964
0.5395382 0.6263203 0.1473598 0.5867235 0.6774715 -0.52969027 0.23697956 -0.3909349
-5.152662 -0.5136746 -0.5036985 -0.06788407 -0.487146 -0.44147718 0.6769288 -0.48675147
-1.6732397 0.5881344 0.573362 -0.5454808 0.66656506 -0.38592634 -0.5388556 -0.3802188
0.008511714 0.5603862 0.43016595 -0.5563728 -0.5019776 -0.46821997 -0.40153027 0.65895844
-0.40145478 0.03629421 0.5290069 0.12198941 -3.4748383 0.60072446 -1.37817 -0.075084716
-0.5342592 -0.4435937 -4.619936 0.56919825 -0.70070595 -0.8829214 0.5370131 0.5536029
-3.8865454 -0.08416171 -0.5236666 -0.06266343 0.20782632 0.5677648 0.40294957 -0.0078074825
-0.4049543 0.27145147 -0.46176124 -0.05662449 0.06433119 -0.018544823 -0.096754424 -0.051038306
-0.42306644 -0.08838181 -0.029471373 -0.023855252 0.57856303 -0.51849043 -0.47629565 -0.6234207
-0.63726425 0.033766307 -0.5952805 0.667538 0.47716603 0.14037156 0.67013514 -0.7494258
0.6196661 -0.03465961 -0.48374897 0.5357218 -0.55648565 0.5199769 0.7825808 0.5277752
-0.50751513 0.60415626 -0.39107117 -0.4395178 -0.2794787 0.058541983 0.6641381 1.300186
0.63332933 -0.41210365 0.52926487 -0.021520095 -0.5327185 -0.50950956 0.2464491 -0.40021044
-0.28295967 -1.0713116 -0.44121075 0.087413795 0.07156434 -0.012771454 -0.43744728 1.6696012
-0.39423975 -0.52031046 -0.0015768927 0.53697705 -0.414827 0.5649212 -0.52285194 -0.74089557
0.6606472 -0.5401037 0.73429 -0.6178543 0.5407163 0.62979734 0.53545976 0.61719435
0.52272916 0.687625 0.26503608 0.5932974 0.5626093 -0.4079413 0.74629146 -0.45584378

nn.4.bias f4 [12]
00000000: 1e21 99c0 5683 83c0 4dbe a8bf 9b38 4dc0
00000010: a299 76c0 7974 14bf 07cb bdc0 2dd4 aec0
00000020: 9c36 e1bf ba52 2cc0 d81f 96be 1011 75bf
-4.7852926 -4.109782 -1.3183075 -3.20658 -3.853127 -0.57990223 -5.9310336 -5.4634004
-1.759479 -2.6925492 -0.2932117 -0.9572916
