dynamics/src/drl/outputs/RobotOptEnv/20220726-145528/models/dqn_checkpoint.pth (torch, 81735 bytes, 6 tensors)

fc1.weight f4 [128, 9]
000000 08 d3 65 be 03 ae 6c be 6b 04 68 bd ca 80 93 be
       -0.22443783 -0.23113255 -0.05664484 -0.28809196
000010 4e 8a 05 be 33 52 a3 be 5a 17 92 3e f0 0a 97 bd
       -0.1304104 -0.3189865 0.2853344 -0.07375133
000020 48 3b 33 be d3 26 a5 3e c3 c1 41 3e d3 f3 7d be
       -0.17503083 0.32256183 0.1892157 -0.24800043
000030 5b b4 3b be 70 c1 6d be ab f1 30 3d fb ae e5 3d
       -0.18330519 -0.23218322 0.043199223 0.112150155
000040 56 d1 5d bd 16 0f cd bd 00 8f 16 3c 1e 95 86 be
       -0.054154716 -0.10012643 0.009189367 -0.26285642
000050 20 91 10 3d de e1 6e be 60 b6 e3 3d eb d9 45 bd
       0.035294652 -0.23328349 0.1111877 -0.048303526
000060 7a 66 a1 3e 96 4f 45 3d 4b 81 2a bd 00 84 82 3e
       0.31523496 0.048171602 -0.04162721 0.25491333
000070 b8 74 03 3e 00 b5 21 3e 88 c7 44 be 5f 4d 86 be
       0.12837493 0.15791702 -0.1921674 -0.26230904
000080 7e 4b 2f 3e 2b 2b 15 be 23 e1 80 3e 1e b9 7c 3e
       0.17118642 -0.14567249 0.25171766 0.24679992
000090 80 95 37 bc 70 51 d2 3d ab 7a 99 ba 96 7f 76 be
       -0.011205077 0.10269439 -0.0011709532 -0.24072108
0000a0 d6 b5 59 3d 00 61 90 3c b6 96 71 3e 0b b0 d0 3d
       0.053151928 0.017624378 0.23592648 0.101898275
0000b0 d0 8f 8a bd 56 76 bf 3c f6 43 d2 3d 40 3a c5 3c
       -0.06765711 0.023371857 0.10266869 0.024075627
0000c0 b0 70 43 3e bc 4b 96 be fb cb b3 3d 92 58 99 3e
       0.19085956 -0.29354656 0.087791406 0.29950386
0000d0 2b 32 9f 3c 2b 39 05 3c 02 18 8f be ab 48 a4 bb
       0.019433102 0.008131306 -0.27948004 -0.0050135455
0000e0 ac d3 a0 be a3 59 90 3e 8f 95 9d be c6 aa 2a be
       -0.31411493 0.28193387 -0.30778167 -0.16666707
0000f0 ba 45 93 be 8b 68 54 bd 16 44 b3 3c f3 7d 07 3e
       -0.28764135 -0.051857512 0.021883052 0.1323164
000100 eb 77 23 3e 5c ce 96 3e 8b 9e 7a 3e 2b aa 4b be
       0.15963714 0.29454315 0.24474542 -0.19889133
000110 40 0c 36 3e ab 34 8d be b6 2f 71 bd 10 42 8b 3d
       0.1777811 -0.27579245 -0.05888339 0.0679971
000120 00 db a1 3d d3 d4 24 3e 80 57 f6 bd fb 3e 63 be
       0.07903099 0.16096811 -0.12028408 -0.22191994
000130 06 ba 5a 3e d0 29 4e be 80 06 fd bd a6 66 8c bd
       0.21360025 -0.20133138 -0.123547554 -0.06855516
000140 90 42 f8 3d 0b e5 a1 bd 16 1c 5d be d6 95 55 3e
       0.12122071 -0.079050146 -0.21592745 0.20857939
000150 30 73 5a be ab 59 94 3b 40 32 88 3c 36 a4 69 3e
       -0.21333003 0.004527291 0.016625524 0.22816548
000160 2e f2 5c 3e 7b ac a9 be 30 2f 6b be 2b 9c a1 3c
       0.21576759 -0.33139405 -0.2296722 0.019727787
000170 00 d2 97 bb fc e2 90 be 80 99 24 3e 5e fd 8f 3e
       -0.0046331882 -0.28298175 0.1607418 0.2812299
000180 9e aa 5b be 10 37 88 bd 13 9e 40 3e e0 10 4f 3e
       -0.21451804 -0.06651127 0.188103 0.20221281
000190 80 6f 61 3c af 0b a0 be d0 06 12 3e 6b 12 15 bd
       0.013759494 -0.31258914 0.14260411 -0.036394518
0001a0 7e 46 28 be f0 41 97 be c0 82 cd 3d 56 fd 9b 3e
       -0.1643314 -0.29542494 0.10034704 0.30466717
0001b0 b4 a6 83 be e8 4f 9b 3e f0 73 af bd 10 c0 8a 3e
       -0.25713122 0.303344 -0.08567035 0.27099657
0001c0 e0 f0 f1 bd b8 9d 0f be 56 ad f4 bb 4e e2 6b 3e
       -0.118135214 -0.14025009 -0.0074669523 0.23035547
0001d0 70 fd 19 be b6 a6 41 bd c0 0f 24 be eb 05 f8 3d
       -0.15038085 -0.04727813 -0.16021633 0.12110504
0001e0 a0 28 d7 bd a0 10 54 3e 20 4f 58 bd 4b d0 62 be
       -0.105057955 0.20709467 -0.052809834 -0.2214977
0001f0 e2 66 89 3e 36 56 16 3e 16 b8 00 3d 16 2c 57 bd
       0.26836306 0.14681324 0.031425558 -0.052532278
000200 66 5b db bd 06 fd aa bd fb ed 95 bd 58 59 14 be
       -0.10710792 -0.08349042 -0.07320782 -0.14487207
000210 c8 d2 48 3e d7 7b 97 be eb da 15 3e c0 d6 ce 3c
       0.19611657 -0.2958667 0.14634292 0.025248885
000220 73 d3 63 3e a6 e8 a4 be 93 78 25 3e 76 ca 2b 3e
       0.2224863 -0.32208747 0.16159277 0.16776451
000230 13 d6 1d be 66 2d 3e 3e 73 aa 4b 3e 16 40 fc 3c
       -0.15413694 0.18572006 0.1988924 0.030792277
000240 6b dd 74 bd e6 cc cd bd a6 1b c3 bd 66 6b 75 be
       -0.059781473 -0.10048847 -0.09526758 -0.2396675
000250 7f 44 90 3e 40 23 ef 3c c6 3c ba bd 30 cb cf 3d
       0.28177258 0.029191613 -0.09093623 0.10146177
000260 ab e9 26 3e 80 ec 98 3d ab 2c 92 bd 83 ba 2c be
       0.16300075 0.07466984 -0.07137426 -0.16868024
000270 1b 50 12 3e c3 05 7c 3e 3b 59 6b be 80 d4 59 bc
       0.1428837 0.24611573 -0.22983257 -0.013295293
000280 f0 18 8f 3e 2e dc 59 3e 16 be 74 3d 60 46 60 3d
       0.27948713 0.21275398 0.059751593 0.054754615
000290 eb 91 2b bd 06 a3 3f 3e 88 93 a5 be a2 35 99 3e
       -0.041887205 0.18714532 -0.3233912 0.2992373
0002a0 c0 d8 31 be 50 36 59 3e 18 91 92 be 9b f6 8b bd
       -0.1736784 0.21212125 -0.28626323 -0.06834146
0002b0 4f 1b 92 be f3 0c 1a be 33 2f 82 3e 6b 1e 47 3e
       -0.2853646 -0.15044002 0.25426635 0.19445197
0002c0 fb 9f 0f be 80 d4 6c be 88 3e 48 3e 40 99 69 be
       -0.14025871 -0.23127937 0.19555104 -0.22812366
0002d0 8f 00 9d be 70 0d 6c 3e b6 b9 f8 bd 8b 99 41 3d
       -0.3066449 0.23052001 -0.121447966 0.04726557
0002e0 58 58 3e 3e b6 16 6a bd 82 38 80 be c2 fd 8f be
       0.18588388 -0.057150565 -0.25043112 -0.2812329
0002f0 53 9e 16 be c6 d4 90 3e bb 98 e3 bd 7e 67 7f 3e
       -0.14708833 0.28287333 -0.111131154 0.24941823
000300 c4 fe 86 3e ab d0 9c 3c bb 06 a7 3d ff 36 9b 3e
       0.26366246 0.01914247 0.081555806 0.30315396
000310 bb 00 64 be ab d6 6d be 62 e9 84 be 26 79 34 be
       -0.22265904 -0.2322642 -0.25959307 -0.1762434
000320 9c 89 a5 be 90 73 70 3e 6b d8 f7 3d e6 9f 35 be
       -0.3233155 0.23481584 0.12101825 -0.17736778
000330 16 03 f0 bd 50 3b ae 3d 00 9b 4a 3c d3 2a 6e 3e
       -0.117193386 0.08507407 0.012366056 0.23258524
000340 a3 8a a2 3e a3 48 30 be de c1 41 3e a0 8a cf 3d
       0.31746396 -0.17215209 0.1892161 0.101338625
000350 d0 3e 0b be 5a 0c 8f be 2b 7f 48 be a6 b4 f5 bd
       -0.1359818 -0.2793911 -0.1957976 -0.119973466
000360 70 c6 69 3e 5a 7c 85 be de 3e 16 be c0 e9 53 be
       0.22829604 -0.26071435 -0.1467242 -0.20694637
000370 16 23 fe 3d 80 af ee bc 4e 9e 42 be 8c 82 97 be
       0.12409036 -0.02913642 -0.19005701 -0.29591787
000380 3f 3b aa 3e 56 74 8d bb db a1 a7 3d e0 0c 66 bd
       0.33248326 -0.004316847 0.08185168 -0.056164622
000390 96 c2 ec 3c 80 b1 7a be 4b 5e 87 bd 9a 5a 9f be
       0.02890138 -0.24481773 -0.06609782 -0.3112381
0003a0 88 52 23 be e6 89 d6 3d 70 80 9d bd 30 60 94 3d
       -0.15949452 0.10475521 -0.07690513 0.07244909
0003b0 aa b0 88 3e 4b e8 45 bd 43 f0 7c 3e e0 4b a1 3d
       0.26697284 -0.048317235 0.24701028 0.078758
0003c0 16 7d aa 3c 53 a3 8c be 30 f7 f9 bd 56 23 72 bd
       0.020811599 -0.27468356 -0.122053504 -0.05911573
0003d0 de 28 61 3e b6 3e 4d be 58 f0 4a 3e 56 39 64 3e
       0.21988246 -0.20043454 0.19818246 0.22287497
0003e0 c0 a7 b2 3c aa 51 a9 be b7 a7 8b be f4 0d a4 3e
       0.021808505 -0.33070117 -0.27276394 0.32041895
0003f0 d4 94 a6 3e 56 33 58 3d 73 65 65 be 70 d2 c9 3d
       0.32535422 0.052783333 -0.22401981 0.09854591

fc1.bias f4 [128]
000000 96 78 90 3d c0 a1 b5 3c 48 96 6e 3e 6b 4a 09 3d
       0.0705425 0.022171855 0.23299515 0.033518236
000010 86 3b c2 3d 5b 8c 66 be a6 ed b2 3d 7b 94 a2 bd
       0.094840094 -0.22514479 0.08736734 -0.07938477
000020 60 e1 d9 bd d8 cd 87 3e 78 e2 40 be b6 f8 a0 bd
       -0.1063869 0.26524234 -0.18836391 -0.07859938
000030 d6 f6 5c 3d 76 e7 49 3e c4 78 8a 3e 00 89 be 3c
       0.05394634 0.19717202 0.27045262 0.023258686
000040 eb 9d 74 be 9a 38 9e 3e fb 72 73 3e 88 f5 6d 3e
       -0.23888366 0.3090256 0.2377433 0.23238194
000050 a8 95 9b be db bb eb 3d 2b 1e ac bd d0 ca a6 3e
       -0.30387616 0.1151044 -0.084041916 0.3257661
000060 2b 24 a9 3d 4e 67 02 be db 18 a1 bd db 87 d1 3d
       0.082588516 -0.1273472 -0.07866069 0.102309905
000070 1f 56 98 3e ab b3 2a be c6 17 94 be 60 be 42 bd
       0.29753205 -0.166701 -0.28924388 -0.047544837
000080 23 e6 15 3e 0b 6a b5 bd 46 13 14 3e 2b d6 0b bc
       0.14638571 -0.08858117 0.14460477 -0.008534948
000090 53 69 53 3e 00 a0 dd 3b 06 f9 2e be d6 b1 00 be
       0.20645647 0.0067634583 -0.17087182 -0.12567839
0000a0 4c ea 99 3e 06 e6 7a 3e bb c9 42 be e3 f0 20 3e
       0.30061567 0.2450181 -0.19022267 0.15716891
0000b0 ab c0 68 be 56 b4 49 3d 4b aa 94 3e 4b f4 04 bd
       -0.22729747 0.049244247 0.29036173 -0.03245954
0000c0 e4 09 88 be a3 22 25 be 40 62 96 bc 2e 4b 46 3e
       -0.26570046 -0.16126494 -0.018357396 0.19364616
0000d0 56 b3 2c bd ab 8b ad bd d3 37 0e be ab 2e ce 3d
       -0.042163216 -0.08473905 -0.13888483 0.10067495
0000e0 b0 39 a2 bd 16 ee 62 bd 56 98 72 3c 96 6f 86 bd
       -0.07921159 -0.055402838 0.0148068275 -0.06564252
0000f0 03 74 70 3e 73 44 11 be 56 91 56 bb 46 1a 33 be
       0.23481755 -0.14186268 -0.0032740436 -0.17490491
000100 d3 f0 3f 3e e8 cc 39 be 76 ad ec bd ab 3e 71 bc
       0.18744211 -0.18144572 -0.115565225 -0.014724414
000110 f0 39 92 bd 26 7c 16 3e 30 71 0c 3e 87 ac a5 be
       -0.07139957 0.14695796 0.13715053 -0.3235819
000120 76 20 65 3d 16 2e 8d 3e db 9e b1 3d 68 e2 44 be
       0.05593916 0.27574223 0.086728774 -0.19226992
000130 9b 02 15 3e 96 7f 38 3d 9e 7e 61 be fe e6 39 3e
       0.14551775 0.04504355 -0.22020957 0.18154523
000140 26 b7 fb bd e0 f0 3d be 28 c6 43 3e c0 2d d4 bd
       -0.12290792 -0.18548918 0.1911856 -0.103602886
000150 0e 7d a4 be bc c5 a6 3e b0 35 c6 3d 3b f1 b8 bd
       -0.3212666 0.32572734 0.09678209 -0.09030386
000160 96 fd 9b bc 9e 7c 2e be 38 96 a5 be 00 00 5b 38
       -0.019041818 -0.17039725 -0.3234117 5.221367e-05
000170 ab d2 d4 bc 4f 5b 8e be 68 fb 10 be 16 ef 36 3e
       -0.02597936 -0.27804038 -0.14158404 0.17864642
000180 b0 4d 23 be f6 4d 76 bd 20 4d 05 3d db f4 a9 3e
       -0.15947604 -0.060132943 0.032544255 0.33194622
000190 d8 61 2b be f6 ca 28 3d 3b 96 ab 3d 60 4b 60 3e
       -0.16736543 0.041209184 0.083782636 0.21903753
0001a0 fe 63 0f 3e b2 d2 95 3e 54 50 9c be c0 7b b2 3c
       0.14002988 0.2926231 -0.30530035 0.021787524
0001b0 36 74 5f 3e 20 04 24 be e8 2b 1e 3e e0 1c 89 3d
       0.21821675 -0.16017199 0.15446436 0.066949606
0001c0 96 da 85 3c c8 26 00 be 76 c7 69 bd 4e fe 31 3e
       0.016339581 -0.12514794 -0.057074986 0.17382166
0001d0 96 89 64 bd 8e 0b 86 be 2b 40 93 3c 76 1c 96 3e
       -0.055795275 -0.2618069 0.017974934 0.2931859
0001e0 d6 4d 85 be 90 5e 9c 3e 0b 50 35 bd 00 4e 51 3e
       -0.26035947 0.30540895 -0.044265788 0.20439911
0001f0 20 f8 04 3e ab 8f c5 3d ab 87 2f be 8c 06 96 3e
       0.12985277 0.09646543 -0.17141597 0.2930187

fc2.weight f4 [128, 128]
000000 d0 1c d7 3c ee d2 7e bc 65 2a d0 ba 42 2f a0 3d
       0.026258856 -0.015553219 -0.0015881775 0.07821514
000010 8e 1f 00 3d 91 ec 4f 3c d7 ad 02 3c 17 10 86 bc
       0.031280093 0.012690679 0.007976017 -0.016365094
000020 2c 2e 37 3c 95 c4 8d 3d ec 08 3c bd 26 e7 94 3d
       0.011180442 0.06922261 -0.045906946 0.072706506
000030 f8 cb d0 3b 5c d5 dd bc 68 bc 81 bc c0 e6 3b bd
       0.006371971 -0.027079277 -0.01583691 -0.045874357
000040 ac 17 3c bb 1f ba 07 3c 74 d8 3f bd 9c 9f 41 bc
       -0.0028700633 0.008284121 -0.046837285 -0.011817839
000050 21 58 51 3d e8 8d 9c bd 7f 49 a3 bd 2c 4d 35 3d
       0.051109437 -0.07644254 -0.07973003 0.04426305
000060 ec fd ac bd 37 da 95 3d 6c 26 fd bc 21 68 83 3d
       -0.08446869 0.07317012 -0.03090211 0.064163454
000070 c8 f0 39 3d 7f c7 de bc 9d d5 8c bd e7 28 82 bd
       0.045395643 -0.027194737 -0.06876681 -0.06355458
000080 d9 65 4e 3d 35 3d fd bc 0e 1e a7 bd 6b 53 50 3d
       0.0503901 -0.030912975 -0.08160029 0.050860804
000090 92 7d 8c 3b bb 4a 05 bd a8 0f 80 bc 7e 8d 08 3d
       0.00428743 -0.03254197 -0.015632465 0.033338062
0000a0 f1 a8 ac 3d ec 27 94 bd 67 1d 28 bd 09 56 a3 bd
       0.084306605 -0.07234177 -0.041043665 -0.07975394
0000b0 c1 05 97 bd 62 39 83 bd 4e bf af bc 99 e6 ab bd
       -0.07374144 -0.06407429 -0.021453526 -0.083935924
0000c0 2f 6a 8e bd ac a0 c9 bb f4 e7 31 bc 38 52 62 bd
       -0.06953847 -0.006153187 -0.010858525 -0.05525419
0000d0 e4 23 8f 3d 26 de a3 3c f1 0c f1 3c b7 af c6 bc
       0.069892675 0.02000339 0.029425116 -0.02425371
0000e0 a6 f6 ce bc 57 e2 b1 bd 1f f7 a3 3d b9 bb 40 bd
       -0.025264096 -0.08685749 0.08006119 -0.047054026
0000f0 50 d9 b7 bc 70 af e6 bc 68 e0 e1 3c 50 48 4e bd
       -0.02244249 -0.028159827 0.027572826 -0.05036193
000100 25 ee 1f bc 42 c0 84 bc 0c c5 3c bd 97 67 48 bd
       -0.009761368 -0.016204957 -0.046086356 -0.048926916
000110 19 78 3d 3d 06 e8 73 bd e8 88 6b bd 32 b8 f5 bc
       0.046257112 -0.059547447 -0.05750361 -0.029995058
000120 97 67 b4 bd 36 34 66 3d 00 d1 ef 3c ab 69 4c 3d
       -0.08808821 0.056202136 0.029274464 0.04990546
000130 66 25 91 bc e8 d3 90 3c 54 1d 0e 3d 91 b8 65 3c
       -0.017718028 0.01767917 0.03469594 0.014021055
000140 27 66 aa bd 1c 79 b3 bd 5f a2 30 bc 9a 40 3f bd
       -0.08320265 -0.08763334 -0.0107809 -0.04669247
000150 62 26 5b 3b 0e 6d a2 3d a1 7a a8 bd 5b 7a 8c bd
       0.0033439626 0.07930957 -0.082265146 -0.06859275
000160 a7 85 01 b9 20 0a 77 bc 9f 9b 32 3d 5f 81 b6 bb
       -0.00012352188 -0.015078098 0.043605443 -0.0055696215
000170 ff 55 6d 3d 6a ff a4 bd 57 f4 39 3d b5 80 56 bd
       0.05794334 -0.08056529 0.045399036 -0.05236884
000180 8c 94 af bd af 12 a9 3d 76 d7 81 bd 1f 7f c2 3c
       -0.08573255 0.08255517 -0.06339924 0.023742257
000190 35 9e ae bc 97 85 d8 bc 82 80 54 3d 91 ee 97 3d
       -0.021315673 -0.026430888 0.051880367 0.0741855
0001a0 b7 8f 27 3d 3f f6 a9 bd 47 aa 33 3d 61 6e 3f bd
       0.04090854 -0.08298921 0.04386356 -0.046736125
0001b0 35 8c 67 bd 9e 95 51 3d f6 23 89 3d 12 98 31 bd
       -0.056530196 0.051168077 0.06696312 -0.043357916
0001c0 af 69 84 3c f0 90 bd bc 87 c9 3b 3d 29 05 8e bd
       0.016163675 -0.0231404 0.04584649 -0.06934578
0001d0 97 6f c6 bc bc 5c ac 3d 6c 38 92 bd a7 67 0c b9
       -0.024223132 0.08416125 -0.07139668 -0.00013390054
0001e0 62 62 3c bd 23 2c 44 bc 58 20 b6 bc ee fa a2 3d
       -0.045992263 -0.011973414 -0.02223222 0.07958017
0001f0 b6 7e e6 bc 18 19 28 bd a7 ca b2 3d 3b 61 d2 3b
       -0.028136592 -0.041039556 0.08730059 0.006420282
000200 06 2c 6f 3b 90 61 58 bd 2d 02 a6 3b 3a 8e 9f bd
       0.0036494746 -0.052827418 0.0050661773 -0.077907994
000210 e2 f9 98 3d 92 f3 89 3d c1 7f 8f 3d 2e a8 88 3d
       0.07469536 0.067359105 0.07006789 0.06672703
000220 8b 25 11 3d 1e 4a da 3c a0 7b 99 3b 24 38 a8 bd
       0.035436194 0.02664667 0.0046839267 -0.08213833
000230 e2 ef 91 3d 85 b8 dd bb 6d a5 ff bc 90 ad 74 bd
       0.07125832 -0.006766381 -0.03120681 -0.059735835
000240 43 b9 a7 3d 5f ff 8b bd 9d 05 ca bb 15 60 6b bd
       0.08189633 -0.068358175 -0.00616522 -0.057464678
000250 89 21 17 3d 14 30 3c 3d 9e 9d a4 3c a7 15 c2 bb
       0.036897216 0.04594429 0.020094689 -0.0059229913
000260 8c 91 a2 bd fe b3 2a 3c 02 3c 0c bd 3d da 8f 3d
       -0.07937917 0.01041889 -0.034236915 0.070240475
000270 1d fd 85 3d da 97 22 3d e7 aa 8a bc 98 d6 48 3d
       0.06542418 0.0396956 -0.016927196 0.049032778
000280 21 b7 05 3c ff 53 10 3d 46 f6 97 3c 13 0a 35 3d
       0.008161337 0.035236355 0.01855005 0.04419906
000290 a4 cd b4 3d 7b 7f 91 3d fb a2 89 bd 42 81 81 bd
       0.08828285 0.07104393 -0.06720539 -0.06323482
0002a0 b3 c2 aa bd 99 7c 52 bd 74 24 75 bd 9f 8f 17 3d
       -0.08337917 -0.051388357 -0.059849218 0.037002202
0002b0 03 df 80 bd 2a 14 09 3c fa 71 4c bd ed 30 54 bd
       -0.06292536 0.008366624 -0.049913384 -0.05180447
0002c0 93 18 6b 3d 73 e9 91 bd 54 cc ec 3c dd 70 54 bc
       0.057396483 -0.07124605 0.028906025 -0.012966362
0002d0 c6 c0 a1 3d 56 56 28 3d 09 5b d3 bc 2d 48 f7 bb
       0.07898097 0.04109796 -0.025800245 -0.007546446
0002e0 8d b2 a4 3d ad 02 a8 3d d3 95 75 bd 67 bd e6 bb
       0.08041868 0.08203635 -0.059957337 -0.0070416215
0002f0 d9 26 a1 3d df 2f 6e 3d 63 e9 9e 3d 8c ba b0 3d
       0.07868738 0.058151122 0.07759359 0.08629331
000300 f9 1a 56 bd 8f 09 ae bd 9a 2c 33 b9 95 c1 9e bd
       -0.052271817 -0.08497917 -0.00017087386 -0.077517666
000310 78 1b 39 bc 36 e6 69 bd fe 3a 69 3c 12 6f 46 bd
       -0.011298053 -0.057104312 0.014235256 -0.04844577
000320 69 07 12 bc a4 ec b4 bb da e4 aa 3c 4c 83 05 bd
       -0.0089128995 -0.005521374 0.020861078 -0.032595918
000330 b7 f0 3d 3d 2c 65 0d bd 3e 26 8b bd d1 e8 9b 3b
       0.04637214 -0.034520313 -0.067944035 0.0047579785
000340 05 32 96 bd bf 09 82 3d 75 5f b5 36 2d 55 45 3d
       -0.07333759 0.06349515 5.405333e-06 0.048176933
000350 ce aa 64 3d aa f7 4a 3c 86 ee 16 bd 6d 77 08 3d
       0.055826955 0.012388149 -0.036848567 0.03331702
000360 12 ff 9b 3c 1a c4 80 3c c1 f9 c3 3b 06 60 4c 3c
       0.019042525 0.015718509 0.0059807007 0.012474066
000370 6e 91 94 3d ee 6a 99 3d 34 ec 01 3d 7c fb fd bc
       0.07254301 0.07491098 0.0317194 -0.031003706
000380 89 9a af bd 15 85 d4 3c 15 7f b9 bb c1 4d a5 bd
       -0.08574397 0.025942365 -0.0056609013 -0.08071471
000390 92 fd 34 3c 20 59 44 bd f1 4e 50 bd d6 d4 7b bd
       0.011046784 -0.04793656 -0.050856534 -0.061482273
0003a0 4c e2 02 3c fd 05 35 bd 22 06 b3 bc 9b 01 36 bd
       0.007988524 -0.044195164 -0.02185351 -0.044435125
0003b0 e0 ea 0a 3d 6d eb 1d 3d 34 99 02 bd 90 ed 46 3c
       0.0339154 0.038554598 -0.031884387 0.0121416
0003c0 85 06 f8 3c c3 e7 b8 bc 33 8d 20 3c cb 35 9e bd
       0.030276546 -0.02257145 0.0097992895 -0.07725104
0003d0 71 66 44 3d aa 7f 55 3d 85 e4 08 3c c5 a1 59 3d
       0.04794926 0.052123703 0.008355265 0.05313279
0003e0 17 8a d1 bb 39 0d d9 3c 8b e0 7c bd 95 09 88 bd
       -0.0063946354 0.026495563 -0.06173758 -0.066424526
0003f0 5b b5 c5 bc f5 9a ab 3d 09 a4 9b bd 4c 22 17 3d
       -0.024134329 0.08379165 -0.075996466 0.036897942

fc2.bias f4 [128]
000000 a8 7c 92 bc c5 58 49 3d d6 a2 58 bd 06 d5 97 bd
       -0.017881706 0.049156923 -0.052889667 -0.07413678
000010 85 d1 64 bd 15 8b bd bb 21 b2 2e 3d 0a 86 37 3d
       -0.055863876 -0.005784402 0.042650346 0.044805564
000020 88 89 b2 3d 5e ae 05 3d 86 2a ee 3c 44 8f 05 3c
       0.08717638 0.032636993 0.029073011 0.008151833
000030 67 0d 63 3d 68 64 2d 3c fd 0c 03 bd a1 a4 5a bb
       0.055432703 0.010583021 -0.03199481 -0.0033362287
000040 88 bb a3 3d b8 54 8f 3d 44 32 e4 3c 8e 80 91 3d
       0.07994753 0.06998581 0.027856 0.07104598
000050 b4 31 9a bc 41 43 f2 bc 47 3f 26 bd b7 0e 5f bd
       -0.018822528 -0.029573085 -0.04058769 -0.054457393
000060 d9 4d a2 3d f2 07 82 3d 1e 8f 4b bb 00 56 a2 bd
       0.079250045 0.06349172 -0.0031060646 -0.079265594
000070 fa 73 a1 bd d5 bc 91 bd b0 59 14 bc 1a 10 e0 3c
       -0.07883449 -0.07116095 -0.009054586 0.027351428
000080 c7 d5 44 bd bd c2 07 bc 43 58 25 bd fe 2f a9 bd
       -0.048055436 -0.008286175 -0.040367376 -0.08261107
000090 0d 25 77 bd 84 d5 13 3d 48 f3 9d 3c 0b ee c3 3c
       -0.06033807 0.036092296 0.019281045 0.023917219
0000a0 da 64 5b bd 32 03 2a 3d 04 a4 1e 3d 1a a0 83 3d
       -0.053562976 0.041506954 0.038730636 0.06427021
0000b0 20 a7 de bc 78 51 79 bd 06 6b 85 3c 48 bb 85 bc
       -0.0271793 -0.06086871 0.016286384 -0.016324654
0000c0 c3 a5 aa bd d8 92 27 3d df 67 9b bd 76 f5 23 3d
       -0.08332398 0.040911525 -0.07588171 0.04002901
0000d0 f0 42 a4 bd 7f 81 2f bd 11 a7 ae 3a 61 b1 73 3c
       -0.0802058 -0.042848106 0.0013324936 0.014873833
0000e0 b8 61 a3 bd 7b c9 a0 3d 62 1c 0d 3d b1 98 a0 3c
       -0.07977623 0.07850929 0.034450896 0.019604059
0000f0 cc 1c 1f bc 92 42 88 bc a1 c7 96 3d 54 c8 a2 bd
       -0.009711456 -0.016633306 0.07362295 -0.07948366
000100 85 2e 73 3d 9c eb 09 bc d1 0d c9 3c 84 14 84 3d
       0.059370536 -0.00841799 0.024542721 0.064492255
000110 37 5d 1c bd 1d ad 8a bc 61 8c ad bd 7d 2f 97 ba
       -0.038174834 -0.01692825 -0.08474041 -0.0011534538
000120 67 10 92 bd fa c7 31 bd 50 5e 06 3d ad bb a6 bd
       -0.07132035 -0.043403603 0.032804787 -0.08141265
000130 fe 2e 3b bc 9c d9 33 3d 51 2c 80 bb 85 fb a2 3d
       -0.011424778 0.0439087 -0.003911533 0.0795813
000140 41 af 7e bd 84 b6 b3 3d aa 47 0a 3d 62 8d 12 bd
       -0.062178854 0.087750465 0.03375975 -0.035779364
000150 89 a4 f8 3c 4b 90 99 3d 6d 1b 86 bc fe b0 5c bc
       0.030351894 0.07498225 -0.0163705 -0.013469933
000160 33 84 56 3d 0e e9 a9 3d 9a b7 03 bd 9b ae f1 bb
       0.05237217 0.08296405 -0.032157518 -0.007375551
000170 d8 27 17 bc 80 40 31 3c be 5e 24 bd 10 68 a8 3d
       -0.009225808 0.010818601 -0.040129416 0.08222973
000180 ec 4e 7e 3d ef c1 4a 3d 6e f7 3c bd be 45 1d 3d
       0.062086985 0.049501356 -0.046134405 0.03839659
000190 81 4c d6 3c 22 1c a1 bd 72 35 84 3c fa 91 28 3c
       0.026159527 -0.07866694 0.016138766 0.01028871
0001a0 ce 45 90 bd d2 02 95 3d 64 5c 93 3d 85 db 7f 3d
       -0.07044564 0.072759286 0.071953565 0.06246521
0001b0 e7 b5 c6 bc a1 48 82 3d 0c e3 86 bd 76 b9 5f 3d
       -0.02425666 0.06361509 -0.065862745 0.05462023
0001c0 3c c7 16 3c f9 4a 05 bd 16 ec 35 3c 91 b7 e2 bc
       0.009202775 -0.032542203 0.011103651 -0.027675422
0001d0 c5 b5 42 3c 02 f9 8f 3d f9 74 ed 3c 6b 78 a1 3d
       0.011884158 0.07029916 0.028986441 0.07884296
0001e0 bf 48 b0 3d fe c1 78 3c 9f 0b ad bb 54 b5 92 3d
       0.08607625 0.01518297 -0.0052809264 0.07163492
0001f0 80 80 1f bc 5b 0c c5 bc 3d 9f 71 bd e1 1d 67 3c
       -0.009735227 -0.024053743 -0.058989752 0.014106245

fc3.weight f4 [16, 128]
000000 ed 9e 43 bd e0 89 74 bd d1 c6 6c 3d 68 6c 84 3d
       -0.047758985 -0.0597018 0.057806794 0.06465989
000010 f1 eb 07 bd d8 5b 1c 3d a3 8a c6 3c a5 30 d1 3c
       -0.033183996 0.038173527 0.024236029 0.02553589
000020 f3 86 97 bc 5e ce 95 bd 06 17 d7 3b d8 40 61 3d
       -0.018496966 -0.07314752 0.006564024 0.05499348
000030 a5 63 9f 3d af fd 57 3d a2 ce 15 3d 15 69 ae 3d
       0.077826776 0.052732166 0.036574014 0.085161366
000040 56 09 a6 bd f0 3f 20 3d 4a 7f 87 bd ff 9a 85 bd
       -0.081072494 0.039123476 -0.06616075 -0.06523704
000050 bf 5c 8a 3a bb 4b 8d bd 32 a7 81 3c 28 55 ba 3c
       0.0010556205 -0.0689921 0.015826795 0.022745684
000060 87 e1 6d bd 0a 09 eb bb a2 d1 07 3d 7b cf 89 3c
       -0.058076408 -0.0071727084 0.033158906 0.016822567
000070 3f 91 61 bd 14 b4 d1 3b e5 72 93 bd 26 a0 91 3d
       -0.055070158 0.006399641 -0.07199649 0.07110624
000080 e6 cc 65 bd 85 b1 1b bd d3 aa af bd ed a0 98 bd
       -0.05610361 -0.038011093 -0.08577504 -0.07452569
000090 da 2b 8a 3d 8f 0f 32 bd b6 28 ea 3b 76 af 24 3d
       0.06746645 -0.04347187 0.0071459664 0.040206395
0000a0 db ba 13 3c 15 11 97 3c 8f f5 a6 bd 57 e9 b2 3d
       0.009016718 0.018440763 -0.08152305 0.08735912
0000b0 c0 a7 6e bc c1 e5 93 3d 0f 1f 04 3d 1f 0c e5 3c
       -0.014566362 0.072215565 0.032256182 0.027959881
0000c0 22 cf 8b 3d 6e 19 36 3d 19 d8 6e 3d 23 cb 4a bd
       0.06826617 0.044457845 0.058311556 -0.049510133
0000d0 64 62 7e bd 88 6a 78 3b b1 5d ce bc b1 13 82 bc
       -0.06210555 0.0037905294 -0.02519116 -0.01587853
0000e0 a8 08 60 bd c5 a7 ff bb 83 b9 73 3c 8c 72 77 bd
       -0.054695755 -0.007801982 0.014875772 -0.060411975
0000f0 3d 55 5d 3d ab 12 91 bd 04 89 58 3d 15 5e 8e bd
       0.054036368 -0.07083639 0.052865043 -0.069515385
000100 65 8f f7 3c b5 92 ac 3b af b3 78 3d de a7 68 3c
       0.030219743 0.0052665123 0.060718235 0.014200179
000110 63 b0 9b bd ae 8e 09 3d 76 50 12 3c 79 1e 67 3d
       -0.076020025 0.033583336 0.008930316 0.056425545
000120 37 7f 87 bd 27 e9 b3 3d e7 93 de bc 28 ad 56 3d
       -0.06616061 0.08784705 -0.027170135 0.05241123
000130 2a 3f 90 3d 21 65 0f 3d f8 c3 98 3d cd 19 69 bc
       0.070432976 0.035008553 0.07459253 -0.014227343
000140 3d 83 34 bd 50 88 a5 bd b6 44 65 3d d8 b5 66 bc
       -0.04407047 -0.0808264 0.05597373 -0.014081441
000150 69 a1 02 3d 95 b4 90 bd d8 22 b1 3c 98 5b 15 bd
       0.031892214 -0.07065693 0.02162306 -0.036464304
000160 cf 95 8e bd 35 2f 75 bd bb dd 77 3d cf e4 41 3d
       -0.069621675 -0.059859473 0.060514193 0.04733735
000170 13 5c 84 bd ef 04 f3 3b 56 ce 45 3d 57 89 27 bd
       -0.06462874 0.0074163596 0.04829248 -0.04090246
000180 8f 86 0d bb db 67 6c bd 1f f7 9d 3d c3 08 33 3c
       -0.0021595096 -0.05771623 0.0771315 0.010927382
000190 43 ca a2 bd 55 19 b3 3c b9 1a 4d 3d ea 6a 84 3d
       -0.079487346 0.021862665 0.050074313 0.06465705
0001a0 5c ab 14 3d 98 75 30 3d 3b 68 5d bd e2 83 66 3d
       0.036296234 0.043080896 -0.05405448 0.056278117
0001b0 03 54 6c bc 63 10 81 3d ed 78 ee 3c ff 81 46 bb
       -0.014424327 0.06301954 0.029110396 -0.0030289886
0001c0 36 30 e4 3c 4b 6a 64 bd 55 ab 54 3b 50 91 91 3d
       0.02785502 -0.05576543 0.0032450755 0.07107794
0001d0 cd 66 34 3d 54 00 af 3d 94 9d 3f 3d dc 83 9f bb
       0.04404335 0.085449845 0.046781138 -0.004868014
0001e0 cf 3a 96 3d f5 05 37 bd 53 6b ad 3d 7e eb 9b bc
       0.073354356 -0.044683415 0.08467736 -0.01903319
0001f0 b0 11 7d bd cb 30 52 bd e0 68 93 b9 e1 9d 94 bd
       -0.061784446 -0.051316064 -0.00028116163 -0.072566755
000200 28 61 b6 bc 6b 91 e4 bc 19 ce 7d 3d 4f 31 98 bd
       -0.022263125 -0.027901372 0.06196413 -0.0743128
000210 31 47 f1 bc 73 12 a0 bc de 18 89 3c 70 37 fd bc
       -0.029452892 -0.019540047 0.01673549 -0.030910224
000220 6c 92 23 3c d4 fd 88 bd cd d1 8b bd 6e 0a 33 3d
       0.00998364 -0.06689039 -0.06827126 0.04371112
000230 19 b4 55 3c 1f bb c9 bc a9 01 15 3d cc 58 3b 3d
       0.013043427 -0.02462536 0.036378536 0.04573898
000240 a7 48 4f 3b 7a 7f 46 3c c3 1b a6 3d c5 26 52 bd
       0.0031628998 0.012115354 0.08110764 -0.051306505
000250 df ed 60 bd 30 07 8a 3a 63 77 a7 bd 6d b7 94 3d
       -0.05491435 0.0010530706 -0.08177068 0.07261548
000260 61 e9 61 3b e2 20 a8 bb f7 ce 3d bb d8 f5 fe 3a
       0.003447138 -0.005130873 -0.0028962472 0.0019451929
000270 b3 07 31 bd 35 c6 81 bd 28 3a ad bd 4f ff d7 bc
       -0.043220233 -0.06336633 -0.08458358 -0.026366858
000280 3e 8a 3f 3d 5a fb 82 3d 92 ec 8b 3d 85 e8 50 3d
       0.046762697 0.06395598 0.068322316 0.051002998
000290 40 ea b2 bd 60 1f 2d 3c 7c 86 1b 3c f1 20 79 3d
       -0.08736086 0.010566562 0.009492513 0.06082243
0002a0 04 bb 07 bd ae 19 7a 3d 47 b3 5e 3d 19 27 1c bd
       -0.033137336 0.061059646 0.05437019 -0.038123224
0002b0 18 87 47 3c b2 c5 ab bd b1 c3 a0 bd 5e ca 52 3d
       0.012178205 -0.08387317 -0.07849825 0.051462524
0002c0 f4 c9 55 3d d0 4c 94 3d b1 65 8a 3d e3 49 a5 bb
       0.05219455 0.07241213 0.06757677 -0.0050442084
0002d0 31 ec 27 bd 31 2f 7a 3d 35 05 9d bd 03 e7 d9 3c
       -0.040996734 0.06108016 -0.07667009 0.026599413
0002e0 f3 69 b6 bb 9c 9e 4d 3d 6f 1f 3f bd e1 fb f9 3c
       -0.0055668293 0.05020009 -0.046660837 0.030515613
0002f0 d7 1d 2b bd eb 79 89 3d 9e b4 73 3d e6 62 78 bd
       -0.041776504 0.06712707 0.05949842 -0.060641192
000300 c7 97 41 bd 2c 23 ae 3d 22 2a a5 3c 83 ab 9f 3d
       -0.047263887 0.08502802 0.020161692 0.07796385
000310 5e 74 0a 3d d4 52 44 3d 2f 53 8d 3c 4f ed a7 3c
       0.033802383 0.047930554 0.01725158 0.0204989
000320 a9 3c aa bd 9a 42 4a bc 31 4c 4a bc 13 23 4b bd
       -0.08312351 -0.012344981 -0.012347267 -0.049593996
000330 c8 60 79 bc fd e6 7b bc c8 aa 2c bd c9 1a 30 3d
       -0.015220828 -0.015374896 -0.042155057 0.042994294
000340 18 2c 4c bc d7 d7 7d bd e5 da df bc a1 55 86 bd
       -0.012461685 -0.06197342 -0.027326057 -0.06559301
000350 90 b8 a6 3d 4d f1 96 3d 83 e4 b3 bd 3c b0 05 3c
       0.08140671 0.07370243 -0.087838195 0.008159693
000360 34 c6 ed 3c dd 43 97 3d ab b3 14 bd 7f 35 b1 3c
       0.029025175 0.07385991 -0.036304157 0.021631954
000370 9a 90 b2 bd b1 21 1b 3d 31 76 9d bd 77 e6 52 bd
       -0.08718987 0.037873928 -0.07688559 -0.05148932
000380 85 85 0b 3d 31 7f fc bb 9f bb e0 ba 1c 64 6e bd
       0.03406288 -0.007705592 -0.0017145759 -0.05820094
000390 a7 db bc 3c 06 01 83 3d c1 e3 e3 3b 67 1d 9d 3d
       0.023053957 0.063966796 0.0069546406 0.07671624
0003a0 a7 71 8e bd b9 fb 6b 3d 8f 67 80 bc f2 63 d2 bc
       -0.06955271 0.05761311 -0.01567438 -0.025682423
0003b0 15 10 18 3d 5d ad 91 bd a7 6a 92 bd 7e c5 b0 3d
       0.037124712 -0.071131445 -0.071492486 0.08631419
0003c0 18 d6 aa bd 52 3a 8e 3d 72 54 96 3d 73 54 27 3d
       -0.083416164 0.069447175 0.073403254 0.04085202
0003d0 d2 b4 b3 bd 3c 5f a7 3d c4 7f 91 bd 5c cb 28 3d
       -0.08774723 0.081724614 -0.071044475 0.041209564
0003e0 5a 3e 0c bd 7f 3e 01 3d ba 5a 79 3d 21 22 11 3c
       -0.03423915 0.03155374 0.06087754 0.008858235
0003f0 99 35 20 3d 1c c1 82 3d 13 46 9f 3c 52 2c 30 bd
       0.039113615 0.06384489 0.019442594 -0.043011017

fc3.bias f4 [16]
000000 62 fd 71 3d 31 e6 27 3a 99 43 7a 3d 2b 96 03 3d
       0.059079535 0.00064048456 0.061099622 0.032125633
000010 0c 23 8b bc c7 b8 93 3d 68 a7 9c 3d 39 fc e2 bc
       -0.016984485 0.07212978 0.07649118 -0.02770816
000020 7c 4f a0 3d 8d 4c 95 3d d0 81 aa 3c 0e 1f 12 3d
       0.078276604 0.072899915 0.020813853 0.035674147
000030 59 51 07 bd 3a e0 77 bd c9 48 64 bb 8f 33 8c bd
       -0.033036564 -0.060516573 -0.0034833422 -0.068457715
