dynamics/src/dynamics/old/outputs/RobotOptEnv/20220726-172507/models/dqn_checkpoint.pth (torch, 81735 bytes, 6 tensors)

fc1.weight f4 [128, 9]
000000 e3 bb 15 3e 48 64 66 3e 50 a8 5a be 00 6e a1 bc
       0.14622454 0.22499192 -0.21353269 -0.019705772
000010 96 93 98 bd d3 38 13 3e f6 0d 39 be 1f 20 8a be
       -0.07450025 0.14377145 -0.18071732 -0.2697763
000020 c6 a7 a7 be 5e ff 9e 3e e0 86 1b 3d fb c1 36 3e
       -0.32745188 0.31054205 0.037970424 0.17847435
000030 58 b9 50 be 06 2d 8a be 10 e1 a5 be 00 7c 7c bd
       -0.20383203 -0.26987475 -0.32398272 -0.061641693
000040 80 c0 4e be b8 0f 92 3e 4b 87 fc 3d 6e 62 38 be
       -0.2019062 0.28527617 0.123304926 -0.18006298
000050 96 fc b6 3d ab e8 27 3d e8 da 53 be 96 13 9e 3c
       0.08934896 0.040993374 -0.20688975 0.019296449
000060 20 50 89 3d 26 58 a4 bd 9b 8f 84 3d 26 26 11 3e
       0.06704736 -0.080246255 0.06472703 0.14174709
000070 5b 3e ca bd ee 4d 37 3e b0 fe 7d be 10 b7 20 be
       -0.098751746 0.17900822 -0.24804187 -0.15694833
000080 98 b7 3a be fe 92 43 be ab ae a8 3e 9f 15 92 be
       -0.18234098 -0.19099042 0.3294576 -0.2853212
000090 98 15 4a be f6 4b 01 bd c6 d0 80 3e f0 ec 4a be
       -0.197348 -0.031566583 0.25159281 -0.19816947
0000a0 a0 3d 5a be ee 55 3e be 86 25 43 be e2 af a4 be
       -0.2131257 -0.18587467 -0.19057283 -0.32165438
0000b0 4b 28 87 3d 42 d3 a0 3e b6 b4 f9 bd 7b 86 f7 bd
       0.06599482 0.31411177 -0.12192671 -0.12086197
0000c0 08 39 3b be e3 76 53 3e f3 37 48 be 74 62 a6 3e
       -0.18283474 0.2065082 -0.19552593 0.3249699
0000d0 50 9e 4b be f3 38 89 be ab 4d b5 bd e0 3f 9c 3e
       -0.1988461 -0.2680126 -0.088527046 0.30517483
0000e0 6b 58 d0 3c db 12 88 bd 56 d3 84 3c cf a5 8a 3e
       0.025432786 -0.066442214 0.016214054 0.27079627
0000f0 40 30 30 3e 33 11 05 be c0 13 19 3e 56 a5 90 bc
       0.17205906 -0.12994842 0.1494894 -0.017656963
000100 76 da 3e 3d 96 7c 5d 3d 04 8e a6 be 10 67 b9 bd
       0.04659506 0.054073893 -0.32530224 -0.09052861
000110 a8 42 58 3e 70 33 9d 3e 70 80 54 be 63 04 2d 3e
       0.21119177 0.30703306 -0.2075212 0.16896205
000120 00 fe 81 3c 50 e5 47 3e 13 d4 6f 3e 28 5b 5c 3e
       0.015868187 0.1952107 0.23420744 0.21519148
000130 08 07 88 3e 70 e8 ff bd db f2 56 be 54 8e 8e be
       0.26567864 -0.12495506 -0.2099108 -0.27842963
000140 e8 a3 85 3e a7 49 99 be e6 57 6c be eb 23 56 bd
       0.26101613 -0.29939005 -0.23080406 -0.052280348
000150 c0 c1 a4 bd fb dc 0d 3e ab 96 42 bd 23 a3 14 be
       -0.080447674 0.13853829 -0.04750697 -0.14515357
000160 78 97 82 3e a6 29 48 3e 76 71 5d 3d 76 90 4d bd
       0.25506186 0.19547138 0.054063283 -0.050186597
000170 20 39 5b be 40 0f 87 3e c3 1c 1c 3e ae e4 52 be
       -0.2140851 0.26378822 0.15245347 -0.20595047
000180 ba cf 9f 3e 40 ff b7 bd ce f7 0a 3e 2b 56 8d 3e
       0.3121317 -0.08984232 0.13571092 0.27604803
000190 87 cc a1 be a3 3f 6a 3e eb 53 a2 3e 5b 9b a3 bd
       -0.31601354 0.22875838 0.3170465 -0.07988616
0001a0 dc 18 90 3e d6 dd f0 bc 9b a6 d2 bd 0f 1f 97 3e
       0.28143966 -0.029402655 -0.10285684 0.29515883
0001b0 7b b5 f7 3d a8 5e 46 3e 60 41 ca 3d 80 a4 97 bd
       0.120951615 0.19372046 0.098757505 -0.07404423
0001c0 86 13 ae 3d 97 a8 8f 3e 18 ec 4c be c3 93 14 be
       0.084998176 0.2805831 -0.20011938 -0.14509492
0001d0 60 5e 8b bd 38 87 a7 3e 0e 5d 6c 3e b2 d8 82 3e
       -0.0680511 0.3272035 0.23082373 0.2555595
0001e0 00 8b 34 3e d0 86 76 be 60 6b 0c bd 6e a2 a9 be
       0.1763115 -0.24074864 -0.03428209 -0.33131737
0001f0 a8 84 74 3e 16 dd d2 bd 03 95 0e 3e de 5c 76 3e
       0.2387873 -0.10296075 0.13924031 0.24058864
000200 1b f8 97 3e a6 4d a0 3e 00 6b de bd 56 18 9d 3b
       0.29681477 0.3130924 -0.108602524 0.004794161
000210 de 1e 3a 3e 4b 80 86 be a6 fc 7f 3e 33 a6 22 3e
       0.18175837 -0.26269755 0.24998721 0.15883712
000220 6b b3 b0 3c 4e 8f 7a be 4b c5 56 3d 56 a4 d9 3d
       0.021569928 -0.24468729 0.052434247 0.10627048
000230 ba d0 9c 3e b0 0a 74 be 38 a8 4a be 26 8b 0e be
       0.30627996 -0.23832202 -0.19790733 -0.13920268
000240 28 fe 4b 3e 34 81 80 be 90 ac 7d 3e 5b df 1c 3e
       0.19921172 -0.25098574 0.24772859 0.15319578
000250 6e f6 23 be ef 51 88 3e 6b 97 40 be ae e8 a8 be
       -0.16011974 0.2662501 -0.18807761 -0.3299002
000260 f0 7b 36 be bc 65 a3 3e f6 54 34 3d c0 aa 35 bd
       -0.17820716 0.31913555 0.044026338 -0.044352293
000270 6b 14 17 3e ec 05 aa be 00 8a ac 3d e0 2d 29 3e
       0.14753883 -0.33207643 0.08424759 0.16521406
000280 e0 ad 17 bd 7e 7e 2d be 62 6b a4 3e 96 da 9a 3d
       -0.037031054 -0.16942784 0.32113177 0.07561223
000290 00 c4 16 3b b4 1c 8c 3e f0 32 03 be 40 f7 f2 3c
       0.0023005009 0.2736565 -0.128124 0.029658914
0002a0 2b 17 2f bc f8 80 03 be 80 a4 8f 3e b0 8a 96 be
       -0.010686676 -0.12842166 0.2805519 -0.29402685
0002b0 06 3b 8b be e0 90 57 3e eb eb 03 3d 4b a1 49 be
       -0.2719347 0.21051359 0.03220741 -0.19690435
0002c0 88 7a 58 be c3 1e 7c be 60 33 a9 3e 4b 28 e7 3d
       -0.21140492 -0.2462111 0.3304701 0.11286982
0002d0 8b 70 92 bd b6 46 b4 3d 66 d5 e1 bd a8 8f 1c be
       -0.07150372 0.088025495 -0.11027031 -0.15289176
0002e0 1b 0e a2 3e f7 2f 96 3e 0e 03 20 3e e0 61 80 bd
       0.31651387 0.2933347 0.15626165 -0.06268668
0002f0 e6 04 74 3e b6 8b 79 be 00 f9 64 bd 13 e4 51 3e
       0.23829994 -0.24369702 -0.055901527 0.2049716
000300 b6 af de 3d c3 2c 51 3e cb 64 3e 3d 7b 65 84 3e
       0.10873358 0.20427231 0.046482842 0.25858673
000310 e8 21 83 3e 1e 24 56 be 2b 2f 2b 3c 50 08 e8 3d
       0.25611806 -0.20912215 0.010448257 0.113297105
000320 1b 4e ad bd 78 28 28 be 80 a5 1f 3d 23 f9 73 3e
       -0.08462163 -0.16421688 0.038976192 0.23825507
000330 46 4d 9b bd 00 f8 25 bc 88 3a 69 3e 68 d3 0b 3e
       -0.07583098 -0.010129929 0.22776234 0.13654864
000340 ab 56 20 bc 2e 0f 4e be 6b 06 82 3d 3e 79 50 be
       -0.009786288 -0.20122978 0.063488804 -0.2035875
000350 00 ba a9 3c 1f f4 80 be bb fe 9a 3d 2a 3b 83 be
       0.020718575 -0.2518625 0.07568117 -0.25631076
000360 26 6d 8c 3e 56 15 fb bc 6b c9 dd bd 4e d7 3c 3e
       0.27427024 -0.030649822 -0.10829433 0.18441507
000370 ea 3a 87 3e fb 54 66 3e a0 a6 4c 3e 6b 52 b5 3c
       0.26412135 0.22493355 0.19985437 0.022134027
000380 bb f0 d6 bd 3b f2 8f 3e 70 00 4b be ab a9 28 3c
       -0.104951344 0.28114495 -0.19824386 0.010294358
000390 76 2b 55 bd 2b cb c4 3d 0b e7 88 3d 8f 13 9d 3e
       -0.0520434 0.09609064 0.06684693 0.30678985
0003a0 4b 82 6b 3e 46 b0 f6 3d 70 7f 91 bd 63 6f 7a be
       0.22998922 0.1204534 -0.07104385 -0.24456553
0003b0 e6 1a 9a 3e 40 ce e3 3c 96 ad 82 3e bb 67 e3 3d
       0.30098647 0.027808309 0.2552306 0.111037694
0003c0 70 cb 99 be 80 e4 66 bc 5e 25 a5 be 96 3c 3f be
       -0.30038023 -0.014092565 -0.3225507 -0.18675455
0003d0 46 80 31 be af 3f a9 3e e3 ac 27 be 33 32 2d be
       -0.17334089 0.330564 -0.16374545 -0.1691368
0003e0 b3 76 04 be 38 ba 8a be ab 6e 6c 3b af ca 89 be
       -0.12935905 -0.270952 0.0036076705 -0.26912448
0003f0 16 63 1f bd 7e 73 95 3e 46 2d 33 3e 1e aa 5d 3e
       -0.038912855 0.29189676 0.17497739 0.21646926

fc1.bias f4 [128]
000000 bb c3 6c 3e bf 49 a2 be 00 78 a3 3a d4 25 95 be
       0.2312154 -0.3169689 0.0012471676 -0.29130423
000010 26 96 ac 3d 50 fc 88 bd de 3f 51 be 13 2c 75 be
       0.08427076 -0.0668875 -0.2043452 -0.23942594
000020 bb 71 7f be d6 ba 9a 3c 9a df 94 3e bf d3 86 3e
       -0.24945728 0.018887918 0.29076844 0.26333424
000030 88 b6 a6 3e 36 60 89 be 16 83 74 3e 6a 58 9b be
       0.32561135 -0.26831216 0.2387813 -0.30340892
000040 78 42 42 3e eb 52 99 3d 2e 45 2b 3e b7 3d a1 3e
       0.18970668 0.074865185 0.16725609 0.31492397
000050 d4 34 a7 be 76 d6 72 3e 03 16 75 be ff e4 a6 be
       -0.32657492 0.23714623 -0.23934178 -0.32596585
000060 c8 93 59 3e e3 d9 a6 3e be 5a 86 be 06 98 46 3e
       0.2124778 0.3258811 -0.26241106 0.1939393
000070 ab 9c 1b 3b c4 e3 a0 be ab ed c3 3d 10 e4 e4 bd
       0.0023744504 -0.3142377 0.09566816 -0.11176312
000080 00 2f d8 bd e8 7a 86 be e8 d7 3a be a6 ca 3f be
       -0.105558395 -0.26265645 -0.18246424 -0.18729648
000090 4e 2f 42 3e d3 86 94 be 6b d5 8b 3c ab 08 09 3c
       0.18963358 -0.29009113 0.017069539 0.008363883
0000a0 4b 89 e0 3d 53 83 a3 3e 37 3e 94 3e 9f a5 87 be
       0.109636866 0.3193613 0.28953716 -0.26493546
0000b0 d0 e1 a7 3e c0 59 d0 bc 50 53 36 3e 36 f2 32 3d
       0.3278947 -0.025433421 0.17805219 0.04368802
0000c0 f6 2c 3a 3e f8 a9 0e be f0 7c 8d 3e f6 fe 67 be
       0.18181214 -0.13932025 0.27634382 -0.22655854
0000d0 fb 5c a9 3d 9a 46 95 be de 14 41 be 02 86 9d be
       0.08269688 -0.29155427 -0.18855616 -0.30766302
0000e0 cb 94 7e bd 30 25 be 3d 00 b9 a0 bb 40 64 32 3d
       -0.06215362 0.09284437 -0.004904866 0.043552637
0000f0 16 60 aa be d0 46 e6 bd 6b 76 02 be ab 97 8e bd
       -0.33276433 -0.11243975 -0.12740485 -0.06962522
000100 4b 8d 07 3e 1b a3 f9 bd 13 64 94 3e 26 9c 09 3e
       0.13237493 -0.12189313 0.289826 0.13438472
000110 cb d1 77 3e 00 32 d3 3b de eb 57 be bb 38 91 3d
       0.24201123 0.0064451694 -0.2108607 0.070908986
000120 58 f2 05 be d3 f1 84 be 6c e7 86 be 1b 2f 82 bd
       -0.13080728 -0.25965747 -0.26348436 -0.06356641
000130 56 ed 68 3c ab 6e 2d 3b 80 c1 78 bd 7b 6a 43 be
       0.014216742 0.0026463668 -0.06073141 -0.19083588
000140 ab 0e a1 bb b4 a6 9e 3e 98 4e 2b 3e 40 5e c1 bd
       -0.0049150786 0.3098656 0.167292 -0.09441805
000150 38 eb 2e 3e 16 9d 88 3c 72 68 9e 3e 33 05 20 3e
       0.17081916 0.016676467 0.3093906 0.15626983
000160 78 7e a6 3e 6b a2 7f bd b0 88 f2 bd 6b d4 7a 3e
       0.32518363 -0.062410753 -0.11842477 0.24495094
000170 d2 80 9c be c3 e9 28 3e 68 39 16 be 38 26 5b be
       -0.30567032 0.16495423 -0.14670336 -0.21401298
000180 da fc 8a be 20 0c 0a 3d ab 9f eb 3c 5e 21 88 3e
       -0.27146035 0.03370297 0.028762659 0.26587957
000190 0a 3d 9f 3e e6 7d c0 3d 3b af 1e be e6 09 3c 3e
       0.31101257 0.09399013 -0.15496533 0.18363151
0001a0 3b 1f 0d 3e eb ec b9 3c 8e 5b 5a be 9b 28 83 be
       0.13781445 0.02269598 -0.21323988 -0.25616917
0001b0 90 74 9c be f3 17 81 be 80 3e 90 bc 16 28 54 3d
       -0.3055768 -0.25213584 -0.017607927 0.05179604
0001c0 f0 8a 08 3e 60 0e cb 3d 5b 35 0a be 73 41 78 3e
       0.1333425 0.09914851 -0.13496916 0.24243717
0001d0 93 36 76 3e d8 8b 2d 3e 7e 2b 3e be 50 06 70 3e
       0.24044256 0.16947877 -0.18571278 0.23439908
0001e0 66 1d d3 bd 00 37 e4 bc 83 39 5d be 16 75 ed bd
       -0.10308342 -0.027858257 -0.2160397 -0.11594598
0001f0 cf 3f 95 be 3b c3 a7 3d af 26 a5 3e 4b f9 8c bd
       -0.29150245 0.08191534 0.32256076 -0.06883486

fc2.weight f4 [128, 128]
000000 b7 d3 65 3d d2 14 a6 3d fd ce c9 3b be 62 50 bd
       0.05611011 0.0810944 0.006158708 -0.050875418
000010 98 64 ee bc 2f b5 5f 3d fa a2 d9 bc 91 97 7e 3d
       -0.029100701 0.05461615 -0.026566971 0.062156264
000020 fb 66 b3 3c 69 f4 cb 3a d3 63 52 3d 00 0d ab bb
       0.02189969 0.0015560511 0.05136473 -0.0052200556
000030 fc aa 01 bd d7 d6 52 bd 28 0c 99 bd 21 8b 10 3d
       -0.031657204 -0.05147442 -0.07473022 0.035288934
000040 3c 9f 5c bd 58 e1 5d 3d 9c cd 3c 3d e5 79 a8 bd
       -0.053862795 0.054169983 0.046094522 -0.082263745
000050 9b 16 37 3d 91 18 21 bd 91 e7 a9 bd 94 cd a8 bd
       0.044699293 -0.03933007 -0.08296121 -0.08242336
000060 c6 9c f5 3c b2 ab 91 3d 4f f6 7a 3d f1 38 85 bd
       0.029981982 0.071128264 0.061270054 -0.06505001
000070 3a 3d 75 bc 1c 54 6a bc 12 e8 01 bc 26 5d 22 bd
       -0.014968211 -0.01430228 -0.007928865 -0.039639615
000080 de 9f 36 3c f2 d9 7a 3d 20 24 3e 3d b4 0f 8b bd
       0.011146514 0.061243005 0.04642117 -0.067901045
000090 71 ba 6c 3d 35 4e 14 3d 3b d1 58 bd a8 b6 04 bd
       0.057794992 0.036207397 -0.052933913 -0.032400757
0000a0 bf b6 af 3d c2 76 3c bd b7 f9 81 3d 97 5d 1e bd
       0.08579778 -0.046011694 0.063464575 -0.038663473
0000b0 ce 14 95 bd c1 ec 29 3d 70 40 06 3c d8 16 55 bd
       -0.07279359 0.04148555 0.008194074 -0.05202374
0000c0 60 60 55 bd 7b 2a ea bc 0e 7e 54 bd a1 34 b2 bc
       -0.052093863 -0.02858471 -0.051878028 -0.021753611
0000d0 9c 8a 9d 3d fe 8a 24 3d 8c 04 dc 3c 4c bb ce bc
       0.07692453 0.040171616 0.026857637 -0.025235794
0000e0 5b ee 36 3c 63 41 63 3d 91 8d 41 3d a2 03 44 3d
       0.011165227 0.05548228 0.04725415 0.047855027
0000f0 c1 05 31 3d be f7 ab 3d 40 57 86 bd c7 c1 53 bd
       0.043218378 0.083968624 -0.0655961 -0.051698472
000100 84 8c 95 bd e7 be 6f 3d 89 1b 7c bc 86 a7 4d bd
       -0.07302192 0.058531668 -0.015387424 -0.05020859
000110 ec 6c 12 bd bf e6 a8 bd b3 f5 69 bd 2e d0 ab bd
       -0.035748407 -0.08247136 -0.057119083 -0.083893165
000120 e9 33 ab bd b5 14 39 bd 2a b3 b4 3d 9b 8b e4 bb
       -0.083595105 -0.045185763 0.08823235 -0.00697465
000130 72 41 08 bd 9d d2 34 bd 31 87 5f bd 80 8f ac bd
       -0.03326554 -0.04414617 -0.054572288 -0.08425808
000140 21 9b 91 bd c8 34 91 bc 15 b0 a8 bd 8d 3b a0 3c
       -0.071096666 -0.017725363 -0.0823671 0.019559646
000150 93 66 ca bb 8e 50 5b 3d d9 9c 9b bd 3f 5e 2a 3d
       -0.0061767786 0.05354362 -0.07598276 0.041593786
000160 96 a5 97 3d ed e1 38 3d c4 68 6f 3d e4 fe 8b 3d
       0.0740463 0.045137335 0.05844952 0.06835726
000170 30 84 7c bd 69 c0 b1 3d a9 73 3f bd 06 31 3b bd
       -0.0616495 0.086792774 -0.04674116 -0.04570105
000180 65 9a ab bd 01 11 13 3d 1d a9 b1 bd df f6 d6 3c
       -0.08379058 0.035904888 -0.08674834 0.026240764
000190 2c 67 f8 ba 14 f5 f4 bc e0 b2 a4 bd 3a c1 57 3d
       -0.0018951646 -0.029902019 -0.0804193 0.05267451
0001a0 83 5c fa bb dd f1 20 3d 04 d0 47 3d 30 0f 3c 3c
       -0.007640423 0.03929316 0.048782364 0.01147823
0001b0 9f 93 ae 3d 53 41 45 bb 18 ff e2 ba 00 ce 09 3d
       0.0852425 -0.003009875 -0.0017318456 0.033643723
0001c0 43 3e 06 3d d5 5c 56 3d b5 b2 a9 3d 6e 5b 3b bd
       0.03277422 0.052334625 0.08286039 -0.04574149
0001d0 3c b5 93 3d 3b 11 a8 bd aa d2 a4 3d 4e e0 68 bd
       0.07212302 -0.082064115 0.080479935 -0.05685454
0001e0 6e 7e 37 3c e2 73 c5 bc a9 55 82 3d d2 7a 23 bd
       0.011199577 -0.024103109 0.06363995 -0.039912052
0001f0 6c d2 3f 3d 57 94 24 bd e9 b0 b5 3c b0 2a 3e 3d
       0.046831533 -0.04018053 0.022179084 0.04642743
000200 a5 3a 87 3d d0 d5 a9 bd fc a4 23 bd e3 f2 42 3b
       0.066029824 -0.082927346 -0.039952263 0.0029746823
000210 37 0d a5 3d 40 14 2b 3b 6d 53 fb 3c 24 5a ff bc
       0.08059161 0.00261046 0.030679429 -0.031170912
000220 a9 db 9d 3d 82 ee 85 3d 46 be 4f bd 3b 11 3e 3d
       0.077079125 0.065396324 -0.05071857 0.04640315
000230 e5 78 3d bd 3f 8e 51 bc 40 52 84 3d e8 e6 e9 bc
       -0.046257872 -0.012790262 0.064610004 -0.028552487
000240 cb 82 0b bd 26 24 64 bc cc 86 84 bd 5e d2 84 bd
       -0.03406028 -0.013924634 -0.06471023 -0.06485437
000250 78 d9 20 bd e5 10 13 3d 4e fc 1c 3d c8 2b 91 3d
       -0.039269894 0.035904784 0.038326554 0.07088429
000260 31 45 da 3c 3b 28 65 3c 46 fd 2b 3d a8 aa 46 3b
       0.026644321 0.0139866425 0.041989587 0.0030314121
000270 e8 0f 38 3d d7 db b6 bc 46 70 9e 3d a2 30 f9 3c
       0.044937044 -0.022321625 0.07736258 0.030418698
000280 b8 38 d3 3b 08 8e 58 bd e0 34 82 3d 7f e3 85 bc
       0.0064459704 -0.052869827 0.06357741 -0.01634383
000290 ee 54 1a 3d e8 f1 07 3d 22 b1 19 bd ef 63 63 bd
       0.03767865 0.033189684 -0.037522443 -0.055515226
0002a0 1f 0e 41 3d 5d 75 49 bb c8 cf 9b bc 5f d3 15 3c
       0.047132608 -0.003074012 -0.019019976 0.009144633
0002b0 97 03 8f 3d e7 8c 65 bc 38 f8 a8 3d 2f 42 34 bd
       0.069831066 -0.0140106445 0.08250469 -0.04400843
0002c0 d6 c3 dd bc 11 b2 57 bd 73 b4 4d bd 0f cc b2 bd
       -0.02707092 -0.05266005 -0.050220918 -0.08730327
0002d0 ee 33 76 bd b1 17 d2 bc be 94 93 3d 67 7c a1 3c
       -0.060108118 -0.025646063 0.07206105 0.01971264
0002e0 e3 d6 19 bd b1 e6 46 3d 3c 93 ac bb b6 17 ce bb
       -0.037558448 0.04855985 -0.005266575 -0.0062894477
0002f0 dc c0 4f bd 6f 60 7c bc 44 be ab bc 7b 44 78 bd
       -0.050721034 -0.015403851 -0.02096475 -0.060612183
000300 e1 de cd bc 30 b8 1a 3d a9 a8 4d 3d 76 9e 43 bd
       -0.025130691 0.03777331 0.050209675 -0.047758542
000310 d9 38 b4 bd d9 46 69 3d 97 c4 81 3d 41 fc b2 bb
       -0.08799905 0.05695233 0.06336325 -0.0054622
000320 bc e1 a4 3d 40 41 79 bd 86 f7 3b 3d 20 da c9 3c
       0.08050868 -0.060853243 0.045890354 0.024640143
000330 73 a9 b0 3d 64 32 ab bb f6 ba 14 bd 3a 1d 5e bd
       0.0862607 -0.005224513 -0.036311112 -0.05422709
000340 f7 a7 8a bc 13 0a 87 3d ce 12 8f bb 4d 80 0e bc
       -0.016925795 0.065937184 -0.0043662554 -0.0086975815
000350 6b 52 d3 3c 2a 56 4d 3d 76 6d d0 bc 17 1f 1c bd
       0.025796136 0.050131 -0.02544282 -0.038115587
000360 5c ee fd bb e0 92 93 bd 47 33 69 bd 2e 7f 15 bc
       -0.007749362 -0.072057486 -0.056933668 -0.00912456
000370 e7 52 9f bd 58 bb 58 3d ab 55 e8 3b 0a ce b1 3d
       -0.07779484 0.05291304 0.0070902905 0.08681877
000380 8f 8f 9d bc ae e4 87 bc d1 a4 94 bc e5 f7 b3 3a
       -0.019233493 -0.016588535 -0.018144997 0.0013730495
000390 bc ab 57 3c 36 5e 80 bd 42 e5 76 bd cb 7d 30 bd
       0.013163503 -0.06267969 -0.06027723 -0.043088716
0003a0 72 22 81 bd 76 2c 4a bc 7f 46 03 bd 62 41 98 bc
       -0.06305398 -0.012339702 -0.032049652 -0.018585864
0003b0 99 34 83 bd db 24 6e 3d 34 38 c8 3c f7 2d 8b bd
       -0.064065166 0.058140617 0.024440862 -0.067958765
0003c0 75 cf 99 3d 4c a5 39 bd 65 36 87 3d cc b3 7e 3d
       0.075102724 -0.045323655 0.06602172 0.062183186
0003d0 14 b2 9b bd d2 5c b7 3c 1f de e3 bc 47 e3 3c bc
       -0.07602325 0.022383127 -0.027815877 -0.0115287965
0003e0 12 1c a4 3d c5 e1 8d bd 20 5e 95 3c e1 74 83 3d
       0.080131665 -0.06927828 0.018233359 0.06418777
0003f0 eb c5 30 bd af e7 a5 3c c0 97 c0 bc 86 1a 97 3d
       -0.0431575 0.020252077 -0.02350986 0.07378106

fc2.bias f4 [128]
000000 71 43 13 bd 30 4a 03 bd 27 0b 23 3d c4 37 04 3d
       -0.03595299 -0.032053173 0.039805558 0.032279745
000010 e1 34 92 3d 43 75 c3 bb ea 77 a3 3d 96 06 93 bd
       0.07138992 -0.0059649064 0.07981856 -0.071789905
000020 64 8f e7 3c 8e 1c 91 3d cf 6e aa bd 2a fb b4 bd
       0.028266616 0.070855245 -0.08321916 -0.08836968
000030 58 ec a4 3d 80 7d a7 3d 50 c9 27 3d ec f8 85 3d
       0.080528915 0.08178234 0.04096347 0.06541619
000040 ca d9 0f bd 96 43 f6 3c 85 1d f0 bc e4 82 b1 bd
       -0.03511981 0.030061524 -0.029310951 -0.086675435
000050 a7 53 cb 3c b9 8a 79 3d 11 d0 81 bd f4 2f 97 bc
       0.024820162 0.06092331 -0.06338514 -0.018455483
000060 89 2d cb bc 4d 79 44 3c 3b 9d 0f 3d 6a 6f db 3c
       -0.024801986 0.011991811 0.035062056 0.026786525
000070 c3 61 75 bd 84 c6 93 3d de c7 ca 3c 8e 90 a3 bd
       -0.059907686 0.07215598 0.024753507 -0.07986556
000080 43 83 60 bd 6c db 0b bc 06 0b 62 3d 62 04 96 bc
       -0.05481268 -0.008536201 0.055186294 -0.018312637
000090 24 dc 59 3d 86 59 e6 3c 20 1c 75 bb 3e 60 ee 3c
       0.053188458 0.02811886 -0.0037400797 0.029098626
0000a0 aa a4 14 bd 88 1e 32 bc 9e 00 a4 bc e9 43 da 3c
       -0.03628985 -0.010871537 -0.020019826 0.02664371
0000b0 ea f6 83 3d f8 9d 57 3d ac 67 5a 3d 33 78 ab bd
       0.064435795 0.052640885 0.053321525 -0.083725356
0000c0 ac 3a c1 3c 6b c7 6b bd 8e e1 f6 3a 91 5c 9b bc
       0.023587547 -0.057563227 0.0018835531 -0.018965038
0000d0 06 e6 e9 bc 63 89 fb 3a 04 2d 02 bc a0 c4 a4 bd
       -0.028552067 0.0019190725 -0.007945303 -0.08045316
0000e0 0f c7 7f bc 9e 1f 59 3d d1 82 eb bc d1 90 6f 3d
       -0.015611424 0.053008668 -0.028748902 0.058487717
0000f0 87 44 b8 bc b3 be a9 3d e9 ed 4e 3d 71 95 20 bd
       -0.022493614 0.08288326 0.050519858 -0.03920502
000100 02 e5 32 3c b8 ba ac 3d 27 9e 56 bd c3 f0 6b bd
       0.0109188575 0.08434051 -0.05239692 -0.057602655
000110 9d 1c 55 3d 67 f2 6e bd e0 56 aa bc d5 8b 80 3d
       0.05202924 -0.05833664 -0.020793378 0.06276671
000120 a1 b1 7a bc d4 88 85 bd 2d 8d 83 3d 29 0b a5 3d
       -0.015301139 -0.065202385 0.064234115 0.08058769
000130 47 80 5e 3b 76 0c 5f bd 63 5d 60 bd 4c 13 a9 bd
       0.003395097 -0.054455243 -0.05477656 -0.08255634
000140 d2 92 f7 3c 41 b8 0b 3d e9 0f 3f 3d 9a a3 8c bd
       0.030221377 0.034111265 0.046646032 -0.06867142
000150 94 60 99 3c 53 9e b3 bd 94 3d 9d 3d be 4b 08 3c
       0.01872281 -0.08770432 0.07677761 0.00831884
000160 21 b8 a3 bd 8d bb 85 bd 6c 72 1f 3d a2 a4 55 bc
       -0.07994104 -0.06529913 0.03892748 -0.01303974
000170 7a f4 25 3d 81 ca a1 bd a3 fa 93 3d d3 27 38 3c
       0.040516354 -0.07899953 0.072255395 0.011239964
000180 76 c8 ac bd 5a 4c 32 3d 93 db 14 bb a8 18 84 3d
       -0.084366724 0.043529846 -0.0022713884 0.06450015
000190 8b 40 b1 3d bb 9c 91 3d 26 05 09 bd 19 1f e6 bb
       0.08654889 0.07109972 -0.033452176 -0.00702275
0001a0 99 e1 85 bc 3b e5 8f 3d 97 df 80 bd 3c c3 a9 3d
       -0.016342925 0.07026144 -0.062926464 0.08289191
0001b0 3a af 10 bc 78 87 84 3d 23 15 7e bd 1a 4e ae 3d
       -0.00883084 0.06471151 -0.062031876 0.085109904
0001c0 4e d0 d3 3c 2d e3 aa bd 9c 83 ae bd c0 78 a2 3d
       0.025856163 -0.083441116 -0.08521196 0.079331875
0001d0 4c 60 b2 3d 9f 25 a0 bd 6d eb 81 3d d7 11 af 3c
       0.087097734 -0.07819676 0.06343732 0.021370811
0001e0 85 6d 80 bd 75 34 9a 3d bd ad 44 bd 67 c1 96 bc
       -0.06270889 0.07529537 -0.048017252 -0.018402768
0001f0 3c c0 e9 3b ac 1f 8c 3d 71 5a 57 3d bb a1 7e bd
       0.007133512 0.068419784 0.052576486 -0.062165957

fc3.weight f4 [16, 128]
000000 c5 57 5b bd ba d7 86 3d 38 fd 95 3d d9 b8 66 3c
       -0.0535505 0.06584115 0.07323688 0.014082157
000010 2a 07 a0 3d 40 e8 1a bd 99 b5 8e 3c 52 bb 7e bd
       0.078138664 -0.037819147 0.017420577 -0.06219036
000020 f6 a7 a7 bd 5a 66 ad 3d 02 a9 59 bd 3c d2 88 3d
       -0.08186333 0.08466788 -0.053139694 0.06680724
000030 16 59 0d bc 86 09 a8 3c da b9 43 bc 82 86 3d bd
       -0.008627197 0.020512354 -0.011946166 -0.046270855
000040 ec 9a 90 bd 04 9c 09 bc 46 26 96 3d a2 f2 e6 bc
       -0.07060799 -0.008399013 0.07331519 -0.028191868
000050 9c 97 f8 bb b8 d9 82 3d 52 d3 1f 3a 89 43 77 bd
       -0.0075864326 0.06389183 0.0006096858 -0.06036714
000060 71 e4 37 bd b6 29 43 bd 97 9a 99 bd 3b 2e 80 3d
       -0.044895593 -0.0476472 -0.07500189 0.06258818
000070 12 e3 0b 3b dd 3d d0 3c e1 c8 b6 bc a6 71 d6 3b
       0.0021345061 0.025420124 -0.022312583 0.0065443097
000080 a5 9b af bd 18 fc 89 bc 5b 46 df bb 19 b2 8c 3c
       -0.08574609 -0.01684384 -0.006813807 0.017174767
000090 34 a6 b0 3d 11 b0 3c 3d b8 bb 8e 3d 90 90 8b 3d
       0.08625451 0.046066348 0.06969398 0.068146825
0000a0 56 a7 90 bc de ed aa bd 0b 7c 54 bc c7 eb 8f 3c
       -0.017657917 -0.08346151 -0.012969027 0.017568482
0000b0 fb a0 bd 3c 1b 9b 82 bd 13 bf 37 bd f0 54 77 3d
       0.02314805 -0.0637724 -0.044859957 0.060383737
0000c0 60 10 97 3a 02 fa 2a 3d 58 b7 de 3c 2c f2 d9 bc
       0.0011525266 0.041742332 0.027187034 -0.026604734
0000d0 22 f9 2d 3d 8c b8 85 bd dc 03 86 3d 65 64 55 bd
       0.04247392 -0.0652934 0.06543705 -0.052097697
0000e0 4c 55 7a bd 55 be 22 3c 4d 5f 51 3d d2 fd b0 3d
       -0.0611165 0.009933074 0.051116277 0.086421624
0000f0 4a 40 46 3d 05 5c b8 3b 75 d9 5b 3a 26 c2 7e 3d
       0.048401155 0.005626204 0.00083865906 0.062196873
000100 3e d4 9e bd 10 07 6f bd d3 bb 9a 3d 5c 76 4d 3c
       -0.07755326 -0.058356345 0.07555356 0.012540426
000110 87 1b 71 bc c2 68 a9 bc 54 00 07 bc 50 03 8d 3d
       -0.014716036 -0.020679835 -0.008239824 0.068853974
000120 d4 69 34 3c 49 27 af bd 16 63 52 bb 8e 91 74 bd
       0.0110115595 -0.08552415 -0.0032102517 -0.059709124
000130 88 0e 99 3c 69 8f bd bc b1 21 a2 bd 66 39 e1 3b
       0.018683687 -0.023139672 -0.079165824 0.0068732975
000140 e6 1d 72 3d a3 b7 40 bc d3 45 3e bd ea c9 94 bd
       0.059110545 -0.011762532 -0.04645331 -0.072650746
000150 d6 cd 97 bd bd 43 50 3d 89 7d 8e bd e7 8e 8b 3c
       -0.07412307 0.05084585 -0.06957538 0.017035915
000160 bb 80 a3 bd 70 62 be bc 5b ca 4c 3c 5d ae cf bc
       -0.07983538 -0.023240298 0.012499417 -0.025351698
000170 a5 7a de 3c 15 bf 33 bd 62 8e 0b bd 49 05 2c bc
       0.02715809 -0.043883402 -0.034071334 -0.010499307
000180 05 0c 24 bd 32 80 4c 3d b3 08 71 bc b2 75 14 bd
       -0.040050525 0.049926944 -0.014711547 -0.036245055
000190 70 65 2c 3d 3e c2 72 3c 2f b2 30 bd 9b ff dd 3c
       0.042088926 0.014816819 -0.04313868 0.027099421
0001a0 ed f4 28 3c db d1 b2 3d c5 d6 16 3d 92 71 ad bd
       0.010312301 0.08731433 0.036825914 -0.084689274
0001b0 c2 3c b7 bb d5 99 bf 3c b5 dd 3a 3d 59 87 58 bd
       -0.0055919597 0.023388783 0.045621593 -0.052863453
0001c0 9c 7a 23 3d 67 ea 83 3d ec e5 e7 3c 51 6f e5 bc
       0.03991185 0.06441193 0.028307877 -0.028007181
0001d0 bd 13 92 3d 94 5e 6d bd 1b ae 3d 3d 16 ea aa 3b
       0.07132671 -0.057951525 0.046308618 0.0052158935
0001e0 aa 25 8f bd 16 07 89 bd 87 83 6f 3b af 09 25 3d
       -0.06989606 -0.06690805 0.0036546902 0.040292438
0001f0 d2 d9 2d bd 1f 5f 6d 3d d1 22 9b bd fa ed d4 bc
       -0.042444058 0.057952043 -0.07575 -0.025992382
000200 e1 e8 81 bd dd 5f 01 3c 07 72 a9 3d d6 ab c8 bb
       -0.06343246 0.007896391 0.08273702 -0.006124
000210 31 6b 83 bd 12 2d ae bd 03 5d b1 3d fb b6 b0 bd
       -0.064169295 -0.0850469 0.08660319 -0.08628651
000220 d6 63 72 3d 02 da 9a 3d 21 fe 9a 3d e0 40 09 bd
       0.059177242 0.07561113 0.075680025 -0.033509135
000230 b5 b8 db 3c 7c 39 61 bd ab c7 df ba 2e 2d bb bb
       0.026821474 -0.054986462 -0.0017073055 -0.005712173
000240 11 21 55 bd 22 6c 52 bd 9e a8 4f 3d 0a d1 ac bc
       -0.052033488 -0.051372655 0.050697915 -0.021095771
000250 f3 13 a8 bd 29 8e 4a bd 3e a3 d9 3c a8 99 9d 3c
       -0.0820693 -0.04945198 0.026567098 0.019238308
000260 3a 5c f1 bb c7 11 0b bd 63 a0 8d bd dc 84 33 3c
       -0.0073657306 -0.0339525 -0.06915357 0.010956969
000270 21 bb bb bc 4a cf 44 3d ec 26 48 3d 2a 6b 7e 3c
       -0.022916378 0.04804925 0.048865244 0.01552848
000280 35 6e b1 bd d8 18 f3 3c 44 cf 47 3c ce 22 8f bd
       -0.086635984 0.029674932 0.012195412 -0.0698906
000290 2c b8 02 3d 2f 7f 89 bd 77 b6 84 3d a5 34 ee bc
       0.03191392 -0.067137115 0.06480115 -0.029077837
0002a0 b6 f7 97 bc 31 5f f9 3c dc bb c8 3c dc 4b 61 3d
       -0.018550735 0.030440899 0.02450364 0.055003986
0002b0 08 37 ae 3d ac 77 21 bd 2f 73 81 bd c7 9c 82 bd
       0.0850659 -0.03942077 -0.06320798 -0.06377559
0002c0 8e 92 38 3d 35 7c 07 3d 87 58 8c bd ba 2d a4 bd
       0.04506164 0.033077437 -0.06852823 -0.08016534
0002d0 75 19 28 3d 25 47 b4 3d e9 12 0e bd 73 88 9d bd
       0.041039903 0.08802632 -0.034686003 -0.07692041
0002e0 19 e7 68 bd a7 45 76 3d 51 04 a7 3c 5d 24 9d ba
       -0.056861017 0.06012502 0.0203878 -0.0011988987
0002f0 82 a4 a9 3c 96 4c a0 ba 60 62 4a 3d 88 b9 cd 3c
       0.020708326 -0.0012229856 0.049410224 0.025112882
000300 4b 84 66 3d a3 a4 1b 3d 7f 68 f4 bc 60 28 54 3d
       0.05627851 0.037998807 -0.029834984 0.051796317
000310 6e b7 1b 3d c1 24 a0 3d e7 ff ae 3d 5f b3 59 3d
       0.03801673 0.0781951 0.08544903 0.053149577
000320 fb 1e 02 bd 15 29 2c bb 86 5f fd 3c 00 d1 45 bd
       -0.031767827 -0.0026269604 0.030929338 -0.04829502
000330 f4 fc 51 3c 6b 56 fd b9 78 01 dd bb 0f 76 b0 3d
       0.012816656 -0.00048320307 -0.00674456 0.08616268
000340 34 c2 81 3d 85 76 9c 3d 47 93 a3 3d a1 c1 1b 3d
       0.063358694 0.07639793 0.07987075 0.038026456
000350 56 1d 7e bd 0e 26 b4 bd 70 cc dc 3b 9d e1 e3 bc
       -0.062039696 -0.08796321 0.006738238 -0.027817542
000360 b2 c9 2e 3d a3 d7 91 3c 8d ab 59 3d 13 c2 75 bd
       0.04267282 0.017803019 0.05314212 -0.059999537
000370 98 97 16 3c 4e 1e 85 3a 65 76 b5 3c 96 58 ca bc
       0.009191416 0.0010156126 0.022151181 -0.024700444
000380 8f 73 04 bd dd 74 ae 3c 7c 96 9d 3d 7f 72 31 3d
       -0.032336768 0.02129596 0.07694718 0.043322083
000390 a0 21 54 bc 61 d7 b3 3d 10 72 e8 bc 2d d0 7f bd
       -0.01294747 0.08781315 -0.028374702 -0.06245439
0003a0 38 8c d4 3c 9b 59 39 3d e9 59 be 3b db e1 39 3d
       0.025945768 0.04525147 0.005809058 0.04538141
0003b0 aa c9 38 bc c4 76 0c 3c f6 63 90 3c 38 6c 9a 3a
       -0.011278549 0.008573238 0.01762579 0.0011781519
0003c0 85 86 a9 bd cf f8 60 3d b1 c3 74 3d 95 91 b8 3a
       -0.08277611 0.054924782 0.05975694 0.0014081473
0003d0 df 0d a5 3d a8 1b a9 bd 4d 22 3e bd 88 06 80 bc
       0.08059286 -0.08257228 -0.04641943 -0.015628114
0003e0 3a 4d be 3c 45 ba 86 bd 78 92 72 bd c4 59 0e bd
       0.023230184 -0.06578497 -0.059221715 -0.034753576
0003f0 9a a4 74 bd 9d e8 3a 3d e9 7f e5 bc 80 f6 f3 3c
       -0.05972729 0.045631994 -0.028015094 0.029780626

fc3.bias f4 [16]
000000 ab 8b 9f 3d 4a 38 3c 3d c2 f8 44 bc af bc 98 3d
       0.077903114 0.04595212 -0.012022199 0.074578635
000010 72 68 a2 bd 0f 4a 80 3d f8 71 b1 3d 08 94 93 bc
       -0.079300776 0.062641256 0.08664316 -0.018014923
000020 03 76 08 3d a3 40 17 bd 8c fa 0f bd a9 70 89 bd
       0.03331567 -0.036926877 -0.03515105 -0.06710941
000030 5e c0 00 bd de 67 31 bd 52 2d b4 bd e1 eb 1d 3d
       -0.031433456 -0.043311946 -0.08797707 0.03855503
