dynamics/src/drl/outputs/RobotOptEnv/20220718-160617/models/dqn_checkpoint.pth (torch, 74071 bytes, 6 tensors)

fc1.weight f4 [128, 6]
000000 79 82 05 3e c5 5d 84 3e 51 d0 a2 bc 85 e9 8b 3e
       0.13038053 0.2585279 -0.019874724 0.273266
000010 23 25 bc 3b e9 13 22 3d fe 14 7e 3e bf cb f4 3c
       0.0057417317 0.03956977 0.24812695 0.02988231
000020 6b a8 0c 3d 41 7b af 3e d7 99 fd 3d f9 f5 9f 3e
       0.034340303 0.34273723 0.12382858 0.3124235
000030 5b f8 0d be 70 1c c8 3e 83 59 2c be 63 c9 b5 3e
       -0.13864271 0.39084196 -0.16831021 0.35505208
000040 68 c4 48 be 82 10 20 3e e3 e6 ba 3e ad 37 7a 3e
       -0.19606173 0.15631297 0.36504278 0.24435301
000050 dc c2 9a 3e 1b f9 c1 3d 55 6e 35 3e 7a 06 cf be
       0.3022679 0.09471341 0.1771787 -0.4043463
000060 cc 95 66 3e 6a d8 7e 3e f2 f3 ca be c7 de a8 be
       0.2251808 0.24887243 -0.3963924 -0.32982466
000070 e4 50 c2 3e 13 55 c4 be 81 4c aa 3e 8f 1d c2 3e
       0.3795234 -0.38346156 0.33261493 0.37913176
000080 9e 86 00 3d 75 59 4e be 80 82 b2 3e 99 26 8b 3e
       0.03137838 -0.20151313 0.3486519 0.27177885
000090 34 15 b9 3e 27 38 0c bd 34 73 00 be 14 74 78 be
       0.3614899 -0.03423324 -0.12543947 -0.2426303
0000a0 ce 51 ca be 51 f9 89 3e 42 7e 86 3e fe 8a 85 3d
       -0.39515537 0.26948026 0.26268202 0.06520651
0000b0 f5 9c a5 be 61 e5 4a bd 55 fc 25 be 70 f0 4b be
       -0.3234631 -0.04953516 -0.16209538 -0.19915938
0000c0 98 5f 77 3e ec 05 ca be 95 3e c9 be fa 32 ae bd
       0.2415756 -0.39457643 -0.3930556 -0.08505817
0000d0 5d ce 0b 3d 0c 02 b0 3e 83 90 d5 bc c7 be 13 3e
       0.03413235 0.34376562 -0.026069885 0.14428245
0000e0 67 3a b3 be 14 ab 58 be 90 6e a0 3e 97 69 d8 3d
       -0.35005495 -0.21159011 0.31334352 0.10567015
0000f0 6c 3c c2 3e 3a 20 ab 3e ec 03 03 be af 45 20 be
       0.37936723 0.33423024 -0.12794465 -0.15651582
000100 53 be ca be a8 54 9a be c5 9e 0e 3d af f5 dd 3d
       -0.3959833 -0.30142713 0.034819383 0.10837876
000110 66 e2 0d 3e 59 c7 92 be 11 03 ec 3d 4d 3d c4 3c
       0.13855895 -0.28667715 0.11524022 0.023955012
000120 11 23 a2 3e 59 1d e2 bd 67 61 9e 3e 65 35 1a be
       0.3166738 -0.11040754 0.30933687 -0.15059431
000130 14 ad 78 be 6e 88 cc 3e f7 7e ab be 8a 2a 5e be
       -0.24284774 0.39947838 -0.33495304 -0.21695915
000140 91 ad 17 bd fe 66 8e 3d 87 62 80 3e ed a5 f7 3d
       -0.03703076 0.06953238 0.2507517 0.12092195
000150 37 04 9c be 51 e0 57 3e cf 27 10 bc 0c 77 9c be
       -0.30471966 0.21081664 -0.008798554 -0.30559576
000160 c3 a8 83 be 2a bd 6c 3e 04 c7 a9 3e d4 a2 b4 3e
       -0.25714692 0.23119035 0.3315965 0.35280478
000170 52 07 c1 3e 2d d4 32 3e d2 a5 c6 3e 3e 28 f5 bd
       0.37700897 0.17463751 0.38798386 -0.11970566
000180 7e ef 3a be a9 bf 5f be 11 f1 46 be 90 ca 99 be
       -0.18255422 -0.21850456 -0.19427897 -0.30037355
000190 79 6c 92 be 93 40 a4 3e 36 d9 81 39 23 46 88 be
       -0.28598383 0.32080516 0.00024766632 -0.2661601
0001a0 61 5a 5f 3e 0d 94 2f be 52 c5 84 3e 82 b7 16 be
       0.2181182 -0.1714632 0.25931793 -0.1471844
0001b0 0b 87 56 3d cf ba fc bd a9 e1 00 3d bf a4 34 be
       0.05237488 -0.123403184 0.031465206 -0.1764097
0001c0 6d b6 ba 3d 5a 27 22 3d d4 2c 01 bd 42 bd 66 3e
       0.09116826 0.03958831 -0.031536892 0.22533134
0001d0 59 c1 55 be f9 91 53 be bc a6 fa 3c 56 df 0a be
       -0.20874538 -0.20661153 0.030597083 -0.13561758
0001e0 0f d6 86 be 4c 2c 28 3e c4 9c c2 be bd 5d 34 3e
       -0.2633519 0.16423148 -0.38010228 0.17613883
0001f0 f5 04 a9 3e 08 c2 fc 3c 95 38 8d 3d 38 75 9b be
       0.33011594 0.03085424 0.06895558 -0.30362868
000200 60 be ce 3e 7c 53 83 be 8b a1 99 3d 44 a1 af 3e
       0.4037962 -0.2564963 0.07501515 0.34302723
000210 41 f0 a2 be 39 8c 9b be 5c 9c 17 be 10 8f 93 3e
       -0.31823924 -0.3038042 -0.1480574 0.28820086
000220 9b 39 ae 3e 71 2f 2a bb b3 ea b1 be 5d 4e 30 be
       0.34028324 -0.0025968219 -0.34749374 -0.17217393
000230 ab 06 c5 be 13 e3 b2 3d 6b 8f 93 bc f0 cf c0 be
       -0.3848165 0.08734717 -0.018012723 -0.37658644
000240 27 7f b4 3e 17 51 b6 bc 7f d7 43 3e 40 05 a8 be
       0.3525326 -0.022255464 0.19125174 -0.32816505
000250 94 55 37 3e 69 8c 2e 3b de b9 00 be 78 f4 90 be
       0.17903739 0.0026633984 -0.12570903 -0.28311515
000260 cb 0a a7 3e 12 28 53 3e 9f 1f 26 be f8 9b 03 3d
       0.32625422 0.20620754 -0.16223 0.032131165
000270 4f 20 fd 3d 64 90 1b 3e 69 b0 2a be d1 fb d0 be
       0.12359678 0.151918 -0.16668858 -0.4081712
000280 9d 33 78 3d be 49 fe bd 92 99 30 bd e5 de cc be
       0.060596097 -0.12416409 -0.043115206 -0.40013805
000290 f5 13 a5 3e ad 78 cd be 85 86 88 3e 5c 2a b3 3e
       0.32241789 -0.4013113 0.2666513 0.34993255
0002a0 c2 05 95 3e f6 39 9f bb 17 f7 ca bc a1 54 97 be
       0.29105955 -0.0048592044 -0.024776025 -0.29556754
0002b0 ef 9f 3f bc 8b 59 1d be 47 0f c4 3e c7 10 a4 3e
       -0.011695846 -0.15366189 0.38292906 0.3204405
0002c0 7e 16 12 3e af b8 a5 3e ca 88 84 3e 3a bd c1 be
       0.14266393 0.32367465 0.25885612 -0.3783968
0002d0 ae 41 63 be 31 0d c0 3d a3 e5 78 3e f5 8d aa be
       -0.22193024 0.09377516 0.2430635 -0.3331143
0002e0 73 35 2b be de db 36 be 41 c3 8a be a9 61 8b be
       -0.16719608 -0.1785731 -0.27102092 -0.27222946
0002f0 21 0a 12 be 1b dd fa 3d 64 66 c0 bd b3 9b 48 bd
       -0.14261676 0.12249204 -0.093945295 -0.04897661
000300 e5 51 04 bd 5a 2d 97 bd e6 6e ab be f3 07 63 be
       -0.032304663 -0.07381697 -0.33483046 -0.22171001
000310 69 cd 53 3e d3 50 b1 3c ca 8d 25 3d a0 20 97 3e
       0.20683827 0.021644985 0.040418424 0.29517078
000320 3a c5 89 be e6 ee 83 be 07 5f e2 3d 34 75 57 bd
       -0.26908284 -0.25768203 0.11053281 -0.052602008
000330 21 72 49 bc 85 48 cc 3e 20 fe 1f 3e 9a 89 01 bd
       -0.012295277 0.39899078 0.15624285 -0.031625368
000340 32 3d 95 be b7 87 a9 3e f1 90 c6 3e cb 7a 05 be
       -0.2914825 0.33111355 0.38782457 -0.13035123
000350 8b 35 c5 bd ba 79 9e bd 8d df 01 3e 71 90 32 be
       -0.09629353 -0.07738061 0.12682934 -0.17437913
000360 59 fa 96 3e c6 56 01 3e 71 bf 64 3e 71 b1 78 be
       0.29487875 0.12630758 0.22338654 -0.24286439
000370 3c 6b 15 ba c5 f8 90 3e d8 93 d0 3e 20 c7 81 3e
       -0.0005699878 0.28314796 0.40737796 0.25347233
000380 fa 54 2f be 9f d3 8d 3e 19 5e 86 3e 2c c5 f2 3c
       -0.1712226 0.27700517 0.26243666 0.029635035
000390 f2 23 5d bd 1c 3e ca 3e 68 9d 09 be b9 65 c7 be
       -0.05398936 0.3950051 -0.13438952 -0.38944796
0003a0 d9 40 1b 3e b1 d0 a2 be 44 ef 96 be b2 06 b3 be
       0.15161456 -0.31799844 -0.2947942 -0.34966046
0003b0 ab e9 8f 3e 44 93 4c be c3 23 23 be 8a e9 6f 3e
       0.28107962 -0.19978052 -0.15931611 0.23428932
0003c0 61 72 15 bc d3 77 aa be fb 03 72 be d6 02 08 be
       -0.009121508 -0.33294544 -0.23634331 -0.13282332
0003d0 86 62 34 be 7f d8 e5 bd d4 69 aa be 3e f4 6a 3c
       -0.17615709 -0.11222934 -0.33283865 0.014340458
0003e0 86 75 24 be bd aa b1 3e 39 67 05 3e 70 ca 93 3d
       -0.16060457 0.34700575 0.13027658 0.07216346
0003f0 e9 95 59 3d 02 63 14 3e 16 20 b4 be 15 9c 9c 3e
       0.05312148 0.14490893 -0.3518073 0.3058783

fc1.bias f4 [128]
000000 09 cc 5f bd 25 7e 26 3c 83 84 9e be e8 9b c8 be
       -0.054637942 0.010161911 -0.30960473 -0.39181447
000010 8e 19 df bd 6a 12 5e 3c 76 77 87 3e e1 3b 8b be
       -0.10893546 0.013554195 0.2645833 -0.2719412
000020 fc 40 83 3e 43 c5 bf be eb 10 82 3e 6d 6a 94 3e
       0.25635517 -0.37455186 0.25403532 0.28987446
000030 7e 2e 81 3e 9c 73 13 3d da 82 ad 3e bd b0 8b 3d
       0.25230783 0.035998926 0.33888894 0.068208195
000040 82 97 c6 3e c0 c9 37 3d db fb 42 bd 9f 39 61 bd
       0.38787466 0.04487014 -0.04760347 -0.054986592
000050 97 2a 5e be 44 87 3d 3e 91 d0 6c be 95 08 d8 3b
       -0.21695934 0.18508631 -0.23126437 0.00659282
000060 da 34 b1 be 48 c6 86 3e fe 33 c3 3d 5d 83 0e 3d
       -0.34610635 0.26323152 0.09531401 0.034793247
000070 b5 a2 b2 be ce f9 81 be b7 f8 0c 3e 1b 0b b4 bd
       -0.3488976 -0.25385898 0.13766752 -0.08791181
000080 99 7e df bd 35 f3 e6 bd a2 dd ec bc 6c 54 c5 be
       -0.109128185 -0.11276857 -0.028914277 -0.3854097
000090 3c da 16 3e 79 63 f1 bd 92 ed 94 3e 9c 92 6e 3e
       0.14731687 -0.11786551 0.29087502 0.23298115
0000a0 29 85 ad be 09 43 74 3d 7c 10 ec 3c 5c 6b b1 bd
       -0.33890656 0.059634242 0.028816454 -0.08663055
0000b0 3e 73 a2 3e 88 85 ca 3e 70 58 b6 bd 7f 1f e1 bd
       0.31728548 0.39555 -0.08903587 -0.109923355
0000c0 e2 d3 8d be 3b d1 f5 3d c0 23 9a bd 19 33 a3 3e
       -0.27700716 0.12002798 -0.0752635 0.31874922
0000d0 8b 87 b5 3d 68 e8 93 be 22 1e 85 3e 39 9e c6 3e
       0.088637434 -0.2888825 0.25999552 0.3879259
0000e0 2c 3c 80 be 56 c1 9a 3c e4 4c c9 3e fe c7 5b be
       -0.25045907 0.018891018 0.39316475 -0.2146301
0000f0 30 f0 b3 3c 81 3f 7d be 2c 8e 85 3e 31 bb 93 3e
       0.021965116 -0.24731256 0.2608503 0.28853753
000100 e8 20 aa 3e 13 ea 82 3d c4 c8 c1 3e 41 07 a9 be
       0.3322823 0.06392302 0.37848485 -0.33013347
000110 f0 8d 1d 3e 28 26 37 be 44 6b 5c bc 0e 32 50 3e
       0.15386176 -0.17885649 -0.0134533085 0.20331594
000120 76 a3 ca 3e 45 c4 75 be b0 0e ba bd d1 cb 89 be
       0.39577836 -0.24000652 -0.09084833 -0.26913312
000130 51 27 4e 3e 1a 94 17 3d 63 1f 98 be 32 36 80 bd
       0.20132186 0.037006475 -0.29711446 -0.06260337
000140 e3 fa a7 bd e4 3a 2d be b8 0b 22 be 19 50 d9 bd
       -0.0820215 -0.16916996 -0.15824783 -0.106109805
000150 75 50 80 be 45 4f cb 3c c9 3f 8a 3d 0a 2e aa 3d
       -0.25061384 0.024818072 0.06750447 0.083095625
000160 ec 0a bf bb a9 40 48 3e 57 0c ca be a4 43 c4 be
       -0.0058301594 0.19555916 -0.3946254 -0.38332856
000170 9b 0d 30 be ec dc fd bd a6 4d d0 3e 30 6b ca bd
       -0.1719269 -0.12395653 0.4068424 -0.09883726
000180 8f d9 c6 3e 87 8e cc be d7 2c ae be 40 7a 03 be
       0.3883786 -0.3995249 -0.34018585 -0.12839603
000190 a7 cd aa be 4a 71 4d be ee f1 3a bd 30 50 10 3e
       -0.33360025 -0.20062748 -0.04564088 0.14093089
0001a0 ea c4 82 3e 13 49 c1 be 1d 7f e6 bd 93 27 97 3e
       0.25540859 -0.37751064 -0.11254714 0.2952238
0001b0 74 47 c0 3e bb af 5d be 0c c2 d2 bd e6 20 93 3e
       0.37554514 -0.21649067 -0.10290918 0.28736037
0001c0 a4 de a3 be a9 49 ef bb 1e 66 ba 3e ed ef 35 be
       -0.320058 -0.007302482 0.36406034 -0.17767306
0001d0 0c 18 b2 bd 9e 2c bc be a0 2c a5 bd 9b 53 fa bd
       -0.08695993 -0.3675279 -0.08065152 -0.12222978
0001e0 3b b0 b8 bd 13 0c 99 3d 5e 2b a8 be 24 50 93 3d
       -0.09017988 0.07473006 -0.32845587 0.0719302
0001f0 37 60 5d bb 56 fa d1 bd 77 05 91 bd 93 93 b0 bd
       -0.0033779272 -0.10252826 -0.070811205 -0.086218975

fc2.weight f4 [128, 128]
000000 b4 87 5e 3d e1 65 b4 3d 2b b6 5f 3d 22 b1 ad 3d
       0.054328635 0.08808494 0.05461709 0.08481051
000010 19 5b 15 3d 8b 22 4b bd ec 9e 91 bd dc 41 ae bd
       0.03646383 -0.04959349 -0.0711039 -0.085086554
000020 26 b7 88 3d cd 04 8a 3c 1b 47 ad bc 60 c6 6e bd
       0.06675558 0.016847992 -0.02115207 -0.058294654
000030 72 aa 92 3d 02 37 55 bd 7c a8 75 bc 0c 05 2b bb
       0.07161416 -0.052054413 -0.014993783 -0.0026095537
000040 38 f4 39 bd b8 6c 24 3d 68 13 a7 3c d7 99 7a bd
       -0.04539892 0.040142745 0.020394996 -0.06118187
000050 0a c4 1b bd 00 a6 51 3d 7d 0a 86 3d ff 66 f8 bc
       -0.038028754 0.0511837 0.06544969 -0.03032255
000060 56 90 82 bd 1e 2d 94 bd 4c c8 8b 3d 76 01 83 bd
       -0.06375186 -0.07235168 0.06825313 -0.06396763
000070 50 a5 8c 3d ec 73 a8 bd bf f1 8e 3d 90 f0 7a 3d
       0.06867468 -0.08225235 0.06979703 0.061264575
000080 15 8e 18 bc 0e 5e 18 3d 28 58 07 3d 2e 15 dd 3c
       -0.009311219 0.037199073 0.033043057 0.026987638
000090 77 a5 eb bc 84 27 14 bd 2d 0e 7c bd 7f a5 b0 3d
       -0.028765423 -0.036170498 -0.061536957 0.08625316
0000a0 66 cb 8e 3d a7 e2 97 bd 27 45 59 3c 16 44 de 3c
       0.06972389 -0.074162774 0.013261116 0.027132075
0000b0 e9 82 81 bb e3 28 8e bc a4 07 9f 3d ea ed 93 3d
       -0.0039523733 -0.01735348 0.07765129 0.07223113
0000c0 38 bb bb bc ff 6e 3b bd 64 10 38 3d e0 9f 2c bc
       -0.022916421 -0.04576015 0.044937506 -0.010536164
0000d0 ed 05 32 3d 8e 9e 2f 3c c2 ee df 3c c6 3a 5c 3d
       0.043462683 0.010718955 0.027335528 0.05376699
0000e0 f9 76 c1 3c 4e d4 80 3d 6d 5e b4 3d b6 bb 91 3d
       0.0236163 0.06290494 0.08807073 0.07115881
0000f0 18 b2 76 bc fd 17 7c bd 2b 41 54 3d 2c ae 94 3d
       -0.015057109 -0.061546315 0.05181996 0.07259783
000100 16 ae 93 3d b2 af 93 bd 53 0f c4 3c f2 5c 8c bd
       0.07210939 -0.072112456 0.023933088 -0.068536654
000110 91 62 84 3d c6 95 20 3b c4 1e 36 bd 27 b7 50 3c
       0.064641126 0.0024503334 -0.044462934 0.012738979
000120 9f 71 03 3b f1 62 93 bd 2c 2f 91 3d 5e 2d 80 3d
       0.0020056737 -0.07196606 0.070890754 0.06258653
000130 74 1f ee 3c 14 b2 59 bd 74 1f 48 bd 21 e3 9f bd
       0.029067732 -0.053148344 -0.04885812 -0.07806993
000140 b9 9b 8a bd 8f e0 81 3d e6 26 bc bc 97 4f 03 3c
       -0.06767983 0.06341659 -0.022967767 0.008014581
000150 78 48 54 bd de 56 ac 3d 59 68 23 bd db 6e 23 3d
       -0.051826924 0.08415006 -0.039894436 0.039900642
000160 fd b1 ad 3d f3 3c b0 3b 02 8c 15 3d c0 f1 ac 3d
       0.08481214 0.0053783595 0.036510475 0.08444548
000170 85 a0 ab 3b 8c d6 1f 3d eb 23 91 bd d1 47 a1 bd
       0.0052376413 0.039022967 -0.07086929 -0.07875026
000180 ea 7b 8c 3c d1 2f 18 3d 44 1a 98 3d c8 4f a7 3d
       0.01714893 0.037154976 0.07426885 0.08169514
000190 01 0f f0 3b e8 2d 26 3d 91 b4 26 bd 79 36 a9 bd
       0.0073260074 0.040571123 -0.040699545 -0.08262343
0001a0 0a 45 03 3d 69 1a 1f bc c6 0e cc bc 1b d5 28 3c
       0.032048263 -0.0097108865 -0.024909388 0.010304715
0001b0 13 a2 d8 3c e3 e3 72 bd 5c 9d 6f 3d 00 c9 8a bd
       0.02644447 -0.05929936 0.05849968 -0.06776619
0001c0 08 cb 97 3d 7c 9f 44 bd ac c9 08 3d a0 3e 78 bd
       0.07411772 -0.04800366 0.033395454 -0.0606066
0001d0 00 0f a4 bd ae 33 38 3d e0 1a 87 bd e9 0c 0e bc
       -0.080106735 0.04497116 -0.06596923 -0.00867007
0001e0 29 bf a2 3d 83 fa 14 3b b0 fa 7d bd 81 90 80 bd
       0.07946617 0.0022732324 -0.062006652 -0.06277562
0001f0 87 8f 3a 3d 14 92 14 3d 99 26 1f bd 2b 6f 3e 3d
       0.045547035 0.036272123 -0.03885517 0.046492737
000200 c7 fe ca 3b 18 56 6b 3d 3e 30 8c bd 71 bf 1b 3d
       0.0061949226 0.057455152 -0.06845139 0.03802437
000210 10 cb 50 bd 0a c6 a2 bd 0e 04 d0 3c e5 db 68 bd
       -0.050974905 -0.07947929 0.025392558 -0.056850333
000220 68 10 72 3d 71 10 82 bc 6e 60 5f bb 6b 58 27 bb
       0.059097677 -0.01587698 -0.0034084576 -0.002553488
000230 04 7f 9b 3c 02 d0 ab 3d 75 2b 00 bd 40 fd 60 3c
       0.018981464 0.08389284 -0.031291444 0.0137322545
000240 d8 d5 0d bd cd 54 7e bb 38 9b 7f bd 93 e7 12 bd
       -0.034627765 -0.003880787 -0.062403888 -0.035865378
000250 5c 28 33 ba bc d7 65 bd a7 29 8b bd d8 ae 8a 3d
       -0.0006834322 -0.056113943 -0.06795054 0.0677163
000260 57 41 18 bd 32 76 83 3c 67 bb ac 3d ff 8c 4b 3b
       -0.037171688 0.01604757 0.08434182 0.0031059382
000270 f7 27 00 bd b8 01 27 bd c0 ed 12 3c a2 47 0e bd
       -0.031288113 -0.040773124 0.008967817 -0.034736283
000280 d7 a2 a8 3d b8 b0 7b 3d 51 d2 d7 3c ff a0 2b 3d
       0.08234184 0.06144783 0.026345404 0.041901585
000290 01 e3 aa 3d 17 44 fb 38 d5 58 67 bc c4 99 6d bc
       0.08344079 0.000119812954 -0.0141203 -0.014501993
0002a0 e0 d8 89 bd 4f af d4 bc 33 4e a9 bd 86 84 6a 3d
       -0.06730819 -0.0259625 -0.082668684 0.05725529
0002b0 df 10 dd bc b7 e1 43 bb 4f 9b 99 bd 9a da a8 bd
       -0.026985584 -0.0029889175 -0.07500326 -0.0824482
0002c0 95 7e 91 bb dc b4 dc 3c ca 0e 4f 3d 53 34 e8 bc
       -0.0044401386 0.02694171 0.050551213 -0.028345263
0002d0 2a 79 a7 3d 92 29 21 bd f2 49 27 3d ae 44 74 bd
       0.08177407 -0.039346285 0.040842004 -0.05963581
0002e0 2e a3 c7 bc db 21 c5 ba f2 88 ae 3d e1 04 ab 3d
       -0.024369802 -0.0015039997 0.08522214 0.0835054
0002f0 6d b5 d5 3c be 41 28 bd d6 a3 55 bd 63 30 a5 3c
       0.026087487 -0.04107832 -0.0521582 0.020164674
000300 f4 6a 49 bd c7 ab 79 3c 29 13 45 bd 94 b0 a4 3d
       -0.049174264 0.015238709 -0.048113976 0.08041492
000310 af b7 a5 3d 76 e6 0b bd 6e 4b 50 bd 2f ca 2b 3d
       0.080916755 -0.03415533 -0.050853185 0.041940864
000320 dc 55 11 bd c1 6c 83 bd 79 f4 8f bd 2f 26 35 3c
       -0.035482273 -0.064172275 -0.07029051 0.011056467
000330 12 4b 94 3d 04 0f 24 bd 10 4e 04 bc 7e d7 0d 3d
       0.07240881 -0.040053383 -0.008075252 0.034629337
000340 bb e6 ae 3c 3c 57 e0 3c 47 1b ae bd 03 a8 6a bd
       0.021350255 0.027385347 -0.085012965 -0.057289135
000350 9f 50 35 3d d0 6f 72 bd 7d 2c 85 bd 09 b6 2f bd
       0.04426634 -0.059188664 -0.06502626 -0.04289821
000360 bc 52 d2 3c 7b d8 9f 3d a5 41 3c 3d 6d a7 4b bd
       0.025674216 0.07804962 0.04596104 -0.049720217
000370 c6 1a 32 bd 5d 06 1e bd c2 c9 89 bb bf 4d bc bc
       -0.043482564 -0.038580287 -0.0042049596 -0.022986291
000380 2a 24 84 bb 24 f9 3c 3d a2 4d 89 3d 97 40 39 bb
       -0.0040326314 0.046136037 0.067042604 -0.0028267258
000390 b9 a1 f9 3c 7d 3f 56 bd 3c db b0 bd dd 4f f7 3a
       0.030472623 -0.05230664 -0.08635566 0.0018868406
0003a0 7a 3d a8 bd 39 4e 57 3c 92 01 3d bd ae a8 a2 bd
       -0.08214851 0.013141208 -0.046144076 -0.07942329
0003b0 82 1e 9b bd 6a 69 c4 3c 67 e8 05 3d 83 78 c7 bb
       -0.07574178 0.023976047 0.03269234 -0.006087364
0003c0 a4 a2 3e 3d 0a 07 50 ba 02 32 82 3d 2b c0 02 3d
       0.046541825 -0.0007935619 0.063571945 0.031921547
0003d0 ab 3a a4 bc ad ab 8e bd 2c 05 a1 bd ad df 42 3d
       -0.020047506 -0.06966338 -0.078623146 0.047576595
0003e0 17 95 ac 3d eb a3 86 3a 38 e9 b3 bd 05 ae 0a 3c
       0.08426874 0.001027224 -0.08784717 0.008464341
0003f0 6e ba e8 3b fc 2c 73 bd a7 24 ad 3d 05 5d 7c 3d
       0.0071023023 -0.059369072 0.084542565 0.061612148

fc2.bias f4 [128]
000000 84 ca 83 bc 88 41 98 3d 72 1c 1f bd 9b 4a 8a bd
       -0.016087778 0.07434374 -0.038845487 -0.06752511
000010 cf 46 b3 bc de 55 db 3c 0a fb f9 bc ec 00 c7 bb
       -0.02188435 0.026774343 -0.030515213 -0.006073108
000020 5c d8 85 bb 22 af 9c 3d c4 77 b9 bc 5f d1 b9 3b
       -0.00408463 0.076505914 -0.022640117 0.005670711
000030 7a 7e 71 3c 85 b5 78 3d 3f c2 e9 bc 82 43 4e 3c
       0.014739627 0.060719986 -0.028535007 0.012589337
000040 53 d6 77 bd c2 c8 66 bd 37 da a7 3d cc 16 15 3a
       -0.06050713 -0.0563438 0.08195918 0.0005687296
000050 90 e4 91 bd c7 2c 14 3d 47 96 7b bd ea ff b0 bd
       -0.07123673 0.036175516 -0.061422613 -0.08642562
000060 83 20 75 3d 2f 5d 7a bd d6 43 8b 3d 2f 2f b4 bd
       0.05984546 -0.061124023 0.06800048 -0.08798062
000070 e8 c5 b0 bd 52 97 48 bd ef 64 b1 3d a5 02 b0 bd
       -0.086314976 -0.048972435 0.0866183 -0.085942544
000080 1c f6 b0 3d f0 07 38 bd 92 37 a9 bb 86 3a 5f 3d
       0.08640692 -0.044929445 -0.005164095 0.05449917
000090 fd 10 a5 3c 07 82 97 3d 67 e3 90 3d f2 4e 19 bd
       0.020149702 0.073978476 0.070746236 -0.037428804
0000a0 2e f0 49 bd aa 6f 86 bd 71 e6 a6 3c 41 2d 72 bd
       -0.04930132 -0.06564267 0.020373555 -0.05912519
0000b0 d7 34 92 bc 9b 77 0c bc c3 ee 9e bd a2 6c 98 bd
       -0.017847462 -0.008573438 -0.07760384 -0.07442595
0000c0 11 82 7c bc 19 93 2b bd 93 1d b3 bc 45 a9 01 bc
       -0.01541187 -0.04188833 -0.021864688 -0.007913892
0000d0 40 0f 04 3d ef bd ae 3d a2 1f fe bc 4b d8 2d bd
       0.032241106 0.08532321 -0.031020943 -0.0424426
0000e0 66 66 93 ba 80 62 9d 3d 56 80 fd bc 61 c8 c5 3c
       -0.0011245727 0.07684803 -0.030944984 0.0241434
0000f0 42 c7 af bd 53 e9 20 bd 67 39 45 3d 79 78 8a 3d
       -0.08582927 -0.039285015 0.048150446 0.067612596
000100 05 ef be bb 49 69 7c 3d 2e c1 ff 3c c6 cc b1 bd
       -0.005826833 0.061623845 0.031220045 -0.086816356
000110 19 b1 72 bd b8 7d 82 bd 20 8d fa 3c 2e 49 cb bc
       -0.059250925 -0.06371635 0.030584872 -0.024815168
000120 85 ff 28 bd 43 c3 0f 3d 3a 3b 55 3d b6 38 89 3b
       -0.041259307 0.035098325 0.052058436 0.0041876687
000130 58 aa 3e 3d 2a a0 ac bd 81 80 fb bc 2e eb e3 bb
       0.04654917 -0.08428986 -0.030700924 -0.006955526
000140 0d 44 ed bc 08 1d 0c 3d a1 0f 14 3d 50 87 74 bd
       -0.028963113 0.034207374 0.036147717 -0.059699357
000150 ef c0 96 3d 48 51 9a 3c 26 fa 88 3d 43 1a 9e 3b
       0.07361018 0.018837586 0.06688337 0.004824908
000160 13 1d 4f 3c cb fc 92 3d 7f bb 63 3d 59 79 76 3d
       0.012641209 0.07177123 0.055598732 0.06017432
000170 be 24 ba 3c 6f 12 77 bc 3e e1 73 3c 59 2b 98 bd
       0.022722598 -0.0150800785 0.014885245 -0.07430143
000180 b9 1a 55 bd f8 b8 e0 3b fd 97 9f bd 46 2a 2e 3d
       -0.052027438 0.0068579875 -0.07792661 0.042520784
000190 fa 30 84 bd 7c e2 a4 bd da c9 4f bd 09 28 f5 bc
       -0.06454654 -0.08051011 -0.05072961 -0.029926317
0001a0 55 1c e7 3b 7d 64 4c 3a 35 bf 17 bb 9f d9 85 3c
       0.007052938 0.00077969563 -0.002315474 0.016339121
0001b0 85 6e 52 3d c6 09 3e bd 3c 22 aa bd 57 29 d7 3c
       0.05137493 -0.04639604 -0.08307311 0.02626483
0001c0 d0 87 8d bd 71 d8 a2 bd d9 f3 3a 3d 00 f2 95 ba
       -0.0691067 -0.07951439 0.045642707 -0.001143992
0001d0 a8 e6 c0 bc c9 12 b0 3d 87 9a 02 3c 94 bf ad bc
       -0.023547485 0.08597333 0.0079714125 -0.021209516
0001e0 9f 44 07 3d f1 84 1b ba 81 50 ac 3c 09 e7 af 3b
       0.033024427 -0.00059325906 0.021034481 0.0053681177
0001f0 d2 10 b4 3c 4c e4 97 3d 08 2b bc 3c 7d ee b6 bc
       0.021980677 0.07416591 0.022969738 -0.022330517

fc3.weight f4 [5, 128]
000000 53 a4 b2 3d dc c4 66 bd 97 60 67 bd 32 05 eb 3c
       0.087227486 -0.056340083 -0.0564886 0.028689
000010 f3 8e 9a bd 11 1f 70 bd d8 30 16 3c b9 c7 ab 3d
       -0.07546797 -0.058623377 0.009166919 0.083877034
000020 7b f8 ac 3d 59 6a a3 3d 8d 97 9d 3d 44 cc 8f bd
       0.084458314 0.079792686 0.07694922 -0.070213825
000030 30 f1 1c 3c 7a 7d 8d bc 46 ea 67 bd ec 7a e8 3c
       0.009578988 -0.017271746 -0.056619905 0.028378926
000040 00 00 74 3d 57 10 4c bd 82 fc 1f bd c9 bb da bc
       0.059570312 -0.04982027 -0.03905917 -0.026700871
000050 53 49 77 bb a7 ea 9b bc c0 c1 52 3d 6f 41 fc bc
       -0.0037732914 -0.01903279 0.051454306 -0.03079292
000060 f8 40 65 bd e5 19 94 bc 77 fd 81 3d 00 20 fc 3c
       -0.055970162 -0.018078754 0.06347173 0.030776978
000070 13 b4 de 3b ab 98 59 bd 94 8b 63 3d 54 20 31 3c
       0.006796369 -0.05312411 0.055553034 0.01081093
000080 b4 90 78 3d 86 73 f4 3c af 0e 26 bc e7 2d 49 bc
       0.060684875 0.029840242 -0.010135337 -0.01227901
000090 9c 22 b4 bd 04 c2 0c 3d a0 3d 03 3d dc 49 f6 bc
       -0.08795664 0.034364715 0.032041192 -0.030064516
0000a0 0d a8 8a bb 3f 21 95 bd d4 b5 65 3c 81 a4 96 3d
       -0.004231459 -0.07281732 0.014020402 0.073555954
0000b0 7c f8 ac bd 8c c3 b7 bc 83 89 a7 3d d7 70 50 3d
       -0.08445832 -0.022432111 0.08180525 0.050888862
0000c0 26 e0 82 bd f4 80 4f 3d ca 2f 88 3c ed 48 6f bd
       -0.06390409 0.05066009 0.01662435 -0.058419157
0000d0 c8 d4 96 3d 65 fc 94 3d fe e5 1f 3d 2f e2 8b bc
       0.073648036 0.07274703 0.039037697 -0.017075626
0000e0 54 e0 88 bd 4b 6a 3e 3d 3c 14 5c 3d ba e1 4d 3d
       -0.06683412 0.046488088 0.053730235 0.050264098
0000f0 76 5f 1b ba 6b 69 ae bc 35 02 86 3d 33 8b 39 bd
       -0.00059270055 -0.021290502 0.0654339 -0.045298766
000100 40 d7 ef bc f0 23 b0 3d 6f 16 8c 3d 81 bd 42 bc
       -0.029277444 0.086006045 0.06840216 -0.011886002
000110 15 e6 14 bd 99 68 26 3d 3f dd 91 3d 39 40 bc bc
       -0.036352236 0.040627096 0.071222775 -0.022979842
000120 7d b3 43 3d b2 d7 b3 bd 73 4f 0d bd ab 22 94 3c
       0.047778595 -0.08781375 -0.034499597 0.018082937
000130 3c 10 30 bd 60 c1 21 bd 64 84 95 3d 3e a2 73 3d
       -0.042984232 -0.039491057 0.07300642 0.059480898
000140 d5 59 59 3c 41 c3 a3 3d 87 aa da 3c 44 43 81 3d
       0.0132660465 0.07996226 0.026692642 0.06311658
000150 17 1f 8f bc 52 e0 06 3d 42 5f 46 3c 0e 6a 9e 3c
       -0.01747088 0.032928772 0.012107672 0.01933768
000160 30 88 15 bd f5 3a bd 3c 63 75 a7 bd 8d aa 6d bd
       -0.03650683 0.023099402 -0.081766866 -0.058023978
000170 28 bc 13 bd cf 20 cb bb 5b 0d ae bd ab 60 49 bd
       -0.03606811 -0.0061989794 -0.08498641 -0.049164455
000180 a9 53 13 3d ba ed 96 3b d4 88 6f bc d6 16 e1 3c
       0.035968456 0.004605976 -0.014620025 0.02747671
000190 6f 2b 8f bd 07 a8 28 bd a2 52 3f 3d c6 fc 1f bd
       -0.06990706 -0.04117587 0.046709664 -0.039059423
0001a0 0a 93 38 3c 00 e1 23 bd 24 af b9 3c 3b a6 f9 3c
       0.011265526 -0.0400095 0.022666521 0.030474773
0001b0 ac a2 0c 3d 03 2a b4 3c 68 e4 61 3d e1 f8 b0 3d
       0.034334823 0.021992689 0.055149466 0.0864122
0001c0 08 5b aa bd c7 13 e7 3c 36 02 8e bd 66 ed 42 3d
       -0.08318144 0.028207673 -0.069340155 0.047589682
0001d0 51 8e 09 bd d6 8c a2 3d 16 cb 13 3d 6d 9c a1 3d
       -0.03358299 0.079370186 0.03608235 0.07891164
0001e0 9d 14 91 bd 5b db 70 3b ac 54 05 bd ca 02 2e 3d
       -0.0708401 0.003675184 -0.032551453 0.04248313
0001f0 ec 70 de 3c be 78 6f 3b 83 4e 50 3d 30 bc a8 3d
       0.027153455 0.0036540474 0.050856125 0.08239019
000200 d5 e6 8e 3d d1 9f 42 bd 42 60 13 3d 84 6d 7a 3d
       0.069776215 -0.047515694 0.03598047 0.0611396
000210 b6 25 39 bd ac cd aa bc 00 99 a8 3b 10 be 80 bd
       -0.04520198 -0.020850025 0.005145192 -0.062862515
000220 e1 1a 8a 3d c9 30 a8 3d d6 6c 42 3d 35 1d a6 3d
       0.06743408 0.0821243 0.047467075 0.081110395
000230 de 2c 2d bd aa 8c 8f 3d 8c d5 8a 3d 8e c1 81 bd
       -0.042279117 0.070092514 0.06779012 -0.06335746
000240 c8 86 26 3d 76 82 5d bd 40 eb 10 bd bc 00 bc bc
       0.04065588 -0.054079495 -0.035380602 -0.022949569
000250 a0 87 b3 3d 5a 72 35 3d f4 c9 9a 3d bd f1 4b bd
       0.08766103 0.044298507 0.07558051 -0.049791086
000260 02 ef 64 3d f0 7a cc bb 73 88 a8 3c 6f 99 94 bd
       0.055891998 -0.006240241 0.020572877 -0.07255828
000270 36 9d 67 bd 8d 9d 37 bd b9 14 90 bd c7 6b b3 3c
       -0.056546412 -0.044827987 -0.070352025 0.021901978
000280 e7 22 f6 bb f7 99 32 3d 63 75 40 bc 91 28 98 bc
       -0.007511485 0.043603864 -0.011746737 -0.018574031
000290 80 fc 14 3d 48 94 8d bd 78 3c 91 3d de 46 d6 ba
       0.036373615 -0.06913048 0.070916116 -0.0016348024
0002a0 ee 1b a0 3d 82 7a 1b 3c d9 61 02 bd 63 96 1f 3d
       0.07817827 0.009489657 -0.031831596 0.03896178
0002b0 a0 ef 6f 3d 7c 2a 9a bd 6c 9d af 3d ff 37 67 3d
       0.058578134 -0.075276345 0.08574948 0.056449886
0002c0 75 28 e4 bc 9a aa 28 bd 0b 2d 96 3c 34 85 67 bc
       -0.027851323 -0.041178323 0.018332025 -0.014130879
0002d0 8a 79 b8 3b 13 26 4e bd 1c 92 1b bd 97 93 65 3d
       0.005629723 -0.05032928 -0.037981138 0.056048956
0002e0 4d c6 90 bd 07 0e 8d 3d ff 37 4c bd 3f 36 79 3d
       -0.07069073 0.06887441 -0.04985809 0.06084275
0002f0 bb c6 3f bd cd f0 1a 3c 59 d6 23 3c 1c 7b f3 3b
       -0.046820384 0.009456825 0.009999835 0.0074304473
000300 98 15 36 bd b9 b4 67 bd 57 76 8d 3d 55 4c 98 3d
       -0.044454187 -0.056568835 0.06907337 0.07436434
000310 04 14 0c bd 49 d3 e0 3c bb 65 fd 3c ac 5e 66 bd
       -0.034198776 0.027444499 0.030932298 -0.05624263
000320 2b 76 04 3d 0d 54 9f 3d 95 a7 0d bd 55 22 b6 bc
       0.032339256 0.07779703 -0.034583647 -0.022233168
000330 01 10 b3 bd f7 c5 89 3d 51 59 ca 3c 4d 7d af bd
       -0.08743287 0.06727212 0.024700793 -0.08568821
000340 74 51 8d 3d a8 94 c4 bc d0 87 81 bd b8 05 a1 3d
       0.069003016 -0.023996666 -0.06324732 0.07862419
000350 23 8c 6c 3c b0 13 39 bb 24 b8 81 bd 20 5d 85 bd
       0.014437708 -0.0028240494 -0.0633395 -0.06511903
000360 a0 9e 00 bd 34 b5 2b 3d 64 6f a0 bc 1e f4 70 bd
       -0.031401277 0.041920856 -0.019584365 -0.05882656
000370 62 98 a9 bd 30 8a 9f 3d 97 03 cc bc e3 35 58 3c
       -0.08281018 0.07790029 -0.024904056 0.013196441
000380 be 8f 97 bd ec 60 9b bc c2 18 81 b9 f9 5a 2f 3d
       -0.074004635 -0.018967114 -0.00024623243 0.042811368
000390 33 ba 96 3d ef 99 d1 3c 32 93 2d bd 5d 36 a4 bd
       0.073597334 0.025586097 -0.042376705 -0.080181815
0003a0 6e 2c a1 3d 2a 06 e3 ba a0 21 47 3c fb ee 67 bd
       0.078698024 -0.0017320563 0.012154013 -0.056624394
0003b0 b5 fc 5e bd 8b 6f 79 bc 45 60 7a 3c 4a 3c 2b 3d
       -0.05444022 -0.015224348 0.0152817415 0.041805543
0003c0 32 24 5b bd 63 4a b2 3d dc 81 82 3d ba 2f 10 bd
       -0.053501315 0.087055944 0.06372425 -0.035201766
0003d0 6a 74 6a bd 71 81 51 3d 31 1b 92 3d 0e 94 9a bd
       -0.057239927 0.051148836 0.071340926 -0.075477704
0003e0 df 60 80 3d 42 32 96 3c 08 dc 1a bc 6e 6e a2 bc
       0.06268477 0.018334512 -0.009451874 -0.019828048
0003f0 3c ed 95 bd 87 ff 25 bd b6 97 41 3d 07 ea c6 3b
       -0.073206395 -0.040526893 0.047263823 0.0060703787

fc3.bias f4 [5]
000000 94 e0 f3 3c 2e 06 ad 3d 1e cf a9 3d da 19 42 bc
       0.029770173 0.08448444 0.082914576 -0.011846984
000010 72 67 66 bd
       -0.056250997
