dynamics/src/dynamics/outputs/DDQN_RobotOptEnv/20230115-141236/models/model_max_eps.pkl (torch, 81879 bytes, 6 tensors)

nn.0.weight f4 [128, 10]
0	0xbf76eaf6	-0.9645227
1	0xbf3df9fd	-0.74209577
2	0xbf330ee2	-0.69944584
3	0xbf2bd49d	-0.671213
4	0xbf206f34	-0.6266968
5	0xbf4bce52	-0.79611695
6	0xbecfd2b4	-0.4059044
7	0xbefb6868	-0.49103093
8	0xbf09c95c	-0.53822875
9	0xbf1dace3	-0.6159193
10	0xbf198c11	-0.5997935
11	0xbf6e857a	-0.9317242
12	0xbf6d1f25	-0.9262565
13	0xbf204822	-0.62610066
14	0xbf69f667	-0.91391605
15	0xbf50c0c2	-0.81544125
16	0xbf693e3f	-0.91110605
17	0xbedfe94f	-0.43732688
18	0xbf696fdf	-0.91186327
19	0xbf7492c8	-0.9553647
20	0xbf63f85b	-0.89050835
21	0xbf2d2ae1	-0.67643553
22	0xbf0b49f1	-0.544097
23	0xbf4373c6	-0.7634853
24	0xbf0ba5b4	-0.5454972
25	0xbf63df1f	-0.8901233
26	0xbf4bc4e1	-0.7959729
27	0xbee5cb18	-0.4488151
28	0xbef89e3a	-0.48558217
29	0xbf1823cc	-0.5942962
30	0xbd812d48	-0.06307465
31	0xbe623c02	-0.22093204
32	0x3d656579	0.056004975
33	0x3e2117fc	0.15731806
34	0x3e0a51ac	0.13507718
35	0x3d08f2d4	0.033434704
36	0xbdf1a887	-0.11799722
37	0xbe996e9e	-0.29967207
38	0x3e80f9d3	0.251906
39	0x3e280a75	0.16410239
40	0xbf6e0736	-0.92979753
41	0xbf64f4f6	-0.8943628
42	0xbf685028	-0.9074731
43	0xbf66b905	-0.9012607
44	0xbef8c96e	-0.4859118
45	0xbf739e45	-0.95163375
46	0xbf65531e	-0.8957995
47	0xbefa2ed5	-0.48863855
48	0xbf65c320	-0.8975086
49	0xbed6446e	-0.41849083
50	0xbf6f0ef6	-0.93382204
51	0xbee45743	-0.44597825
52	0xbeecd45f	-0.46255776
53	0xbece264a	-0.40263587
54	0xbf52e2be	-0.8237723
55	0xbf5d4752	-0.8643695
56	0xbf529506	-0.8225864
57	0xbec07e75	-0.3759648
58	0xbf121e03	-0.57077044
59	0xbf7c683a	-0.9859654
60	0xbe4d2751	-0.2003453
61	0xbe7e421a	-0.24829903
62	0xbef63388	-0.4808619
63	0xbe8a91a7	-0.2706425
64	0xbe80729c	-0.2508744
65	0xbed71ec8	-0.42015672
66	0xbf0c3090	-0.547616
67	0xbed035bb	-0.40665993
68	0xbe9046ec	-0.2817911
69	0xbf2d895c	-0.6778772
70	0x3e7b99c6	0.24570379
71	0x3ca9c5df	0.020724235
72	0x3e9d9925	0.30780903
73	0x3e0e61ed	0.13904543
74	0x3ea00aba	0.31258184
75	0x3e52fccf	0.20604251
76	0xbe75ac74	-0.23991567
77	0xbc7a0781	-0.015260578
78	0xbe7c0425	-0.24610956
79	0xbe4677a7	-0.19381581
80	0xbef64e41	-0.48106578
81	0xbeb53e79	-0.35399225
82	0xbef33525	-0.47501484
83	0xbf1e158c	-0.6175163
84	0xbead26d4	-0.33818686
85	0xbf5d3adf	-0.86417955
86	0xbf3435c5	-0.70394546
87	0xbf11cc0d	-0.5695198
88	0xbebc8b5b	-0.3682507
89	0xbf087eed	-0.53318673
90	0xbe82104e	-0.25403064
91	0xbe42d4c4	-0.19026476
92	0xbcc4778d	-0.023982788
93	0x3d19de1f	0.037565347
94	0x3e263fc0	0.16235256
95	0xbe6a0f94	-0.22857505
96	0x3ca945b8	0.020663127
97	0xbe951cc8	-0.2912352
98	0xbc9222b1	-0.017838808
99	0x3e82881e	0.25494474
100	0x3e6a8fe6	0.22906455
101	0x3e2fb838	0.17160118
102	0xbd915d3b	-0.070978604
103	0x3e2a3145	0.16620357
104	0xbd81c25d	-0.063359
105	0x3e5c1a20	0.21494341
106	0x3e03d328	0.12873518
107	0xbe92f22e	-0.28700393
108	0x3cf12338	0.029435739
109	0xbdca9fed	-0.09893785
110	0xbed14d71	-0.40879396
111	0xbefb4ca6	-0.49081916
112	0xbf122c0a	-0.5709845
113	0xbf37090f	-0.714982
114	0xbedd0a4b	-0.43171915
115	0xbf2604d3	-0.6485111
116	0xbf28e538	-0.6597476
117	0xbf0ae826	-0.5426048
118	0xbf236675	-0.6382821
119	0xbf1b707e	-0.60718524
120	0xbe973600	-0.29533386
121	0xbe84c1b2	-0.25929028
122	0xbe8724d7	-0.26395294
123	0x3d4290b8	0.047501296
124	0x3de8dbae	0.113700256
125	0x3e89a8ca	0.26886588
126	0xbd5ff404	-0.05467607
127	0xbdd2af7e	-0.10287379
128	0x3cf3939c	0.029733472
129	0x3e566e6c	0.2094056
130	0xbf647ff1	-0.89257723
131	0xbf28ecb3	-0.65986174
132	0xbf5584b3	-0.8340561
133	0xbf5eb6d6	-0.86997736
134	0xbf431b10	-0.7621317
135	0xbeb77a81	-0.3583565
136	0xbf5fba99	-0.873941
137	0xbed2c5bc	-0.41166484
138	0xbf64c6c7	-0.8936581
139	0xbf274381	-0.6533738
140	0xbdc12671	-0.0943116
141	0x3e184b32	0.14872435
142	0xbe329340	-0.17438984
143	0xbe6cdd28	-0.2313124
144	0x3d1d7b53	0.03844769
145	0x3d379d52	0.044827767
146	0x3e0b441c	0.136002
147	0xbe8c5366	-0.27407378
148	0x3e834746	0.25640315
149	0xbd27250e	-0.040806822
150	0x3df989b9	0.12184472
151	0xbe28a6f1	-0.16469933
152	0x3dc56a7e	0.096394524
153	0xbdc0e5df	-0.094188444
154	0xbd2e8fed	-0.042617727
155	0x3e132eea	0.14373365
156	0xbe191d4d	-0.14952584
157	0xbe957302	-0.29189306
158	0x3dae02ab	0.084966026
159	0xbd945302	-0.07242395
160	0x3df42147	0.1192041
161	0x3e826142	0.25464827
162	0x3e25932e	0.16169426
163	0x3d10a757	0.035315838
164	0x3e58bcdc	0.21165794
165	0x3dd28d7a	0.10280891
166	0x3e36ea7e	0.17862889
167	0xbe80198f	-0.250195
168	0xbe8d6e90	-0.27623415
169	0xbe0b37bb	-0.13595478
170	0x3caf1712	0.021373305
171	0x3e0606b1	0.1308849
172	0x3dc80927	0.09767371
173	0xbea0373b	-0.31292138
174	0xbe6a857b	-0.22902481
175	0xbc058b62	-0.008150907
176	0x3d8d94f6	0.06913178
177	0xbcd0bb10	-0.025479823
178	0xbe12b52a	-0.14326921
179	0x3e6088c0	0.21927166
180	0xbf106279	-0.5640026
181	0xbe5040f5	-0.20337279
182	0xbf1ff445	-0.624821
183	0xbe49389f	-0.19650505
184	0xbe63ebab	-0.22257869
185	0xbe4231b0	-0.18964267
186	0xbe383afc	-0.17991251
187	0xbeab46e3	-0.3345252
188	0xbe5feee6	-0.21868476
189	0xbef24adf	-0.47322747
190	0xbf435814	-0.7630627
191	0xbf319d64	-0.69380784
192	0xbea400e3	-0.32031927
193	0xbf1bf768	-0.60924387
194	0xbf066bf9	-0.52508503
195	0xbf17fa89	-0.5936666
196	0xbe2d9cb3	-0.16954307
197	0xbe94f84d	-0.29095688
198	0xbf0c5d20	-0.548296
199	0xbf0e6aa9	-0.556315
200	0xbf48a135	-0.7837098
201	0xbe7cbcc5	-0.24681385
202	0xbf00b017	-0.5026869
203	0xbf264cf0	-0.6496115
204	0xbee51782	-0.44744498
205	0xbf12ffa9	-0.57421356
206	0xbf2b20f5	-0.66847163
207	0xbe928e38	-0.2862413
208	0xbe9f7b6f	-0.3114886
209	0xbeba4ef6	-0.36388367
210	0xbe311f77	-0.17297159
211	0xbea1a53b	-0.31571373
212	0xbe8b5724	-0.2721492
213	0xbd8a2a46	-0.06746344
214	0x3e8d1a82	0.27559286
215	0x3e83529a	0.25648957
216	0xbe9f2160	-0.3108015
217	0xbe67a099	-0.22619857
218	0xbd4c7dc4	-0.049924627
219	0xbbdb370b	-0.0066899112
220	0xbee2e1d7	-0.44312927
221	0xbf05e567	-0.52303165
222	0xbf0107fd	-0.50402814
223	0xbefa8556	-0.48929852
224	0xbe420168	-0.18945849
225	0xbe4bcd58	-0.19902551
226	0xbf42d760	-0.76109886
227	0xbede7398	-0.43447566
228	0xbe6424d2	-0.22279671
229	0xbe471bb4	-0.19444162
230	0xbec4a770	-0.38408995
231	0xbeea3e99	-0.45750883
232	0xbefddf2d	-0.49584332
233	0xbf16709d	-0.58765584
234	0xbf4c0308	-0.79692125
235	0xbf5f90c0	-0.87330246
236	0xbee6b9e5	-0.450637
237	0xbf02d3e5	-0.51104575
238	0xbf3e5ae5	-0.74357444
239	0xbf353ca3	-0.7079565
240	0xbf520f4f	-0.8205461
241	0xbf2598ea	-0.64686453
242	0xbf4bb0f3	-0.7956688
243	0xbf06e14a	-0.52687514
244	0xbf0ad954	-0.54237866
245	0xbf793d80	-0.97359467
246	0xbee92609	-0.4553683
247	0xbecc100b	-0.3985599
248	0xbf422ca6	-0.7584938
249	0xbf60953f	-0.8772773
250	0xbf4ed87c	-0.8079908
251	0xbf404293	-0.75101584
252	0xbf6f554a	-0.93489516
253	0xbf2311e9	-0.63699204
254	0xbf53646f	-0.82575125
255	0xbed3d398	-0.4137237

nn.0.bias f4 [128]
0	0xbf4afdcc	-0.79293513
1	0xbf16beed	-0.5888508
2	0xbf361971	-0.7113257
3	0xbe01bd6f	-0.1266992
4	0xbf45b69b	-0.7723176
5	0xbf55a0ca	-0.8344847
6	0xbe26dd92	-0.1629546
7	0x3d55e892	0.05222375
8	0xbf55febc	-0.8359182
9	0xbe814a4e	-0.25252002
10	0xbe1bcccd	-0.15214844
11	0xbea09567	-0.31363985
12	0xbe38a3de	-0.1803126
13	0xbf6ced55	-0.9254964
14	0xbe2a0759	-0.16604365
15	0xbbe85f30	-0.0070914254
16	0xbe3a19db	-0.18173926
17	0x3e8dfda8	0.27732587
18	0xbf2ebf29	-0.6826044
19	0xbf23efbb	-0.64037675
20	0xbebdc9ae	-0.37067932
21	0xbdff3b00	-0.12462425
22	0xbf43c571	-0.76473147
23	0xbeee8a59	-0.46589926
24	0xbf2ff377	-0.6873087
25	0xbf4f134b	-0.80888814
26	0xbde5be5f	-0.11217951
27	0xbd94fe49	-0.072750635
28	0xbea176f0	-0.31536055
29	0xbf05a9aa	-0.5221201
30	0xbf2d01a2	-0.67580616
31	0xbeda742a	-0.4266675
32	0xbf4710a7	-0.77759784
33	0xbdb81e8a	-0.089902
34	0x3e6ef8f3	0.23337154
35	0xbf31a89d	-0.6939791
36	0xbdf7d2a4	-0.121007234
37	0xbf5fb5a8	-0.8738656
38	0x3d5cfbce	0.053951077
39	0xbf2aed2f	-0.66768163
40	0xbf6fd714	-0.9368756
41	0x3e8ffb15	0.28121248
42	0x3e495300	0.19660568
43	0xbeb7d4d4	-0.35904562
44	0x3ce0425c	0.027375393
45	0xbf61d061	-0.88208586
46	0x3dc6f9b1	0.097155936
47	0xbf020e8f	-0.50803465
48	0xbdcdf711	-0.1005689
49	0xbf2cbdde	-0.67477214
50	0xbf4ff33c	-0.8123052
51	0xbec74fe3	-0.38928136
52	0x3e80fbe5	0.2519218
53	0xbeedffad	-0.46484128
54	0xbe47dc5c	-0.19517654
55	0x3dc447f6	0.09584038
56	0xbf0efce7	-0.5585465
57	0xbec3b69c	-0.38225257
58	0xbeb40430	-0.35159445
59	0xbecb5fbb	-0.39721474
60	0xbec1ae87	-0.37828466
61	0x3e839469	0.25699165
62	0xbe610e77	-0.21978174
63	0xbe53821e	-0.20655105
64	0x3e885f12	0.26635033
65	0xbea1de6c	-0.31615007
66	0xbc2ef421	-0.010678322
67	0xbe91161d	-0.28337184
68	0xbf088955	-0.5333455
69	0x3e155bc0	0.14585781
70	0xbcad7fda	-0.021179128
71	0x3d094f53	0.033522915
72	0xbf590430	-0.84772015
73	0xbee8c71c	-0.45464408
74	0xbeb1d073	-0.34729347
75	0xbef1480d	-0.47125283
76	0xbdf8e6f7	-0.12153428
77	0x3db42462	0.08796002
78	0xbe1c3abd	-0.15256782
79	0x3e088bbf	0.13334559
80	0xbf213c35	-0.62982494
81	0xbf19bbdb	-0.6005227
82	0xbe26559a	-0.16243592
83	0xbf058d7b	-0.5216901
84	0xbf1ad977	-0.60488075
85	0x3c5b5ac7	0.013388342
86	0xbed211df	-0.4102926
87	0xbf0e1e98	-0.5551543
88	0xbd80fdf7	-0.0629844
89	0xbebf7cc6	-0.37399882
90	0xbe6f7eee	-0.23388264
91	0xbe097332	-0.1342285
92	0xbc90b3de	-0.017663892
93	0xbf6ae601	-0.9175721
94	0x3e74a0ae	0.2388942
95	0xbf2a44c7	-0.66511196
96	0x3d5322c2	0.05154682
97	0xbedd0e38	-0.4317491
98	0xbdc2d367	-0.09512978
99	0xbec7f2c4	-0.39052403
100	0xbe906805	-0.2820436
101	0xbeb1e63a	-0.3474596
102	0x3db3b4ea	0.08774741
103	0xbe3ae976	-0.18253121
104	0xbf0f9c7a	-0.5609814
105	0xbed7ff16	-0.42186803
106	0x3e28bac2	0.16477492
107	0xbf11c545	-0.56941634
108	0x3e2e9cb6	0.17051968
109	0xbe81421e	-0.25245756
110	0xbf329f83	-0.69774646
111	0xbf2a2166	-0.6645721
112	0xbe8de978	-0.27717185
113	0x3e6a8370	0.22901702
114	0xbf371f10	-0.7153177
115	0xbf43fbcf	-0.76556104
116	0xbd5573e2	-0.052112468
117	0xbe466c2b	-0.193772
118	0x3e34c5a7	0.17653523
119	0x3dc1bfd0	0.094604135
120	0xbf0b0562	-0.5430509
121	0xbe9bca2c	-0.30427682
122	0xbf131ffe	-0.5747069
123	0xbec05d9e	-0.37571424
124	0xbf17e2b1	-0.5933028
125	0xbf16e105	-0.589371
126	0xbf5b1375	-0.85576564
127	0xbf664b87	-0.89958996

nn.2.weight f4 [128, 128]
0	0x3d0496cb	0.03237037
1	0xbc7d576f	-0.01546274
2	0xbd96c7ff	-0.07362365
3	0xbd951ff6	-0.07281487
4	0xbc6160f4	-0.013756026
5	0xbd25f3a6	-0.040515564
6	0x3c467db5	0.012114932
7	0x3da73aab	0.08165487
8	0x3d6d5bf0	0.057949007
9	0xbd6ff66b	-0.058584612
10	0x3d6bdf4b	0.057585996
11	0x3d1aeb7f	0.037822243
12	0x3d92f339	0.07175297
13	0x3d671f23	0.05642618
14	0x3d588b31	0.05286712
15	0xbd5715a7	-0.052510884
16	0x3c16d75e	0.009206621
17	0x3c97f57b	0.018549671
18	0x3d52796a	0.05138532
19	0x3c70e8d6	0.01470395
20	0xbd8cc41c	-0.068733424
21	0xbda7fdaa	-0.082026795
22	0xbd5ef8d7	-0.05443653
23	0x3d19ba97	0.03753146
24	0xbd3834c9	-0.044972215
25	0xbc49bde3	-0.012313339
26	0xba229ee9	-0.0006203489
27	0xbd9cb6b4	-0.07652035
28	0xbda0ac7a	-0.07845397
29	0xbd119c13	-0.035549235
30	0x3b2b7d14	0.0026167082
31	0xbdb4fd20	-0.08837342
32	0xbd9ccfb6	-0.07656805
33	0x3c84c81a	0.016208697
34	0x3c9a1e15	0.018813172
35	0xbdaec5ca	-0.08533819
36	0xbd176e77	-0.03697058
37	0xbd1d50f8	-0.038407296
38	0xbc9be2f6	-0.019029122
39	0xbcb12b05	-0.021626959
40	0x3d55bcf6	0.05218216
41	0xbd7f4787	-0.062324073
42	0xbd356aed	-0.044291425
43	0xbcccf840	-0.025020719
44	0x3da261db	0.07928821
45	0xbd3e0d7f	-0.04639959
46	0x3d7ea2ba	0.062166907
47	0xbd2cf8f0	-0.042229593
48	0xbc62de64	-0.013846967
49	0xbd3a82ab	-0.04553477
50	0x3da0b1fa	0.07846446
51	0xbb22da7c	-0.0024849465
52	0x3d7e1ef3	0.062041234
53	0x3d13d9ab	0.036096256
54	0x3cf6551c	0.03006988
55	0xbd689ae9	-0.05678836
56	0x3cb00987	0.021488918
57	0x3cfa82c3	0.03057993
58	0x3d21c75b	0.03949676
59	0xbcaf803d	-0.021423453
60	0xbd9d037f	-0.076666825
61	0x3d95a71a	0.07307263
62	0xbda3e034	-0.08001748
63	0xbc61ea0b	-0.01378871
64	0xbd9b9f24	-0.07598713
65	0xbd9c6d75	-0.07638065
66	0x3da819e6	0.08208065
67	0x3d7c4969	0.061593447
68	0x3d129fe7	0.035797026
69	0x3d268640	0.040655375
70	0xbc725236	-0.014790108
71	0xbd774d9c	-0.06037675
72	0x3beb1fc2	0.0071754167
73	0x3cffadd9	0.031210827
74	0xbc8472e0	-0.016168058
75	0x3b48da54	0.0030647712
76	0xbd17c4bc	-0.037052855
77	0x3d89ee14	0.06734863
78	0xbce5993c	-0.02802717
79	0xbd6056d3	-0.054770302
80	0x3c6f798a	0.0146163795
81	0x3d1cd19c	0.038285837
82	0xbd10a474	-0.035313085
83	0x3d9a5867	0.07536393
84	0x3d113e0d	0.035459567
85	0xbd40491b	-0.04694472
86	0x3d16b630	0.03679484
87	0x3d6b734e	0.05748301
88	0x3cc73890	0.024318963
89	0xbc971877	-0.018444283
90	0xbd70ae97	-0.05876025
91	0x3d48b7e7	0.049003508
92	0x3c7dfcf1	0.0155022
93	0x3d5260ee	0.05136197
94	0x3d829ef4	0.06377974
95	0xbd13062b	-0.035894554
96	0x3db016a4	0.08598068
97	0x3d052ea2	0.032515176
98	0x3d71afe9	0.05900565
99	0x3d5a852f	0.05334967
100	0xbced1e28	-0.028945044
101	0xbd5ae8dd	-0.053444732
102	0xbc06cb2a	-0.008227149
103	0x3d8c0cca	0.06838377
104	0x3cb78cfe	0.022406098
105	0x3d6841b4	0.056703284
106	0xbda951b2	-0.08267535
107	0x3be190e7	0.006883729
108	0x3c18cd31	0.009326265
109	0x3cbfb06a	0.02339955
110	0x3d58471a	0.052802183
111	0x3b3360c0	0.00273709
112	0x3da82957	0.0821101
113	0xbcca206b	-0.024673661
114	0xbcd1cf91	-0.02561167
115	0x3d30747a	0.04307983
116	0xbd4dfe00	-0.05029106
117	0xbd2f799c	-0.042840585
118	0x3d848207	0.06470113
119	0xbd2d5f97	-0.04232749
120	0xbda34193	-0.07971492
121	0xbd2ee367	-0.042697337
122	0x3d8e9f71	0.06964005
123	0x3db26872	0.087113276
124	0x3d24466c	0.040106222
125	0xbc96228c	-0.01832702
126	0xbd86d83b	-0.065842114
127	0xbdac03ad	-0.083991386
128	0x3cee5fc7	0.029098405
129	0xbba78ae3	-0.005112992
130	0x3d7ed551	0.062215153
131	0x3b36bf99	0.0027885197
132	0x3d705c0e	0.05868154
133	0xbee64244	-0.44972432
134	0xbeea5f3b	-0.4577578
135	0xbc23659c	-0.009972956
136	0xbd86b202	-0.06576921
137	0xbd9775a1	-0.07395483
138	0xbb8408da	-0.0040293755
139	0xbd8b133d	-0.06790779
140	0xbda7ccf9	-0.08193392
141	0xbd02c412	-0.03192527
142	0x3ce1b480	0.02755189
143	0x3d809117	0.06277674
144	0x3d65f25a	0.056139328
145	0x3d469dcb	0.048490327
146	0xbf05633a	-0.5210453
147	0xbf0fbeaf	-0.56150335
148	0xbf126ed5	-0.57200366
149	0x3b1f11c0	0.0024272054
150	0xbef70efe	-0.48253626
151	0xbd8b4c3b	-0.06801649
152	0xbf019e92	-0.50632584
153	0xbd89cf5c	-0.06729004
154	0xbd81c226	-0.06335859
155	0x3d61ccd4	0.05512698
156	0xbef308b5	-0.4746758
157	0xbf18587a	-0.59510005
158	0x3d0b3e97	0.033995237
159	0x3d474265	0.048647303
160	0xbd96c920	-0.0736258
161	0x3c2ad0e6	0.010425782
162	0xbd165df4	-0.036710694
163	0xbefe665c	-0.4968747
164	0xbc92a0c3	-0.017898923
165	0xbef4ecfb	-0.47837052
166	0xbad23498	-0.0016037403
167	0x3ae183bb	0.0017205396
168	0x3d63d9bf	0.05562758
169	0xbd5edb6e	-0.054408483
170	0xbd93d92c	-0.072191566
171	0xbee60e5a	-0.44932824
172	0xbd129d35	-0.035794456
173	0xbd4559d4	-0.04818137
174	0x3d04f068	0.03245583
175	0xbee13bf6	-0.4399106
176	0xbd74ad0b	-0.05973534
177	0xbf17cf29	-0.59300476
178	0x3d3be40b	0.045871776
179	0xbd808e7d	-0.062771775
180	0xb9c01708	-0.00036638253
181	0xbf1449eb	-0.5792529
182	0x3c9e82b1	0.019349428
183	0x3cfadfca	0.030624289
184	0xbf170029	-0.5898462
185	0x3cd532be	0.026025172
186	0xbda6f586	-0.08152299
187	0x3d050161	0.03247202
188	0xbc87fb44	-0.016599305
189	0x3c94946c	0.01813718
190	0xbdaee90d	-0.08540545
191	0x3d66a44d	0.056309033
192	0x3d37e3cf	0.04489499
193	0xbd8b9ec7	-0.06817394
194	0xbbe01eff	-0.0068396325
195	0xbb873568	-0.0041262396
196	0xbee1d590	-0.44108248
197	0xbcfe665e	-0.031054672
198	0x3d2e462c	0.04254739
199	0xbd2e341c	-0.042530164
200	0x3d59b644	0.053152338
201	0xbc3af031	-0.011409805
202	0xbd494fc6	-0.049148344
203	0xbf155110	-0.58326817
204	0xbd7cd9a9	-0.061731014
205	0xbd2f9c1a	-0.04287348
206	0x3a563202	0.0008170904
207	0xbc860291	-0.016358646
208	0xbee4941b	-0.44644246
209	0xbf040d88	-0.5158315
210	0xbc47e3f2	-0.0122003425
211	0xbc8ddd0c	-0.017317317
212	0xbf1734c8	-0.5906491
213	0x3dab3916	0.08360498
214	0x3da45301	0.08023644
215	0xbd36fd21	-0.044674996
216	0xbda67f45	-0.081297435
217	0xbd447d14	-0.047970846
218	0x3d07b387	0.033130195
219	0xbd737924	-0.0594417
220	0x3d6a45db	0.057195526
221	0xbd1d4553	-0.03839619
222	0xbd4ad3f4	-0.04951854
223	0xbef1b65c	-0.47209442
224	0xbd08c4ef	-0.033390936
225	0xbbfd4d23	-0.0077301427
226	0xbd06b8b1	-0.03289098
227	0xbf0eb971	-0.5575171
228	0x3d6ab0eb	0.05729763
229	0xbf16cdd2	-0.58907807
230	0x3c89101e	0.016731318
231	0x3d6a9c97	0.057278242
232	0xbf1181f2	-0.56838906
233	0xbf151a2a	-0.5824305
234	0x3d9a77e8	0.075424016
235	0xbf000f07	-0.5002293
236	0x3db3bad4	0.08775869
237	0xbefccbc2	-0.49374205
238	0xbf106578	-0.5640483
239	0xbf03e99c	-0.51528335
240	0xbf0413e1	-0.5159283
241	0x3c350c6b	0.011050324
242	0xbf13c46d	-0.57721597
243	0xbee53142	-0.44764143
244	0xbd623696	-0.05522784
245	0xbda4acc3	-0.08040764
246	0xbd662987	-0.056191947
247	0x3ce943cf	0.028474716
248	0xbf168a08	-0.5880437
249	0xbd59f426	-0.053211354
250	0xbf196f59	-0.5993553
251	0xbdad251f	-0.08454346
252	0xbf1979fb	-0.5995175
253	0xbf106054	-0.56396985
254	0x3d46a645	0.04849841
255	0xbd0a81d0	-0.033815205

nn.2.bias f4 [128]
0	0xbf0294ff	-0.510086
1	0xbf08ff22	-0.535143
2	0xbe91a089	-0.2844279
3	0xbefdc74c	-0.49566114
4	0xbf1d5346	-0.6145519
5	0xbf68d215	-0.9094556
6	0xbf1845e3	-0.5948164
7	0xbededf13	-0.43529567
8	0xbf26c22c	-0.6514003
9	0xbc17ac56	-0.009257397
10	0x3f1b0ec9	0.60569435
11	0xbf06ed27	-0.52705616
12	0xbef8467d	-0.48491278
13	0xbf003bed	-0.5009144
14	0xbebf4a9b	-0.37361607
15	0xbf1a3e63	-0.60251445
16	0x3fa70e4e	1.305124
17	0xbd71f975	-0.05907579
18	0xbef60196	-0.48048085
19	0xbf194b53	-0.5988056
20	0xbf0a13c5	-0.53936416
21	0xbf0c4367	-0.5479035
22	0xbf00978f	-0.5023126
23	0xbf074415	-0.5283826
24	0xbf197cae	-0.5995587
25	0xbe3aaa56	-0.1822904
26	0xbd0bc7a5	-0.034125943
27	0xbf1df079	-0.6169506
28	0xbd66427f	-0.05621576
29	0xbee20020	-0.4414072
30	0xbf1f297b	-0.6217267
31	0xbf05c4be	-0.5225333
32	0xbef70367	-0.48244783
33	0xbf2a488a	-0.66516936
34	0xbd884969	-0.06654627
35	0xbf0511d3	-0.5198032
36	0xbf0dbb09	-0.5536352
37	0xbea0578e	-0.313168
38	0xbf003222	-0.50076497
39	0xbf1e0527	-0.6172661
40	0xbf1d218a	-0.613793
41	0xbd50ded4	-0.050993755
42	0xbf1ba0ad	-0.60792047
43	0xbca2be9f	-0.019866286
44	0xbf290e43	-0.66037387
45	0xbf124dae	-0.5714978
46	0xbd2f3b9b	-0.042781454
47	0xbf2b5637	-0.6692843
48	0xbf1bc59a	-0.6084839
49	0xbf2424f1	-0.6411887
50	0xbc81d303	-0.015847689
51	0xbf05b78e	-0.5223321
52	0xbf23fd40	-0.64058304
53	0xbf1a600b	-0.603028
54	0x3f2fa84a	0.68616164
55	0xbf0df21a	-0.5544754
56	0xbf1efd21	-0.62104994
57	0xbf2f9c79	-0.68598133
58	0xbf2cefb9	-0.6755329
59	0xbebbde21	-0.36692908
60	0xbf17cf2a	-0.5930048
61	0xbdf315f9	-0.11869425
62	0xbf299e5c	-0.6625726
63	0xbf03cdc3	-0.5148584
64	0x3e8d7681	0.27629474
65	0xbef61b79	-0.48067835
66	0xbf0fee04	-0.5622256
67	0xbd98e988	-0.074664176
68	0xbe8abb76	-0.27096146
69	0x3e9f5ab0	0.31123877
70	0xbf035a51	-0.51309687
71	0xbec06cbd	-0.3758296
72	0xbf29bbb7	-0.66302055
73	0xbefffa08	-0.49995446
74	0xbf194233	-0.59866637
75	0xbf0cc588	-0.5498891
76	0xbf106d41	-0.5641671
77	0xbee12ed1	-0.4398103
78	0xbf06b1c0	-0.52614975
79	0xbf2899a8	-0.6585946
80	0xbd8b0572	-0.06788148
81	0xbf1b892b	-0.60756177
82	0xbedf4811	-0.4360967
83	0x3e7c18b0	0.24618793
84	0xbf1e6c13	-0.6188366
85	0x3f14cecb	0.5812804
86	0xbec4d8df	-0.3844671
87	0xbf04004f	-0.5156297
88	0xbf121e5c	-0.57077575
89	0xbf148557	-0.5801596
90	0xbf20a0f9	-0.62745625
91	0xbf1a7eae	-0.6034955
92	0xba827e8d	-0.0009955928
93	0xbf300aa2	-0.68766224
94	0xbf2239d9	-0.6336952
95	0xbdf53bf7	-0.11974328
96	0xbcabfb08	-0.020993724
97	0x3f595259	0.8489128
98	0xbf025e7e	-0.50925434
99	0xbf27876a	-0.65441
100	0xbf16d192	-0.5891353
101	0xbf1e2510	-0.617753
102	0x40205bb5	2.5055974
103	0xbf565b4f	-0.83733076
104	0xbf0b01f8	-0.5429988
105	0xbf0cd127	-0.5500664
106	0xbabe66a3	-0.0014526438
107	0xbee56fa5	-0.4481174
108	0xbf04d755	-0.5189107
109	0xbf2af254	-0.66776013
110	0xbed64600	-0.4185028
111	0xbf2d521d	-0.6770342
112	0xbf13f0f8	-0.57789564
113	0xbf037e66	-0.51364744
114	0xbdf855e8	-0.1212576
115	0xbf1e82fa	-0.61918604
116	0xbf03447b	-0.5127637
117	0xbf411b12	-0.7543193
118	0xbefe6d9d	-0.49693003
119	0xbef782c5	-0.48341957
120	0xbf2c1744	-0.67223
121	0xbf1406d8	-0.5782294
122	0xbf10ae73	-0.5651619
123	0xbf07d105	-0.53053313
124	0xbccb299a	-0.02480011
125	0xbd76260d	-0.06009488
126	0xbec9fd9b	-0.39451298
127	0x3f15c7ae	0.5850781

nn.4.weight f4 [16, 128]
0	0x3f187686	0.5955585
1	0x3efc18b9	0.49237612
2	0x3f0cecd7	0.5504889
3	0xbf16aa6d	-0.588538
4	0x3f0d12fe	0.55107105
5	0xbe9724d8	-0.29520297
6	0xbf1ead18	-0.6198287
7	0xbefc4671	-0.49272493
8	0x3f2df256	0.679479
9	0xbb32bdf1	-0.0027273858
10	0x4042fea0	3.046791
11	0xbefeaf23	-0.49742994
12	0xbf100045	-0.5625041
13	0xbeccc035	-0.39990392
14	0xbee85c4d	-0.4538292
15	0x3f07af52	0.5300189
16	0x40832c90	4.0991898
17	0xbd96ecb3	-0.073693655
18	0xbed8d8c5	-0.42352882
19	0x3f19d435	0.6008943
20	0xbec3ec42	-0.38266188
21	0x3f2fa960	0.6861782
22	0xbee3181a	-0.44354326
23	0xbed6cfb0	-0.41955328
24	0xbefc1524	-0.4923488
25	0x400b78d1	2.179249
26	0xbd91f8ff	-0.0712757
27	0xbefd1ae3	-0.49434575
28	0x3c36dc1a	0.011160875
29	0xbecb545c	-0.397128
30	0x3eb8201c	0.35961998
31	0x3d4602b6	0.04834243
32	0xbf02094c	-0.50795436
33	0x3f23a3ad	0.63921624
34	0x3d2a0452	0.041508026
35	0xbf024106	-0.5088047
36	0x3f0f45ea	0.55966055
37	0xbe249622	-0.16072896
38	0x3f1886b5	0.59580547
39	0x3f154d83	0.583214
40	0x3f0ed4df	0.55793566
41	0x3c8ade91	0.016951831
42	0x3ef43c10	0.47702074
43	0xbb524152	-0.003208239
44	0x3f2a546d	0.66535074
45	0x3f18099e	0.59389675
46	0xbd8d5219	-0.069004245
47	0x3f2a57d6	0.66540277
48	0x3f10b525	0.56526405
49	0xbf0359c7	-0.51308864
50	0x3d9a10cd	0.07522736
51	0xbeca9b92	-0.39571816
52	0x3f162e3b	0.5866429
53	0x3f228263	0.63480204
54	0x4049e4ca	3.1545892
55	0x3f177dd2	0.5917636
56	0x3f0bf281	0.54666907
57	0x3f1ce392	0.61284745
58	0x3f27e5ec	0.6558521
59	0xbee56e4b	-0.4481071
60	0x3f29511b	0.6613938
61	0x3f1c23de	0.6099223
62	0x3f080f5d	0.5314844
63	0x3ef67e6b	0.48143324
64	0x4026025e	2.5938945
65	0x3f11d873	0.569709
66	0x3f0df9e2	0.55459416
67	0x3d8c3c1a	0.06847401
68	0x3d110961	0.035409335
69	0x40266e3d	2.6004784
70	0x3f1f5443	0.6223795
71	0xbec3f7a4	-0.38274872
72	0xbe5d0a9a	-0.21586075
73	0x3f10d1f6	0.56570375
74	0x3f182a15	0.5943921
75	0x3f16b178	0.58864546
76	0x3f1f2e57	0.62180084
77	0xbec5f721	-0.38665107
78	0xbf03b892	-0.51453507
79	0x3f25a32d	0.6470211
80	0xbc76b9ea	-0.015058974
81	0x3f28f671	0.6600104
82	0xbf037dcb	-0.5136382
83	0x40220ca1	2.5320208
84	0x3f1291cf	0.57253736
85	0x40429182	3.040131
86	0xbec1aa86	-0.37825412
87	0x3ef3731b	0.47548756
88	0x3f26c394	0.6514218
89	0xbf0798e9	-0.529677
90	0x3f1efd25	0.6210502
91	0xbf12d583	-0.57357043
92	0xbc8a0280	-0.016846895
93	0x3f292fae	0.6608838
94	0x3f2e2e4e	0.68039405
95	0xbd750f0e	-0.05982881
96	0xbd232e9c	-0.039839372
97	0x405ee85c	3.482932
98	0x3f0ef03a	0.55835307
99	0x3f1bf068	0.60913706
100	0x3f2139e9	0.6297899
101	0x3f2782a1	0.654337
102	0x3f575cad	0.84125787
103	0xbe8c286c	-0.2737459
104	0xbf0113ae	-0.50420654
105	0x3f07b7c1	0.5301476
106	0x3d5bf908	0.05370429
107	0x3ebddb4c	0.37081373
108	0xbedeb016	-0.43493718
109	0x3f0363eb	0.5132434
110	0xbebbca32	-0.366777
111	0x3f04b7d7	0.5184302
112	0x3f06671e	0.52501094
113	0xbef90e18	-0.48643565
114	0x400bc901	2.1841433
115	0x3f2a7902	0.66590893
116	0x3f0e5722	0.55601704
117	0xbe540430	-0.20704722
118	0x3f0a9d23	0.5414602
119	0x3ef0d7e6	0.47039717
120	0x3f03e580	0.51522064
121	0x3f0697cc	0.52575374
122	0x3f1a3780	0.60240936
123	0x3f2a5c77	0.6654734
124	0x3cdf8736	0.027286153
125	0x3baede22	0.005336539
126	0xbeee3a9d	-0.46529093
127	0x4043ed55	3.0613606
128	0x3efab930	0.48969412
129	0x3f0ed1df	0.5578899
130	0xbed124f1	-0.40848497
131	0xbee96db1	-0.455915
132	0xbf0a4ad5	-0.54020435
133	0xbe837810	-0.25677538
134	0x3f1683c2	0.58794796
135	0x3ef2990b	0.47382388
136	0xbf059fe3	-0.5219709
137	0x3d94c614	0.07264343
138	0x3fcb9fc8	1.5908136
139	0x3ef4e118	0.47827983
140	0xbedd15d4	-0.43180716
141	0x3ef0b820	0.47015476
142	0x3ed4d10a	0.41565734
143	0xbf14d08e	-0.5813073
144	0x3fcf4f7d	1.6196133
145	0x3d7fb79a	0.062430955
146	0x3f00a891	0.5025721
147	0xbf201b6a	-0.6254183
148	0x3f00544c	0.50128627
149	0xbf086a82	-0.5328752
150	0x3ed1a06d	0.40942708
151	0x3ef86773	0.48516425
152	0x3f03ac17	0.51434463
153	0x3fdb5cbd	1.7137676
154	0x3d8541a3	0.0650666
155	0x3f04ebf3	0.5192253
156	0x3d7a23ad	0.06106918
157	0x3f033f55	0.5126851
158	0xbee10ca0	-0.43954945
159	0x3dffdc33	0.124931715
160	0x3ef62f0e	0.48082775
161	0xbf1ac850	-0.604619
162	0x3d86e1a0	0.06586003
163	0x3f10efd6	0.5661596
164	0xbf11168a	-0.56675017
165	0xbe2118fa	-0.15732184
166	0x3f0d36bc	0.55161643
167	0xbf131ea3	-0.5746862
168	0xbf1e4019	-0.61816555
169	0xbd69eff4	-0.057113603
170	0x3eff934a	0.4991706
171	0x3d7fd2a9	0.06245676
172	0xbf1f0554	-0.62117505
173	0xbf2fcffd	-0.6867674
174	0x3d84751f	0.064676516
175	0xbf208bcf	-0.6271333
176	0xbf0c1f56	-0.54735315
177	0x3efad7d6	0.48992795
178	0xbca2a913	-0.019856011
179	0x3ed2d845	0.41180626
180	0xbf12eccc	-0.57392573
181	0xbf06b506	-0.5261997
182	0x3fcead28	1.6146593
183	0xbf0755de	-0.528654
184	0xbf2cae50	-0.6745348
185	0xbf13af14	-0.57689023
186	0xbf0fdd55	-0.561971
187	0x3f0259f8	0.5091853
188	0xbf232c8e	-0.6373986
189	0x3dc93ed1	0.098264344
190	0xbf21fd59	-0.632772
191	0x3ee5bf87	0.44872686
192	0x3fca0f78	1.5785971
193	0x3ef2517d	0.47327796
194	0xbf04ce5b	-0.51877373
195	0x3c46c2f6	0.012131443
196	0x3eb40a67	0.35164186
197	0x3fcbcdc0	1.5922165
198	0xbf2a04ad	-0.66413385
199	0x3ef4538b	0.47719988
200	0xbb88f866	-0.004180002
201	0x3f0f3b7a	0.5595013
202	0xbf2a4807	-0.66516155
203	0x3f0bb428	0.5457177
204	0xbf0b6d8d	-0.54464036
205	0x3edf0b4c	0.43563306
206	0x3ec5d2fc	0.3863753
207	0xbf20c2dc	-0.6279733
208	0xbcd2040c	-0.025636695
209	0xbf03e557	-0.5152182
210	0x3f041729	0.5159784
211	0x3fd3eb6f	1.6556224
212	0x3e17f1ae	0.14838287
213	0x3fc9ee1b	1.5775789
214	0x3f0227cf	0.50841993
215	0x3f096790	0.5367365
216	0xbf2b291e	-0.66859615
217	0x3f16bc2d	0.58880883
218	0xbf08798c	-0.53310466
219	0x3f16f39c	0.5896547
220	0x3d64a02b	0.05581681
221	0xbf0f87a5	-0.5606635
222	0xbf269ad5	-0.65080005
223	0x3eb5ad34	0.35483706
224	0xbb923ce2	-0.004462824
225	0x3fd2457e	1.6427457
226	0x3f0bfad3	0.546796
227	0xbf0a07f2	-0.53918374
228	0xbf0a840f	-0.54107755
229	0xbf04489b	-0.5167329
230	0x3d02a004	0.031890884
231	0xbe36e6ba	-0.17861453
232	0x3f0a861b	0.5411088
233	0xbf0ad454	-0.54230237
234	0xbda74b93	-0.081687115
235	0xbd8e18de	-0.06938337
236	0x3f039be5	0.5140975
237	0xbf079f41	-0.5297738
238	0xbefd6c9a	-0.4949692
239	0xbf118b9c	-0.5685365
240	0xbf13648e	-0.5757531
241	0x3efbea2f	0.49202105
242	0x3fd1350f	1.6344317
243	0xbf16b039	-0.58862644
244	0x3f026d81	0.5094834
245	0x3c9633e4	0.01833529
246	0x3ef62e78	0.48082328
247	0x3ef8e8fe	0.4861526
248	0xbf1d8523	-0.61531276
249	0xbf0d6181	-0.55226904
250	0xbf1508d0	-0.5821657
251	0xbf041f65	-0.51610404
252	0xbc94a888	-0.018146768
253	0x3d521c8a	0.05129675
254	0x3f015e9f	0.50535005
255	0x3fd1fe3c	1.6405711

nn.4.bias f4 [16]
0	0x3fb9aba2	1.4505503
1	0x3ec2d381	0.3805199
2	0xbcde385e	-0.027126487
3	0xbe31c350	-0.17359662
4	0xbf0a51b5	-0.54030925
5	0xbf2a646d	-0.6655949
6	0xbf8d1080	-1.102066
7	0xbfb8865e	-1.4416006
8	0x3f9af775	1.2106768
9	0x3f312f48	0.6921277
10	0x3e0931cd	0.13397904
11	0x3fb8f1f9	1.4448844
12	0xbe9bd127	-0.30433008
13	0xbf3a4bc6	-0.7277187
14	0xbf9b7fec	-1.2148414
15	0xbf88c173	-1.0684036
