dynamics/src/dynamics/outputs/DDQN_RobotOptEnv/20230116-154554/models/model_max_eps.pkl (torch, 79767 bytes, 6 tensors)

nn.0.weight f4 [128, 10]
0	0xbef5aa73	-0.47981605
1	0xbf364709	-0.7120214
2	0xbf758bb6	-0.95916307
3	0xbf5e6f35	-0.8688844
4	0xbf67b0d9	-0.90504223
5	0xbf1b43d9	-0.606504
6	0xbf1038f6	-0.56336915
7	0xbed81440	-0.4220295
8	0xbecf0e90	-0.40440798
9	0xbf5c68d1	-0.8609744
10	0xbed4193a	-0.41425496
11	0xbf5f2592	-0.871667
12	0xbf61e6c5	-0.8824275
13	0xbf6db616	-0.92855966
14	0xbf0bc960	-0.5460415
15	0xbf66b64f	-0.9012193
16	0xbf10e5fb	-0.5660092
17	0xbeea6c8a	-0.45785934
18	0xbf3655ef	-0.71224874
19	0xbf0158e9	-0.5052629
20	0xbec42fe3	-0.38317785
21	0xbedd792e	-0.43256515
22	0xbee01148	-0.43763185
23	0xbf31589a	-0.6927582
24	0xbf02469c	-0.5088899
25	0xbf6aa199	-0.9165283
26	0xbf12478a	-0.5714041
27	0xbef03708	-0.46916986
28	0xbf4215da	-0.7581459
29	0xbf4c5fce	-0.79833686
30	0xbe5c8489	-0.21534933
31	0x3e399e04	0.18126684
32	0xbe594bbc	-0.21220297
33	0xbd16e380	-0.036838055
34	0xbd06b897	-0.032890882
35	0xbc5746c0	-0.013139427
36	0xbdfda719	-0.12385387
37	0xbe549de5	-0.20763357
38	0x3e42c759	0.19021358
39	0x3dc2d858	0.095139205
40	0x3e68e231	0.22742535
41	0xbe3194bf	-0.17341898
42	0xbe2c650b	-0.1683542
43	0x3e9fb376	0.31191605
44	0xbe206438	-0.1566323
45	0x3e4b9828	0.19882262
46	0xbcd58f09	-0.026069181
47	0xbdab6351	-0.083685525
48	0x3e950449	0.29104832
49	0xbe99e9e3	-0.30061254
50	0xbfe2a04e	-1.7705171
51	0xbfdfa8e2	-1.7473414
52	0xbfda2aee	-1.7044351
53	0xbffa293c	-1.9543834
54	0xc0023ca1	-2.0349505
55	0xc00043a7	-2.0041292
56	0xc0118e7e	-2.274322
57	0xc001d2d9	-2.0284941
58	0xc0004ebc	-2.0048056
59	0xbfe0bcb0	-1.7557583
60	0xbe7ed82f	-0.24887155
61	0xbed29f49	-0.4113715
62	0xbf22bafe	-0.6356658
63	0xbe745faa	-0.23864618
64	0xbe7b1323	-0.24519019
65	0xbe3907c7	-0.18069373
66	0xbf3dc308	-0.7412572
67	0xbee32c6d	-0.44369832
68	0xbec0c4f7	-0.37650272
69	0xbe9ff8d1	-0.3124452
70	0xbe98b2c8	-0.298239
71	0x3d909b11	0.070608266
72	0x3e45fcd6	0.1933473
73	0xbe8c9c91	-0.274632
74	0x3dfa0cb9	0.12209458
75	0x3e974027	0.29541132
76	0xbe74e214	-0.23914367
77	0xbe59c199	-0.21265258
78	0x3e505553	0.20345049
79	0xbe39c75a	-0.18142453
80	0xbeedf167	-0.46473238
81	0xbea2af1a	-0.31774217
82	0xbef09378	-0.4698751
83	0xbf3e865e	-0.7442378
84	0xbef8086b	-0.48443922
85	0xbf39842f	-0.7246732
86	0xbf30c5d3	-0.69051856
87	0xbebde409	-0.3708804
88	0xbf113baf	-0.56731695
89	0xbe3f02b1	-0.1865337
90	0xbf3fbcfd	-0.7489775
91	0xbf2bd387	-0.6711964
92	0xbf5a14fa	-0.8518826
93	0xbf6e1d79	-0.9301372
94	0xbf65b499	-0.89728695
95	0xbf5d6718	-0.86485434
96	0xbf03d640	-0.51498795
97	0xbeb4a671	-0.35283235
98	0xbeca59eb	-0.39521727
99	0xbf440e83	-0.76584643
100	0xbe80804a	-0.25097877
101	0xbed2c4d1	-0.41165784
102	0xbe894352	-0.26809174
103	0xbecd3813	-0.40081844
104	0xbf3f5ee8	-0.7475419
105	0xbf15e1dd	-0.58547765
106	0xbe91108c	-0.28332937
107	0xbe2dc72e	-0.16970512
108	0xbf1c309f	-0.6101169
109	0xbed90b03	-0.42391214
110	0xbf2c0bdd	-0.672056
111	0xbf152158	-0.58254004
112	0xbf1383fc	-0.5762327
113	0xbf2a46dd	-0.6651438
114	0xbf33034a	-0.69926894
115	0xbf3055d0	-0.6888094
116	0xbf327f98	-0.6972594
117	0xbf035d1f	-0.51313967
118	0xbf0a7a09	-0.5409246
119	0xbf488209	-0.7832342
120	0xbf1c8341	-0.6113778
121	0xbebe757f	-0.37199017
122	0xbf5bb625	-0.85824805
123	0xbed2d2d7	-0.41176483
124	0xbef84496	-0.48489827
125	0xbf2f9281	-0.6858292
126	0xbecd3eaf	-0.40086886
127	0xbef428e0	-0.47687435
128	0xbf31aaf3	-0.6940147
129	0xbf6c6adc	-0.92350554
130	0xbe2cb4d1	-0.16865851
131	0xbe849916	-0.25898045
132	0xbed486dd	-0.41509143
133	0xbeee04d8	-0.4648807
134	0xbf1fc00f	-0.62402433
135	0xbf3818a7	-0.71912616
136	0xbf0a5b66	-0.5404571
137	0xbe9c8100	-0.3056717
138	0xbf1ba345	-0.60796005
139	0xbecd9244	-0.40150654
140	0xbf195700	-0.59898376
141	0xbf06a44a	-0.52594435
142	0xbf2463c9	-0.6421476
143	0xbeb58cf4	-0.354591
144	0xbef67c15	-0.48141542
145	0xbefb6848	-0.49102998
146	0xbf27ca6a	-0.65543234
147	0xbe79bb76	-0.24387917
148	0xbf1d7e5c	-0.61520934
149	0xbf255a77	-0.64591163
150	0x3dd30b60	0.10304904
151	0xbe422fb2	-0.18963507
152	0x3e1fd291	0.15607668
153	0x3e92c558	0.28666186
154	0x3e8c41be	0.27393907
155	0xbe29ed45	-0.16594417
156	0x3e971647	0.29509184
157	0xbe4cbff3	-0.19995098
158	0x3e52363a	0.20528498
159	0xbdf7e5bc	-0.12104365
160	0x3e61c2c6	0.22046956
161	0xbe384db7	-0.17998396
162	0xbe9a26c9	-0.30107716
163	0x3dbd06c1	0.09229804
164	0x3d962776	0.07331745
165	0xbe0359cd	-0.12827225
166	0xbd32b8a0	-0.043633103
167	0xbd13466a	-0.035955824
168	0x3e6f70ae	0.23382828
169	0x3c91668a	0.01774909
170	0xbc1b909e	-0.009494929
171	0xbe785c31	-0.24253918
172	0xbe289217	-0.16461979
173	0xbe457234	-0.19281846
174	0xbe9dae76	-0.30797166
175	0xbe1c823f	-0.1528406
176	0xbd840cca	-0.06447752
177	0xbdc3937e	-0.09549616
178	0x3dcb1bd9	0.09917421
179	0x3e6995a2	0.22810987
180	0x3b816bd1	0.0039496203
181	0xbdd058ad	-0.101731636
182	0x3e8d3e84	0.27586758
183	0x3e51fca8	0.20506537
184	0x3e37b83b	0.17941372
185	0xbd8ebc65	-0.06969527
186	0x3e99edce	0.30064243
187	0xbe9e9ca5	-0.30978885
188	0xbe5ffe9e	-0.21874472
189	0xbb6bf532	-0.0036004302
190	0xbf0bfd74	-0.54683614
191	0xbf5ff6d5	-0.8748601
192	0xbf4af6ec	-0.7928302
193	0xbf4a06a8	-0.78916407
194	0xbf39d373	-0.7258827
195	0xbf2f7524	-0.6853812
196	0xbf4f77f7	-0.81042427
197	0xbef07a13	-0.46968135
198	0xbf4cb518	-0.7996383
199	0xbf17d854	-0.59314466
200	0xbd88eaba	-0.066853955
201	0x3e94f23a	0.29091054
202	0x3e571471	0.21003892
203	0x3deaeae4	0.11470583
204	0x3e949501	0.2901993
205	0x3e862bbb	0.2620524
206	0xbe39af75	-0.18133338
207	0xbe4bb744	-0.19894129
208	0x3dc53939	0.09630055
209	0xbcd54f3d	-0.02603876
210	0xbe1d0ad1	-0.15336157
211	0xbe3d0407	-0.18458568
212	0xbd217904	-0.03942205
213	0x3b81cf6d	0.0039614947
214	0xbdd66585	-0.10468582
215	0xbdfcabbd	-0.12337444
216	0xbde46a6d	-0.111531116
217	0xbe03ca36	-0.12870106
218	0xbe6cd18c	-0.23126811
219	0xbe05b5f5	-0.13057692
220	0x3dbecd6e	0.09316526
221	0x3e296b6e	0.16544887
222	0xbd212d0b	-0.039349597
223	0x3e132ee0	0.1437335
224	0x3e7340ce	0.2375519
225	0x3e870d95	0.2637755
226	0x3e4f2c29	0.2023169
227	0xbdbf0441	-0.09326983
228	0xbe05e326	-0.13074932
229	0xbe7b52a0	-0.24543238
230	0x3e981164	0.29700768
231	0xbe4b132a	-0.1983153
232	0x3da10d6c	0.07863888
233	0xbea0150c	-0.31266057
234	0xbe87db04	-0.26534283
235	0xbe9f79ca	-0.31147605
236	0x3e948846	0.29010218
237	0xbd9ba726	-0.076002404
238	0x3e6c99f3	0.23105602
239	0xbd834d73	-0.06411257
240	0xbfd7a825	-1.6848189
241	0xbfb1c3ee	-1.3887918
242	0xbfb598ff	-1.4187316
243	0xbfb5fae1	-1.4217187
244	0xbfe072b6	-1.7535007
245	0xbfe42a11	-1.7825338
246	0xc007f854	-2.1245317
247	0xbfd97c24	-1.699101
248	0xbfeea038	-1.8642645
249	0xbff26d26	-1.893956
250	0xbf609bbc	-0.8773763
251	0xbf5a9cbb	-0.853954
252	0xbf436736	-0.7632936
253	0xbf47d890	-0.78064823
254	0xbf49d2c4	-0.7883723
255	0xbf5ce947	-0.8629345

nn.0.bias f4 [128]
0	0xbeefd2af	-0.46840426
1	0xbf76ac4b	-0.9635665
2	0xbf286301	-0.6577607
3	0xbce6c375	-0.028169373
4	0x3c8c12e2	0.017098848
5	0xbfe0dbe9	-1.7567111
6	0xbf0876be	-0.53306186
7	0x3e4aa76b	0.19790427
8	0xbf0b5018	-0.5441909
9	0xbec60c4f	-0.38681266
10	0xbebafa4f	-0.36519095
11	0xbf760712	-0.9610454
12	0xbee05379	-0.43813685
13	0xbf2a69d0	-0.6656771
14	0xbeb811ec	-0.35951173
15	0x3e4b2b5d	0.1984076
16	0x3e05c9bb	0.13065235
17	0x3b0650b6	0.0020494885
18	0x3c5e52fd	0.013569591
19	0xbefdac0d	-0.49545327
20	0x3ea033a7	0.31289408
21	0x3e749408	0.23884594
22	0xbd9ba06e	-0.07598959
23	0xbde9078a	-0.11378391
24	0xbfe3b8a0	-1.7790718
25	0xbf6ff0ef	-0.9372701
26	0xbf51d858	-0.8197074
27	0xbf58aeed	-0.84641916
28	0xbf457b85	-0.771416
29	0xbf1f088a	-0.62122405
30	0xbe266109	-0.16247953
31	0xbe86acf9	-0.26303843
32	0xbe7f3975	-0.24924262
33	0xbe4e6ea8	-0.201594
34	0x3e9fd749	0.31218937
35	0xbf205dfe	-0.6264342
36	0x3bbfc2e2	0.0058520893
37	0xbef0d2b2	-0.47035748
38	0xbf497bd4	-0.7870457
39	0xbe4951eb	-0.19660155
40	0xbe4be6f2	-0.19912317
41	0xbf196a2b	-0.59927624
42	0xbdb8bb4a	-0.090200976
43	0xbf31c7e9	-0.69445664
44	0xbedd638a	-0.43240005
45	0xbf173fd3	-0.59081763
46	0xbf1fde7a	-0.6244885
47	0xbeea6167	-0.45777437
48	0xbe5f81db	-0.2182688
49	0xbf2e0fc5	-0.6799281
50	0xbf1ed108	-0.62037706
51	0xbee4954a	-0.4464515
52	0x3dd7f364	0.1054447
53	0xbeaa6d12	-0.3328634
54	0xbf034914	-0.51283383
55	0xbf1010df	-0.56275743
56	0x3c92e57d	0.017931694
57	0xbe923a14	-0.28559935
58	0xbdad4bda	-0.08461733
59	0x3e3f8a0a	0.18705001
60	0x3e106589	0.14101233
61	0xbe978b7d	-0.2959861
62	0xbd5e4c78	-0.054272145
63	0xbee951f7	-0.45570347
64	0x3e1b9751	0.15194441
65	0x3e828fec	0.2550043
66	0x3d1aab28	0.037760884
67	0x3d3da0fe	0.046296112
68	0xbf35cde6	-0.710173
69	0xbf57f506	-0.8435825
70	0xbf3081a9	-0.68947846
71	0xbed661b1	-0.41871408
72	0xbef33807	-0.47503683
73	0xbe1f5f9e	-0.15563819
74	0xbe30cae0	-0.1726489
75	0xbf0fcfb1	-0.56176287
76	0xbf368d6d	-0.7130955
77	0xbef31aa8	-0.47481275
78	0xbf591c47	-0.8480877
79	0xbe1ad093	-0.15118627
80	0xbe6abb3d	-0.22922988
81	0xbe1da444	-0.15394694
82	0x3e545e4d	0.20739098
83	0xbf144b1f	-0.57927126
84	0xbf0df6a3	-0.5545446
85	0xbef77153	-0.48328647
86	0xbe4e915b	-0.20172636
87	0xbecad860	-0.39618206
88	0xbea2cd76	-0.3179738
89	0xbe4e6345	-0.20155056
90	0xbf63dd82	-0.8900987
91	0xbefac01a	-0.48974687
92	0xbf360e52	-0.711156
93	0xbf5dc04e	-0.8662156
94	0xbd924ecf	-0.07143938
95	0xbe990f20	-0.29894352
96	0xbf462638	-0.7740207
97	0xbf3674fb	-0.7127225
98	0x3ca38c29	0.019964295
99	0xbe206c16	-0.15666232
100	0xbe7629b1	-0.24039342
101	0xbedfdd6f	-0.43723628
102	0xbe68005f	-0.22656392
103	0x3d315b09	0.04329971
104	0xbf2719d7	-0.65273803
105	0x3d0ac673	0.033880662
106	0xbf178bd1	-0.5919772
107	0xbb8d5e0e	-0.0043141907
108	0xbe5afb38	-0.21384895
109	0xbf44733b	-0.7673833
110	0xbf009d4a	-0.50240004
111	0xbef7c7d8	-0.48394656
112	0xbea2471c	-0.31694877
113	0xbf01b211	-0.5066233
114	0xbe0d3fc4	-0.13793856
115	0xbf0e0c46	-0.5548748
116	0xbf54300e	-0.82885826
117	0xbec6602f	-0.38745257
118	0xbdf16d2d	-0.11788402
119	0xbf39f384	-0.726372
120	0x3cf62a58	0.030049488
121	0xbee789a2	-0.45222193
122	0x3d67ce14	0.056593016
123	0xbe8a87d6	-0.2705676
124	0x3e547012	0.20745876
125	0x3e6502e8	0.2236439
126	0xbe9f7c69	-0.31149605
127	0xbf0d96d3	-0.55308264

nn.2.weight f4 [128, 128]
0	0xbef819a5	-0.48457065
1	0xbf21beff	-0.6318206
2	0xbf11c000	-0.56933594
3	0xbd4ff746	-0.050772928
4	0xbbf6258e	-0.007511801
5	0x3d27c16c	0.040955946
6	0xbf012016	-0.50439584
7	0xbd61be47	-0.055113103
8	0xbef3f667	-0.47648928
9	0xbf05a88c	-0.5221031
10	0xbf0d0d45	-0.5509837
11	0xbf173e75	-0.59079677
12	0xbf0e953a	-0.5569645
13	0xbf0cd9ee	-0.55020034
14	0xbf1f7327	-0.62285084
15	0xbd99d2e4	-0.07510927
16	0xbcb45169	-0.022011476
17	0xbc7c046c	-0.015381914
18	0xbd3d0ae8	-0.04615298
19	0x3d79d257	0.06099161
20	0xbc1e54c6	-0.009663766
21	0xbdab3bfc	-0.083610505
22	0x3d99acd0	0.075036645
23	0x3ad0cd07	0.0015930244
24	0xbd41d894	-0.047325686
25	0xbf0ac96e	-0.5421361
26	0xbf1bc777	-0.60851234
27	0xbb34db95	-0.0027596701
28	0xbf143549	-0.57893807
29	0x3d9644b7	0.07337325
30	0x3d42a43c	0.047519907
31	0x3d4b280c	0.04959874
32	0x3ce43e71	0.027861806
33	0xbeefe73d	-0.46856108
34	0x3cd541ba	0.026032317
35	0xbf2216b4	-0.6331589
36	0x3d4b9584	0.049703136
37	0xbf045afb	-0.51701325
38	0xbf1f0308	-0.62114
39	0xbf075c6c	-0.528754
40	0xbf1b5854	-0.60681653
41	0xbd11ac2e	-0.035564594
42	0xbce72c32	-0.028219316
43	0xbf10a90b	-0.5650794
44	0xbf16d9f3	-0.58926314
45	0xbf0bc760	-0.546011
46	0xbeffc6ed	-0.49956456
47	0xbef97191	-0.48719457
48	0x3d5069e7	0.050882246
49	0x3d95e3ce	0.07318841
50	0xbf16c079	-0.5888744
51	0xbefe9e5c	-0.49730194
52	0x3ca6c86f	0.020359246
53	0x3d3c6f2d	0.046004463
54	0xbf1c87eb	-0.61144894
55	0xbf1f0e79	-0.6213146
56	0xbd4c39f0	-0.04985994
57	0xbcc04f12	-0.023475204
58	0xbd5672c6	-0.05235555
59	0xbbdf59e4	-0.0068161357
60	0x3d7a9ad0	0.061182797
61	0xbf09b08e	-0.53785026
62	0xbd4da5b3	-0.05020685
63	0x3d28d0fc	0.041214928
64	0x3d863a40	0.06554079
65	0x3db2cba7	0.0873025
66	0x3cd3d454	0.025858082
67	0x3ccf7c01	0.025327684
68	0xbf10a11d	-0.5649584
69	0xbd89721a	-0.06711216
70	0xbf05affe	-0.5222167
71	0xbf097561	-0.5369473
72	0x3d94919c	0.07254335
73	0xbbbff720	-0.005858317
74	0xbd19b6a0	-0.03752768
75	0xbf0e4c2c	-0.5558498
76	0x3da51d6b	0.08062252
77	0xbc9e852b	-0.019350609
78	0xbf10d5c8	-0.56576204
79	0xbf037008	-0.5134282
80	0x3d817f55	0.06323115
81	0x3db35a67	0.08757477
82	0xbb6cf464	-0.003615641
83	0xbd7f42dd	-0.062319625
84	0xbf0acbb2	-0.54217064
85	0xbf0b778a	-0.5447928
86	0xbd72826d	-0.059206415
87	0xbf0e161e	-0.555025
88	0xbf017291	-0.5056544
89	0xbf07187c	-0.52771735
90	0x3c2c7a39	0.010527187
91	0x3d89ccb0	0.06728494
92	0xbd6d5ee6	-0.05795183
93	0xbf24a6b5	-0.64316875
94	0xbd10e839	-0.035377715
95	0xbef747f1	-0.48297074
96	0xbefd625f	-0.49489114
97	0xbf0e56a0	-0.5560093
98	0x3a6d51e8	0.00090530375
99	0xbf069dbe	-0.52584445
100	0xbf18ea37	-0.59732383
101	0xbda41624	-0.080120355
102	0xbef0e2d4	-0.47048056
103	0x3c1aac2b	0.009440462
104	0x3d3034c3	0.043019067
105	0x3d149735	0.036277015
106	0xbef0396a	-0.46918803
107	0x3d652e8a	0.055952586
108	0xbd3f7ffd	-0.04675292
109	0xbf21e1d4	-0.6323521
110	0x3b3ed87b	0.0029120732
111	0xbefd4092	-0.49463326
112	0xbc77e2db	-0.01512977
113	0xbf0d0c0c	-0.5509651
114	0x3d0ba85b	0.034096103
115	0xbf1f2a73	-0.6217415
116	0xbf19b0da	-0.6003548
117	0xbf1aa5fa	-0.6040951
118	0x3cecf596	0.028925698
119	0xbf1c3eb2	-0.61033165
120	0x3d80934d	0.062780954
121	0xbf050e30	-0.51974773
122	0x3bcbad15	0.0062157013
123	0xbdb1031c	-0.08643171
124	0xbd0a0afa	-0.033701874
125	0x3cc1307c	0.02358269
126	0xbf02d146	-0.51100576
127	0xbf1bcf8b	-0.6086356
128	0x3eed554f	0.46354148
129	0x3f01843b	0.5059239
130	0x3f1c33e0	0.61016655
131	0xbd9721f9	-0.07379527
132	0x3d6b05f2	0.057378717
133	0x3ffabe5e	1.9589345
134	0x3efb8fca	0.4913314
135	0x3c0ac571	0.008469925
136	0x3f0178dc	0.5057504
137	0x3f0271da	0.50954974
138	0x3eac8814	0.3369757
139	0x3f016ac8	0.5055356
140	0x3ef171d5	0.4715716
141	0x3ec10142	0.37696272
142	0x3eb7aaed	0.35872594
143	0x3c4b7ded	0.01242016
144	0xbbcaa7b7	-0.006184544
145	0x3d3929cf	0.045205887
146	0x3c47815a	0.012176836
147	0xbdb3d0d4	-0.08780065
148	0xbd52ca0c	-0.05146222
149	0x3ca2424d	0.019807005
150	0x3d6ec217	0.058290567
151	0x3d88986d	0.06669698
152	0xba068a77	-0.0005132327
153	0x3f1b696c	0.60707736
154	0x3f00d09c	0.5031831
155	0x3d62768c	0.055288836
156	0x3f056886	0.52112615
157	0x3d421fe2	0.047393687
158	0x3d6a5468	0.057209402
159	0x3da324b7	0.07965987
160	0xbcbea2eb	-0.023271045
161	0x3ee53e2e	0.44774002
162	0xbca7e3c3	-0.020494347
163	0x3ef17c26	0.4716503
164	0x3d9c0beb	0.07619461
165	0x3f02dac1	0.5111504
166	0x3efb1442	0.49038893
167	0x3f0599e5	0.5218795
168	0x3eeb6246	0.45973414
169	0xbd49c596	-0.0492607
170	0x3d91d3e5	0.07120494
171	0x3f117da3	0.5683233
172	0x3ef20520	0.47269535
173	0x3f1080f6	0.5644678
174	0x3eaf4b9c	0.34237373
175	0x3f19bd0b	0.6005408
176	0xbd245edd	-0.04012953
177	0xbd8673da	-0.06565066
178	0x3f07be93	0.5302517
179	0x3f103bc3	0.5634119
180	0x3c9a7aef	0.018857447
181	0xbc7c195f	-0.015386908
182	0x3f0bacf9	0.5456081
183	0x3f1c8e1e	0.61154354
184	0xbc3f7dd0	-0.011687711
185	0xbc48e8f5	-0.012262573
186	0xbdb2ddc1	-0.087337025
187	0x3d448c3d	0.047985304
188	0xbd3e8ed5	-0.046522934
189	0x3ef0e9d2	0.4705339
190	0xba813072	-0.0009856357
191	0x3db0399e	0.086047396
192	0x3d15f6c8	0.036612302
193	0x3d41445f	0.047184344
194	0x3cedc650	0.029025227
195	0xbd9ed778	-0.07755941
196	0x3f1aafcf	0.6042451
197	0x3cd17782	0.025569681
198	0x3f16c49a	0.5889374
199	0x3ef1f743	0.47258958
200	0x3d4b4dff	0.04963493
201	0xbd6333aa	-0.055469193
202	0x3d4b631c	0.049655065
203	0x3f01a265	0.5063842
204	0x3d0d185f	0.03444707
205	0x3c031f27	0.008003033
206	0xbf33f60f	-0.7029733
207	0x3ec4b6c9	0.38420704
208	0xbd89e095	-0.06732289
209	0xbd0c38ba	-0.034233786
210	0xbbebc429	-0.007195015
211	0xbd7c7469	-0.061634455
212	0x3f1341f4	0.5752251
213	0x3f0ca960	0.54945946
214	0xbd27b038	-0.04093954
215	0x3ecebb85	0.4037744
216	0x3edca2ae	0.43092865
217	0x3ee4358f	0.44572112
218	0x3d19f28d	0.03758483
219	0x3cbbcfd6	0.022926252
220	0x3c633224	0.013866935
221	0x3f05c72b	0.5225703
222	0xbcc9d3c9	-0.02463712
223	0x3f182748	0.5943494
224	0x3eceb040	0.40368843
225	0x3efc99b8	0.49336028
226	0xbc8f22b7	-0.017472608
227	0x3eb3ab4c	0.35091627
228	0x3ee6d168	0.4508164
229	0xbda4d826	-0.080490395
230	0x3ef6f2d1	0.4823213
231	0xbd4445cd	-0.04791813
232	0xbd8111e5	-0.06302241
233	0xbcb92366	-0.022599887
234	0x3efe7db3	0.49705276
235	0x3c828b6f	0.015935628
236	0xbd4e0a6e	-0.050302915
237	0x3eb9a131	0.36255792
238	0xbda63f30	-0.08117521
239	0x3ee96a09	0.4558871
240	0xbd2bbf0a	-0.041930236
241	0x3f0c2cc9	0.54755837
242	0xbc36b816	-0.011152288
243	0x3f03aded	0.51437265
244	0x3f1f1cc7	0.62153286
245	0x3ef6d511	0.48209432
246	0xbd60621b	-0.05478106
247	0x3efb57a9	0.49090317
248	0xbd2bea78	-0.041971654
249	0x3ed75d02	0.42063147
250	0x3bf0188c	0.007327145
251	0xbd906cf9	-0.07052035
252	0xbb929201	-0.0044729714
253	0xbda0a03c	-0.07843062
254	0x3eceb999	0.40375975
255	0x3f182a14	0.59439206

nn.2.bias f4 [128]
0	0xbf015b53	-0.50529975
1	0x408edeb4	4.4646854
2	0xbf0452ec	-0.5168903
3	0xbff6bacf	-1.927576
4	0xbf418b90	-0.7560358
5	0xbd4ee0ac	-0.050507233
6	0x4035e200	2.841919
7	0xbf2d8d7c	-0.67794013
8	0xbf676689	-0.9039083
9	0xbf1064c6	-0.5640377
10	0xbf150c9d	-0.5822237
11	0xbf1610ae	-0.586192
12	0x3f93245b	1.149547
13	0xbf17b07a	-0.59253657
14	0xc020839b	-2.5080326
15	0xbefc8888	-0.49322915
16	0xbf09eb2a	-0.53874457
17	0xbf162413	-0.58648795
18	0xbf079d01	-0.52973944
19	0xc020c3f5	-2.5119603
20	0xbcf3957e	-0.02973437
21	0xbef99759	-0.48748282
22	0xc000a380	-2.0099792
23	0xbff4ddaf	-1.9130152
24	0xbefb055b	-0.49027523
25	0xbd237502	-0.03990651
26	0xbff1b26b	-1.8882574
27	0xc0004fd9	-2.0048735
28	0xbd48363a	-0.04887984
29	0xbefddbb3	-0.4958168
30	0xc0001f73	-2.0019195
31	0x4124b6c7	10.294623
32	0xc0018422	-2.0236897
33	0xbffe42fb	-1.9864191
34	0xbebc6571	-0.36796144
35	0xbf17ebed	-0.5934437
36	0xbe12fe92	-0.14354923
37	0xbdd5b43e	-0.10434769
38	0xbef083d8	-0.4697559
39	0x3e5a5c5c	0.21324295
40	0xbf1ac2f1	-0.60453707
41	0xbf5d97ef	-0.8655996
42	0xc028536c	-2.6300917
43	0xbeeb4bfe	-0.45956415
44	0xbed26d41	-0.4109898
45	0xbf70c9fc	-0.94058204
46	0x3f884767	1.064679
47	0xbf0d26eb	-0.5513751
48	0xbebb52f7	-0.36586735
49	0xbfe29b52	-1.770365
50	0xbf0025b0	-0.50057507
51	0x3ee769e8	0.45197988
52	0xc0020494	-2.0315294
53	0xbef62b7f	-0.4808006
54	0xbf1b5ef8	-0.60691786
55	0xbf117299	-0.5681549
56	0xbf74b723	-0.95591944
57	0xbf2a3b6d	-0.66496927
58	0xbef4cda2	-0.47813135
59	0xbc8c6434	-0.017137624
60	0x3f9b9a7d	1.2156521
61	0xbfff1593	-1.9928459
62	0xc001e06c	-2.0293226
63	0xc000e89a	-2.0141969
64	0xbee84ca5	-0.45370975
65	0xbf13b6b8	-0.5770068
66	0xbf124a11	-0.57144266
67	0xbf049217	-0.51785415
68	0xbf487321	-0.7830067
69	0xbede8dad	-0.43467465
70	0xbf4067d7	-0.7515845
71	0xbf6eff3f	-0.93358225
72	0xbf1e14b9	-0.6175037
73	0xbd26312e	-0.040574245
74	0xbf683fa3	-0.907221
75	0x3f959ea2	1.1689036
76	0xbf0b2dc5	-0.54366714
77	0xbf8f6abf	-1.1204451
78	0xbf77b8a3	-0.9676611
79	0xbe1995c3	-0.14998536
80	0xbf196eb4	-0.59934545
81	0xbf1a60c9	-0.6030393
82	0xbfef64ff	-1.8702697
83	0xbf0f0a4e	-0.558751
84	0xbf200d39	-0.62520176
85	0xbf132843	-0.5748331
86	0xbf13fb24	-0.57805085
87	0xbff58f1f	-1.9184302
88	0xbed56394	-0.41677535
89	0x411738a2	9.451326
90	0x3f8bf942	1.0935442
91	0x3eb67d34	0.35642397
92	0x3f6ebd8a	0.93257964
93	0xbec92f8e	-0.39294094
94	0xc001adbc	-2.026229
95	0x3e00fd6e	0.12596676
96	0xbff2ec8b	-1.8978437
97	0xbfeb022b	-1.8360037
98	0xbf01b992	-0.5067378
99	0xbef498d3	-0.47772846
100	0xbf630727	-0.8868279
101	0xbffea606	-1.9894416
102	0xbf1d390b	-0.61415166
103	0xbf64d9d1	-0.8939486
104	0xbf0f07df	-0.55871385
105	0x3d331aa2	0.04372657
106	0xbf09bf2d	-0.53807336
107	0xbfd704eb	-1.6798376
108	0xbff87fc1	-1.9413987
109	0xbf0aba9a	-0.5419098
110	0xbed77198	-0.42078853
111	0xbf04d14d	-0.5188187
112	0xbf159d8c	-0.5844352
113	0xbf117e1b	-0.56833047
114	0xbe274a7a	-0.16337004
115	0xbee480a1	-0.44629386
116	0xbf0222b5	-0.5083421
117	0xbcb1fd25	-0.021727154
118	0xbda42e7e	-0.0801668
119	0x3f0d1779	0.5511394
120	0xbff9d723	-1.951878
121	0x3df7a15e	0.12091325
122	0x40084e5a	2.1297822
123	0xbf4cadc1	-0.7995263
124	0xbf14d6bd	-0.58140165
125	0xbff36728	-1.9015856
126	0xbf234e5e	-0.63791454
127	0xbf27e196	-0.6557859

nn.4.weight f4 [12, 128]
0	0x3f22f40a	0.63653624
1	0xbf12de48	-0.57370424
2	0xbf1354c4	-0.5755122
3	0xc0023dbb	-2.0350177
4	0x3ec4f215	0.38465944
5	0xbd3cd990	-0.04610592
6	0xc07dde68	-3.9666996
7	0x3ef80d3a	0.4844759
8	0xbe63d78b	-0.22250192
9	0xbedf497e	-0.43610758
10	0xbf095a86	-0.5365375
11	0x3f02932e	0.5100583
12	0xc028dbd6	-2.6384177
13	0xbf130c2b	-0.5744044
14	0x3f768993	0.9630367
15	0xbea2581c	-0.31707847
16	0x3f0277e0	0.50964165
17	0x3ed896f8	0.4230268
18	0x3f0c3f57	0.5478415
19	0xbe231107	-0.15924464
20	0x3ce63eb2	0.028106067
21	0x3eefb7c6	0.46819896
22	0xbff7083c	-1.9299388
23	0x4001c70e	2.0277743
24	0x3efe0a90	0.49617434
25	0x3effddeb	0.49973997
26	0x3fdfafdc	1.7475543
27	0xc00278d8	-2.0386257
28	0xbd119d84	-0.03555061
29	0x3ecb120c	0.39662206
30	0x3fa6f44a	1.3043301
31	0xbf67847f	-0.9043655
32	0x3fa98567	1.3243836
33	0xbff8e6de	-1.9445455
34	0xbe953a32	-0.29145962
35	0xbf275b0c	-0.653733
36	0xbf8c5626	-1.096379
37	0xbf94962d	-1.160833
38	0x3ec3d069	0.38244942
39	0xbe976f4f	-0.2957711
40	0xbf09965f	-0.53745073
41	0x3fce4bb0	1.6116848
42	0x3fa2a8ef	1.2707804
43	0x3e9ccaa3	0.3062335
44	0x3ef0f724	0.47063553
45	0xbd5e3d13	-0.054257464
46	0xbebadf01	-0.36498263
47	0x3ed1c5c7	0.40971205
48	0xbf19ad63	-0.6003019
49	0x3fe4ae85	1.7865759
50	0x3f07d82d	0.53064233
51	0xbdd90710	-0.1059705
52	0x3fa9950d	1.3248612
53	0xbf05c53d	-0.52254087
54	0xbf1cfe0e	-0.61325157
55	0xbf1ac8f3	-0.60462874
56	0xbe464434	-0.19361955
57	0xbf19a66e	-0.60019577
58	0xbedd1edd	-0.4318761
59	0xbd9f1ae1	-0.077687986
60	0xc02cd3ef	-2.7004354
61	0x3fa5900b	1.2934583
62	0xc0024fa6	-2.0361114
63	0x3fb2b007	1.3959969
64	0xbf07828b	-0.5293357
65	0x3f109023	0.56469935
66	0xbf13a0d1	-0.5766726
67	0xbef62227	-0.4807293
68	0x3ee14281	0.4399605
69	0x3adfcff9	0.001707553
70	0x3ecf6c5f	0.40512368
71	0xbf09d998	-0.53847647
72	0xbf059440	-0.52179337
73	0x3ce31d15	0.027723828
74	0xbe764afa	-0.24052039
75	0xbe95c9e0	-0.2925558
76	0x3f0738ec	0.5282123
77	0x3f231b99	0.63713986
78	0xbea6f7a0	-0.32610798
79	0xbf69cce7	-0.9132828
80	0xbf29d5c8	-0.6634183
81	0xbf18971b	-0.5960557
82	0xbff81231	-1.9380552
83	0xbf2ca2b0	-0.6743574
84	0x3f1af797	0.6053404
85	0x3ed3f06c	0.41394365
86	0xbe947f61	-0.29003432
87	0xbfffeb0a	-1.9993603
88	0x3ed2ace6	0.41147536
89	0xbf420c8d	-0.758004
90	0xbeec46c5	-0.46147743
91	0xbe375ff5	-0.17907698
92	0xc01a365e	-2.4095683
93	0x3eb98b6f	0.36239192
94	0xbfef38bb	-1.8689188
95	0xbd315fc7	-0.04330423
96	0xc0011366	-2.016809
97	0x3fda5d4b	1.7059721
98	0xbee5c7f7	-0.44879124
99	0x3f01fa1a	0.5077225
100	0x3dfce377	0.12348073
101	0xc0011652	-2.0169873
102	0xbf0eabd7	-0.55730957
103	0xbe8291df	-0.25501916
104	0xbf2fdab6	-0.686931
105	0xbe16e8a0	-0.14737177
106	0x3f02920f	0.5100412
107	0xbfd00eee	-1.6254556
108	0xbffd64f0	-1.9796429
109	0x3ee9c684	0.45659268
110	0x3f09416a	0.5361544
111	0xbf2352bc	-0.6379812
112	0xbf03869c	-0.5137727
113	0xbf2b4f6a	-0.6691805
114	0xbf686ff9	-0.90795857
115	0xbee4050c	-0.445351
116	0x3f09d15e	0.53835094
117	0xbd908983	-0.07057478
118	0x3ecaff46	0.39647883
119	0xbe77ad56	-0.24187216
120	0x3ff52bec	1.9154029
121	0xbe44b1d4	-0.19208461
122	0xc06b301a	-3.674811
123	0x3eba4a32	0.36384732
124	0xbf0ac802	-0.5421144
125	0x4000c049	2.0117362
126	0x3f0ddb21	0.5541249
127	0x3e8e850b	0.2783588
128	0x3f1be180	0.6089096
129	0xbeea8a51	-0.45808652
130	0xbf162b62	-0.58659947
131	0xbff057b0	-1.877676
132	0x3ecd708b	0.40124926
133	0xbd920433	-0.07129707
134	0xc078fa1b	-3.8902652
135	0x3eda917c	0.4268912
136	0xbe916720	-0.2839899
137	0xbeeb0fed	-0.45910588
138	0xbf063a82	-0.52433026
139	0x3ed53670	0.41643095
140	0xc02d44bb	-2.70732
141	0xbf0fa22c	-0.5610683
142	0x3f8f7ede	1.1210592
143	0xbe21931c	-0.15778774
144	0x3efc534b	0.49282297
145	0x3edbdeaa	0.42943317
146	0x3ee0b1fc	0.4388579
147	0x3e4e381e	0.20138595
148	0x3d0396ee	0.03212636
149	0x3eee222b	0.46510443
150	0xbff4047a	-1.9063866
151	0x3ff210ca	1.8911374
152	0x3eface4f	0.48985526
153	0x3ee0328a	0.43788558
154	0x3fe51208	1.7896128
155	0xbffe548c	-1.9869552
156	0xbd5b1465	-0.053486247
157	0x3f023f90	0.5087824
158	0x3fac759f	1.3473395
159	0xbf987807	-1.191163
160	0x3facd05b	1.3501085
161	0xbff11c8d	-1.8836838
162	0xbe1de4d8	-0.15419328
163	0xbf037d76	-0.51363313
164	0xbf4423db	-0.7661721
165	0xbf61f867	-0.88269657
166	0x3ee2d2a2	0.44301325
167	0xbe183b07	-0.14866267
168	0xbf0ec409	-0.55767876
169	0x3ff3cb21	1.9046365
170	0x3fb44d4e	1.4086092
171	0x3e90f723	0.2831355
172	0x3efe1ca1	0.49631217
173	0xbcbfcd06	-0.023413192
174	0xbecf0310	-0.40432024
175	0x3eefc13f	0.46827123
176	0xbf334826	-0.70031965
177	0x3fd7f6c7	1.6872185
178	0x3ebed478	0.37271476
179	0xbde08771	-0.109633334
180	0x3f9fa3bb	1.2471842
181	0xbf07179f	-0.5277042
182	0xbf1dee62	-0.6169187
183	0xbf0b0b71	-0.54314333
184	0xbdb89ffa	-0.09014888
185	0xbf2b89f9	-0.67007405
186	0xbf0cd1d5	-0.5500768
187	0x3d503c0d	0.05083852
188	0xc02f1630	-2.7357292
189	0x3faec29f	1.3653144
190	0xbff22deb	-1.8920263
191	0x3fa94866	1.3225219
192	0xbf057916	-0.5213789
193	0x3f0ab140	0.5417671
194	0xbeff20de	-0.49829763
195	0xbf1db30d	-0.61601335
196	0x3ec51090	0.384892
197	0x3d2a0074	0.04150434
198	0x3f0453d1	0.51690394
199	0xbf268798	-0.6505065
200	0xbefad6cd	-0.48992005
201	0xbbfb467a	-0.0076683136
202	0xbe79dc7c	-0.24400514
203	0xbe93a961	-0.28840163
204	0x3ef346bb	0.475149
205	0x3f02c151	0.5107623
206	0xbe8b916e	-0.27259392
207	0xbf6d1de0	-0.9262371
208	0xbf1bc68f	-0.6084985
209	0xbf1afceb	-0.6054217
210	0xbff760cf	-1.9326419
211	0xbf17f642	-0.59360135
212	0x3f14f0d3	0.5817997
213	0x3ee5a1dd	0.44850054
214	0x3ca435d0	0.020045191
215	0xbff535c8	-1.9157038
216	0x3ec1fc59	0.37887838
217	0xbf7c7480	-0.98615265
218	0xbf1a0a6e	-0.60172164
219	0xbdbade0f	-0.091243856
220	0xc0200e14	-2.5008593
221	0x3ee72bfe	0.4515075
222	0xbfef7ad4	-1.8709359
223	0xbcb68b85	-0.022283325
224	0xbfefdacd	-1.8738648
225	0x3fce9a45	1.6140829
226	0xbef60470	-0.4805026
227	0x3f0266be	0.5093802
228	0x3e13ede8	0.14446223
229	0xbff59a1e	-1.9187658
230	0xbf077b76	-0.5292276
231	0xbea2e417	-0.31814644
232	0xbf03fa34	-0.51553655
233	0xbdbdcb07	-0.0926724
234	0x3f16d5e3	0.58920115
235	0xbfdeda09	-1.7410289
236	0xbff0c307	-1.8809518
237	0x3ee6a67f	0.450489
238	0x3ec7c1b3	0.39014968
239	0xbed3d339	-0.41372088
240	0xbf13bef3	-0.5771324
241	0xbf1384fb	-0.5762479
242	0xbf790da4	-0.9728644
243	0xbef257d2	-0.47332627
244	0x3edb1cd6	0.42795438
245	0x3daf1695	0.08549229
246	0x3eb24f93	0.34826335
247	0xbe4d403f	-0.20044039
248	0x3fef8145	1.8711325
249	0xbdc4d7f8	-0.09611505
250	0xc055322f	-3.331188
251	0x3ecd5ec6	0.4011137
252	0xbf085bb6	-0.5326494
253	0x3ff51451	1.9146825
254	0x3f1ed211	0.62039286
255	0x3ec93b8b	0.3930324

nn.4.bias f4 [12]
0	0xbf7f219c	-0.9966066
1	0xbfa42f46	-1.2826927
2	0xbed58d90	-0.41709566
3	0xbf519a25	-0.8187583
4	0xbf1a313b	-0.6023137
5	0xbf22dd70	-0.63619137
6	0xc098ab33	-4.7708983
7	0xbf9c6f49	-1.2221462
8	0xbfdccdb3	-1.7250274
9	0xbf8f86c5	-1.1213003
10	0xbf9b78e7	-1.2146271
11	0xc009175d	-2.142051
