dynamics/src/dynamics/outputs/DDQN_RobotOptEnv/20230105-141350/models/model_max_eps.pkl (torch, 81367 bytes, 6 tensors)

nn.0.weight f4 [128, 9]
-0.1892399 0.109262586 0.2132996 0.16044974 0.32512397 -0.09701483 -0.26059556 -0.09372604
-0.0035404763 -0.12148281 -0.2945829 0.17218249 0.27291435 0.2827445 0.08118864 0.23875329
-0.28397152 0.28241742 -0.27142215 0.16506931 0.31905502 0.024238706 -0.23413846 -0.011494438
-0.32830974 -0.08189957 -0.3125229 0.20838647 0.2553462 -0.08759823 0.16440828 -0.1415259
-0.2484844 -0.2405793 0.09290273 -0.111622155 -0.02947249 0.029794779 -0.32811216 -0.053154755
0.028515834 0.022462891 0.2828375 0.27127114 0.1179775 0.27933344 -0.101042554 0.14913702
-0.18808596 0.02756524 0.32638392 -0.018691977 -0.3121513 0.07820928 0.2130129 0.18005809
0.1417052 -0.0816532 -0.12365329 0.24312787 0.066928506 -0.2923959 0.1386203 -0.010612136
0.06699684 0.079608224 0.06657985 -0.23415688 -0.3336247 0.26444167 0.21538924 0.1358657
-0.20722525 0.00044671696 -0.22270942 -0.06734288 -0.1281325 0.2543438 0.2313035 -0.19289255
-0.2331444 0.12658626 -0.035536435 -0.26380044 -0.11770042 -0.13804598 0.21377718 0.027698439
0.035418343 -0.03323682 0.32556093 0.07768949 -0.18291402 0.002998352 0.10504179 -0.26079413
0.2051712 -0.16821818 -0.06946691 -0.30168855 -0.33212635 0.2323271 0.19213764 0.08237557
-0.18101633 0.15616715 -0.12695643 0.1626842 0.18170413 0.20481758 0.32467082 0.22310731
-0.2893561 0.10555765 -0.3413289 0.044451177 -0.18289432 0.19470887 0.23812981 -0.096548
0.2789972 0.29749197 -0.20631489 -0.020419115 0.21495186 0.06969645 -0.31831908 -0.16360617
0.09755087 0.06582817 0.12446463 -0.3162024 -0.2570767 -0.17316334 0.19654965 -0.14284413
0.22708786 -0.12219493 0.051168602 -0.027929148 0.26701337 0.03328721 -0.12573895 0.08268201
-0.34159335 0.07788321 0.14231928 -0.17019866 0.29368633 0.29010105 -0.31744567 0.05074266
0.21333405 0.04972267 0.23523974 -0.1597272 0.06633436 0.032761205 -0.2256763 -0.1988687
-0.013002667 0.02309073 -0.06361127 0.35330078 -0.21043381 -0.24652718 -0.09671447 0.037350953
0.3472449 0.18707894 -0.24606663 -0.28491688 -0.12265436 -0.026062727 -0.053497396 0.26998734
0.06941025 0.15427554 -0.11606543 -0.03718702 -0.18623309 0.29168043 0.32161522 -0.0947276
-0.2413892 -0.121401034 -0.33018264 -0.17138335 0.2123029 -0.086734146 0.20115282 -0.31719398
-0.31523553 -0.15501706 0.13656789 0.0417159 0.013546724 -0.07891336 0.3262444 -0.24164534
0.32049388 -0.076555096 -0.20267777 0.031047981 -0.29906783 -0.08429202 0.15222311 -0.13402347
0.20497072 -0.1783875 0.07098214 0.18265092 0.20200245 -0.26643157 -0.24277358 -0.27301595
-0.25820422 -0.02129539 -0.13053255 -0.24380052 -0.2782907 0.24038813 0.07344583 0.2573254
-0.048708793 -0.13092348 0.13693774 0.08048209 0.13512592 0.33015725 -0.20015407 0.28819394
-0.103168845 -0.1465832 -0.22884224 0.12847565 -0.15204333 0.27770644 -0.2171867 0.21760342
-0.15135762 0.053546023 -0.15250388 0.19776818 0.2707945 0.19293079 -0.14271927 -0.16072258
-0.005548398 0.119391285 -0.19398749 -0.009148757 0.007314404 -0.16500008 -0.08521967 -0.05246246
00000000: 1bc8 41be 10c5 df3d 366b 5a3e f04c 243e
00000010: a676 a63e b6af c6bd c86c 85be 70f3 bfbd
00000020: 5607 68bb fbcb f8bd 92d3 96be 9b50 303e
00000030: 6ebb 8b3e e3c3 903e 3b46 a63d be7b 743e
00000040: b764 91be 0499 903e d8f7 8abe ee07 293e
00000050: 2e5b a33e 4090 c63c fec1 6fbe 2b53 3cbc
00000060: 3718 a8be f6ba a7bd 0003 a0be 4363 553e
00000070: bdbc 823e b366 b3bd a55a 283e 2aec 10be
00000080: b272 7ebe 6c5a 76be c943 be3d 289a e4bd
00000090: 4b70 f1bc 2e14 f43c 51fe a7be cdb8 59bd
000000a0: 0a9a e93c 1904 b83c 14d0 903e 0de4 8a3e
000000b0: 309e f13d cb04 8f3e 66ef cebd 60b7 183e
000000c0: 9b99 40be 80d0 e13c cb1b a73e eb1f 99bc
000000d0: 4cd2 9fbe 302c a03d 0e20 5a3e 2661 383e
000000e0: 2b1b 113e cb39 a7bd f03d fdbd 83f6 783e
000000f0: d011 893d eab4 95be 7bf2 0d3e 86de 2dbc
00000100: a435 893d a309 a33d 045b 883d d2c6 6fbe
00000110: dbd0 aabe e664 873e ff8e 5c3e 6120 0b3e
00000120: db32 54be 5635 ea39 f00d 64be 10eb 89bd
00000130: 2b35 03be 5a39 823e d3da 6c3e a085 45be
00000140: 68bd 6ebe d49f 013e a78e 11bd da10 87be
00000150: eb0c f1bd ed5b 0dbe 68e8 5a3e d6e7 e23c
00000160: d312 113d 5523 08bd ecaf a63e ab1b 9f3d
00000170: d04d 3bbe 0080 443b 2620 d73d cf86 85be
00000180: 6618 523e 6341 2cbe ab44 8ebd ec76 9abe
00000190: 770c aabe 28e7 6d3e bbbf 443e 86b4 a83d
000001a0: 585c 39be 48ea 1f3e de00 02be b096 263e
000001b0: a610 3a3e b3bb 513e 413b a63e 3e76 643e
000001c0: 7c26 94be 9c2e d83d a9c2 aebe 7012 363d
000001d0: a648 3bbe c361 473e 4dd8 733e f5ba c5bd
000001e0: b9d8 8e3e de50 983e 3644 53be fd45 a7bc
000001f0: 571c 5c3e 03bd 8e3d b8fa a2be 6088 27be
00000200: c0c8 c73d ebd0 863d 50e7 fe3d 48e5 a1be
00000210: 8f9f 83be bb51 31be 5044 493e bb45 12be
00000220: b889 683e 5641 fabd 2b96 513d abcb e4bc
00000230: fab5 883e 2b58 083d b6c1 00be 3055 a93d
00000240: 53e5 aebe 3b81 9f3d 25bc 113e 8f48 2ebe
00000250: 0e5e 963e 2088 943e 3d88 a2be 89d7 4f3d
00000260: 3e74 5a3e 00aa 4b3d b0e2 703e 878f 23be
00000270: 4fda 873d 9d30 063d b017 67be 3da4 4bbe
00000280: 2309 55bc c528 bd3c a046 82bd d7e3 b43e
00000290: f67b 57be 9f71 7cbe 3c12 c6bd 50fd 183d
000002a0: 15ca b13e 9f91 3f3e e4f8 7bbe a0e0 91be
000002b0: 3632 fbbd 8081 d5bc 1620 5bbd c83b 8a3e
000002c0: f626 8e3d 68fa 1d3e b6b3 edbd 6b51 18bd
000002d0: e3b3 3ebe 2357 953e c0aa a43e 8b00 c2bd
000002e0: bb2e 77be 1ba1 f8bd b30d a9be 1e7f 2fbe
000002f0: ee65 593e aca1 b1bd 01fb 4d3e 4067 a2be
00000300: 8d66 a1be cbbc 1ebe 74d8 0b3e 4bde 2a3d
00000310: 14f3 5d3c 549d a1bd 8209 a73e e071 77be
00000320: c617 a43e ebc8 9cbd c38a 4fbe 5658 fe3c
00000330: 6b1f 99be 4ba1 acbd 60e0 1b3e 733d 09be
00000340: d8e3 513e 36ab 36be 165f 913d d808 3b3e
00000350: bbd9 4e3e b869 88be a399 78be bfc8 8bbe
00000360: 5833 84be ab73 aebc 53aa 05be d8a6 79be
00000370: 1e7c 8ebe 4e28 763e c46a 963d 28c0 833e
00000380: df82 47bd ce10 06be 6839 0c3e cbd3 a43d
00000390: 735e 0a3e 5f0a a93e 30f5 4cbe 288e 933e
000003a0: 304a d3bd e819 16be 9f55 6abe 1f8f 033e
000003b0: 3fb1 1bbe 8a2f 8e3e 3166 5ebe 6ed3 5e3e
000003c0: 7efd 1abe 1353 5b3d fa29 1cbe be83 4a3e
000003d0: 94a5 8a3e a68f 453e 0025 12be 7694 24be
000003e0: 56cf b5bb 6b83 f43d a8a4 46be abe4 15bc
000003f0: abad ef3b c8f5 28be a687 aebd e0e2 56bd

nn.0.bias f4 [128]
-0.03702764 0.11861062 0.13727133 -0.24513592 0.058880847 0.032793485 0.28085697 -0.18922907
0.09394133 -0.3101473 0.063015185 -0.08117692 0.18906887 0.014437072 -0.25451863 -0.11024909
0.1941025 0.06441723 -0.03292997 -0.088922106 0.0689193 -0.25709516 -0.14580202 -0.16611084
0.2829615 0.020386975 0.19143851 0.19260526 0.039512396 0.3185162 -0.015510794 0.03634605
-0.1317519 0.21838206 -0.29287422 0.24237414 0.064466044 -0.32885146 -0.18516357 0.22406971
-0.017988352 0.09322333 0.12339306 -0.12061066 0.3015096 -0.24253157 -0.12271547 0.21084861
-0.33093855 0.27299452 0.22084042 -0.36180365 -0.09703247 -0.25035486 0.061297417 -0.13804404
0.1404814 0.20768492 -0.23640792 -0.13949367 -0.009947532 -0.22368395 -0.25246704 0.09783492
0.21182251 -0.21859857 -0.22942722 -0.17717576 0.13182876 -0.0068938336 0.20946853 0.10708698
-0.09508675 0.028091073 -0.20913753 -0.32091972 0.30729276 -0.32096535 0.24397834 0.11772582
0.17295131 0.14228992 -0.12845984 -0.117599055 0.18742403 -0.040466547 -0.20045404 0.2061089
-0.2768771 0.03275442 0.046464257 0.30884025 -0.021499097 0.19028468 0.33119267 -0.09060136
0.092808686 0.31154597 -0.27289322 0.26503906 -0.30258256 -0.06314262 -0.09243017 -0.038410127
0.25112116 -0.032777518 -0.20542908 0.030522149 0.15213875 -0.017156705 -0.014104526 -0.2893364
0.21798855 -0.1078474 -0.13514328 -0.1020277 -0.31575936 -0.0779889 0.2941435 0.10338122
-0.0054974905 -0.32835397 -0.27083823 -0.15592968 -0.21603465 -0.004969716 -0.12982357 0.15412371
00000000: 4baa 17bd 20ea f23d db90 0c3e e904 7bbe
00000010: 0b2d 713d 7652 063d 7ccc 8f3e 44c5 41be
00000020: 5064 c03d a0cb 9ebe 1b0e 813d 1640 a6bd
00000030: 459b 413e 7889 6c3c 4450 82be 46ca e1bd
00000040: cec2 463e 2eed 833d 94e1 06bd cb1c b6bd
00000050: 9025 8d3d faa1 83be 204d 15be f618 2abe
00000060: 54e0 903e 9602 a73c 7508 443e 503a 453e
00000070: c0d7 213d 8e14 a33e fc20 7ebc 99df 143d
00000080: f8e9 06be 8c9f 5f3e 9cf3 95be ed30 783e
00000090: c606 843d 385f a8be 859b 3dbe 8872 653e
000000a0: 4f5c 93bc e0eb be3d 80b5 fc3d b902 f7bd
000000b0: 775f 9a3e 325a 78be 4052 fbbd b3e8 573e
000000c0: c770 a9be f0c5 8b3e fe23 623e 543e b9be
000000d0: f6b8 c6bd 832e 80be 0013 7b3d 6b5b 0dbe
000000e0: 5bda 0f3e 5bab 543e eb14 72be 6ed7 0ebe
000000f0: f9fa 22bc 680d 65be 5c43 81be ad5d c83d
00000100: 00e8 583e 4ed8 5fbe f8ee 6abe 906d 35be
00000110: 1efe 063e abe5 e1bb eb7e 563e 6b50 db3d
00000120: d8bc c2bd 401f e63c 2628 56be 974f a4be
00000130: 7a55 9d3e 9255 a4be 75d5 793e 3c1a f13d
00000140: 261a 313e 73b4 113e fa8a 03be c6d7 f0bd
00000150: 16ec 3f3e 40c0 25bd d343 4dbe 360e 533e
00000160: d6c2 8dbe 8029 063d 4e51 3e3d 4f20 9e3e
00000170: e01e b0bc fdd9 423e 1692 a93e 358d b9bd
00000180: 7b12 be3d f482 9f3e a9b8 8bbe 33b3 873e
00000190: 1aec 9abe eb50 81bd 074c bdbd f053 1dbd
000001a0: f492 803e b841 06bd 005c 52be 9609 fa3c
000001b0: 43ca 1b3e 388c 8cbc ab16 67bc e723 94be
000001c0: 6438 5f3e 19df dcbd 0063 0abe e6f3 d0bd
000001d0: 36ab a1be a5b8 9fbd fa99 963e 88b9 d33d
000001e0: 4b24 b4bb 031e a8be 4fab 8abe 08ac 1fbe
000001f0: 3038 5dbe 00d9 a2bb 78f0 04be 9bd2 1d3e

nn.2.weight f4 [128, 128]
0.033924576 -0.073967315 -0.07385545 -0.06567133 -0.04532014 -0.023552617 0.06644571 0.06168795
-0.057354126 -0.046857223 -0.06222689 -0.02868879 -0.008579634 0.043964148 0.026925556 0.08811379
0.00048417615 0.0347624 0.06047805 -0.025754316 -0.045765765 -0.10667589 0.041682146 -0.08600621
-0.013972055 0.07173519 -0.033231784 -0.049956415 -0.058639806 0.010351645 -0.047981046 -0.0016266498
-0.06876216 0.0052543143 0.07498078 -0.039838392 0.04375178 0.041538384 -0.07806039 -0.079833254
0.025074909 -0.05501051 -0.039939437 0.043778986 -0.057631884 -0.04697348 0.001647025 -0.049964845
0.06952565 0.014451686 0.0014790854 0.062270004 -0.028853785 0.010587681 0.06827872 0.028941978
-0.048143268 0.04186718 -0.042869423 -0.091515675 -0.08367031 0.05664572 0.04470733 0.067533925
-0.009176865 0.0034571795 0.06209945 0.052912597 -0.026199503 0.014073834 -0.07741125 -0.07733876
-0.028495487 -0.049269054 0.0003223075 -0.06868476 -0.10503445 -0.07770614 0.023432676 -0.05066389
-0.0643294 0.047679484 -0.0642932 0.038516708 -0.02832303 -0.066936515 0.009968336 -0.029236216
-0.05063171 -0.050118122 0.040304016 0.06513105 -0.015495926 0.06301415 -0.017347379 -0.029953295
0.06756562 0.045734156 0.016243245 0.05156823 -0.037022557 0.04812749 -0.026155362 -0.07007344
0.020819873 0.011559672 -0.09011223 0.01836039 0.03464435 -0.01952015 -0.030809324 -0.049229067
-0.04355886 -0.015224726 0.009080549 0.011985731 -0.052634574 0.06555648 -0.050390676 -0.020388475
-0.03759429 -0.058080982 -0.051670022 -0.060104042 -0.071292 -0.04270243 0.072222814 0.032004323
0.08297708 0.043572117 0.034759317 -0.046715036 0.009943119 0.008090351 0.039066684 -0.049268063
-0.04029933 0.024406873 -0.03315542 0.050896164 0.07020639 0.0166991 -0.08759295 -0.05182037
0.02843705 0.04885076 0.05635799 0.014770636 -0.012053429 -0.05215837 -0.025065921 -0.060761686
0.028593333 -0.0746844 0.048412856 -0.011042137 0.080530316 -0.07453103 -0.033006664 -0.037093893
0.040229652 0.01569102 -0.05443645 0.013280685 -0.016091518 0.05806933 0.04689817 -0.026533537
-0.079257235 -0.0812726 0.027095672 0.069759026 0.002056176 -0.0312803 -0.021075226 0.017009761
0.084320955 -0.022596741 0.07478754 -0.05497577 -0.03877036 0.05048099 0.0007278339 -0.003157705
0.06777258 0.008225041 -0.033134576 -0.06795685 -0.064778715 0.005952989 -0.021108754 0.022582022
-0.012671365 0.06886269 0.00417336 -0.07078328 0.02558712 -0.0059262156 -0.060164884 -0.08164303
0.03825203 -0.01919809 0.027377613 -0.018867731 -0.071138166 0.050650597 -0.0141528165 -0.03400956
0.059246287 -0.053609695 0.0487246 0.08153976 -0.041057646 -0.006485304 -0.038429655 -0.011603159
-0.07733683 0.07598517 -0.0011597741 0.008895218 -0.015447007 0.008195652 0.06050178 -0.083221644
-0.069287 0.027723068 0.028479587 0.06636157 0.015632024 -0.089858 0.0540424 -0.09197979
0.019968195 0.05298087 0.06991443 0.07296859 -0.058006845 0.02818381 -0.08680171 0.011180589
-0.08245577 -0.042667415 0.037471298 -0.07946189 0.028245352 0.073678955 0.071218155 -0.08313393
-0.021433664 0.00672843 -0.0636741 -0.0041203015 -0.07896732 0.02315943 -0.0144316815 -0.08234147
00000000: 7ff4 0a3d 2d7c 97bd 8741 97bd b17e 86bd
00000010: 9ca1 39bd 6bf1 c0bc b014 883d 81ac 7c3d
00000020: 29ec 6abd 5ced 3fbd a0e1 7ebd c104 ebbc
00000030: 9891 0cbc c013 343d fc92 dc3c 0175 b43d
00000040: 06d9 fd39 0563 0e3d d5b7 773d b7fa d2bc
00000050: e274 3bbd e478 dabd e6ba 2a3d 0624 b0bd
00000060: 0ceb 64bc e6e9 923d 0d1e 08bd 199f 4cbd
00000070: 4b30 70bd f299 293c c687 44bd 4f35 d5ba
00000080: 2dd3 8cbd 622c ac3b 868f 993d 952d 23bd
00000090: 1135 333d 2724 2a3d 20de 9fbd 9e7f a3bd
000000a0: e569 cd3c b352 61bd 8997 23bd 9851 333d
000000b0: 690f 6cbd 4467 40bd fde0 d73a f0a7 4cbd
000000c0: 7763 8e3d c4c6 6c3c dfdd c13a d50e 7f3d
000000d0: c65e ecbc f477 2d3c b7d5 8b3d ba17 ed3c
000000e0: e031 45bd ec7c 2b3d d997 2fbd 926c bbbd
000000f0: 575b abbd 5805 683d 091f 373d 3a4f 8a3d
00000100: 905a 16bc d991 623b fe5b 7e3d e1ba 583d
00000110: 57a0 d6bc f095 663c ca89 9ebd c963 9ebd
00000120: 5e6f e9bc 59ce 49bd 61fb a839 98aa 8cbd
00000130: 4d1c d7bd 6624 9fbd e2f5 bf3c f084 4fbd
00000140: 22bf 83bd 904b 433d 27ac 83bd b2c3 1d3d
00000150: b305 e8bc 0316 89bd 3b52 233c ca80 efbc
00000160: 3263 4fbd a948 4dbd d315 253d 6e63 853d
00000170: a0e2 7dbc 900d 813d 171c 8ebc 9d60 f5bc
00000180: d85f 8a3d bd53 3b3d 8e10 853c 3539 533d
00000190: f7a4 17bd 5521 453d c543 d6bc aa82 8fbd
000001a0: 708e aa3c c764 3d3c c38c b8bd 8768 963c
000001b0: 3ce7 0d3d b9e8 9fbc d663 fcbc 6ba4 49bd
000001c0: c66a 32bd 2171 79bc 95c6 143c cd5f 443c
000001d0: 5a97 57bd 7a42 863d 7466 4ebd bb05 a7bc
000001e0: 78fc 19bd 53e6 6dbd f2a3 53bd a82f 76bd
000001f0: 8a01 92bd bee8 2ebd 8ee9 933d f716 033d
00000200: e3ef a93d ad78 323d c95f 0e3d 4458 3fbd
00000210: 77e8 223c 648d 043c 6304 203d 4fcd 49bd
00000220: e910 25bd ecf0 c73c facd 07bd 7f78 503d
00000230: 5ec8 8f3d 8dcc 883c ef63 b3bd 9941 54bd
00000240: d1f4 e83c bc17 483d a3d7 663d 8a00 723c
00000250: bf7b 45bc 04a4 55bd 0c57 cdbc 3fe1 78bd
00000260: 913c ea3c 22f4 98bd 8f4c 463d 14ea 34bc
00000270: 14ed a43d baa3 98bd ff31 07bd c4ef 17bd
00000280: d9c7 243d 748a 803c c1f8 5ebd 3b97 593c
00000290: 5cd2 83bc 1bda 6d3d 4c18 403d dc5c d9bc
000002a0: 9e51 a2bd 4072 a6bd bef7 dd3c d2dd 8e3d
000002b0: e9c0 063b c61f 00bd f4a5 acbc 0e58 8b3c
000002c0: 77b0 ac3d cd1c b9bc 362a 993d 462e 61bd
000002d0: abcd 1ebd 28c5 4e3d 1bcc 3e3a 80f1 4ebb
000002e0: 5acc 8a3d 53c2 063c 1fb8 07bd f62c 8bbd
000002f0: b4aa 84bd 4b11 c33b 44ec acbc effd b83c
00000300: 8f9b 4fbc e207 8d3d aec0 883b d3f6 90bd
00000310: 149c d13c b330 c2bb 746f 76bd 7634 a7bd
00000320: 29ae 1c3d 5045 9dbc 0447 e03c 8090 9abc
00000330: e3b0 91bd 0077 4f3d 37e1 67bc 9c4d 0bbd
00000340: 3cac 723d d795 5bbd 7293 473d 51fe a63d
00000350: 102c 28bd ac82 d4bb 6a68 1dbd 2d1b 3ebc
00000360: c662 9ebd 1d9e 9b3d 9003 98ba 40bd 113c
00000370: 7115 7dbc 0e47 063c b7d0 773d 1c70 aabd
00000380: 58e6 8dbd 7d1b e33c 064e e93c 93e8 873d
00000390: bb0e 803c 7907 b8bd 905b 5d3d e65f bcbd
000003a0: 5794 a33c 7802 593d 4c2f 8f3d 8e70 953d
000003b0: 9698 6dbd bce1 e63c 18c5 b1bd ca2e 373c
000003c0: 92de a8bd 07c4 2ebd 817b 193d eabc a2bd
000003d0: cc62 e73c fee4 963d d3da 913d 1f42 aabd
000003e0: a795 afbc 297a dc3b 9167 82bd 9803 87bb
000003f0: 9eb9 a1bd d8b8 bd3c dc72 6cbc a5a2 a8bd

nn.2.bias f4 [128]
0.05899934 -0.04454253 0.06429168 -0.06520849 -0.047989633 -0.05333062 -0.01112296 -0.07299536
0.0748916 -0.08199568 0.032073226 0.012749084 0.009758139 0.041068647 -0.07571617 0.004158503
-0.055774145 -0.0012605254 0.048165597 0.07855982 -0.08829917 -0.0055936873 0.060072873 0.08272303
-3.9015704e-05 0.05008097 -0.03405047 -0.08014132 0.003102166 -0.029471457 -0.0113357855 -0.02395955
-0.0341099 -0.009622607 -0.05527495 -0.021651616 -0.03955512 -0.05051163 -0.09345338 -0.07685308
-0.033264063 -0.0005146973 -0.030293817 0.010635141 -0.026648398 -0.04271783 -0.0372296 -0.038227633
-0.008000408 0.04506126 -0.01801788 -0.059742555 -0.0019715452 0.008984212 -0.009740108 -0.09641498
0.03724763 -0.009674082 -0.04136951 0.063935146 0.06735773 0.078260034 -0.06722874 0.011043975
0.020760072 0.030368991 0.02847971 -0.073203705 -0.020188924 -0.06458373 -0.030348934 -0.039292138
-0.049541384 -0.062521905 -0.024270536 -0.064787656 -0.012383266 -0.097102374 0.08760702 -0.08976263
-0.002074826 0.06427504 0.020362835 -0.044381253 0.055007275 -0.008583657 0.019973285 0.024764687
-0.06865382 -0.023838174 -0.020438187 -0.071477816 -0.07573046 0.061858065 0.025254097 -0.09348343
0.046262246 0.026546577 0.07536822 0.06677213 -0.0038910392 -0.057264227 0.014286981 0.08599548
-0.08203397 -0.044345465 0.0061884806 0.02690247 0.004196119 0.03359889 0.07372873 -0.05624357
-0.009863122 0.02311087 0.049845975 -0.035933487 0.019126713 0.054916512 0.03568564 -0.031204335
-0.0110680675 -0.05007621 0.08434204 0.04698817 -0.050165016 0.05131 -0.031458125 -0.08433205
00000000: 4ba9 713d 3a72 36bd 5bab 833d 078c 85bd
00000010: c790 44bd 3571 5abd 133d 36bc 977e 95bd
00000020: c460 993d 5aed a7bd 375f 033d 89e1 503c
00000030: 9ae0 1f3c 9937 283d 1411 9bbd 0d44 883b
00000040: 6e73 64bd 3738 a5ba 4a49 453d f9e3 a03d
00000050: 32d6 b4bd 404b b7bb f90e 763d b16a a93d
00000060: cba4 23b8 b421 4d3d 8178 0bbd 2221 a4bd
00000070: b64d 4b3b 206e f1bc bbb9 39bc d146 c4bc
00000080: d3b6 0bbd 24a8 1dbc fc67 62bd bb5e b1bc
00000090: 8d04 22bd 48e5 4ebd 7c64 bfbd 2665 9dbd
000000a0: e63f 08bd c0ec 06ba bd2a f8bc 043f 2e3c
000000b0: be4d dabc e4f8 2ebd 117e 18bd 9494 1cbd
000000c0: 2514 03bc 2892 383d 3c9a 93bc 9cb4 74bd
000000d0: 0a35 01bb 8432 133c f994 1fbc 3875 c5bd
000000e0: f990 183d 0a80 1ebc 1373 29bd 6ef0 823d
000000f0: d9f2 893d cc46 a03d 39af 89bd caf1 343c
00000100: 0711 aa3c 64c8 f83c 484e e93c d3eb 95bd
00000110: 3e63 a5bc 7a44 84bd 549e f8bc cbf0 20bd
00000120: e8eb 4abd 7c0b 80bd 01d3 c6bc 64af 84bd
00000130: 2fe3 4abc 9cdd c6bd 4f6b b33d 78d5 b7bd
00000140: cef9 07bb a2a2 833d f6cf a63c 1ec9 35bd
00000150: 4f4f 613d 78a2 0cbc 049f a33c 50df ca3c
00000160: 609a 8cbd 4648 c3bc fc6d a7bc f662 92bd
00000170: 9218 9bbd e25e 7d3d aee1 ce3c 3e74 bfbd
00000180: 7b7d 3d3d 3578 d93c a75a 9a3d d4bf 883d
00000190: ce00 7fbb e58d 6abd f113 6a3c 661e b03d
000001a0: 6d01 a8bd 97a3 35bd bdc8 ca3b 9262 dc3c
000001b0: 997f 893b fd9e 093d 17ff 963d a85f 66bd
000001c0: ef98 21bc 0253 bd3c 4b2b 4c3d fe2e 13bd
000001d0: a0af 9c3c 23f0 603d 1b2b 123d 3ca0 ffbc
000001e0: d756 35bc b61c 4dbd 85bb ac3d ab76 403d
000001f0: d579 4dbd 6f2a 523d 3cda 00bd 48b6 acbd

nn.4.weight f4 [16, 128]
0.0045155347 0.017574659 -0.01012406 0.001960649 -0.02288519 -0.05848913 0.0823298 -0.062367324
0.0235146 -0.02432977 -0.061730906 0.08587005 0.042430185 -0.08609893 0.06782133 -0.067149
-0.05321447 -0.07259789 0.084669 0.01674398 -0.044213403 0.023199786 -0.009993113 -0.041638557
0.026217144 0.017085267 0.016582571 0.065233305 0.081755556 -0.026691461 -0.052138604 0.05562214
0.09299164 0.06657839 -0.039425332 0.057693746 -0.04047805 0.02639479 0.07970006 0.06833578
0.025984753 -0.0860429 -0.014923524 -0.02993139 -0.08192413 0.04157278 0.05941557 -0.0639457
0.0065315226 -0.087868854 0.051161222 0.05406914 0.08268158 0.062961996 -0.059469864 0.055249386
0.041396454 -0.06270204 0.006755428 -0.08667684 0.026984043 0.048749965 0.014432777 0.04566448
-0.016260644 0.062418565 -0.045104038 -0.03360796 0.008493614 -0.03538105 0.08192494 -0.058625147
-0.067709915 0.021953676 -0.060511854 0.04717852 -0.027563345 -0.06590976 0.07268277 0.08176463
-0.04443052 0.051117152 -0.005878754 0.024507243 -0.070364654 0.07617236 0.03593708 0.056419846
0.07561231 -0.052962773 -0.028332006 -0.0019842035 -0.043318618 0.015507701 -0.0019515782 0.020281915
0.04017293 0.07937424 0.036711242 0.022846242 -0.009407029 -0.003850793 -0.037580818 0.04541012
-0.07436648 -0.010493033 -0.004835187 0.004445892 0.063419566 -0.056855034 -0.064364225 -0.06407185
-0.07025768 -0.09042144 0.04950289 0.020298649 0.08391347 -0.038878698 -0.054096587 0.038182758
0.07222324 -0.08177125 0.032565393 -0.0665979 0.025162412 -0.015971916 0.028130628 -0.075110056
-0.02794875 -0.020311613 -0.016192736 -0.047060754 0.04184027 0.018299855 0.05375477 0.078271754
0.086103745 -0.01736548 -0.048605148 0.07825013 -0.019374326 0.0464569 -0.0625425 0.050042935
0.001413679 -0.06340726 -0.079834156 0.03617067 -0.041761134 -0.07868136 -0.07379433 -0.043759365
0.04189859 -0.03895537 -0.05813442 0.01776025 -0.011594692 0.03855151 -0.010086171 0.093329445
-0.018592319 0.050614975 -0.017679729 -0.004387424 -0.022927105 0.03420417 0.018610753 -0.031527895
-0.021951003 0.0632275 0.03598047 -0.061223697 -0.082744494 0.034629554 -0.019539198 0.057489008
0.093045555 -0.026858237 0.027329167 -0.0852224 -0.051195588 0.039057568 -0.03349597 -0.049256757
0.021846361 0.032626458 -0.043690473 0.029325724 0.025875451 -0.006731747 0.037400912 -0.013299217
0.0410041 -0.015028705 0.037068676 -0.040662017 -0.016933732 -0.08306601 -0.0808295 -0.07605877
0.016702669 0.07450441 -0.074339725 -0.008543934 0.004735903 0.076656416 0.0058915075 0.03366286
0.04431365 -0.010292376 0.087233916 0.021495545 -0.0042912527 -0.0019002511 -0.06589019 0.05613644
-0.04429914 0.03044074 -0.08247551 -0.033345398 0.076704286 -0.0113809975 0.06541232 -0.052986857
0.016600326 0.07128118 0.059814155 0.049618628 -0.06661811 0.04511574 -0.035679813 -0.028497906
-0.029651867 0.028759833 -0.047329195 -0.028209845 0.031783096 -0.049752448 0.04386215 0.07206624
0.041401327 0.060732123 -0.035803523 -0.06441116 -0.020574901 -0.015915846 0.018078152 -0.017893275
0.05675519 0.08514837 -0.04159858 0.06279747 -0.066611014 0.054207694 0.02055957 0.07194269
00000000: 0df7 933b bbf8 8f3c 63df 25bc 3b7e 003b
00000010: b979 bbbc 4c92 6fbd 879c a83d e174 7fbd
00000020: b1a1 c03c 3a4f c7bc 8cd9 7cbd a3dc af3d
00000030: 46cb 2d3d a354 b0bd e9e5 8a3d 6a85 89bd
00000040: 6bf7 59bd 34ae 94bd f166 ad3d ac2a 893c
00000050: 1d19 35bd 7a0d be3c 27ba 23bc 318d 2abd
00000060: 56c5 d63c 67f6 8b3c 2cd8 873c 0a99 853d
00000070: 756f a73d 0da8 dabc 4a8f 55bd 0bd4 633d
00000080: 6772 be3d 405a 883d 757c 21bd 4750 6c3d
00000090: 50cc 25bd e339 d83c c939 a33d a1f3 8b3d
000000a0: fadd d43c 4337 b0bd cc81 74bc ad32 f5bc
000000b0: d7c7 a7bd 3848 2a3d be5d 733d f7f5 82bd
000000c0: 6206 d63b 96f4 b3bd 6e8e 513d 9a77 5d3d
000000d0: f654 a93d 38f2 803d ac96 73bd 2e4d 623d
000000e0: 548f 293d ed69 80bd a35c dd3b a183 b1bd
000000f0: a40d dd3c 0bae 473d 7477 6c3c ae0a 3b3d
00000100: 0b35 85bc 9caa 7f3d 03bf 38bd 80a8 09bd
00000110: cd28 0b3c b8eb 10bd 43c8 a73d ec20 70bd
00000120: 7fab 8abd 32d8 b33c 47db 77bd 443e 413d
00000130: 86cc e1bc b2fb 86bd b4da 943d 3774 a73d
00000140: c7fc 35bd 3860 513d 90a2 c0bb 6ac3 c83c
00000150: 581b 90bd 4100 9c3d c232 133d 7f18 673d
00000160: a0da 9a3d 7eef 58bd 8618 e8bc 6909 02bb
00000170: dd6e 31bd 0314 7e3c 19cc ffba 4226 a63c
00000180: 5f8c 243d f68e a23d 875e 163d 0b28 bb3c
00000190: f01f 1abc 965d 7cbb 58ee 19bd f6ff 393d
000001a0: 744d 98bd f8ea 2bbc 7d70 9ebb d8ae 913b
000001b0: 1ee2 813d d3e0 68bd 64d1 83bd 1a38 83bd
000001c0: 42e3 8fbd e02e b9bd 8bc3 4a3d 5a49 a63c
000001d0: d3da ab3d 453f 1fbd 6294 5dbd 8665 1c3d
000001e0: c7e9 933d af77 a7bd 4a63 053d 7b64 88bd
000001f0: 6721 ce3c 89d7 82bc 3472 e63c 4dd3 99bd
00000200: c7f4 e4bc 8a64 a6bc a1a6 84bc c7c2 40bd
00000210: b460 2b3d 94e9 953c f62d 5c3d f14c a03d
00000220: 2957 b03d 0d42 8ebc 3116 47bd 9b41 a03d
00000230: e8b6 9ebc 9749 3e3d 4816 80bd d2f9 4c3d
00000240: 324b b93a aadb 81bd 1780 a3bd b227 143d
00000250: b90d 2bbd b123 a1bd 7b21 97bd 053d 33bd
00000260: db9d 2b3d ab8f 1fbd 5c1e 6ebd f27d 913c
00000270: aaf7 3dbc 30e8 1d3d 7840 25bc 8223 bf3d
00000280: eb4e 98bc a651 4f3d 14d5 90bc 61c4 8fbb
00000290: a0d1 bbbc ac19 0c3d 9475 983c 6523 01bd
000002a0: 97d2 b3bc 6b7d 813d 4260 133d b3c5 7abd
000002b0: f275 a9bd b8d7 0d3d ab10 a0bc 9879 6b3d
000002c0: ab8e be3d ce05 dcbc 6be1 df3c 1589 aebd
000002d0: 77b2 51bd d4fa 1f3d 1233 09bd 74c1 49bd
000002e0: 24f7 b23c 52a3 053d c8f4 32bd 803c f03c
000002f0: c1f8 d33c fd95 dcbb b331 193d f6e4 59bc
00000300: eaf3 273d f53a 76bc 53d5 173d 378d 26bd
00000310: 9cb8 8abc 831e aabd f089 a5bd b3c4 9bbd
00000320: 09d4 883c c595 983d 6d3f 98bd dbfb 0bbc
00000330: a22f 9b3b 0afe 9c3d 8c0d c13b 11e2 093d
00000340: 3b82 353d 5ba1 28bc b2a7 b23d 6d17 b03c
00000350: a39d 8cbb d911 f9ba 70f1 86bd 53ef 653d
00000360: 0473 35bd dc5e f93c ece8 a8bd 2f95 08bd
00000370: 2317 9d3d 5d77 3abc e5f6 853d bf08 59bd
00000380: 68fd 873c defb 913d b0ff 743d e73c 4b3d
00000390: 136f 88bd 48cb 383d ff24 12bd 7174 e9bc
000003a0: 79e8 f2bc be99 eb3c 42dc 41bd 5518 e7bc
000003b0: fe2e 023d 39c9 4bbd cca8 333d 7797 933d
000003c0: 7094 293d 3fc2 783d b7a6 12bd 00ea 83bd
000003d0: b28c a8bc f361 82bc a218 943c eb94 92bc
000003e0: 2178 683d 4562 ae3d 4663 2abd f69b 803d
000003f0: 5b6b 88bd e308 5e3d 8b6c a83c b056 933d

nn.4.bias f4 [16]
-0.05071565 -0.062336784 0.04313403 -0.10608511 -0.0077984817 -0.016308887 -0.048108965 -0.078292996
-0.08192587 0.02481637 -0.04063705 -0.073922515 0.006749443 -0.0218989 0.015817117 0.007541137
00000000: 37bb 4fbd db54 7fbd 4fad 303d 2643 d9bd
00000010: 688a ffbb 379a 85bc e80d 45bd 1458 a0bd
00000020: c0c8 a7bd b34b cb3c 0973 26bd b064 97bd
00000030: 6e2a dd3b 5265 b3bc e692 813c a41b f73b
